專題/HW3_104061101/part2/model_pretrained/net_F16B2_epoch_15.pth (torch_old, 132742 bytes, 16 tensors)

weight f4 [16, 3, 3, 3]
0.14743727 -0.14278872 -0.16439706 -0.15028456 0.15415311 0.13115472 -0.1351532 0.17247418
-0.09002995 -0.16522905 -0.07418431 -0.022758875 -0.13606337 0.105476476 0.16737707 0.09523456
-0.14790232 0.1440919 0.026820177 0.095289625 0.16429955 -0.06059179 -0.09520985 0.074041165
-0.08771155 -0.16327396 0.07714662 0.10664247 0.056619357 -0.15319817 -0.034751773 -0.06544104
-0.0942914 -0.026646992 0.14407177 -0.15671656 -0.0019712371 0.094404295 0.049681034 0.17926073
0.011548485 -0.14965509 -0.120971955 -0.0130310515 0.010133733 0.034516964 -0.03197257 -0.075743295
-0.13746256 0.052067216 0.0017909609 -0.104278415 -0.14341754 -0.05325754 -0.009538538 0.19169308
0.17962894 -0.032258775 0.12463374 0.19064447 0.016647225 -0.17052205 0.15434426 -0.046702206
-0.16758642 -0.026446275 0.081950754 -0.043677293 0.012123257 -0.07776466 -0.14233977 -0.14006989
0.0939336 0.16639642 -0.0015581166 -0.09622357 -0.076134205 0.013191633 -0.09301528 -0.13715391
-0.13219437 -0.15833548 -0.095302455 0.14425924 0.09912844 -0.026414983 -0.0077274004 -0.019909618
-0.10716781 -0.025765229 -0.014711549 -0.0910066 -0.04979863 -0.11035496 0.016517362 -0.08500267
-0.08526739 0.048167616 -0.0020606865 0.035423134 0.1349546 -0.15230075 -0.09704339 0.16802235
0.12043898 -0.16659816 0.10507132 0.0011892404 -0.060778957 -0.15668985 0.07221564 -0.11736505
0.11542515 -0.11371264 -0.14885361 0.06361822 2.8496574e-05 0.05538178 -0.060346235 0.0038808554
-0.03452578 0.087970056 -0.037510958 -0.062001187 0.09726857 -0.12053305 0.1843229 0.08564684
0.18184528 -0.08385039 0.12072952 -0.0065835514 0.11478219 -0.08868261 0.03326653 -0.09418614
0.12805061 -0.046361413 -0.1275613 0.1488958 -0.16207007 0.07894388 0.010891094 -0.036413845
0.19896169 0.16476204 0.1190726 -0.16233912 0.18350424 -0.0034643763 -0.051779788 0.060460914
-0.0031126372 -0.08410634 0.013304239 -0.010061352 -0.15570027 -0.19546972 0.11407597 0.11007939
-0.07029796 0.103892416 0.039838936 -0.01996098 0.01436927 0.16596946 -0.14576116 0.16503763
0.14896171 -0.17758666 -0.18166368 -0.16654307 0.019673964 0.024289442 -0.16541046 -0.20246987
-0.1208897 -0.069497235 -0.11936995 0.18029459 0.100948974 0.14133272 0.105249874 -0.05416502
0.12994763 0.15295926 -0.043236796 -0.09830285 -0.039654803 -0.0054489863 -0.15560333 -0.08829068
0.16660883 0.09000316 -0.12381603 -0.09885215 -0.034194168 0.018481608 0.15590386 0.04783253
0.15737434 0.15342541 0.09820849 0.045657948 0.033282608 0.10475655 0.005263459 -0.09691842
0.13501449 0.09121458 -0.06583755 -0.1221656 0.03855982 0.10179649 0.16743031 -0.03941424
-0.17254148 0.092589155 0.032896336 -0.1549986 -0.15366244 0.15364848 0.13759664 -0.0936075
-0.08988443 0.16106643 -0.0071860417 0.17936106 -0.024377733 -0.047138322 -0.15984291 0.13076153
0.08612237 -0.066355176 -0.0075775436 -0.05567895 0.16426009 -0.012278424 0.17425746 -0.041647602
0.032653738 0.06965294 -0.004735925 -0.10224721 -0.05698057 0.0063074077 -0.08258299 0.013646453
0.16685547 -0.13787077 -0.021127475 -0.032608695 0.07992292 -0.16926451 0.07200806 -0.029885346
00000000: ccf9 163e 3537 12be b457 28be 32e4 19be
00000010: 50da 1d3e 6c4d 063e 9a65 0abe 129d 303e
00000020: 9f61 b8bd ce31 29be f2ed 97bd d270 babc
00000030: 3254 0bbe 0d04 d83d e564 2b3e 560a c33d
00000040: b573 17be d48c 133e fdb5 db3c 3527 c33d
00000050: 243e 283e 192f 78bd 62fd c2bd e5a2 973d
00000060: 1da2 b3bd 4a31 27be 0cff 9d3d 5e67 da3d
00000070: b3e9 673d fbdf 1cbe e057 0ebd f405 86bd
00000080: d91b c1bd cb4a dabc 8d87 133e 4e7a 20be
00000090: df2f 01bb 0a57 c13d 577e 4b3d 2090 373e
000000a0: db35 3d3c 2f3f 19be 25c0 f7bd 3180 55bc
000000b0: f507 263c a961 0d3d abf5 02bd 4d1f 9bbd
000000c0: fcc2 0cbe 6f44 553d adbe ea3a ec8f d5bd
000000d0: 0cdc 12be 9424 5abd 8747 1cbc 314b 443e
000000e0: a6f0 373e c721 04bd f93f ff3d 4e38 433e
000000f0: c35f 883c 559d 2ebe 6c0c 1e3e d04a 3fbd
00000100: c69b 2bbe dca5 d8bc ccd5 a73d f6e6 32bd
00000110: a0a0 463c 1443 9fbd 84c1 11be 7b6e 0fbe
00000120: 4260 c03d d363 2a3e b839 ccba dd10 c5bd
00000130: 40ec 9bbd b821 583c cc7e bebd 1372 0cbe
00000140: f65d 07be b222 22be ef2d c3bd b2b8 133e
00000150: da03 cb3d 3c64 d8bc 2236 fdbb 7f19 a3bc
00000160: cc7a dbbd 9a11 d3bc b508 71bc ab61 babd
00000170: a6f9 4bbd c801 e2bd 6b4f 873c e115 aebd
00000180: aba0 aebd 684b 453d 950c 07bb d917 113d
00000190: 8a31 0a3e baf4 1bbe afbe c6bd 0d0e 2c3e
000001a0: b6a8 f63d b598 2abe a22f d73d 49e0 9b3a
000001b0: 5bf3 78bd 4e73 20be cbe5 933d 165d f0bd
000001c0: 0564 ec3d 2ce2 e8bd 156d 18be 454a 823d
000001d0: ed0b ef37 01d8 623d 9d2d 77bd f355 7e3b
000001e0: e76a 0dbd a529 b43d 17a5 19bd f5f4 7dbd
000001f0: be34 c73d 08da f6bd 24bf 3c3e 9c67 af3d
00000200: a635 3a3e c1b9 abbd 0a41 f73d d5ba d7bb
00000210: ed12 eb3d 3a9f b5bd 7c42 083d aae4 c0bd
00000220: b31f 033e 77e5 3dbd 6e9f 02be 2478 183e
00000230: b2f5 25be 54ad a13d 8f70 323c af26 15bd
00000240: 9dbc 4b3e 61b7 283e 56dc f33d 3a3c 26be
00000250: 89e8 3b3e 970a 63bb 0b17 54bd dda5 773d
00000260: 63fd 4bbb f23f acbd 06fa 593c 5ed8 24bc
00000270: e46f 1fbe 3729 48be aaa0 e93d 4e71 e13d
00000280: 60f8 8fbd 8cc5 d43d 272e 233d 3685 a3bc
00000290: 166d 6b3c e6f3 293e 6a42 15be a0ff 283e
000002a0: 6b89 183e 47d9 35be 0b06 3abe 448a 2abe
000002b0: 4b2b a13c a7fa c63c 5c61 29be 4354 4fbe
000002c0: 0595 f7bd 9154 8ebd 3b78 f4bd 259f 383e
000002d0: 56be ce3d 86b9 103e 3f8d d73d 24dc 5dbd
000002e0: fe10 053e 5aa1 1c3e 1119 31bd 0153 c9bd
000002f0: 136d 22bd 698d b2bb 7b56 1fbe bed1 b4bd
00000300: 819b 2a3e 9453 b83d 4293 fdbd ff72 cabd
00000310: 2f0f 0cbd be66 973c 43a5 1f3e 0bec 433d
00000320: bd26 213e 8d1b 1d3e 8821 c93d d403 3b3d
00000330: 5853 083d 9a8a d63d 1879 ac3b 2a7d c6bd
00000340: 3d41 0a3e b6ce ba3d d6d5 86bd f531 fabd
00000350: e7f0 1d3d ae7a d03d da72 2b3e d370 21bd
00000360: b7ae 30be 629f bd3d 4fbe 063d f4b7 1ebe
00000370: b059 1dbe 0756 1d3e 22e6 0c3e 4ab5 bfbd
00000380: 5415 b8bd 99ee 243e e378 ebbb 6daa 373e
00000390: d0b3 c7bc 1d14 41bd dcad 23be 5ae6 053e
000003a0: ed60 b03d 39e5 87bd 0b4d f8bb 9c0f 64bd
000003b0: cc33 283e 712b 49bc 8c70 323e ad96 2abd
000003c0: edbf 053d 33a6 8e3d d12f 9bbb fc66 d1bd
000003d0: 7564 69bd 5fae ce3b 4521 a9bd 5f95 5f3c
000003e0: 29dc 2a3e ff2d 0dbe 8713 adbc b290 05bd
000003f0: a1ae a33d ad53 2dbe f678 933d 1dd2 f4bc

bias f4 [16]
0.09405615 0.12575227 0.15319775 0.07677635 -0.09968027 0.03763386 0.20207195 0.13908075
0.05515827 0.0944788 0.15004587 0.15505731 0.08239759 -0.03676638 -0.013699241 -0.097112425
00000000: 83a0 c03d 34c5 003e dfdf 1c3e eb3c 9d3d
00000010: 2b25 ccbd f625 1a3d f3eb 4e3e 2f6b 0e3e
00000020: a3ed 613d 1a7e c13d a0a5 193e 58c7 1e3e
00000030: 11c0 a83d 5898 16bd c872 60bc e1e2 c6bd

weight f4 [16, 16, 3, 3]
-0.0040831137 -0.02974858 -0.0705552 -0.0013848847 0.10539432 -0.105824895 0.12433199 -0.051338404
0.07022866 -0.018544594 0.08247979 -0.025998542 0.012431575 -0.012702411 -0.03870991 0.0009348585
0.054056533 0.061892435 0.04464956 0.04003946 -0.03468611 -0.08445891 -0.031567495 -0.12330397
-0.084829345 -0.0343717 0.071654476 -0.06852278 0.022633906 0.0011910596 -0.0376302 0.085005
0.070788234 -0.009150243 0.06919417 0.033742346 0.0079314895 -0.11282779 -0.008152662 -0.0063751847
0.13202041 -0.029950937 0.026036922 -0.076614715 -0.07036132 0.07421293 -0.058111552 0.10288507
-0.004915715 0.043502245 -0.05120402 -0.011086129 -0.11357166 0.06356139 0.01254151 -0.06166963
0.00059802766 -0.08750926 -0.0489683 -0.06298368 0.009961477 0.017874276 -0.078435965 -0.059841197
-0.046485018 -0.06578262 0.0063508 -0.018327761 -0.03000281 0.069404215 0.024736725 -0.07188832
-0.06460722 0.0058126017 -0.054342724 0.062444393 0.0045931316 0.04637689 -0.0051986636 -0.0045620585
-0.067182675 0.027785156 -0.0076227887 0.13470992 0.10000271 -0.011336135 0.13795036 -0.0037430916
0.003270279 0.07370613 -0.06399853 -0.012946968 0.014407703 0.06014721 -0.042165216 0.02759552
0.0061049587 -0.009585994 0.07443061 -0.023941906 0.049475953 -0.09308352 -0.032816906 0.032536667
-0.037654802 -0.07887598 0.11644562 0.066907115 0.029560946 -0.037384108 -0.024302026 0.00402575
-0.05657074 -0.05789288 0.04974663 -0.08450837 -0.04089392 -0.015486304 0.058796868 0.05356833
0.012355764 0.06577448 0.100697845 0.030125303 -0.053190265 -0.035944 -0.0060380134 -0.066899434
0.06287028 0.054635286 -0.13165562 -0.007442183 -0.11300268 -0.054283332 0.049051713 0.02713442
-0.02778031 0.021054218 -0.0017998646 -0.08400775 -0.07960962 -0.029547973 0.0108895 -0.06008636
-0.10914941 -0.06482069 -0.028044796 -0.05805551 0.06536024 -0.040833145 0.13550484 0.00850876
-0.027775245 0.051022157 -0.056338735 -0.047520775 0.052012406 -0.08201421 -0.0099739805 -0.005867316
0.0034321218 -0.0016311925 -0.011602241 0.0151729025 -0.043835912 -0.10324215 -0.033994887 0.03140379
0.042086158 -0.06918646 -0.06821645 -0.039130885 0.042471882 0.027846878 0.049692504 0.021148453
0.056963835 0.012675854 -0.0830429 -0.03447277 -0.08106822 -0.15300277 -0.0049563767 0.00729831
0.065476805 -0.0560285 0.054472156 0.058154553 0.0026617832 0.014754158 0.0007720157 0.048978254
-0.029975738 0.030919142 -0.055525977 -0.056946103 0.059543796 0.08564414 -0.0659117 -0.08334315
0.006336888 0.03940455 0.08091946 -0.012760444 0.021531718 -0.04264322 0.06530836 -0.07047167
0.06761962 0.0056094057 -0.00071375316 -0.034281824 0.02239345 0.02667267 -0.028689805 -0.04379255
-0.04890898 -0.032719254 -0.02983805 0.08487208 0.04096535 -0.00883743 -0.01913408 -0.00038977148
-0.057096716 -0.03188676 -0.038336568 -0.020198423 0.012515993 0.040150337 0.13838786 0.07712878
-0.0014432627 -0.015216679 -0.030145517 0.070857555 -0.07417326 0.047151342 0.057807937 -0.06599349
0.02237451 -0.04572533 -0.019198574 -0.03520616 0.06806834 0.051191915 0.034908418 -0.045101516
0.08446801 -0.016232455 0.0042419145 0.010339176 -0.036594704 -0.07709134 -0.034858573 -0.077704504
00000000: a4cb 85bb 4bb3 f3bc 3f7f 90bd 0585 b5ba
00000010: fad8 d73d b9ba d8bd c5a1 fe3d 3848 52bd
00000020: 0bd4 8f3d d5ea 97bc 2aeb a83d e5fa d4bc
00000030: cead 4b3c c61d 50bc 488e 1ebd 4b11 753a
00000040: 626a 5d3d ec82 7d3d 75e2 363d 6b00 243d
00000050: 0613 0ebd cbf8 acbd eb4c 01bd cb86 fcbd
00000060: 02bb adbd 57c9 0cbd 95bf 923d ac55 8cbd
00000070: be6a b93c 541d 9c3a 2022 1abd 1a17 ae3d
00000080: 6cf9 903d e7ea 15bc acb5 8d3d 6a35 0a3d
00000090: 14f3 013c 4212 e7bd be92 05bc ede6 d0bb
000000a0: 5c30 073e ab5b f5bc 624b d53c 2de8 9cbd
000000b0: 9919 90bd f3fc 973d 6106 6ebd 68b5 d23d
000000c0: 0214 a1bb 692f 323d 4ebb 51bd 98a2 35bc
000000d0: 4298 e8bd 792c 823d e87a 4d3c 4b99 7cbd
000000e0: f5c4 1c3a 0e38 b3bd fc92 48bd 96fd 80bd
000000f0: 7635 233c 136d 923c 09a3 a0bd 0b1c 75bd
00000100: 1367 3ebd 0ab9 86bd 5f1a d03b 1a24 96bc
00000110: 74c8 f5bc cc23 8e3d aca4 ca3c 2f3a 93bd
00000120: ca50 84bd a377 be3b 7a96 5ebd b1c5 7f3d
00000130: fb81 963b b2f5 3d3d 8d59 aabb 527d 95bb
00000140: 1297 89bd b29d e33c 96c8 f9bb 66f1 093e
00000150: 39ce cc3d 32bb 39bc dc42 0d3e a84e 75bb
00000160: 2d52 563b 3df3 963d a911 83bd 851f 54bc
00000170: 490e 6c3c ec5c 763d 6fb5 2cbd 0010 e23c
00000180: 1b0c c83b 930e 1dbc 136f 983d d121 c4bc
00000190: 4ca7 4a3d 93a2 bebd 056b 06bd 2b45 053d
000001a0: ec3b 1abd bb89 a1bd 0b7b ee3d 9906 893d
000001b0: cc29 f23c 1420 19bd 0b15 c7bc 70ea 833b
000001c0: b8b6 67bd 1621 6dbd 1fc3 4b3d b912 adbd
000001d0: 6280 27bd 44ba 7dbc fcd4 703d 776a 5b3d
000001e0: d56f 4a3c c5b4 863d ac3a ce3d 57c9 f63c
000001f0: 09de 59bd 043a 13bd 87da c5bb 9202 89bd
00000200: 22c2 803d 40c9 5f3d bbd0 06be 8edd f3bb
00000210: f36d e7bd 3358 5ebd 73ea 483d 0149 de3c
00000220: 8893 e3bc e579 ac3c 6fe9 ebba 410c acbd
00000230: 5e0a a3bd 970e f2bc e069 323c 1d1d 76bd
00000240: ba89 dfbd b6c0 84bd 33be e5bc 9dcb 6dbd
00000250: 97db 853d a840 27bd c8c1 0a3e 5368 0b3c
00000260: e988 e3bc 9cfc 503d 72c3 66bd 25a5 42bd
00000270: f60a 553d 11f7 a7bd e869 23bc 9d42 c0bb
00000280: 73ed 603b bdcd d5ba 5317 3ebc c497 783c
00000290: 498d 33bd 9f70 d3bd 393e 0bbd 43a1 003d
000002a0: 8962 2c3d a1b1 8dbd 11b5 8bbd b547 20bd
000002b0: fff6 2d3d 231f e43c 5e8a 4b3d 853f ad3c
000002c0: e952 693d 63ae 4f3c 6512 aabd 5233 0dbd
000002d0: 1807 a6bd c2ac 1cbe 1a69 a2bb a926 ef3b
000002e0: b418 863d 247e 65bd 321e 5f3d 7833 6e3d
000002f0: 5071 2e3b 6dbb 713c 1961 4a3a 6c9d 483d
00000300: ae8f f5bc 244a fd3c 356f 63bd 5140 69bd
00000310: 32e4 733d 3266 af3d b7fc 86bd d0af aabd
00000320: aba5 cf3b aa66 213d 1ab9 a53d 2e11 51bc
00000330: 4963 b03c a8aa 2ebd 64c0 853d 7353 90bd
00000340: 287c 8a3d 1bcf b73b 2a1b 3bba 196b 0cbd
00000350: 7872 b73c a580 da3c e206 ebbc d15f 33bd
00000360: c854 48bd a004 06bd ed6e f4bc 6ad1 ad3d
00000370: 48cb 273d deca 10bc 13bf 9cbc 3e5a ccb9
00000380: 3fde 69bd b19b 02bd ce06 1dbd 2a77 a5bc
00000390: e10f 4d3c ae74 243d 8cb5 0d3e b2f5 9d3d
000003a0: dc2b bdba 614f 79bc bbf3 f6bc c41d 913d
000003b0: 26e8 97bd c421 413d 04c8 6c3d 9827 87bd
000003c0: c04a b73c 7c4a 3bbd 5446 9dbc 5634 10bd
000003d0: 6a67 8b3d 9dae 513d 21fc 0e3d 5ebc 38bd
000003e0: 90fd ac3d edf9 84bc c2ff 8a3b a665 293c
000003f0: 54e4 15bd 11e2 9dbd ddc7 0ebd 8a23 9fbd

bias f4 [16]
-0.013476144 -0.02704948 0.08012171 0.13692214 0.049957793 0.030067451 -0.0058425474 0.034113258
0.044677533 -0.015354735 0.025786154 -0.019072102 0.022565156 0.014492102 -0.024643773 0.04464862
00000000: 0bcb 5cbc df96 ddbc da16 a43d 5135 0c3e
00000010: 8ba0 4c3d 0450 f63c d772 bfbb 58ba 0b3d
00000020: caff 363d 6d92 7bbc 7c3d d33c 193d 9cbc
00000030: 90da b83c 4870 6d3c bde1 c9bc 79e1 363d

weight f4 [16, 16, 3, 3]
0.14093088 -0.010215625 -0.04519235 -0.12242404 0.08243145 -0.0070360852 0.048064332 0.0013232764
-0.05534197 0.042531986 -0.07230385 -0.050816823 -0.05856842 0.080947354 -0.08243985 -0.027698172
-0.094130434 -0.054949827 -0.09488134 -0.0053206775 -0.028791187 -0.040560085 0.09817701 -0.13265246
0.022616645 -0.06447689 0.14582613 0.010207903 -0.03110278 -0.022901487 0.117180906 0.010575681
0.028772375 0.06292653 0.1479732 -0.030086359 -0.06322113 0.025980664 -0.04435359 0.010629402
-0.03171421 0.04520115 0.012066508 -0.015335431 -0.05575525 -0.010230466 -0.072407044 -0.022040583
-0.103042416 0.027130198 -0.062565364 -0.034401014 -0.033187356 -0.062407907 -0.030197121 -0.043985974
-0.092749625 0.062160764 0.08147168 0.04266871 -0.009679807 0.07606007 0.005050902 -0.07223672
0.039763227 -0.021691412 0.051073123 0.019637555 0.029857736 0.07711163 -0.08426818 0.0107162
0.07198077 0.02072572 -0.06491912 0.034933932 0.050966196 -0.07403836 0.021258827 -0.05850657
-0.078408554 -0.049867902 0.12554136 -0.058034096 -0.07459633 -0.11109917 0.07966605 0.03959487
-0.021668196 0.121653035 0.02408727 -0.04636501 0.023603262 -0.06309743 -0.08616118 0.07425998
-0.04995408 0.0357933 -0.04906918 0.018063815 0.027773084 -0.016357562 0.064586945 0.08059173
-0.08284534 0.06917682 -0.060708016 -0.02664114 0.004391629 0.037670963 -0.10439298 -0.03302989
-0.014400643 -0.055194013 -0.094215505 0.01046785 -0.019443702 -0.072354846 0.046664167 -0.017897975
-0.0037630706 -0.06184133 0.061616 0.030781345 -0.05993917 0.010495591 0.017418979 0.03158529
-0.043217976 -0.038171455 -0.010247177 -0.0018192795 -0.033038635 -0.003304087 0.015283481 -0.040487487
-0.040737815 -0.04373435 0.028397214 0.08312437 -0.080121696 0.07198133 0.062097836 -0.06102554
0.08149879 0.061322115 0.09149172 -0.04921401 -0.051162295 -0.017684255 0.041619845 0.05416298
0.051912587 0.017854696 -0.035421357 0.028682835 0.090688385 -0.004814828 -0.062034223 0.0008771923
-0.059017114 0.07634512 0.022421615 -0.09784193 -0.06521643 0.047018506 -0.13909362 -0.13596101
0.019992918 -0.14257304 0.085506596 -0.0066931276 -0.12594923 -0.06984082 0.020547189 -0.019734558
0.0800212 -0.08261435 -0.046882223 -0.03976582 -0.024632806 0.03910654 -0.05793674 -0.08276775
0.028079951 0.033998523 -0.06455781 0.0602177 0.07552363 0.012683184 0.02021284 0.066421
0.042409476 -0.08905879 0.013772901 -0.064185575 0.017644249 -0.050347175 0.005468903 0.09331051
0.07623369 0.029002897 0.042100366 0.0079046115 0.007985116 -0.039065037 0.019480325 0.10670463
0.015851934 0.009653072 0.008340035 0.033889268 -0.040356513 0.054549158 0.04899322 -0.020536518
0.0338671 -0.056368925 0.070436925 0.018082459 0.06486743 0.074531175 -0.008409977 0.0015495108
0.058939043 0.031421106 0.06381694 0.10756103 -0.043145783 -0.0057033417 0.006394368 0.0047388
-0.05766385 0.045170963 -0.013074558 -0.03088081 -0.06105312 0.04582238 -0.06776802 0.0062750177
-0.045160387 0.006833747 0.010046369 -0.07289578 0.036743313 -0.05061381 -0.0025126913 0.0591376
0.016301095 0.081229806 0.06640801 0.04222033 0.07883045 -0.06708259 0.08272604 -0.06521454
00000000: 2f50 103e 705f 27bc 9d1b 39bd 75b9 fabd
00000010: d2d1 a83d f68e e6bb 1bdf 443d ca71 ad3a
00000020: 43ae 62bd 0536 2e3d 0a14 94bd 4d25 50bd
00000030: 71e5 6fbd bac7 a53d 39d6 a8bd 47e7 e2bc
00000040: 75c7 c0bd 1213 61bd 2651 c2bd 1459 aebb
00000050: 7fdb ebbc 5522 26bd 0711 c93d 0cd6 07be
00000060: 8b46 b93c 760c 84bd 7253 153e 0c3f 273c
00000070: 42cb febc e69b bbbc 8bfc ef3d 9f45 2d3c
00000080: 0bb4 eb3c a0df 803d 4986 173e ab77 f6bc
00000090: 147a 81bd 67d5 d43c 1cac 35bd f126 2e3c
000000a0: c2e6 01bd d724 393d 9ab2 453c 7641 7bbc
000000b0: 9e5f 64bd af9d 27bc 254a 94bd 748e b4bc
000000c0: e707 d3bd 2640 de3c 4522 80bd 14e8 0cbd
000000d0: 77ef 07bd 6f9f 7fbd f45f f7bc a32a 34bd
000000e0: 84f3 bdbd 499c 7e3d a0da a63d 63c5 2e3d
000000f0: 0e98 1ebc 62c5 9b3d 0982 a53b d8f0 93bd
00000100: c4de 223d 30b2 b1bc 0d32 513d f0de a03c
00000110: 3698 f43c b4ec 9d3d cc94 acbd 0093 2f3c
00000120: a76a 933d fcc8 a93c 51f4 84bd e216 0f3d
00000130: eec1 503d 6ca1 97bd fe26 ae3c 96a4 6fbd
00000140: aa94 a0bd 4942 4cbd ea8d 003e 29b5 6dbd
00000150: f6c5 98bd f687 e3bd f427 a33d 3b2e 223d
00000160: 8081 b1bc 3a25 f93d ab52 c53c 3de9 3dbd
00000170: a15b c13c 3a39 81bd 4675 b0bd 9e15 983d
00000180: a69c 4cbd ff9b 123d c4fc 48bd 91fa 933c
00000190: 6184 e33c 4b00 86bc 2946 843d 470d a53d
000001a0: d1aa a9bd 94ac 8d3d f8a8 78bd 853e dabc
000001b0: a7e7 8f3b de4c 1a3d fdcb d5bd 5a4a 07bd
000001c0: adf0 6bbc 1e13 62bd 0ff4 c0bd 5881 2b3c
000001d0: 6648 9fbc c72e 94bd ed22 3f3d c69e 92bc
000001e0: d99d 76bb 564d 7dbd 0f61 7c3d 2929 fc3c
000001f0: c682 75bd b3f5 2b3c 3fb2 8e3c 945f 013d
00000200: 5505 31bd ac59 1cbd c7e3 27bc e474 eeba
00000210: 8553 07bd 6289 58bb 9167 7a3c 35d6 25bd
00000220: b2dc 26bd ca22 33bd 46a1 e83c 1c3d aa3d
00000230: d816 a4bd f36a 933d 4d5a 7e3d ebf5 79bd
00000240: d6e8 a63d e62c 7b3d 0360 bb3d a194 49bd
00000250: 8e8f 51bd 92de 90bc 9279 2a3d 00da 5d3d
00000260: 4ba2 543d 0344 923c fc15 11bd 44f8 ea3c
00000270: d5ba b93d b4c5 9dbb 9917 7ebd 61f3 653a
00000280: eebb 71bd d55a 9c3d 89ad b73c 5a61 c8bd
00000290: 3190 85bd 7a96 403d 8f6e 0ebe 5d39 0bbe
000002a0: 30c8 a33c abfe 11be 151e af3d 0652 dbbb
000002b0: d6f8 00be b408 8fbd 9452 a83c 5eaa a1bc
000002c0: 28e2 a33d b631 a9bd 9307 40bd 7ce1 22bd
000002d0: bdca c9bc 2e2e 203d 134f 6dbd 2382 a9bd
000002e0: ed07 e63c 0942 0b3d e336 84bd d6a6 763d
000002f0: 22ac 9a3d 21cd 4f3c 6695 a53c bc07 883d
00000300: 8fb5 2d3d 7464 b6bd bca7 613c ba73 83bd
00000310: ac8a 903c d738 4ebd 7c34 b33b 9519 bf3d
00000320: 6920 9c3d 7c97 ed3c 6f71 2c3d 5882 013c
00000330: 01d4 023c a902 20bd 3495 9f3c f587 da3d
00000340: eadb 813c eb27 1e3c a4a4 083c 79cf 0a3d
00000350: df4c 25bd f06e 5f3d 1dad 483d 333c a8bc
00000360: 3ab8 0a3d 1ae3 66bd 3c41 903d aa21 943c
00000370: 37d9 843d cda3 983d 00ca 09bc f418 cb3a
00000380: 116a 713d 6bb3 003d 75b2 823d f548 dc3d
00000390: a2b9 30bd 19e3 babb d987 d13b f047 9b3b
000003a0: ee30 6cbd 3005 393d ac36 56bc c1f9 fcbc
000003b0: d612 7abd 3fb0 3b3d f6c9 8abd aa9e cd3b
000003c0: 19fa 38bd a0ed df3b 8799 243c 624a 95bd
000003d0: 2880 163d 6d50 4fbd f7ab 24bb 453a 723d
000003e0: e089 853c d05b a63d ec00 883d 3aef 2c3d
000003f0: dc71 a13d 9962 89bd 456c a93d 338f 85bd

bias f4 [16]
0.060537495 0.05051207 0.02629794 0.076199286 -0.01928074 -0.008373347 0.016754841 -0.094397806
0.025866559 -0.066465095 0.09948315 0.035009883 0.029042704 0.07182737 0.06551696 0.053969096
00000000: 2af6 773d bfe5 4e3d c76e d73c 5f0e 9c3d
00000010: a4f2 9dbc 5d30 09bc 7341 893c a353 c1bd
00000020: 1be6 d33c da1e 88bd d2bd cb3d 8666 0f3d
00000030: f7ea ed3c 3a1a 933d c22d 863d b30e 5d3d

weight f4 [16, 16, 3, 3]
-0.009363827 -0.027747452 -0.04663142 0.096434735 -0.03452704 -0.074584275 0.08497764 0.025352618
-0.044969924 0.038409866 -0.04810748 0.013699993 0.064197674 0.063198775 0.03166195 -0.09590687
-0.00019303212 0.0036068242 0.026813025 -0.03738927 0.0436908 0.025505321 -0.018718991 -0.047021814
0.007532892 0.03495732 -0.03996654 0.034320664 0.038381767 -0.039512847 0.023975745 -0.0061093466
0.0661938 -0.02547974 0.06459576 0.029368142 -0.018506942 -0.07692001 -0.017285522 -0.048528578
-0.08589497 -0.09119463 0.047966547 -0.003402279 -0.051837634 -0.012515872 -0.03157043 0.048361506
-0.041985836 -0.0014126557 -0.012049216 -0.00956304 0.0021375944 0.06289273 -0.03936265 0.06014996
0.02529241 0.030151177 -0.050559536 0.071970075 0.058487725 0.034346405 -0.032482676 -0.063615024
0.042394344 -0.011858359 0.06351839 0.004714527 -0.04080119 0.02384915 0.068037 -0.015333063
0.054986477 0.062064655 0.06650765 -0.040794108 0.04478914 0.003124734 0.027618267 -0.07120132
-0.026648572 0.061243974 0.032263145 0.04426396 0.00362189 -0.05612359 -0.03795947 0.047595914
0.054290187 -0.06327672 -0.054480657 -0.018058972 -0.0054003424 -0.013515329 -0.078712225 -0.073768
-0.07519624 -0.033021465 -0.07442824 0.02428974 0.0700887 -0.03347587 0.030068982 -0.006263556
0.025409875 0.02844747 -0.05716794 -0.04866768 0.08630644 0.06975098 0.074567184 0.07230622
0.06966929 -0.027780542 -0.0020647168 0.037699707 0.057275567 0.047414906 0.06346906 0.061413843
-0.0668192 -0.033254556 0.069720514 0.021962877 0.033691462 -0.07742241 0.0586985 0.055719685
0.072879165 0.02276781 0.041202072 -0.028796744 -0.0764848 -0.06466009 0.0018667466 -0.07497047
-0.0116093755 0.037620924 -0.0034168626 0.061924465 -0.023396548 0.04784028 -0.047050916 -0.038203012
-0.0024797972 -0.012087802 -0.0037732122 -0.062155314 0.06790099 -0.07346854 -0.02227994 -0.04968047
-0.05506543 -0.03874495 0.03778319 0.011661723 0.07567802 0.0026910931 0.04948279 -0.07675119
-0.054950804 -0.0063252384 -0.014486809 -0.051608782 0.031273156 0.022584442 -0.0063633467 -0.02387844
0.008658376 -0.06859181 0.027984913 -0.012634513 -0.040278338 0.05817662 -0.06444327 -0.084152624
-0.028034229 0.022151643 -0.035204638 0.06980646 -0.021540955 -0.008371039 -0.07806751 -0.038606174
-0.0339985 0.026562419 -0.039791506 0.02594166 0.07263176 -0.022641238 -0.059730824 0.033293694
-0.031657558 0.05925133 0.033790674 0.050043747 0.0029154073 0.052339926 -0.0343356 -0.036605045
0.026045593 -0.03786763 0.037424974 -0.06459112 0.0020090335 -0.017051965 0.014846948 0.05617415
0.027540987 0.05747919 0.00019562451 0.060831986 -0.034987427 0.007047586 0.023548178 -0.069618106
-0.019315803 -0.016718715 0.01815854 -0.02139292 0.06705959 -0.047420144 0.011910491 0.037142046
-0.083052166 -0.06705949 0.106639355 0.019733723 -0.05792841 -0.049811516 0.069829226 0.06143272
-0.013289913 -0.03853915 0.052912798 0.030623524 -0.08048509 -0.031392124 -0.014397377 -0.055343624
-0.018000456 -0.0065329373 -0.08626108 -0.03186929 0.06963864 -0.0149145555 -0.07606521 0.038982913
0.013074325 0.076972045 0.061397716 -0.001418194 -0.07715314 -0.05141675 0.068457305 -0.0035177472
00000000: bd6a 19bc a04e e3bc 9600 3fbd 937f c53d
00000010: 3a6c 0dbd a4bf 98bd c208 ae3d 4bb0 cf3c
00000020: 6232 38bd aa53 1d3d 590c 45bd ef75 603c
00000030: 127a 833d 5c6e 813d f6af 013d d26a c4bd
00000040: aa68 4ab9 7860 6c3b fda6 db3c 7e25 19bd
00000050: 20f5 323d 89f0 d03c 9258 99bc f299 40bd
00000060: 7ad6 f63b 682f 0f3d f4b3 23bd d393 0c3d
00000070: 3336 1d3d 39d8 21bd c868 c43c ea30 c8bb
00000080: 9d90 873d e3ba d0bc c84a 843d 7595 f03c
00000090: df9b 97bc 3d88 9dbd 5e9a 8dbc e7c5 46bd
000000a0: b4e9 afbd 40c4 babd 9278 443d c5f8 5ebb
000000b0: b353 54bd 5f0f 4dbc ff4f 01bd b716 463d
000000c0: 57f9 2bbd dc28 b9ba 136a 45bc 4cae 1cbc
000000d0: e216 0c3b e7cd 803d bb3a 21bd ce5f 763d
000000e0: 0732 cf3c 9aff f63c 8417 4fbd 0c65 933d
000000f0: d390 6f3d d1ae 0c3d 8e0c 05bd 9848 82bd
00000100: b1a5 2d3d 9049 42bc ee15 823d 527c 9a3b
00000110: 261f 27bd 4b5f c33c fc56 8b3d 8737 7bbc
00000120: 8039 613d 8237 7e3d 2a35 883d b917 27bd
00000130: d174 373d 56c8 4c3b b43f e23c ffd1 91bd
00000140: 1b4e dabc f6da 7a3d 5c26 043d 204e 353d
00000150: 3b5d 6d3b d9e1 65bd 647b 1bbd eff3 423d
00000160: 635f 5e3d 3a97 81bd 1c27 5fbd 69f0 93bc
00000170: 5bf5 b0bb 666f 5dbc e033 a1bd ad13 97bd
00000180: 7c00 9abd 8441 07bd d56d 98bd 47fb c63c
00000190: aa8a 8f3d fe1d 09bd 3a53 f63c 843e cdbb
000001a0: 5f28 d03c ab0a e93c ee28 6abd c357 47bd
000001b0: 6ec1 b03d 9ad9 8e3d aeb6 983d 4915 943d
000001c0: c6ae 8e3d 0594 e3bc 3350 07bb 026b 1a3d
000001d0: c999 6a3d 2236 423d 11fc 813d 158d 7b3d
000001e0: 81d8 88bd ee35 08bd a1c9 8e3d 7eeb b33c
000001f0: 0f00 0a3d a48f 9ebd d76d 703d 533a 643d
00000200: ac41 953d 8f83 ba3c 81c3 283d 26e7 ebbc
00000210: 10a4 9cbd 826c 84bd 9fad f43a 1e8a 99bd
00000220: 4035 3ebc 6618 1a3d 71ed 5fbb 82a4 7d3d
00000230: 1eaa bfbc 2bf4 433d 76b8 40bd c37a 1cbd
00000240: 1884 22bb eb0b 46bc ff47 77bb 9296 7ebd
00000250: ad0f 8b3d ad76 96bd 6c84 b6bc c07d 4bbd
00000260: 4a8c 61bd 06b3 1ebd 8cc2 1a3d d010 3f3c
00000270: 14fd 9a3d 0d5d 303b 77ae 4a3d ba2f 9dbd
00000280: 1814 61bd f243 cfbb 155a 6dbc bb63 53bd
00000290: 4818 003d 0203 b93c 9f83 d0bb b89c c3bc
000002a0: dcdb 0d3c dd79 8cbd 9e40 e53c fd00 4fbc
000002b0: e6fa 24bd 9c4a 6e3d d5fa 83bd 3658 acbd
000002c0: 0aa8 e5bc 5d77 b53c bd32 10bd b0f6 8e3d
000002d0: a876 b0bc af26 09bc dce1 9fbd 8221 1ebd
000002e0: 0342 0bbd 6e99 d93c 6bfc 22bd 9b83 d43c
000002f0: f6bf 943d 1e7a b9bc 4fa8 74bd f85e 083d
00000300: 5bab 01bd 86b1 723d 1768 0a3d acfa 4c3d
00000310: 6b10 3f3b 6462 563d 7ca3 0cbd 2cef 15bd
00000320: 915d d53c 171b 1bbd ee4a 193d 5948 84bd
00000330: fda9 033b 90b0 8bbc 9d40 733c de16 663d
00000340: a39d e13c 4d6f 6b3d 8e20 4d39 f62a 793d
00000350: fa4e 0fbd 70ef e63b 1ce8 c03c f093 8ebd
00000360: 2d3c 9ebc b0f5 88bc 38c1 943c 3440 afbc
00000370: 8a56 893d a03b 42bd 3824 433c 4222 183d
00000380: 4117 aabd 7c56 89bd bc65 da3d 9ea8 a13c
00000390: 5746 6dbd 2907 4cbd a002 8f3d e0a0 7b3d
000003a0: efbd 59bc 3adb 1dbd 17bb 583d 2fde fa3c
000003b0: 5ed5 a4bd 0795 00bd fae2 6bbc ffaf 62bd
000003c0: b175 93bc 4012 d6bb a6a9 b0bd 5f89 02bd
000003d0: b49e 8e3d 2e5c 74bc 14c8 9bbd 8cac 1f3d
000003e0: b235 563c 85a3 9d3d 2c7c 7b3d b2e2 b9ba
000003f0: 7702 9ebd 5f9a 52bd 5833 8c3d 018a 66bb

bias f4 [16]
-0.07755031 -0.06600606 -0.028795652 -0.07692533 -0.07657812 0.04240976 0.0046696765 0.018814607
0.052859705 -0.02370947 0.03062691 -0.013173447 0.023011615 0.017769134 0.025004994 0.057833645
00000000: b2d2 9ebd 2f2e 87bd dce4 ebbc 078b 9dbd
00000010: fdd4 9cbd dbb5 2d3d 1604 993b 1721 9a3c
00000020: 6b83 583d 5d3a c2bc 49e5 fa3c 71d5 57bc
00000030: db82 bc3c 9390 913c 46d7 cc3c f9e2 6c3d

weight f4 [16, 16, 3, 3]
-0.05977847 -0.010808633 0.013217444 0.023013087 0.040649027 -0.06637485 -0.07786436 0.038998127
0.022020085 -0.018770302 0.033070043 -0.04574476 0.04348483 0.03275095 -0.062189937 -0.06258233
-0.00075386156 -0.029805513 0.062024143 0.0072953613 -0.13556387 -0.12071504 0.05655968 -0.064080425
-0.026081245 0.010950352 0.0022139912 0.00602265 -0.0014819272 -0.00021843468 -0.08318748 0.00607774
0.043842442 -0.03364616 -0.029999817 0.071343794 0.020168593 -0.09036418 0.01799507 0.051080547
-0.047953278 -0.055934146 -0.035748146 0.010235813 -0.09526054 -0.012805539 -0.038085602 -0.013394375
-0.017651398 0.005121258 -0.047480766 0.044139627 0.06899563 -0.0028114435 0.008665474 0.014474849
-0.020716881 -0.06352492 -0.075804316 -0.11028724 0.044723257 -0.1415996 -0.02229455 0.076785676
-0.07019542 -0.07779829 0.039718993 -0.11473835 0.08864596 0.08482712 -0.062038437 -0.006799813
0.22925662 -0.13371171 0.15518677 -0.06780364 0.18918167 -0.2372572 0.075300306 0.010928072
0.024598038 -0.08278916 -0.010656888 0.02587192 0.15830941 -0.06753023 0.016348189 -0.039887007
-0.067406155 0.1040531 0.08622219 -0.06006486 -0.020809835 -0.06968028 -0.06246377 -0.04787518
0.004560988 -0.0985904 0.029957421 -0.03733029 0.0026883674 0.08909407 -0.072236314 0.057011705
-0.0910204 -0.03748198 -0.08101856 -0.010598199 0.09794471 -0.10042877 0.034924235 0.03608677
-0.08103255 -0.0411692 0.00237756 0.09947876 -0.1175661 0.056130648 0.04614309 0.021239646
0.013207463 -0.060570247 -0.013504428 -0.023052156 0.038635578 -0.02399988 0.052909795 0.05927251
-0.056701317 -0.0129679395 0.058121305 0.0013194458 -0.030361215 -0.03390888 -0.12324076 0.033994712
-0.08452805 -0.036891434 -0.0038607898 -0.0552319 -0.051984478 -0.04469378 0.036626786 -0.013447856
-0.06524685 0.036032338 -0.01785394 0.00968464 0.016347352 -0.0088888705 -0.075954475 -0.018877191
0.0739393 -0.02457677 0.07333543 0.0076821 -0.016207421 0.006043197 -0.037571985 0.03120265
-0.043783892 -0.033959698 -0.06279576 0.03809268 0.04912061 0.055450886 -0.026777828 -0.024320189
0.00999533 -0.05929899 0.0050719916 0.023652513 0.07874525 -0.06923835 0.02143456 0.07180554
0.017614031 -0.0418264 0.050798688 0.048219252 -0.07975243 0.0011797926 -0.059631776 -0.04376363
-0.03144026 0.0153427385 0.032421663 -0.013689568 -0.007989193 -0.003711783 -0.08861069 -0.005340431
0.0049142404 0.065168746 -0.058229867 0.046426095 0.02192743 -0.045416962 -0.052977007 -0.030330991
0.095236845 -0.0028056547 -0.07663998 0.06302174 -0.032984532 -0.07579811 0.09639537 -0.05603606
-0.073889405 0.027341874 0.081228085 -0.07638949 0.10885127 0.07106768 -0.014643422 -0.059266217
0.064332195 0.09765763 0.04685641 -0.073769294 0.083350755 0.029843122 -0.003065806 -0.046187714
-0.05855438 0.07423634 0.036348283 -0.013057189 -0.061606936 -0.111444466 0.010490451 -0.033153377
0.020260453 -0.025119793 -0.06357838 0.01752479 0.011244067 0.03844681 -0.013283774 0.003275612
-0.054818776 -0.06194333 0.038710814 -0.08703573 0.0064356555 -0.04340638 -0.046467494 -0.0993906
0.11204851 -0.02379007 -0.034290746 0.088286385 0.055815328 -0.015668437 -0.07972301 0.056249127
00000000: 45da 74bd b116 31bc fa8d 583c f185 bc3c
00000010: 987f 263d 8aef 87bd 5977 9fbd 80bc 1f3d
00000020: 7763 b43c 2dc4 99bc 7474 073d dc5e 3bbd
00000030: 261d 323d dc25 063d e0ba 7ebd 2a2b 80bd
00000040: cb9e 45ba b12a f4bc 070d 7e3d ed0d ef3b
00000050: 41d1 0abe 7239 f7bd 1fab 673d 993c 83bd
00000060: 56a8 d5bc 1b69 333c 9c18 113b a659 c53b
00000070: 3a3d c2ba 9d0b 65b9 335e aabd c727 c73b
00000080: 2294 333d 8ed0 09bd 2dc2 f5bc b21c 923d
00000090: 9b38 a53c db10 b9bd 666a 933c d639 513d
000000a0: a86a 44bd 341b 65bd a66c 12bd 1db4 273c
000000b0: f517 c3bd 53ce 51bc a6ff 1bbd 1574 5bbc
000000c0: aa99 90bc 3ad0 a73b 317b 42bd c1cb 343d
000000d0: 954d 8d3d 3240 38bb a2f9 0d3c eb27 6d3c
000000e0: 73b6 a9bc 5a19 82bd 4b3f 9bbd 47de e1bd
000000f0: bc2f 373d 7cff 10be 0fa3 b6bc cf41 9d3d
00000100: 9ec2 8fbd b654 9fbd 62b0 223d f1fb eabd
00000110: 038c b53d d7b9 ad3d 041c 7ebd f7d0 debb
00000120: 3fc2 6a3e b9eb 08be 48e9 1e3e a3dc 8abd
00000130: d7b8 413e 8df3 72be 0c37 9a3d a80b 333c
00000140: d381 c93c 5d8d a9bd 3a9a 2ebc 59f1 d33c
00000150: dd1b 223e 4a4d 8abd a3ec 853c 8f60 23bd
00000160: 3d0c 8abd cb19 d53d 4295 b03d 9206 76bd
00000170: 6379 aabc 89b4 8ebd 03da 7fbd c418 44bd
00000180: 5774 953b c3e9 c9bd 4469 f53c a5e7 18bd
00000190: 522f 303b f476 b63d a2f0 93bd 1b85 693d
000001a0: e768 babd b486 19bd 0fed a5bd 12a4 2dbc
000001b0: 3c97 c83d 99ad cdbd b70c 0f3d b9cf 133d
000001c0: 65f4 a5bd 09a1 28bd d6d0 1b3b 85bb cb3d
000001d0: 7fc6 f0bd 40e9 653d 8900 3d3d c4fe ad3c
000001e0: 1d64 583c 8218 78bd ad41 5dbc e0d7 bcbc
000001f0: 5740 1e3d 659b c4bc f1b7 583d bbc7 723d
00000200: a43f 68bd 7b77 54bc 9b10 6e3d 41f1 ac3a
00000210: 15b8 f8bc 0ae4 0abd a765 fcbd 0a3e 0b3d
00000220: 0b1d adbd 791b 17bd 4e05 7dbb d83a 62bd
00000230: aded 54bd d310 37bd f805 163d 6554 5cbc
00000240: 24a0 85bd a596 133d 6d42 92bc 53ac 1e3c
00000250: e2ea 853c a0a2 11bc 058e 9bbd 57a4 9abc
00000260: 7d6d 973d 3955 c9bc e330 963d 20ba fb3b
00000270: 6dc5 84bc 0306 c63b 15e5 19bd b39c ff3c
00000280: bd56 33bd 5319 0bbd 109b 80bd 1207 1c3d
00000290: b132 493d 7820 633d 2d5d dbbc 223b c7bc
000002a0: 74c3 233c 7fe3 72bd f332 a63b eac2 c13c
000002b0: 3145 a13d d6cc 8dbd 8897 af3c c80e 933d
000002c0: 4d4b 903c 2952 2bbd 4912 503d 8d81 453d
000002d0: 3e55 a3bd 45a3 9a3a 7340 74bd 7e41 33bd
000002e0: 81c7 00bd 1c60 7b3c 94cc 043d 364a 60bc
000002f0: 1be5 02bc 6341 73bb 8579 b5bd c8fe aebb
00000300: a307 a13b 3177 853d 7182 6ebd 4a29 3e3d
00000310: 27a1 b33c 2307 3abd 6bfe 58bd b378 f8bc
00000320: 890b c33d 13df 37bb 6cf5 9cbd 8b11 813d
00000330: ca1a 07bd 0a3c 9bbd f06a c53d 1186 65bd
00000340: 5453 97bd 11fc df3c e95a a63d 1872 9cbd
00000350: 6aed de3d ef8b 913d f7ea 6fbc 22c1 72bd
00000360: 99c0 833d b900 c83d 82ec 3f3d 5b14 97bd
00000370: cdb3 aa3d 9079 f43c b1eb 48bb 542f 3dbd
00000380: b8d6 6fbd 3909 983d f0e1 143d d2ed 55bc
00000390: 8e57 7cbd ff3c e4bd 24e0 2b3c d6cb 07bd
000003a0: 40f9 a53c 06c8 cdbc 6235 82bd 2690 8f3c
000003b0: 0939 383c 677a 1d3d 30a4 59bc a6ab 563b
000003c0: a789 60bd 4ab8 7dbd 3b8f 1e3d ca3f b2bd
000003d0: 31e2 d23b e3ca 31bd b354 3ebd 4d8d cbbd
000003e0: b079 e53d 65e3 c2bc 7474 0cbd 7ecf b43d
000003f0: 9d9e 643d 185b 80bc d145 a3bd 7c65 663d

bias f4 [16]
0.031581413 0.07614395 -0.044431053 -0.053011887 0.016994022 0.026300084 -0.05082743 -0.0031756829
0.08245401 0.014427617 -0.024044016 -0.09998328 0.07727014 0.020812968 -0.018112602 0.012551951
00000000: 835b 013d 5cf1 9b3d 56fd 35bd fe22 59bd
00000010: 0c37 8b3c 4673 d73c 6c30 50bd 1e1f 50bb
00000020: a6dd a83d d061 6c3c f5f7 c4bc 09c4 ccbd
00000030: cf3f 9e3d f57f aa3c e160 94bc b3a6 4d3c

weight f4 [64, 16, 3, 3]
-0.07485878 0.07385969 0.08238997 -0.03791961 -0.08803704 -0.015870506 -0.026034327 -0.09567495
0.02109485 -0.04710518 -0.06582001 0.029843044 0.0010872062 -0.034058902 -0.059458412 -0.04346422
0.019332243 -0.012900874 0.05286879 0.00755663 -0.0027597079 0.074512795 0.0077304533 0.11219452
0.067249164 -0.111437865 -0.013535734 0.018583544 0.015582422 -0.04332677 -0.015580084 -0.0058886292
-0.016166005 0.045291618 -0.040755797 -0.059616823 0.03512686 0.04169914 0.059005983 -0.011139948
0.024197908 -0.040277436 -0.08273154 0.0359066 -0.0722624 -0.05468403 0.06402071 -0.06938878
0.009289547 0.09586407 -0.0045024385 -0.025076685 -0.047228415 -0.020490961 -0.044916026 -0.056626435
0.0017159835 -0.081687234 0.06502873 -0.022706447 -0.03648094 2.7355616e-05 -0.013635981 0.06552779
0.013167334 -0.0503613 -0.011763847 -0.064357646 0.0051143966 0.045563713 -0.038468663 -0.036714166
0.0378973 -0.057421137 -0.04751638 -0.070043735 -0.07607311 0.0067743254 -0.09840879 -0.029708168
-0.08014421 -0.0331897 -0.11343131 0.04792807 0.020862611 -0.075723834 -0.037659373 0.0039569577
-0.02088605 -0.017907633 0.023751402 0.048323717 -0.0060378523 -0.038567085 -0.061756015 -0.0450687
-0.023864934 0.07783855 -0.049644396 0.009298126 0.011372458 -0.017333634 -0.03728029 -0.0058812527
0.040554725 -0.06871817 0.031347703 0.045023285 -0.03546269 0.09698519 -0.08008724 0.006243119
-0.012804105 0.041599784 -0.021775562 0.046150453 0.048711255 0.0065838685 0.08009141 -0.077405654
-0.023726074 -0.020805415 0.04347313 0.025914276 0.029174643 0.0070227985 0.023669563 -0.06164507
0.06337896 0.011348985 -0.03047885 0.026763335 0.025117109 0.0025385204 -0.08337351 -0.04643301
0.0062852637 -0.07205451 0.071006134 -0.045739308 0.027450219 -0.0235073 0.040606674 0.017436229
-0.013328725 -0.032672826 0.008129407 -0.07540403 -0.024862614 0.08309489 0.055946875 0.009067794
-0.021736413 -0.02001498 0.0716373 0.00048940664 0.022513632 -0.039100666 -0.018543212 0.04243612
-0.08870661 0.04513242 0.06388326 -0.021664174 -0.08153635 -0.03413315 0.10441374 0.091466375
0.0052587944 0.0063637285 -0.10920618 -0.07836425 -0.04024593 0.03307002 -0.010513751 -0.10286399
-0.0412144 0.10750501 -0.040716175 0.06574488 0.01082724 0.029613215 0.0031685666 0.09064555
-0.1206914 0.01885687 -0.10355917 -0.016444506 -0.079245776 -0.093259074 0.038636208 0.0032463833
-0.061900813 0.058908883 0.013650031 -0.025416013 0.032595254 -0.041774414 -0.015266814 -0.0046396125
0.061706625 -0.050461717 -0.00311454 0.025936086 0.04756011 0.011396549 0.03408588 -0.03484324
0.020407762 -0.02896152 -0.07102099 -0.048949316 0.05528828 -0.004369798 -0.07639958 0.04937492
0.05686388 0.057752613 -0.078427665 0.01420471 0.020385396 -0.03451 0.006369496 -0.025605448
-0.010036863 0.062466897 0.022314612 -0.07077839 -0.040787842 -0.014200768 -0.06554856 -0.040716287
0.015586772 -0.065337606 -0.0061880318 0.086350314 -0.074153036 0.048932534 0.013315245 0.010739904
0.012858284 0.021601176 0.01938984 0.03668777 0.0058703055 -0.06252113 -0.0172799 -0.015232409
0.05773482 0.031974513 0.040306658 0.07433172 0.059763487 0.086708404 0.013525332 0.0030258202
00000000: 8f4f 99bd c043 973d 13bc a83d 9851 1bbd
00000010: c34c b4bd dd02 82bc f145 d5bc 3af1 c3bd
00000020: 1bcf ac3c 5cf1 40bd a4cc 86bd 6679 f43c
00000030: 9680 8e3a 5981 0bbd aa8a 73bd 8a07 32bd
00000040: a75e 9e3c 305e 53bc f28c 583d 9b9d f73b
00000050: 37dc 34bb 2a9a 983d be4f fd3b 3ec6 e53d
00000060: eeb9 893d 8939 e4bd fcc4 5dbc 843c 983c
00000070: 6a4d 7f3c 6977 31bd 9c43 7fbc 67f5 c0bb
00000080: 926e 84bc b483 393d 8def 26bd c530 74bd
00000090: 2fe1 0f3d b8cc 2a3d 42b0 713d 5484 36bc
000000a0: b13a c63c f4f9 24bd 276f a9bd cd12 133d
000000b0: 4ffe 93bd 5dfc 5fbd 4a1d 833d b41b 8ebd
000000c0: 2f33 183c 6254 c43d 3189 93bb 9f6d cdbc
000000d0: 9572 41bd a9dc a7bc def9 37bd 1ff1 67bd
000000e0: daea e03a a34b a7bd c82d 853d df02 babc
000000f0: 0a6d 15bd bd79 e537 7369 5fbc 6f33 863d
00000100: cdbb 573c a747 4ebd 27bd 40bc f1cd 83bd
00000110: ab96 a73b 04a1 3a3d 5191 1dbd 9861 16bd
00000120: 333a 1b3d 6d32 6bbd 89a0 42bd 1773 8fbd
00000130: 38cc 9bbd 29fb dd3b 8c8a c9bd 8b5e f3bc
00000140: a622 a4bd ecf1 07bd ad4e e8bd 3950 443d
00000150: 11e8 aa3c 1915 9bbd b740 1abd 5ea9 813b
00000160: 3919 abbc 07b3 92bc 4d92 c23c 17ef 453d
00000170: 2dd9 c5bb 85f8 1dbd e0f3 7cbd f599 38bd
00000180: 6580 c3bc d169 9f3d ec57 4bbd 2b57 183c
00000190: 8c53 3a3c 44ff 8dbc 38b3 18bd 86b7 c0bb
000001a0: b61c 263d 1dbc 8cbd 7366 003d 566a 383d
000001b0: 5341 11bd 2ca0 c63d c704 a4bd 1493 cc3b
000001c0: 4fc8 51bc 8964 2a3d aa62 b2bc 4208 3d3d
000001d0: 7485 473d 7ebd d73b f706 a43d db86 9ebd
000001e0: 2f5d c2bc 1e70 aabc e110 323d 2d4a d43c
000001f0: a9ff ee3c 811f e63b ace6 c13c 8a7f 7cbd
00000200: d4cc 813d 18f1 393c c8ae f9bc c83e db3c
00000210: 65c2 cd3c 4e5d 263b bbbf aabd 8a30 3ebd
00000220: 9df4 cd3b 5191 93bd aa6b 913d 2459 3bbd
00000230: 48df e03c 6292 c0bc 2f53 263d 6cd6 8e3c
00000240: b960 5abc f1d3 05bd 3431 053c 6e6d 9abd
00000250: aeac cbbc a72d aa3d 8d28 653d 1691 143c
00000260: 9010 b2bc 75f6 a3bc 94b6 923d 864b 003a
00000270: 826e b83c 0528 20bd efe7 97bc 7fd1 2d3d
00000280: d0ab b5bd c6dc 383d 3ad5 823d 1179 b1bc
00000290: 88fc a6bd 34cf 0bbd dfd6 d53d b952 bb3d
000002a0: f751 ac3b d386 d03b 7da7 dfbd 707d a0bd
000002b0: ebd8 24bd 6e74 073d de41 2cbc 5baa d2bd
000002c0: 6ed0 28bd 962b dc3d 01c6 26bd 40a5 863d
000002d0: bc64 313c 6a97 f23c baa7 4f3b 60a4 b93d
000002e0: 0d2d f7bd b979 9a3c d516 d4bd a1b6 86bc
000002f0: 9c4b a2bd 9dfe bebd 0041 1e3d 46c1 543b
00000300: b58b 7dbd 714a 713d 61a4 5f3c 3e35 d0bc
00000310: 9a82 053d a61b 2bbd a921 7abc e407 98bb
00000320: 16c0 7c3d f2b0 4ebd 4f1d 4cbb ea77 d43c
00000330: 64ce 423d 97b8 3a3c a39d 0b3d c9b7 0ebd
00000340: 2e2e a73c b640 edbc 7473 91bd 147f 48bd
00000350: f775 623d 8630 8fbb 6277 9cbd 5b3d 4a3d
00000360: 1aea 683d 018e 6c3d af9e a0bd dfba 683c
00000370: 46ff a63c 5c5a 0dbd 35b7 d03b 84c2 d1bc
00000380: a871 24bc 4add 7f3d 22cd b63c 43f4 90bd
00000390: 2711 27bd 57aa 68bc 533e 86bd 1fc6 26bd
000003a0: a95f 7f3c b9cf 85bd f9c4 cabb 6fd8 b03d
000003b0: 8cdd 97bd 7b6d 483d 2f28 5a3c 6cf6 2f3c
000003c0: 8dab 523c f3f4 b03c 71d7 9e3c ea45 163d
000003d0: b15b c03b 140b 80bd 948e 8dbc 5b91 79bc
000003e0: 597b 6c3d b5f7 023d 9818 253d 3b3b 983d
000003f0: 8fca 743d 2d94 b13d 5b99 5d3c d74c 463b

bias f4 [64]
0.07526233 -0.0153734395 -0.012802448 0.055452105 -0.013763291 -0.023225771 -0.0014271877 0.042596918
-0.026765442 -0.015225328 0.07662109 -0.03822107 0.045280006 0.008373945 0.03272849 -0.058664292
0.04374196 0.005152004 0.09813625 0.018057637 0.02193682 0.0005075707 -0.025604576 0.035628427
-0.028575938 0.08094065 0.008164707 -0.047184315 -0.053142615 -0.07257831 -0.0114971865 0.028720751
-0.0012090267 0.03379977 0.039016236 -0.051310737 0.012803596 0.009422972 0.037525363 0.060211085
-0.014258602 0.08821409 -0.026873074 0.08454828 -0.07260293 -0.09164507 -0.08793451 -0.019897334
0.030918548 0.018422214 -0.012732555 0.04310221 -0.09135145 0.0673676 -0.0585394 -0.049578846
-0.049531996 -0.06603781 -0.034331184 -0.08853801 0.044658884 0.017314242 0.022490408 -0.081999
00000000: 2323 9a3d e1e0 7bbc 5cc1 51bc bf21 633d
00000010: 6d7f 61bc f943 bebc 7910 bbba 1b7a 2e3d
00000020: 3343 dbbc a773 79bc 85eb 9c3d b28d 1cbd
00000030: 8777 393d df32 093c 4f0e 063d f849 70bd
00000040: c52a 333d 24d2 a83b a9fb c83d 9ced 933c
00000050: d9b4 b33c 7e0e 053a b0c0 d1bc 1def 113d
00000060: 1618 eabc 36c4 a53d 43c5 053c 5744 41bd
00000070: 12ac 59bd f0a3 94bd b25e 3cbc c847 eb3c
00000080: 3478 9eba a171 0a3d 7dcf 1f3d 352b 52bd
00000090: 2dc6 513c cf62 1a3c 32b4 193d e69f 763d
000000a0: e99c 69bc 97a9 b43d ec24 dcbc a627 ad3d
000000b0: d8b0 94bd 69b0 bbbd 0217 b4bd bcff a2bc
000000c0: e548 fd3c 2fea 963c 359c 50bc f18b 303d
000000d0: 7816 bbbd 06f8 893d 03c7 6fbd 3013 4bbd
000000e0: 10e2 4abd d53e 87bd db9e 0cbd 6b53 b5bd
000000f0: 3cec 363d 99d6 8d3c ce3d b83c 17ef a7bd

weight f4 [64, 16, 3, 3]
0.041464716 0.077525295 0.044682696 0.0019917693 0.050474856 -0.07676456 -0.056017894 -0.0024135811
-0.004466969 -0.060023446 -0.030209105 -0.024413308 0.067705184 -0.01593777 -0.02767013 -0.03742521
-0.07224883 0.03374004 -0.045494188 0.089761354 -0.007519902 0.016668726 -0.006306403 -0.05863223
0.026678862 -0.03232268 -0.042055976 -0.006756855 -0.073754475 -0.06265324 0.01993222 0.029820004
-0.011050377 0.028788496 0.056867264 -0.04586454 0.07257081 -0.0223145 -0.045058854 0.06497238
0.09101568 -0.011911328 0.0076378253 -0.004508922 0.050491527 0.03806057 -0.08363901 -0.023183687
0.03447608 -0.016433429 -0.05314447 0.04776691 -0.024390751 -0.045149937 -0.0015848867 0.08202846
0.012490027 -0.054547407 0.08923598 0.043663703 0.027890995 0.01519138 0.03412249 -0.07516332
0.00047044846 -0.058512066 0.040866178 -0.0531382 0.056183275 0.064619794 0.05599836 -0.0015101051
0.004549601 0.013431771 -0.013213767 0.0045727654 -0.0212404 -0.06375364 -0.05293372 0.0019448976
0.028733378 -0.05565246 0.05190935 -0.05876799 0.050762165 -0.09539736 -0.042715296 -0.059920624
-0.09958407 -0.04611735 -0.05472804 -0.022770781 0.058186 0.06886365 0.0061566266 -0.07004051
-0.035685405 -0.061085936 0.07267748 -0.03693171 -0.055436555 -0.06302279 -0.011032297 -0.018288117
-0.07966266 0.003271281 0.05760181 -0.062243987 0.035187114 -0.10837851 -0.08032177 -0.06512057
-0.011288193 0.017004885 -0.0014415106 -0.026729673 -0.017750103 -0.0002890886 0.036057025 0.06468877
-0.047426973 -0.083834104 0.0077878186 0.036925707 0.03626967 0.011730781 -0.004854457 0.03086079
0.016391257 0.06939109 -0.062215034 -0.044465367 -0.015111021 -0.027315522 -0.044749785 0.083436094
0.02410827 -0.027388131 -0.046097662 -0.0209326 0.00041537444 0.008910782 0.039585076 0.07762625
-0.02837243 0.061840985 -0.06545644 0.043539386 0.042337198 -0.05281483 0.019879688 -0.03726475
0.014089207 -0.038379405 -0.030000428 0.074802734 0.05244958 -0.06615509 -0.07196596 -0.04687358
-0.07442957 -0.05092506 -0.053062692 0.033217024 0.008141084 -0.053711325 0.09395735 -0.024959102
-0.052092522 0.014291078 -0.06608949 0.01994756 -0.050546397 -0.049492348 -0.06508351 -0.017731402
-0.0907594 0.05665793 -0.0093657 -0.04346022 0.046155393 0.045107435 -0.017100122 0.090481505
0.114321075 -0.046653617 0.08456089 0.010876513 -0.015916422 -0.075767 0.038494058 0.08116056
-0.08246612 0.051740803 -0.027618749 -0.025788134 -0.07756869 -0.0066138743 0.06205219 0.019514715
-0.07462073 -0.08076909 0.10116434 0.076684736 0.021972604 -0.05019626 0.03438921 -0.08328155
-0.038186286 0.056984674 -0.076194055 -0.0063714394 -0.010847992 -0.06287179 -0.047100488 0.025566239
0.055546764 0.0147081 -0.08365864 -0.0075841276 -0.01591186 -0.09005722 -0.04757024 -0.0260586
-0.019944044 0.03717765 0.042040486 0.026350735 0.018600889 -0.028481267 -0.018261733 0.050781623
0.046247013 -0.0014244482 -0.07096214 -0.013019462 0.06571608 0.001715984 0.084874906 -0.057980068
0.050827876 -0.06946819 0.067594014 -0.038019802 -0.030151805 -0.018797893 -0.06804025 -0.065683275
-0.018101264 0.035814073 0.039735455 -0.024867782 -0.02356179 0.048316464 -0.08434841 -0.021386193
00000000: e8d6 293d 95c5 9e3d 3405 373d 5888 023b
00000010: b9be 4e3d bd36 9dbd 0573 65bd 2c2d 1ebb
00000020: a75f 92bb 25db 75bd 1679 f7bc 6bfe c7bc
00000030: 04a9 8a3d ed8f 82bc 78ac e2bc 2d4b 19bd
00000040: 32f7 93bd ff32 0a3d 1d58 3abd cdd4 b73d
00000050: 8369 f6bb da8c 883c f1a5 cebb 5928 70bd
00000060: a18d da3c c964 04bd e342 2cbd 9c68 ddbb
00000070: 960c 97bd 5850 80bd e548 a33c 1549 f43c
00000080: a40c 35bc dad5 eb3c a6ed 683d 75dc 3bbd
00000090: 01a0 943d e6cc b6bc a28f 38bd 3d10 853d
000000a0: 6e66 ba3d bb27 43bc b946 fa3b 94bf 93bb
000000b0: 34d0 4e3d 66e5 1b3d ee4a abbd b7eb bdbc
000000c0: ca36 0d3d 669f 86bc 04ae 59bd 3ca7 433d
000000d0: 1dcf c7bc 24ef 38bd f9bb cfba 8afe a73d
000000e0: f8a2 4c3c 1a6d 5fbd 5ac1 b63d b6d8 323d
000000f0: a87b e43c 44e5 783c 06c4 0b3d 3aef 99bd
00000100: 86a6 f639 59aa 6fbd 4b63 273d 71a7 59bd
00000110: 6f20 663d 6257 843d 895e 653d b8ee c5ba
00000120: d214 953b ee10 5c3c 8e7e 58bc 23d7 953b
00000130: 5900 aebc 4591 82bd 07d1 58bd efeb fe3a
00000140: 4362 eb3c d5f3 63bd e69e 543d b4b6 70bd
00000150: fdeb 4f3d b15f c3bd 3cf6 2ebd 546f 75bd
00000160: bcf2 cbbd 8ce5 3cbd 822a 60bd ca89 babc
00000170: 7154 6e3d 6308 8d3d 87bd c93b 6671 8fbd
00000180: dc2a 12bd 3f35 7abd eed7 943d b445 17bd
00000190: 7111 63bd 1812 81bd cfc0 34bc f6d0 95bc
000001a0: 2d26 a3bd fd62 563b e0ef 6b3d 8df3 7ebd
000001b0: 5d20 103d 8df5 ddbd bd7f a4bd ef5d 85bd
000001c0: 1df2 38bc d44d 8b3c 12f1 bcba 30f8 dabc
000001d0: aa68 91bc d190 97b9 88b0 133d 8c7b 843d
000001e0: c942 42bd 37b1 abbd f530 ff3b 693f 173d
000001f0: 818f 143d 7632 403c 2312 9fbb c4cf fc3c
00000200: f546 863c ea1c 8e3d 31d5 7ebd 5121 36bd
00000210: 3794 77bc cdc4 dfbc 8d4b 37bd 8be0 aa3d
00000220: b57e c53c 135d e0bc e7d0 3cbd d87a abbc
00000230: 9dc6 d939 87fe 113c f623 223d 83fa 9e3d
00000240: 4c6d e8bc f94c 7d3d 070e 86bd 5b56 323d
00000250: c569 2d3d 5d54 58bd bada a23c eca2 18bd
00000260: 6bd6 663c b933 1dbd 75c3 f5bc 2d32 993d
00000270: 5fd5 563d 527c 87bd e462 93bd 83fe 3fbd
00000280: 886e 98bd cc96 50bd 4458 59bd 930e 083d
00000290: 2e62 053c 6800 5cbd b66c c03d 0877 ccbc
000002a0: f85e 55bd 2025 6a3c ed59 87bd 1169 a33c
000002b0: bd09 4fbd 7db8 4abd 814a 85bd 7241 91bc
000002c0: 10e0 b9bd 2512 683d 9872 19bc 5803 32bd
000002d0: 700d 3d3d 93c2 383d 8e15 8cbc 5e4e b93d
000002e0: 2b21 ea3d dd17 3fbd 432e ad3d 6733 323c
000002f0: 2863 82bc bb2b 9bbd f2ab 1d3d 8237 a63d
00000300: ffe3 a8bd 2aee 533d b740 e2bc a341 d3bc
00000310: 55dc 9ebd 33b9 d8bb 702a 7e3d 53dd 9f3c
00000320: c1d2 98bd 446a a5bd 402f cf3d e30c 9d3d
00000330: e4ff b33c 989a 4dbd b3db 0c3d 848f aabd
00000340: 3969 1cbd c368 693d a10b 9cbd 82c7 d0bb
00000350: c7bb 31bc edc2 80bd 71ec 40bd 4a70 d13c
00000360: 0185 633d 3efa 703c 3955 abbd 4684 f8bb
00000370: 9759 82bc eb6f b8bd 03d9 42bd d878 d5bc
00000380: b161 a3bc 9747 183d a532 2c3d 7fdd d73c
00000390: e460 983c 8c51 e9bc a199 95bc 6400 503d
000003a0: 826d 3d3d 8db4 baba 9954 91bd 954f 55bc
000003b0: 2796 863d deea e03a e5d2 ad3d 827c 6dbd
000003c0: e430 503d 5745 8ebd bb6e 8a3d a7ba 1bbd
000003d0: eb00 f7bc 0afe 99bc b058 8bbd f484 86bd
000003e0: 1a49 94bc c7b1 123d a5c1 223d 85b7 cbbc
000003f0: a804 c1bc 7ce7 453d dcbe acbd 1932 afbc

bias f4 [64]
-0.02340216 0.08016486 -0.08639608 -0.050848026 -0.011431904 0.059686236 -0.023476634 -0.04196866
0.037535973 -0.045656722 0.012759603 0.01664675 -0.069748886 0.049231548 0.06041474 0.028809078
0.030005574 -0.05186444 -0.031742364 0.010168829 -0.026526323 0.03267106 0.004761623 0.014474184
-0.04998235 0.051643275 0.07220901 -0.04671434 -0.064901404 0.059482668 -0.021449206 0.04943768
0.07394515 -0.08778943 0.004316583 -0.08368266 -0.008776833 -0.035487473 0.01911112 -0.07046883
0.02330121 -0.06476193 -0.026072467 0.03703639 0.041842792 0.07586498 0.01881078 -0.049534086
-0.0759768 -0.055415254 -0.078509554 -0.054730695 0.05791368 0.06485214 -0.021004999 -0.0489356
-0.041620973 0.03302458 -0.07621877 0.041808598 -0.036710806 -0.00040651247 -0.022831779 -0.05490081
00000000: e3b5 bfbc 792d a43d 6ef0 b0bd 0546 50bd
00000010: e14c 3bbc 8e79 743d 1252 c0bc 54e7 2bbd
00000020: 52bf 193d 8b02 3bbd a70d 513c c45e 883c
00000030: 81d8 8ebd 05a7 493d 7275 773d 0401 ec3c
00000040: 40ce f53c cf6f 54bd 4804 02bd 299b 263c
00000050: bb4d d9bc 17d2 053d 6407 9c3b 2125 6d3c
00000060: 4bba 4cbd e687 533d 51e2 933d 8957 3fbd
00000070: 07eb 84bd 19a4 733d 3fb6 afbc 2a7f 4a3d
00000080: 8e70 973d f2ca b3bd 1f72 8d3b d061 abbd
00000090: b5cc 0fbc 505b 11bd ec8e 9c3c f651 90bd
000000a0: 2ee2 be3c e7a1 84bd ed95 d5bc 78b3 173d
000000b0: 5963 2b3d 195f 9b3d 1119 9a3c 41e4 4abd
000000c0: b999 9bbd 1bfb 62bd 9ec9 a0bd 4b2d 60bd
000000d0: e536 6d3d 33d1 843d ad12 acbc b270 48bd
000000e0: c17a 2abd c844 073d 9618 9cbd 7e3f 2b3d
000000f0: 125e 16bd 2e21 d5b9 b609 bbbc acdf 60bd
