working/model_pretrained/net_F16B2_epoch_13.pth (torch_old, 135256 bytes, 16 tensors)

weight f4 [16, 3, 3, 3]
0	0x3e17c3fe	0.14820859
1	0xbe0f4ffb	-0.13995354
2	0xbe26d361	-0.16291572
3	0xbe178ca0	-0.14799738
4	0x3e1cf49d	0.15327688
5	0x3e04c4bb	0.12965672
6	0xbe0c04c8	-0.13673699
7	0x3e2f0e06	0.17095193
8	0xbdb4a815	-0.088211216
9	0xbe29f4ad	-0.16597243
10	0xbd94c0f4	-0.072633654
11	0xbcbc65eb	-0.022997817
12	0xbe084975	-0.13309272
13	0x3dd4e394	0.103949696
14	0x3e29e3c4	0.16590792
15	0x3dc408e0	0.09572005
16	0xbe17176d	-0.1475503
17	0x3e16e60a	0.1473619
18	0x3cca879e	0.02472287
19	0x3dc5121c	0.09622595
20	0x3e2be551	0.16786696
21	0xbd63e54c	-0.055638596
22	0xbdc42490	-0.09577286
23	0x3d94c24a	0.0726362
24	0xbdbbb787	-0.091658644
25	0xbe27f5f1	-0.16402413
26	0x3da1fc6e	0.07909475
27	0x3ddb555e	0.10709642
28	0x3d69790e	0.057000212
29	0xbe1da04b	-0.15393178
30	0xbd11ef89	-0.03562883
31	0xbd85e79f	-0.06538319
32	0xbdc059b8	-0.093921125
33	0xbce1db31	-0.027570339
34	0x3e134003	0.14379887
35	0xbe21285e	-0.15738055
36	0xbadaf9ce	-0.0016706528
37	0x3dc19018	0.09451312
38	0x3d47cba4	0.04877819
39	0x3e36d894	0.17856055
40	0x3c3f28be	0.011667429
41	0xbe18b913	-0.1491435
42	0xbdf8f9ad	-0.12156997
43	0xbc569d48	-0.013099022
44	0x3c20b4bc	0.009808715
45	0x3d0e7459	0.034778927
46	0xbd02c3d6	-0.031925045
47	0xbd9cb3a8	-0.07651454
48	0xbe0d1c64	-0.13780361
49	0x3d565170	0.05232376
50	0x3b2bcb90	0.0026213862
51	0xbdd75699	-0.10514564
52	0xbe131a88	-0.1436559
53	0xbd5dcbf9	-0.0541496
54	0xbc0daa9d	-0.008646634
55	0x3e4491b2	0.19196203
56	0x3e386889	0.18008627
57	0xbd013415	-0.03154381
58	0x3dfe394e	0.12413274
59	0x3e42006c	0.18945473
60	0x3c893e30	0.016753286
61	0xbe2de9bc	-0.16983694
62	0x3e1e05d2	0.15431908
63	0xbd3e3e55	-0.046446163
64	0xbe2b2e3a	-0.16716853
65	0xbcd0e602	-0.025500301
66	0x3da9673c	0.082716435
67	0xbd3238f6	-0.043511353
68	0x3c3e83a2	0.011628063
69	0xbd9f86f8	-0.07789415
70	0xbe1102b2	-0.14161184
71	0xbe0fa0ab	-0.14026134
72	0x3dc02579	0.09382147
73	0x3e2992bf	0.16559885
74	0xba2da856	-0.000662451
75	0xbdc37491	-0.09543718
76	0xbd9c20e3	-0.0762346
77	0x3c59a0e1	0.013282985
78	0xbdbeb27c	-0.09311387
79	0xbe0cf837	-0.13766561
80	0xbe095976	-0.13413033
81	0xbe22de4f	-0.15905116
82	0xbdc41ba1	-0.09575582
83	0x3e13673c	0.1439485
84	0x3dcafd52	0.09911598
85	0xbcdb5356	-0.026773136
86	0xbc078864	-0.008272264
87	0xbcab5e21	-0.020918908
88	0xbddc0b8e	-0.107443914
89	0xbcd78346	-0.026307713
90	0xbc775954	-0.015096981
91	0xbdbba210	-0.0916177
92	0xbd4eba34	-0.050470546
93	0xbde13742	-0.10996868
94	0x3c8764d6	0.016527575
95	0xbdaf634f	-0.085638635
96	0xbdb02682	-0.08601095
97	0x3d4648b6	0.048409186
98	0xbb22c314	-0.0024835514
99	0x3d11deaf	0.03561276
100	0x3e0a5aa8	0.13511145
101	0xbe1b996c	-0.15195245
102	0xbdc4f228	-0.096165
103	0x3e2be9d4	0.16788417
104	0x3df6e61e	0.1205561
105	0xbe29e0be	-0.16589639
106	0x3dd90b01	0.10597802
107	0x3af03ef3	0.0018329307
108	0xbd71da21	-0.059045915
109	0xbe1fd1c7	-0.15607367
110	0x3d98daf3	0.07463636
111	0xbdeeaaba	-0.11653657
112	0x3de47412	0.11154951
113	0xbde3ff4b	-0.11132678
114	0xbe17a905	-0.1481057
115	0x3d83bd35	0.06432573
116	0xbada6640	-0.0016662553
117	0x3d6dbec6	0.058043264
118	0xbd776382	-0.060397632
119	0x3baebf76	0.0053328825
120	0xbd05a174	-0.032624677
121	0x3dab5832	0.08366431
122	0xbd127e90	-0.03576523
123	0xbd76cbc4	-0.06025292
124	0x3dcbc091	0.099488385
125	0xbdfa89c6	-0.122333094
126	0x3e3e256a	0.1856896
127	0x3dadf9e8	0.084949315
128	0x3e39c99b	0.18143313
129	0xbdaae48f	-0.08344375
130	0x3ded3ef9	0.11584277
131	0xbba56e08	-0.005048517
132	0x3dede6b3	0.11616268
133	0xbdb2dd14	-0.087335736
134	0x3d0a0d08	0.033703834
135	0xbdbfb9b7	-0.09361594
136	0x3e01a346	0.1265994
137	0xbd3e15cf	-0.046407517
138	0xbe023661	-0.12716056
139	0x3e18039c	0.14845127
140	0xbe257acb	-0.16160123
141	0x3da3fd02	0.08007242
142	0x3c2e280d	0.010629666
143	0xbd124a47	-0.035715368
144	0x3e4c28b5	0.19937404
145	0x3e27a3a1	0.16371013
146	0x3df61b89	0.12016971
147	0xbe25a524	-0.16176277
148	0x3e3bc793	0.1833785
149	0xbb31fbef	-0.002715822
150	0xbd50eb35	-0.05100556
151	0x3d76beb9	0.06024048
152	0xbb3f816c	-0.0029221429
153	0xbdafc69c	-0.085828036
154	0x3c5ef5d5	0.013608416
155	0xbc1c5357	-0.009541354
156	0xbe1e63c4	-0.15467745
157	0xbe45a9f7	-0.19303118
158	0x3de9f480	0.11423588
159	0x3de1ef5e	0.11031984
160	0xbd912bb1	-0.070884116
161	0x3dd3996b	0.103319965
162	0x3d214089	0.039368186
163	0xbca3acfc	-0.019979946
164	0x3c6d5d5a	0.014487589
165	0x3e29a5f7	0.16567217
166	0xbe13bb3f	-0.14426897
167	0x3e294cdb	0.16533224
168	0x3e17d6e4	0.14828068
169	0xbe357d15	-0.17723496
170	0xbe39a3e9	-0.18128933
171	0xbe2b3b28	-0.16721785
172	0x3c9b4122	0.018951956
173	0x3cbfca0c	0.023411773
174	0xbe29858d	-0.16554852
175	0xbe4e57b8	-0.2015065
176	0xbdf99316	-0.121862575
177	0xbd8e978d	-0.069625
178	0xbdf3d0aa	-0.11905034
179	0x3e386f2f	0.18011163
180	0x3dd0b671	0.10191048
181	0x3e10562c	0.14095372
182	0x3dd87d2f	0.10570752
183	0xbd622920	-0.055215
184	0x3e053203	0.13007359
185	0x3e1b194f	0.15146373
186	0xbd31cf4b	-0.04341058
187	0xbdc644cc	-0.09681091
188	0xbd1daa61	-0.038492564
189	0xbbacbcf1	-0.005271547
190	0xbe1f1360	-0.15534735
191	0xbdb28a72	-0.087178126
192	0x3e2ad7b2	0.16683844
193	0x3db6e31d	0.08930037
194	0xbdfcb933	-0.123400114
195	0xbdc9e4a8	-0.09858066
196	0xbd08b5a4	-0.03337635
197	0x3c9737a2	0.018459145
198	0x3e2028b2	0.15640524
199	0x3d46a352	0.0484956
200	0x3e22c246	0.15894422
201	0x3e1d89c2	0.15384582
202	0x3dc7bde3	0.09753015
203	0x3d3cabfa	0.046062447
204	0x3d0a1e2c	0.03372018
205	0x3dd7ed84	0.105433494
206	0x3ba4490f	0.005013592
207	0xbdc75e12	-0.09734739
208	0x3e09ffa1	0.13476421
209	0x3dbacb0f	0.091207616
210	0xbd87285e	-0.06599496
211	0xbdfb1092	-0.1225902
212	0x3d1ebe25	0.038755555
213	0x3dceda19	0.101001926
214	0x3e2ba186	0.16760835
215	0xbd245c4f	-0.040127095
216	0xbe311bf7	-0.17295824
217	0x3dbdf141	0.09274531
218	0x3d08934d	0.033343602
219	0xbe1ec858	-0.15506113
220	0xbe1d67ab	-0.15371577
221	0x3e1d4eaf	0.15362047
222	0x3e0ca0df	0.13733242
223	0xbdbf6c1e	-0.093467936
224	0xbdba0fb0	-0.090850234
225	0x3e2498d8	0.1607393
226	0xbbf77fa0	-0.007553056
227	0x3e378a0c	0.17923754
228	0xbcc6a24f	-0.024247317
229	0xbd431f01	-0.04763699
230	0xbe243e45	-0.16039379
231	0x3e060ba6	0.13090381
232	0x3db14c35	0.086571135
233	0xbd89af4e	-0.0672289
234	0xbbf4d26f	-0.0074713747
235	0xbd6483ae	-0.055789642
236	0x3e28ca70	0.16483474
237	0xbc3cfa0e	-0.011534227
238	0x3e320cd3	0.17387705
239	0xbd297411	-0.041370455
240	0x3d0a937c	0.03383206
241	0x3d913082	0.0708933
242	0xbb5ff854	-0.0034175115
243	0xbdd17875	-0.102280535
244	0xbd6a2686	-0.057165645
245	0x3bc1c8a7	0.005913812
246	0xbda94d46	-0.08266692
247	0x3c5bf72d	0.0134256305
248	0x3e2b5fa5	0.16735704
249	0xbe0d054e	-0.13771555
250	0xbca8f51b	-0.020624688
251	0xbd067ab6	-0.03283187
252	0x3da3c3be	0.07996319
253	0xbe2d7e93	-0.16942815
254	0x3d92d0d5	0.07168738
255	0xbcf771e6	-0.030205678

bias f4 [16]
0	0x3dba9ace	0.09111558
1	0x3e01ba75	0.12668784
2	0x3e1cfe8e	0.1533148
3	0x3d9aceb0	0.07558954
4	0xbdcc7320	-0.09982896
5	0x3d1b6f03	0.037947666
6	0x3e4c572a	0.19955125
7	0x3e102e20	0.14080095
8	0x3d56c09c	0.05242978
9	0x3dc317f6	0.095260546
10	0x3e180713	0.14846449
11	0x3e1f2cea	0.15544477
12	0x3da73220	0.081638575
13	0xbd125c46	-0.03573253
14	0xbc6e9a3d	-0.01456314
15	0xbdcab762	-0.09898259

weight f4 [16, 16, 3, 3]
0	0xbc370071	-0.011169539
1	0xbcdabf82	-0.026702646
2	0xbd95cd67	-0.07314568
3	0xbb6fe059	-0.0036602227
4	0x3dddb746	0.10825972
5	0xbddcc49f	-0.1077969
6	0x3e00ab56	0.1256536
7	0xbd555004	-0.052078262
8	0x3d880ca6	0.066430375
9	0xbc905e73	-0.017623162
10	0x3da54594	0.080699116
11	0xbcf52afa	-0.02992772
12	0x3c33d3e1	0.010975809
13	0xbc6bb106	-0.014385467
14	0xbd334b3c	-0.04377292
15	0x3ac4ce6f	0.0015015135
16	0x3d4e185f	0.05031621
17	0x3d6d7154	0.057969406
18	0x3d2b1e54	0.04177697
19	0x3d23d0be	0.039993994
20	0xbd0cf753	-0.034415554
21	0xbdb5dd05	-0.08880047
22	0xbd0a37f1	-0.033744756
23	0xbe0166f7	-0.12636934
24	0xbdb1c536	-0.08680193
25	0xbd2c2a2e	-0.042032413
26	0x3d885678	0.066571176
27	0xbd85b361	-0.065283544
28	0x3ca7e315	0.020494023
29	0xb76a73d3	-1.3974454e-05
30	0xbd166d02	-0.03672505
31	0x3dab7a6f	0.08372962
32	0x3d9a098b	0.075213514
33	0xbbddea27	-0.006772298
34	0x3d9233e5	0.07138804
35	0x3d12ed2f	0.035870727
36	0x3ca8c1b3	0.020600175
37	0xbdcb25a6	-0.0991929
38	0x3bcf650b	0.006329184
39	0xbc21909c	-0.009861138
40	0x3e088dd9	0.1333536
41	0xbd041c61	-0.032253627
42	0x3ceac6b4	0.028659202
43	0xbd8dd5d3	-0.06925549
44	0xbd6a4e1f	-0.05720341
45	0x3d9aaf87	0.075530104
46	0xbd7031b3	-0.058641147
47	0x3dd6dd61	0.104914434
48	0xbc42e3a4	-0.011895094
49	0x3d114d8e	0.035474353
50	0xbd572be8	-0.052532107
51	0xbc64f57d	-0.013974545
52	0xbde1d30a	-0.11026581
53	0x3d79d045	0.060989637
54	0x3c61b760	0.01377663
55	0xbd60edc1	-0.05491424
56	0x3c22d27d	0.00993788
57	0xbdb46e07	-0.088100486
58	0xbd38ea5b	-0.045145374
59	0xbd628a8a	-0.055307902
60	0x3bdfa58a	0.0068251537
61	0x3c9102b7	0.01770149
62	0xbd8fb930	-0.070177436
63	0xbd73b433	-0.059498023
64	0xbd45ab44	-0.048259035
65	0xbd87c10f	-0.0662862
66	0x3be77d20	0.0070644766
67	0xbca19b42	-0.019727353
68	0xbcf156df	-0.029460369
69	0x3d94edb8	0.07271904
70	0x3ccb65f3	0.024828887
71	0xbd8ebf47	-0.06970077
72	0xbd6ea846	-0.058265947
73	0x3c604f22	0.013690742
74	0xbd286d21	-0.0411197
75	0x3d82fe14	0.06396118
76	0x3b580ec4	0.0032967785
77	0x3d3a14a7	0.04542985
78	0xbc5a1d78	-0.01331269
79	0x3b2bd31e	0.0026218365
80	0xbd5d5eb3	-0.05404539
81	0x3cc8ad98	0.024496838
82	0xbc370474	-0.011170495
83	0x3df25515	0.11832634
84	0x3dd024bc	0.101632565
85	0xbc85f5c0	-0.016352534
86	0x3e07cc94	0.13261634
87	0xb9ddeb4d	-0.00042327718
88	0xba4e5a84	-0.0007871764
89	0x3d9039ff	0.07042312
90	0xbd84acc7	-0.06478267
91	0xbc0bb678	-0.008527391
92	0x3c67c910	0.014147058
93	0x3d6e1cdc	0.05813299
94	0xbd0c017e	-0.03418111
95	0x3cea6f2c	0.028617464
96	0x3be6d65a	0.0070445957
97	0xbb6321ed	-0.0034657673
98	0x3d991e04	0.07476428
99	0xbcc59710	-0.024119884
100	0x3d422117	0.04739484
101	0xbdc2dfbf	-0.095153324
102	0xbcfe18da	-0.03101771
103	0x3cccdb5c	0.025006942
104	0xbd2b8955	-0.041879017
105	0xbda0b05b	-0.07846137
106	0x3de07ceb	0.10961326
107	0x3d8f872a	0.070082024
108	0x3ce779ec	0.028256379
109	0xbd169055	-0.03675874
110	0xbcde30d6	-0.027122896
111	0x3b9e9c1c	0.004840387
112	0xbd633d7f	-0.05547857
113	0xbd6dcadb	-0.058054786
114	0x3d3dd98f	0.04635006
115	0xbda6a3ac	-0.08136687
116	0xbd3c6eb8	-0.046004027
117	0xbc88cf35	-0.016700367
118	0x3d71f68d	0.05907302
119	0x3d5c70eb	0.053818624
120	0x3c55e8c8	0.013055988
121	0x3d812eb4	0.06307736
122	0x3dc860f4	0.09784117
123	0x3cf983ae	0.030458298
124	0xbd5c0c6f	-0.053722795
125	0xbd0f9a2a	-0.03505913
126	0xbbcd66ff	-0.0062683816
127	0xbd8008f6	-0.06251709
128	0x3d8aacdb	0.06771251
129	0x3d4e808a	0.050415553
130	0xbdfa6aa1	-0.12227369
131	0xbc7738cf	-0.015089228
132	0xbdd1c66c	-0.10242924
133	0xbd51da54	-0.051233605
134	0x3d61beff	0.05511379
135	0x3cf80b44	0.03027881
136	0xbcce25ed	-0.025164569
137	0x3cb083d4	0.021547236
138	0xbae9ab05	-0.0017827457
139	0xbda3d320	-0.07999253
140	0xbda2acfa	-0.07943149
141	0xbcc2d8c5	-0.023785004
142	0x3c8b186c	0.016979419
143	0xbd756286	-0.059908412
144	0xbdd27a5c	-0.102772444
145	0xbd8c365f	-0.06846308
146	0xbd0bea72	-0.03415913
147	0xbd57238c	-0.052524135
148	0x3d817a64	0.06322172
149	0xbd2a4edf	-0.041579124
150	0x3e069e8c	0.13146418
151	0x3bd67aae	0.0065453863
152	0xbce0b868	-0.027431682
153	0x3d4e018b	0.05029444
154	0xbd664df8	-0.0562267
155	0xbd438028	-0.04772964
156	0x3d533740	0.051566362
157	0xbda651ca	-0.08121069
158	0xbc1b05bd	-0.009461817
159	0xbbce26d2	-0.006291249
160	0x3b7ce19b	0.003858662
161	0xbab26f42	-0.001361348
162	0xbc3fb63a	-0.011701161
163	0x3c5b676e	0.013391359
164	0xbd30992e	-0.043114834
165	0xbdc8224e	-0.09772168
166	0xbd081f05	-0.033232708
167	0x3d0740f6	0.033020936
168	0x3d2e595d	0.042565692
169	0xbd8e7b96	-0.06957166
170	0xbd8f225e	-0.06988977
171	0xbd204121	-0.03912461
172	0x3d3049ca	0.04303912
173	0x3ce2e759	0.027698206
174	0x3d49529d	0.04915105
175	0x3caf17d9	0.021373676
176	0x3d686263	0.056734454
177	0x3c3bac7b	0.011454697
178	0xbdaaf67a	-0.08347793
179	0xbd0c6f33	-0.034285735
180	0xbda8eff3	-0.08248892
181	0xbe17b492	-0.14814976
182	0xbb79ed55	-0.0038135846
183	0x3c0bfb71	0.008543835
184	0x3d8e567a	0.06950088
185	0xbd772f27	-0.060347702
186	0x3d58ea22	0.05295766
187	0x3d59279a	0.053016283
188	0x3b80b6f3	0.0039280592
189	0x3c676b7c	0.014124747
190	0x3a42de34	0.00074336235
191	0x3d4435f6	0.047903024
192	0xbcf32be2	-0.02968401
193	0x3cffa4cb	0.03120651
194	0xbd689d6d	-0.056790758
195	0xbd64ea43	-0.055887472
196	0x3d7906ba	0.06079743
197	0x3dac2991	0.08406366
198	0xbd83b337	-0.06430667
199	0xbda8cdff	-0.08242416
200	0x3c140e4c	0.009036612
201	0x3d2a3c7c	0.04156159
202	0x3da31501	0.079629906
203	0xbc3b0b72	-0.011416303
204	0x3ca933b4	0.020654537
205	0xbd335eed	-0.0437917
206	0x3d849363	0.06473424
207	0xbd8fec5f	-0.07027506
208	0x3d8b1bf5	0.06792442
209	0x3bb5bb44	0.0055460054
210	0xba5ae788	-0.0008350541
211	0xbd0b9775	-0.034079988
212	0x3cb6f4db	0.022333553
213	0x3cdb777e	0.026790377
214	0xbcef96c7	-0.0292467
215	0xbd3449f2	-0.044015832
216	0xbd4ed827	-0.050499108
217	0xbd033a4e	-0.032038026
218	0xbce9eebe	-0.028556224
219	0x3daf44bd	0.08558033
220	0x3d24e468	0.040256888
221	0xbc26b024	-0.010173831
222	0xbc99b583	-0.01876331
223	0xb9dc107e	-0.00041973958
224	0xbd6ac304	-0.057314888
225	0xbcffd139	-0.031227695
226	0xbd136c5c	-0.03599201
227	0xbcf9e56f	-0.03050491
228	0x3c32af57	0.010906062
229	0x3d186b12	0.037211485
230	0x3e09713c	0.13422102
231	0x3d99b344	0.07504895
232	0xbb8b53e4	-0.004251944
233	0xbc6d241b	-0.01447394
234	0xbcf5c9df	-0.030003486
235	0x3d906bcf	0.07051813
236	0xbd97ec22	-0.07418086
237	0x3d413574	0.047170117
238	0x3d6aa440	0.057285547
239	0xbd84f3d3	-0.06491818
240	0x3cbbf3b9	0.022943364
241	0xbd3850f6	-0.044999085
242	0xbc9b960d	-0.018992448
243	0xbd0b1598	-0.03395614
244	0x3d8d4d25	0.0689948
245	0x3d4d65b1	0.05014581
246	0x3d0d5202	0.034502037
247	0xbd3338cd	-0.04375534
248	0x3db1a427	0.08673888
249	0xbc8a38fb	-0.016872874
250	0x3bd1d214	0.006403217
251	0x3c1d2f21	0.009593756
252	0xbd1776a8	-0.036978394
253	0xbd9f9534	-0.0779213
254	0xbd0ff99f	-0.035150167
255	0xbd9ffb2d	-0.0781158

bias f4 [16]
0	0xbc70d2af	-0.014698668
1	0xbce14afa	-0.027501572
2	0x3d8bf646	0.06834082
3	0x3e09a7b5	0.13442881
4	0x3d4ab907	0.049492862
5	0x3d148742	0.036261804
6	0xbbc21b89	-0.0059236926
7	0x3d1bdb6a	0.038051046
8	0x3d3b2559	0.045689914
9	0x3ba3cb44	0.0049985964
10	0x3ce89349	0.028390544
11	0xbca2993c	-0.019848458
12	0x3c9eedb9	0.019400464
13	0x3c64bccd	0.013961029
14	0xbd072ed0	-0.03300363
15	0x3d36a470	0.044590414

weight f4 [16, 16, 3, 3]
0	0x3e151bfb	0.14561455
1	0xbc52dc3c	-0.012869891
2	0xbd3514d7	-0.044209328
3	0xbe01f2be	-0.12690255
4	0x3da88c92	0.08229937
5	0xbc28ffd6	-0.010314902
6	0x3d5638ea	0.05230037
7	0x3a967089	0.001147763
8	0xbd632bda	-0.055461742
9	0x3d2f4541	0.042790655
10	0xbd9baa30	-0.0760082
11	0xbd395f2d	-0.045256782
12	0xbd7a64d4	-0.061131313
13	0x3da398c2	0.079881206
14	0xbdb3493c	-0.08754203
15	0xbce671a2	-0.028130356
16	0xbdc9be33	-0.09850731
17	0xbd831edb	-0.064023696
18	0xbddf0430	-0.108894706
19	0x3c2c33e6	0.01051042
20	0xbb60ad02	-0.0034282808
21	0xbcec4862	-0.028843109
22	0x3d823852	0.063583985
23	0xbd9246d3	-0.07142415
24	0xbc645e7e	-0.013938544
25	0xbd29ddee	-0.041471414
26	0x3dec9473	0.11551752
27	0x3c8d0fa9	0.017219381
28	0xbcdbcbb1	-0.026830526
29	0xbccf192e	-0.025280561
30	0x3df56be6	0.119834706
31	0x3ca4680b	0.020069143
32	0x3ced5ae5	0.028974006
33	0x3d7bb5ae	0.06145256
34	0x3e192280	0.14954567
35	0xbce8eb81	-0.02843261
36	0xbd8292e4	-0.063756734
37	0x3cc7fdc3	0.024412995
38	0xbd43b75f	-0.0477823
39	0x3c225fde	0.009910552
40	0xbd0182e0	-0.031618953
41	0x3d3762db	0.04477201
42	0x3c32f864	0.010923479
43	0xbc8019a5	-0.015637228
44	0xbd63fbf2	-0.055660196
45	0xbc3a1f51	-0.0113600055
46	0xbd9e7a2f	-0.077381484
47	0xbcba54a9	-0.022745447
48	0xbdd73827	-0.10508757
49	0x3cc5956d	0.024119103
50	0xbd80bfbd	-0.06286571
51	0xbcf78eb8	-0.03021942
52	0xbd0a327d	-0.033739556
53	0xbd7021b9	-0.05862591
54	0xbd023c85	-0.031795997
55	0xbd38d0e3	-0.045121085
56	0xbdbe057a	-0.09278388
57	0x3d7b3422	0.061329015
58	0x3da22eb4	0.07919064
59	0x3d2cdbff	0.042201992
60	0xbc0caee8	-0.008586623
61	0x3d9fefc0	0.078094006
62	0x3bc62abc	0.006047575
63	0xbd6ff2ab	-0.058581036
64	0x3d02c0f9	0.031922314
65	0xbcebf586	-0.028803598
66	0x3d3e58e8	0.046471506
67	0x3cbacf54	0.02280394
68	0x3ccb74d2	0.024835978
69	0x3d9e3087	0.077240996
70	0xbda8fb43	-0.08251049
71	0x3ca7c79e	0.020480927
72	0x3d92e2af	0.07172143
73	0x3ca6ef37	0.020377738
74	0xbd81065a	-0.063000396
75	0x3d0e438d	0.03473239
76	0x3d4c12bd	0.049822558
77	0xbd985d53	-0.07439675
78	0x3ca4ce84	0.020118006
79	0xbd7137e9	-0.05889121
80	0xbd9ded7b	-0.077113114
81	0xbce661f2	-0.028122876
82	0x3dc43024	0.095794946
83	0xbd275435	-0.04085179
84	0xbd961c32	-0.073295966
85	0xbde71280	-0.112828255
86	0x3d9434eb	0.07236656
87	0x3c55d48a	0.013051162
88	0xba4ff1bd	-0.0007932445
89	0x3defd164	0.1170986
90	0x3cc0a9ff	0.02351856
91	0xbd3e2bd0	-0.0464285
92	0x3cc6ccec	0.024267636
93	0xbd80ff32	-0.06298675
94	0xbdaf66f5	-0.08564559
95	0x3d98a4a4	0.07453278
96	0xbd4f3d60	-0.05059564
97	0x3d1a485d	0.037666667
98	0xbd4dbea6	-0.050230645
99	0x3c9884b0	0.018617958
100	0x3cf6a68c	0.030108713
101	0xbca75fa4	-0.020431347
102	0x3d88e10c	0.06683549
103	0x3da9dd1b	0.08294126
104	0xbdac6a3e	-0.084187016
105	0x3d920104	0.071291
106	0xbd7929bc	-0.060830817
107	0xbce471b7	-0.027886255
108	0x3b29a61f	0.002588637
109	0x3d342899	0.04398403
110	0xbdc8a8a8	-0.097977936
111	0xbd0121f5	-0.031526525
112	0xbc1b1d05	-0.009467368
113	0xbd81346e	-0.06308828
114	0xbda226dc	-0.07917568
115	0xbc26814f	-0.0101626655
116	0xbce98c22	-0.028509203
117	0xbd96c434	-0.073616415
118	0x3d419acd	0.04726677
119	0xbc964e89	-0.018347995
120	0xbb4d46df	-0.003132276
121	0xbd7d30f9	-0.061814282
122	0x3d757fc2	0.059936292
123	0x3d0247d1	0.03180677
124	0xbd702b05	-0.058634777
125	0x3be7b6dc	0.007071359
126	0x3c6ed789	0.014577755
127	0x3d066222	0.03280843
128	0xbd1c39c2	-0.03814102
129	0xbcf3a67c	-0.029742472
130	0xbc3dd88a	-0.0115872715
131	0xbb024e52	-0.0019883108
132	0xbd1f9a1a	-0.038965322
133	0xbbfcc98a	-0.007714455
134	0x3cbc6db0	0.023001522
135	0xbd29bffd	-0.04144286
136	0xbd2f5071	-0.042801324
137	0xbd35e0ff	-0.044404026
138	0x3cd5e700	0.026111126
139	0x3daa5adb	0.083181106
140	0xbd9f0c83	-0.07766058
141	0x3d90ff56	0.070799515
142	0x3d6f79b5	0.05846568
143	0xbd73d864	-0.059532538
144	0x3dac8fda	0.08425875
145	0x3d826e3b	0.06368681
146	0x3dbb49bf	0.09144925
147	0xbd3d7137	-0.04625055
148	0xbd51ac22	-0.05118955
149	0xbc885974	-0.016644217
150	0x3d2e66a3	0.04257835
151	0x3d62d9c0	0.055383444
152	0x3d5b121f	0.05348408
153	0x3c95515e	0.018227275
154	0xbd10a676	-0.035315
155	0x3ce39310	0.027780086
156	0x3db91a0e	0.09038173
157	0xbba3f807	-0.0050039324
158	0xbd75b7a4	-0.059989586
159	0x3a4d9259	0.0007841937
160	0xbd6a85c2	-0.057256468
161	0x3da00dad	0.078151084
162	0x3cb257ed	0.021770442
163	0xbde90a4a	-0.113789156
164	0xbcfd8207	-0.030945791
165	0x3d509dc3	0.050931703
166	0xbe19ef03	-0.15032582
167	0xbdb37d9a	-0.08764191
168	0x3cccb6c8	0.0249895
169	0xbe174718	-0.14773214
170	0x3d757b06	0.059931777
171	0xbbdd1180	-0.006746471
172	0xbe011c8d	-0.12608548
173	0xbd8d43ea	-0.06897719
174	0x3cb8d352	0.022561703
175	0xbcab8ded	-0.020941699
176	0x3da759a5	0.08171395
177	0xbda54c64	-0.08071211
178	0xbd40f3c4	-0.047107473
179	0xbd0f2021	-0.03494275
180	0xbcc2c0a3	-0.023773497
181	0x3d20f468	0.039295584
182	0xbd6c5a43	-0.057703268
183	0xbda78448	-0.081795275
184	0x3ce9437f	0.028474567
185	0x3d0bb985	0.034112472
186	0xbd8234d6	-0.06357734
187	0x3d766a35	0.06015988
188	0x3d9bc44f	0.07605802
189	0x3c22c55a	0.009934748
190	0x3ca60a81	0.02026868
191	0x3d866f1c	0.06564161
192	0x3d137b5c	0.036006317
193	0xbdb747c3	-0.08949234
194	0x3c63d2b0	0.013905212
195	0xbd89eda4	-0.067347795
196	0x3c886115	0.016647855
197	0xbd540396	-0.051761232
198	0x3bd43232	0.0064757103
199	0x3dc1553f	0.094400875
200	0x3d9f43d6	0.077766106
201	0x3cea53e8	0.028604463
202	0x3d34284e	0.04398375
203	0x3c25a2be	0.010109602
204	0x3c263373	0.010144102
205	0xbd19db0f	-0.037562426
206	0x3cb2fa81	0.021847965
207	0x3dd18c92	0.1023189
208	0x3c967d94	0.018370427
209	0x3c36adf4	0.011149872
210	0x3bea4e6f	0.0071504633
211	0x3d0826f6	0.03324028
212	0xbd240a08	-0.04004863
213	0x3d44a274	0.04800649
214	0x3d4a61e3	0.04940976
215	0xbcafd4fc	-0.021463864
216	0x3d05d33f	0.032672163
217	0xbd6c1f95	-0.057647306
218	0x3d8efa84	0.06981376
219	0x3c8f293b	0.017475715
220	0x3d84b614	0.06480041
221	0x3d97a8ce	0.07405244
222	0xbc0cff79	-0.008605831
223	0xb8f0dd35	-0.00011485295
224	0x3d6d9223	0.058000695
225	0x3d1e557b	0.03865574
226	0x3d75ce94	0.06001146
227	0x3dcb32e6	0.099218175
228	0xbd24db9c	-0.0402485
229	0xba3e4911	-0.00072588125
230	0xbc807369	-0.015680032
231	0x3b252d71	0.0025204087
232	0xbd27bbe6	-0.04095068
233	0x3c73db98	0.014883898
234	0xbc43b96e	-0.011946065
235	0xbd03857d	-0.032109726
236	0xbd7cd83c	-0.061729655
237	0x3d3b969f	0.04579794
238	0xbd8bb7c6	-0.068221614
239	0x3bba10bf	0.005678266
240	0xbd3a1743	-0.04543234
241	0x3bc2f03d	0.005949049
242	0x3c1f8340	0.009735882
243	0xbd97c8d1	-0.074113496
244	0x3d12b5e3	0.035817992
245	0xbd49d6ba	-0.049277045
246	0xba9af6ae	-0.0011822784
247	0x3d782276	0.06057974
248	0x3c9919dc	0.018689089
249	0x3da7cee2	0.08193757
250	0x3d8b1849	0.067917414
251	0x3d3bc421	0.04584134
252	0x3d984aa8	0.074361145
253	0xbd9748a5	-0.07386903
254	0x3d9998c9	0.074998446
255	0xbd8fe328	-0.070257485

bias f4 [16]
0	0x3d70bc80	0.058773518
1	0x3d54768b	0.051870864
2	0x3cdfd365	0.02732248
3	0x3d9a655d	0.07538865
4	0xbca80b99	-0.020513343
5	0xbc0c0ceb	-0.008548002
6	0x3c6da45c	0.014504518
7	0xbdbd94aa	-0.09256871
8	0x3cb438b3	0.021999693
9	0xbd8761c1	-0.06610442
10	0x3dc8d853	0.098068856
11	0x3d0ea9c9	0.03482989
12	0x3ce55ad8	0.02799742
13	0x3d95da78	0.0731706
14	0x3d85dc48	0.06536156
15	0x3d589b9b	0.052882772

weight f4 [16, 16, 3, 3]
0	0xbc81ae7f	-0.015830277
1	0xbd11ca04	-0.035593048
2	0xbd511257	-0.05104288
3	0x3dc155ec	0.094402164
4	0xbd220d46	-0.03956344
5	0xbd821880	-0.06352329
6	0x3d94db33	0.072683714
7	0x3c9423ff	0.01808357
8	0xbd1fb1ca	-0.038987912
9	0x3d1d0133	0.03833122
10	0xbd3f70f3	-0.046738576
11	0x3c3c97f3	0.011510837
12	0x3d838829	0.06422455
13	0x3d706996	0.058694445
14	0x3ceff66f	0.029292313
15	0xbdb74f8a	-0.08950718
16	0x3ace5c59	0.0015744074
17	0xb92998e1	-0.00016174048
18	0x3ccc462f	0.02493581
19	0xbd262d33	-0.04057045
20	0x3d2b4cba	0.04182122
21	0x3cc3c19d	0.023896033
22	0xbc977029	-0.0184861
23	0xbd413814	-0.04717262
24	0x3baa6ef2	0.005201214
25	0x3d10db00	0.035365105
26	0xbd1803ad	-0.03711288
27	0x3d12a170	0.03579849
28	0x3d28c5bb	0.041204195
29	0xbd1c844f	-0.038212117
30	0x3cc3110f	0.023811845
31	0xbba7b745	-0.005118283
32	0x3d8c7d24	0.06859806
33	0xbcc3cd2b	-0.023901543
34	0x3d7cf34b	0.06175546
35	0x3cf9c35b	0.03048866
36	0xbc344948	-0.0110038
37	0xbd9e49a0	-0.077288866
38	0xbc0c4f8a	-0.008563885
39	0xbd3737f7	-0.044731107
40	0xbdae73e6	-0.085181996
41	0xbdab8c3d	-0.08376358
42	0x3d501a98	0.05080661
43	0xbbb5eb7d	-0.005551754
44	0xbd443290	-0.047899783
45	0xbc43c969	-0.011949875
46	0xbd0e508d	-0.034744788
47	0x3d343aad	0.04400127
48	0xbd273614	-0.040823057
49	0xbc071237	-0.008244089
50	0xbc7821d0	-0.01514478
51	0xbbf0eb2d	-0.007352254
52	0xbb938c74	-0.0045028273
53	0x3d83f075	0.06442348
54	0xbd27ee73	-0.040998887
55	0x3d8000c9	0.0625015
56	0x3d05f55a	0.03270469
57	0x3cc24b02	0.023717407
58	0xbd3bb7e8	-0.045829684
59	0x3d931cd6	0.071832344
60	0x3d590041	0.052978758
61	0x3d201f5c	0.039092407
62	0xbcf5bdec	-0.029997788
63	0xbd805a4d	-0.062672235
64	0x3d28e031	0.04122943
65	0xbc421f13	-0.011848229
66	0x3d855bc5	0.06511644
67	0x3b63ab97	0.0034739727
68	0xbd27967e	-0.040915005
69	0x3cd205d1	0.02563754
70	0x3d89bfaa	0.0672601
71	0xbc759a01	-0.014990331
72	0x3d6de1ba	0.058076598
73	0x3d86a89c	0.065751284
74	0x3d9082c3	0.07056191
75	0xbd1b1922	-0.037865765
76	0x3d309d2a	0.043118633
77	0x3ae94ecb	0.0017799971
78	0x3cf56023	0.029953068
79	0xbd950131	-0.07275618
80	0xbcc5bcef	-0.024137942
81	0x3d898294	0.06714359
82	0x3cb27f4f	0.021789221
83	0x3d2bf6a7	0.041983273
84	0x3c50cada	0.012743676
85	0xbd7a8a34	-0.061166957
86	0xbd15a9ad	-0.03653877
87	0x3d5289f6	0.0514011
88	0x3d640010	0.055664122
89	0xbd757592	-0.059926577
90	0xbd5669bd	-0.052346934
91	0xbc7348a7	-0.014848865
92	0x3a39e850	0.0007091807
93	0xbc695c1a	-0.01424315
94	0xbd9e37cc	-0.07725486
95	0xbd9093d7	-0.07059448
96	0xbda21ef0	-0.07916057
97	0xbcec4955	-0.028843561
98	0xbd987d3d	-0.07445762
99	0x3cd93b83	0.026517635
100	0x3d8c4150	0.06848395
101	0xbd2dcc17	-0.042430963
102	0x3d1d4562	0.038396247
103	0xbbf7584f	-0.007548369
104	0x3cc9228e	0.02455261
105	0x3d11a6b8	0.035559386
106	0xbd75c173	-0.05999894
107	0xbd400950	-0.04688388
108	0x3daaaa77	0.08333295
109	0x3d8c7b6b	0.068594776
110	0x3d97686d	0.073929645
111	0x3d8bf34d	0.06833515
112	0x3d908d88	0.07058245
113	0xbce25bb4	-0.027631618
114	0xbb9384d3	-0.004501918
115	0x3d20715b	0.039170604
116	0x3d691a8e	0.05691009
117	0x3d42eabe	0.04758715
118	0x3d77b2ec	0.060473368
119	0x3d7ed64c	0.06221609
120	0xbd86c88d	-0.06581221
121	0xbd0750bc	-0.03303598
122	0x3d8fcda5	0.070216455
123	0x3cb91523	0.022593087
124	0x3d0d0c66	0.034435652
125	0xbd9b285c	-0.07576057
126	0x3d72d32b	0.059283417
127	0x3d5a3100	0.053269386
128	0x3d950865	0.07276992
129	0x3cb6a065	0.022293279
130	0x3d231967	0.039819147
131	0xbcecf9da	-0.028927732
132	0xbda4ec26	-0.08052854
133	0xbd86dc0b	-0.065849386
134	0xbac2e7c9	-0.0014870103
135	0xbd97cf4e	-0.07412587
136	0xbc41ebea	-0.011836031
137	0x3d32e0f6	0.04367157
138	0xbbec9b71	-0.0072206785
139	0x3d7b0fa2	0.061294205
140	0xbcb0528d	-0.021523738
141	0x3d3b9bde	0.045802943
142	0xbd2e0f39	-0.042494986
143	0xbd156d95	-0.03648146
144	0xbb5ee107	-0.0034008638
145	0xbc8c6651	-0.017138632
146	0xbbea0a0b	-0.0071423105
147	0xbd808ed9	-0.06277246
148	0x3d86e592	0.06586756
149	0xbd96d380	-0.07364559
150	0xbcb98476	-0.02264617
151	0xbd4db63e	-0.050222628
152	0xbd675998	-0.056481928
153	0xbd22aa52	-0.03971321
154	0x3d1d8441	0.038456205
155	0x3c176998	0.009241484
156	0x3d9990a6	0.074982926
157	0x3b403175	0.0029326354
158	0x3d421d7e	0.047391407
159	0xbd9e9126	-0.077425286
160	0xbd617069	-0.055038843
161	0xbc13597b	-0.008993502
162	0xbc6ac6ab	-0.014329593
163	0xbd54786a	-0.05187265
164	0x3d00034e	0.03125315
165	0x3cb7d0c7	0.02243842
166	0xbbbe43ce	-0.005806423
167	0xbcc3b540	-0.023890138
168	0x3c02fb6c	0.007994514
169	0xbd8be91c	-0.068315715
170	0x3ce2c562	0.02768201
171	0xbc52a4a0	-0.0128566325
172	0xbd23c9c7	-0.03998735
173	0x3d70fdea	0.0588359
174	0xbd85d9a5	-0.06535653
175	0xbdac81e0	-0.08423209
176	0xbce3ca09	-0.027806299
177	0x3ca09958	0.01960437
178	0xbd0f4b1f	-0.03498375
179	0x3d91cb7d	0.071188904
180	0xbcc7deb9	-0.024398195
181	0xbc3d88c3	-0.011568251
182	0xbda2054d	-0.07911167
183	0xbd24be23	-0.04022039
184	0xbd132b59	-0.03593001
185	0x3cc85709	0.024455564
186	0xbd346ea1	-0.044050816
187	0x3cbe1337	0.023202522
188	0x3d9311cd	0.071811296
189	0xbcb6d853	-0.022319948
190	0xbd771e48	-0.060331613
191	0x3d066ea2	0.03282035
192	0xbcfa3b6f	-0.030545918
193	0x3d6fd825	0.05855574
194	0x3d0d80dd	0.03454672
195	0x3d4ed9f8	0.05050084
196	0x3b5accc5	0.0033386212
197	0x3d5a0295	0.05322512
198	0xbd1526b8	-0.03641388
199	0xbd1b1f49	-0.037871633
200	0x3cd56e9a	0.026053715
201	0xbd1f081f	-0.038826104
202	0x3d15d476	0.03657957
203	0xbd866ac2	-0.06563331
204	0x393742fb	0.00017477192
205	0xbc9273b7	-0.017877443
206	0x3c70c6f4	0.014695872
207	0x3d67fc65	0.056637187
208	0x3cdf76ca	0.027278323
209	0x3d69f0de	0.057114474
210	0x3a7e9766	0.0009711891
211	0x3d787626	0.06065955
212	0xbd0f3f31	-0.034972373
213	0x3c037b5c	0.008025017
214	0x3cc3ab0f	0.023885278
215	0xbd8ddaae	-0.069264755
216	0xbc97e9bf	-0.018544076
217	0xbc8985d6	-0.01678745
218	0x3c9437a6	0.018092941
219	0xbca1b95c	-0.019741707
220	0x3d897d89	0.06713397
221	0xbd3f3936	-0.04668542
222	0x3c4a0c7f	0.012332081
223	0x3d17fe79	0.03710792
224	0xbda7f09f	-0.08200192
225	0xbd8e40db	-0.06945964
226	0x3dc989b3	0.09840717
227	0x3c9a7b75	0.018857697
228	0xbd8364c9	-0.064157076
229	0xbd575f1d	-0.05258094
230	0x3d8a8c82	0.06765081
231	0x3d593910	0.053032935
232	0xbc1e7cbb	-0.009673293
233	0xbd1f5ffa	-0.03890989
234	0x3d58d970	0.05294174
235	0x3d00bfac	0.031432793
236	0xbda2ba7d	-0.07945726
237	0xbd05bc5a	-0.03265033
238	0xbc6847b9	-0.014177256
239	0xbd5e44fa	-0.054265
240	0xbc9ef012	-0.019401584
241	0xbbc18f6a	-0.005906989
242	0xbdb14c1d	-0.086570956
243	0xbcf4fd19	-0.029905843
244	0x3d8e19ad	0.06938491
245	0xbc89e87d	-0.016834492
246	0xbd9d05a7	-0.07667094
247	0x3d1aa890	0.03775841
248	0x3c551e7d	0.013007757
249	0x3da00e0f	0.078151815
250	0x3d7d5883	0.06185199
251	0x39c5ee19	0.00037752165
252	0xbd9e0987	-0.07716661
253	0xbd4ec5bb	-0.05048154
254	0x3d8dcbb7	0.06923621
255	0xbb51f8cb	-0.0032039161

bias f4 [16]
0	0xbda3c43d	-0.07996414
1	0xbd899b4f	-0.06719076
2	0xbce7081b	-0.028202107
3	0xbda5ff69	-0.08105356
4	0xbd9bbad0	-0.07603991
5	0x3d25d333	0.04048462
6	0x3bbc2a6a	0.005742361
7	0x3ce3e243	0.027817851
8	0x3d2fa189	0.04287866
9	0xbc93fc45	-0.018064627
10	0x3d12a627	0.035802986
11	0xbc8a38e4	-0.01687283
12	0x3ca02b3b	0.019551864
13	0x3c6d9753	0.014501411
14	0x3cba6056	0.022751015
15	0x3d718fc6	0.058975004

weight f4 [16, 16, 3, 3]
0	0xbd69ee49	-0.057112012
1	0xbca7f731	-0.020503612
2	0x3c855d22	0.01627976
3	0x3cb26a45	0.021779189
4	0x3d099e00	0.033597946
5	0xbd82e8c6	-0.06392054
6	0xbda4f8fb	-0.08055302
7	0x3d35b89e	0.044365518
8	0x3c740676	0.0148941185
9	0xbcd4641c	-0.025926642
10	0x3ce6df4c	0.028182648
11	0xbd346edc	-0.044051036
12	0x3d250bbd	0.040294398
13	0x3cffd384	0.031228788
14	0xbd775e16	-0.06039246
15	0xbd8ba94e	-0.06819402
16	0xbb775d66	-0.0037744879
17	0xbcfe2bac	-0.031026684
18	0x3d73373b	0.059378844
19	0x3ba794e3	0.005114184
20	0xbe023d0f	-0.12718605
21	0xbe02cef7	-0.12774263
22	0x3d5995ee	0.0531215
23	0xbd51a30e	-0.05118089
24	0xbd212a89	-0.039347205
25	0x3aeb90e2	0.0017972256
26	0x3bcd0511	0.0062567075
27	0x3bb5eeda	0.005552155
28	0xbaf594eb	-0.0018736398
29	0x3a17d33c	0.0005791669
30	0xbda8554a	-0.082193926
31	0x3b9fd1a0	0.004877284
32	0x3d39fa0b	0.045404475
33	0xbd0c41cc	-0.034242436
34	0xbcf1444c	-0.029451512
35	0x3d8f5c3e	0.07000016
36	0x3ca19832	0.019725893
37	0xbdb21702	-0.08695795
38	0x3cace0b1	0.021103235
39	0x3d4e6def	0.05039781
40	0xbd2775f8	-0.04088399
41	0xbd4abace	-0.049494557
42	0xbd123fad	-0.035705257
43	0x3c5f76f7	0.013639203
44	0xbdb76fe9	-0.08956892
45	0xbc18ff58	-0.009338222
46	0xbd1d0d30	-0.038342655
47	0xbc577ce9	-0.0131523395
48	0xbc892bc5	-0.016744504
49	0x3b909206	0.0044119386
50	0xbd4d1c6f	-0.050075945
51	0x3d267c29	0.040645752
52	0x3d865886	0.06559853
53	0xbb253ce7	-0.0025213303
54	0xbaa9c14e	-0.0012951286
55	0x3c294034	0.010330249
56	0xbce7e252	-0.02830616
57	0xbd843780	-0.06455898
58	0xbda5542f	-0.08072697
59	0xbdde65f2	-0.10859288
60	0x3d3e6876	0.04648634
61	0xbe12389f	-0.14279412
62	0xbcd21ae5	-0.02564759
63	0x3dac38a0	0.08409238
64	0xbd9d1be3	-0.076713346
65	0xbd9c8440	-0.07642412
66	0x3d162ebc	0.036665663
67	0xbdd4b956	-0.103869125
68	0x3d8950f9	0.067048974
69	0x3da8ca44	0.08241704
70	0xbd6780ef	-0.056519445
71	0xbca27f09	-0.019835966
72	0x3e490d4d	0.1963398
73	0xbe170c94	-0.14750892
74	0x3dea72a0	0.11447644
75	0xbd245df2	-0.040128656
76	0x3e3d02a3	0.18458037
77	0xbe7a421a	-0.24439278
78	0x3dab462f	0.08362996
79	0x3cc567e4	0.02409739
80	0x3b1630af	0.0022917201
81	0xbdae0901	-0.08497811
82	0xbc4ddf3f	-0.012565433
83	0x3d3a5935	0.04549523
84	0x3e237a1d	0.15964551
85	0xbd88279e	-0.066481814
86	0x3b6f823c	0.0036546132
87	0xbd6f5020	-0.058426023
88	0xbd7f9bd8	-0.062404484
89	0x3de1e285	0.11029533
90	0x3db9bc06	0.09069066
91	0xbd6b7b5e	-0.0574907
92	0xbc9eab73	-0.019368863
93	0xbd915d16	-0.07097833
94	0xbd516bfc	-0.051128373
95	0xbd5e6de0	-0.054304004
96	0x3b8859a4	0.0041610766
97	0xbdc8dc97	-0.09807699
98	0x3d28fbb4	0.041255668
99	0xbd17e323	-0.03708185
100	0xbb228629	-0.0024799204
101	0x3db66419	0.08905811
102	0xbd9115a8	-0.07084209
103	0x3d572cef	0.052533086
104	0xbdb13ed0	-0.08654559
105	0xbcf471d9	-0.029839443
106	0xbdb10d32	-0.08645095
107	0xbc392610	-0.011300579
108	0x3dcd8730	0.100355506
109	0xbdcf09db	-0.10109302
110	0x3ceafb53	0.028684294
111	0x3d260a6f	0.040537294
112	0xbdadc252	-0.08484329
113	0xbd38deeb	-0.045134466
114	0x3c296dd9	0.010341131
115	0x3dbed2ab	0.093175255
116	0xbe00a23c	-0.12561888
117	0x3d640fb2	0.05567903
118	0x3d399cb6	0.045315467
119	0x3cc126bc	0.02357804
120	0x3c546bc0	0.012965143
121	0xbd928ffe	-0.071563706
122	0xbaf741f7	-0.0018864264
123	0xbccab9f9	-0.024746882
124	0x3d04ef16	0.032454573
125	0xbce2fe45	-0.027709136
126	0x3d4c9468	0.04994622
127	0x3d6397a5	0.05556454
128	0xbd6c194a	-0.057641305
129	0xbc47713c	-0.012172993
130	0x3d6da8ca	0.058022298
131	0x3c42ee06	0.0118975695
132	0xbcbe0874	-0.02319739
133	0xbd0454de	-0.0323075
134	0xbde8fa02	-0.1137581
135	0x3d2ed942	0.042687662
136	0xbda996c1	-0.08280707
137	0xbd0c3de5	-0.034238715
138	0xbbdedb7e	-0.006801068
139	0xbd5c4761	-0.05377901
140	0xbd43e0c9	-0.047821794
141	0xbd483b51	-0.048884694
142	0x3d2b433f	0.041812178
143	0xbc482c62	-0.012217613
144	0xbd85a0b8	-0.06524795
145	0x3d1472f8	0.036242455
146	0xbc837cdc	-0.016050749
147	0x3c2a4d19	0.010394358
148	0x3c979073	0.018501496
149	0xbbb199bc	-0.005419938
150	0xbd9ca2f6	-0.0764827
151	0xbc98da78	-0.018658862
152	0x3d93419c	0.07190248
153	0xbcc5f4d6	-0.024164598
154	0x3d933125	0.07187108
155	0x3c06d8aa	0.008230368
156	0xbc863502	-0.016382698
157	0x3b98eb8e	0.004666752
158	0xbd1b1cc5	-0.037869234
159	0x3cfb11b8	0.030648097
160	0xbd3bd228	-0.045854717
161	0xbd1265c0	-0.035741568
162	0xbd842a2d	-0.06453357
163	0x3d151617	0.03639802
164	0x3d43f560	0.04784143
165	0x3d48d8e4	0.049034968
166	0xbd0c991b	-0.0343257
167	0xbcd127f4	-0.025531746
168	0x3c054852	0.008134918
169	0xbd7e5a86	-0.06209805
170	0x3be51674	0.006991202
171	0x3ce882f8	0.028382763
172	0x3d9018d8	0.070359886
173	0xbd7bd167	-0.061479
174	0x3caeda82	0.021344427
175	0x3d908112	0.07055868
176	0x3caa9ae8	0.020825818
177	0xbd278504	-0.040898338
178	0x3d398abe	0.04529833
179	0x3d4ec66c	0.0504822
180	0xbda4f850	-0.08055174
181	0xb96f4da0	-0.00022821734
182	0xbd78da77	-0.06075522
183	0xbd333fd5	-0.043762047
184	0xbcfe4607	-0.031039251
185	0x3c7d3a61	0.015455813
186	0x3d02797a	0.03185413
187	0xbc686c46	-0.014185971
188	0xbc08b241	-0.00834328
189	0xbba94b8f	-0.005166478
190	0xbdb1516c	-0.08658108
191	0xbbcd5c27	-0.006267089
192	0x3b6c66fa	0.003607212
193	0x3d875080	0.06607151
194	0xbd73100b	-0.05934147
195	0x3d3b90e4	0.045792475
196	0x3cc4a8f9	0.024006354
197	0xbd3d34f9	-0.046193097
198	0xbd5ae7f4	-0.053443864
199	0xbd025c3c	-0.031826243
200	0x3dbffedd	0.09374783
201	0xbb0e5b29	-0.0021721816
202	0xbd9e3a3d	-0.07725952
203	0x3d7e392b	0.06206624
204	0xbd0205e7	-0.03174391
205	0xbd9a4dd8	-0.07534379
206	0x3dc4f80b	0.09617623
207	0xbd737482	-0.059437282
208	0xbd89f66e	-0.06736456
209	0x3ce6f1dc	0.0281915
210	0x3d9b5c4e	0.07585965
211	0xbd8904b6	-0.06690352
212	0x3dbea808	0.09309393
213	0x3d824604	0.06361011
214	0xbb502cfd	-0.0031765096
215	0xbd8af569	-0.067850895
216	0x3d7b08c9	0.061287675
217	0x3dd0ec1a	0.10201283
218	0x3d20e56b	0.03928129
219	0xbd90fdb0	-0.07079637
220	0x3dc00017	0.09375017
221	0x3c80b555	0.015711466
222	0x397c722b	0.00024075124
223	0xbcc1201c	-0.023574881
224	0xbd74f12e	-0.05980032
225	0x3da99a73	0.08281412
226	0x3ced83a3	0.028993433
227	0xbb92edac	-0.004483899
228	0xbd80fd2b	-0.06298288
229	0xbdf84766	-0.12122993
230	0x3cdc0f11	0.026862653
231	0xbcdaaef3	-0.02669475
232	0x3c98cdee	0.018652882
233	0xbcd43b80	-0.025907278
234	0xbd83ced0	-0.06435931
235	0x3c84b739	0.016200649
236	0x3c1f82e6	0.009735798
237	0x3d13b94b	0.03606538
238	0xbc591025	-0.013248478
239	0x3b193d02	0.002338231
240	0xbd69d82c	-0.057090923
241	0xbd7f7541	-0.06236768
242	0x3d19bab3	0.037531566
243	0xbdb102c7	-0.08643108
244	0x3ba69f2b	0.0050848923
245	0xbd349649	-0.044088636
246	0xbd3ab01a	-0.0455781
247	0xbdcd2502	-0.10016824
248	0x3de309fc	0.11085889
249	0xbcb62563	-0.022234624
250	0xbd0f30aa	-0.03495852
251	0x3db52518	0.08844966
252	0x3d6c753f	0.057729002
253	0xbc80527f	-0.015664337
254	0xbda42619	-0.08015079
255	0x3d6ab080	0.05729723

bias f4 [16]
0	0x3ce04fe8	0.027381852
1	0x3d9dfc60	0.07714152
2	0xbd2f1606	-0.042745613
3	0xbd5b480a	-0.0535355
4	0x3c5e55f1	0.013570295
5	0x3cdf03e4	0.027223535
6	0xbd558f12	-0.052138396
7	0xbb075463	-0.0020649664
8	0x3da555fc	0.08073041
9	0x3c79d55f	0.015248626
10	0xbccc26cc	-0.024920844
11	0xbdcc0861	-0.09962536
12	0x3d9d5418	0.07682055
13	0x3cb0cd7b	0.021582356
14	0xbc9a768c	-0.018855356
15	0x3c40badb	0.0117633

weight f4 [64, 16, 3, 3]
0	0xbd994576	-0.07483952
1	0x3d996ed7	0.07491844
2	0x3dac97e2	0.08427407
3	0xbd27eb81	-0.04099608
4	0xbdb763a9	-0.089545555
5	0xbc73e899	-0.014886999
6	0xbcd903e4	-0.026491113
7	0xbdc58d73	-0.0964612
8	0x3ca95230	0.020669073
9	0xbd3e8ff6	-0.04652401
10	0xbd8512ab	-0.06497701
11	0x3cf13213	0.029442823
12	0x3af984fa	0.0019036822
13	0xbd0926c6	-0.033484243
14	0xbd7b1750	-0.06130153
15	0xbd316b01	-0.043314938
16	0x3ca55b34	0.02018509
17	0xbc652e94	-0.013988156
18	0x3d620e63	0.0551895
19	0x3c0c7e0d	0.008574975
20	0xbabc5d71	-0.001437111
21	0x3d94f11a	0.07272549
22	0x3bcb870a	0.0062111663
23	0x3de3fcf8	0.11132234
24	0x3d8a6dd8	0.06759232
25	0xbde0907a	-0.10965057
26	0xbc7848ff	-0.015154122
27	0x3c816de9	0.01579948
28	0x3c8604d7	0.01635973
29	0xbd3ae88c	-0.04563193
30	0xbc8a308c	-0.016868852
31	0xbb586d6e	-0.003302421
32	0xbc9b4f4a	-0.018958706
33	0x3d29c2d4	0.04144557
34	0xbd200eb4	-0.039076522
35	0xbd774ee0	-0.060377955
36	0x3ce9d21d	0.028542573
37	0x3d104ce8	0.035229594
38	0x3d83f225	0.0644267
39	0xbc2a6c21	-0.0104017565
40	0x3c9dc1e7	0.019257499
41	0xbd316398	-0.04330787
42	0xbd9a1886	-0.07524209
43	0x3d109362	0.035296805
44	0xbd96cf5e	-0.07363771
45	0xbd5378aa	-0.051628746
46	0x3d7d6a82	0.061869152
47	0xbd8fbb0c	-0.07018098
48	0x3c1f32df	0.009716718
49	0x3dbdf5ab	0.09275373
50	0xbb44821d	-0.002998478
51	0xbccb9b66	-0.024854373
52	0xbd475539	-0.04866526
53	0xbca5d2a7	-0.020242048
54	0xbd3bd4c7	-0.045857217
55	0xbd670474	-0.05640073
56	0xb98c28df	-0.00026733332
57	0xbdaa6cf9	-0.08321566
58	0x3d88e378	0.06684011
59	0xbcbbc278	-0.022919878
60	0xbd20695b	-0.039162975
61	0xb9d93086	-0.00041425618
62	0xbc5a3998	-0.0133193955
63	0x3d88b9f4	0.06676093
64	0x3c6e7e4d	0.01455648
65	0xbd4c19b9	-0.04982922
66	0xbc2be18d	-0.010490787
67	0xbd835a5a	-0.064137176
68	0x3b8685e1	0.004105315
69	0x3d3a02a9	0.045412693
70	0xbd1d2532	-0.03836555
71	0xbd19bf81	-0.037536148
72	0x3d16619f	0.036714192
73	0xbd6ecb1c	-0.05829917
74	0xbd4b4d14	-0.049634054
75	0xbd9108c0	-0.07081747
76	0xbd9ab49d	-0.075539805
77	0x3bfc2477	0.0076947766
78	0xbdca7658	-0.098858535
79	0xbcfb4475	-0.030672291
80	0xbda72d31	-0.081629165
81	0xbd079ace	-0.033106618
82	0xbde69e16	-0.11260621
83	0x3d448d56	0.04798635
84	0x3c9ff054	0.019523777
85	0xbd9d35c0	-0.076762676
86	0xbd23d4d1	-0.03999788
87	0x3ad5464c	0.001627156
88	0xbcbb8043	-0.022888308
89	0xbcb071c8	-0.02153863
90	0x3cc96937	0.024586303
91	0x3d3cd934	0.04610558
92	0xbba8794c	-0.005141413
93	0xbd1e680f	-0.038673457
94	0xbd835d71	-0.06414307
95	0xbd30d5ab	-0.04317252
96	0xbcc55e3e	-0.02409279
97	0x3d9b27f1	0.075759776
98	0xbd45be19	-0.048276994
99	0x3bb2208e	0.0054360097
100	0x3c38ca84	0.011278752
101	0xbc84e799	-0.016223716
102	0xbcf8e921	-0.030384602
103	0x3b1f35ac	0.0024293466
104	0x3d1db9c4	0.038507238
105	0xbd89ce5a	-0.067288116
106	0x3cf87391	0.030328544
107	0x3d34b2c8	0.04411581
108	0xbd100a5d	-0.035166133
109	0x3dc1c8c4	0.09462121
110	0xbda1542a	-0.07877381
111	0x3c00a48b	0.00785173
112	0xbc7b5d66	-0.015342092
113	0x3d2c67a8	0.04209104
114	0xbcab915d	-0.020943338
115	0x3d3b6e56	0.04575952
116	0x3d531f89	0.051543746
117	0x3be08dcc	0.006852841
118	0x3da49dcb	0.08037909
119	0xbd9c0908	-0.0761891
120	0xbcb7fd2e	-0.022459593
121	0xbca4ba90	-0.020108491
122	0x3d36c753	0.044623684
123	0x3cd1b1d2	0.025597487
124	0x3cddf846	0.027095925
125	0x3be64a1f	0.007027879
126	0x3ca76ce5	0.020437667
127	0xbd7c8eb2	-0.061659522
128	0x3d6bce79	0.057569955
129	0x3c647663	0.013944241
130	0xbce17ce9	-0.027525382
131	0x3ce90dec	0.028449021
132	0x3cdc60f6	0.026901703
133	0x3a2ae3af	0.0006518913
134	0xbdab436b	-0.08362468
135	0xbd4b1b16	-0.049586378
136	0x3bbe4d96	0.005807589
137	0xbd93087f	-0.07179355
138	0x3d9239ed	0.07139955
139	0xbd403cb8	-0.046932906
140	0x3cf3b7dd	0.029750759
141	0xbcdf7560	-0.027277648
142	0x3d18aa61	0.03727186
143	0x3c967a63	0.018368905
144	0xbc356afd	-0.011072871
145	0xbd0170c4	-0.031601682
146	0x3c1bd5a7	0.009511388
147	0xbd9d6d14	-0.076868206
148	0xbcd5c119	-0.026093053
149	0x3daa4eca	0.08315809
150	0x3d61501b	0.055008035
151	0x3c28d88f	0.010305538
152	0xbca9f988	-0.020748869
153	0xbc9f4920	-0.019444048
154	0x3d93d096	0.07217519
155	0x3b092108	0.002092423
156	0x3cb7ad95	0.022421638
157	0xbd1be039	-0.038055632
158	0xbc982a02	-0.018574718
159	0x3d2b7db8	0.04186794
160	0xbdb4da4c	-0.08830699
161	0x3d392d0f	0.045208987
162	0x3d88efeb	0.06686386
163	0xbc95e9bc	-0.01829993
164	0xbda55fd1	-0.08074916
165	0xbd103cf9	-0.035214398
166	0x3dd67125	0.10470799
167	0x3dba844a	0.091072634
168	0x3bc5b668	0.0060337074
169	0x3c2b363c	0.010449942
170	0xbddf0ffb	-0.1089172
171	0xbda1d1bc	-0.07901332
172	0xbd24b498	-0.04021129
173	0x3d01c2ee	0.03168004
174	0xbc2daeac	-0.010600727
175	0xbdd1d286	-0.10245232
176	0xbd2bffae	-0.041991882
177	0x3dd6fed1	0.10497821
178	0xbd2a1468	-0.041523367
179	0x3d8578c5	0.065171756
180	0x3c19fb4c	0.009398293
181	0x3cb3f5bf	0.021967767
182	0xba476b0b	-0.0007607198
183	0x3dbfa7f6	0.09358208
184	0xbe0019d9	-0.1250986
185	0x3c86ba1e	0.01644617
186	0xbdbdb2b2	-0.09262599
187	0xbc8e8e3e	-0.01740181
188	0xbdaaff09	-0.08349425
189	0xbdb9f35f	-0.090796225
190	0x3d202452	0.039097138
191	0x3ac179b2	0.0014761
192	0xbd7af82b	-0.061271828
193	0x3d6e91c3	0.058244478
194	0x3c7e5af5	0.0155246155
195	0xbcde4d5a	-0.027136493
196	0x3d024e9b	0.031813245
197	0xbd1ff4c9	-0.039051805
198	0xbc83ff9f	-0.0161131
199	0xbba419cb	-0.0050079576
200	0x3d6daf3b	0.05802844
201	0xbd4b859a	-0.04968796
202	0xbb0c39bc	-0.0021396717
203	0x3cc6da14	0.02427391
204	0x3d40dfe9	0.047088537
205	0x3c41e114	0.011833448
206	0x3cf39d78	0.029738173
207	0xbd0c970d	-0.03432374
208	0x3cb365fb	0.021899214
209	0xbce30bc5	-0.027715573
210	0xbd919238	-0.07107967
211	0xbd476ea5	-0.048689503
212	0x3d5db1e5	0.05412473
213	0xbb98366d	-0.00464516
214	0xbd9c874b	-0.076429926
215	0x3d47f0d7	0.048813667
216	0x3d63f695	0.05565508
217	0x3d67af46	0.05656364
218	0xbda6aca1	-0.08138395
219	0x3c5e12b3	0.013554263
220	0x3ca8fd4b	0.020628592
221	0xbd104901	-0.035225872
222	0x3bd59def	0.0065190713
223	0xbcd04a72	-0.025426123
224	0xbc3139bc	-0.010816988
225	0x3d83ca53	0.06435075
226	0x3cbf95ff	0.023386953
227	0xbd901c04	-0.070365936
228	0xbd2c3465	-0.042042155
229	0xbc82463b	-0.01590263
230	0xbd8c1a66	-0.068409726
231	0xbd281b4a	-0.04104165
232	0x3c5a0d0c	0.013308775
233	0xbd8c3b68	-0.06847268
234	0xbbb2d7af	-0.0054578404
235	0x3dadf33d	0.0849366
236	0xbd9974f6	-0.07493012
237	0x3d4cbcc0	0.049984694
238	0x3c46ccdf	0.012133806
239	0x3c3f707a	0.011684531
240	0x3c60b095	0.013713975
241	0x3ca01965	0.019543359
242	0x3c9f25e5	0.01942725
243	0x3d08e6ef	0.03342336
244	0x3af1ced5	0.0018448482
245	0xbd765a0c	-0.06014447
246	0xbc5f6b8f	-0.013636484
247	0xbc04be8d	-0.0081020715
248	0x3d70d8ce	0.05880051
249	0x3d021f3a	0.03176806
250	0x3d120eec	0.03565876
251	0x3d986c83	0.07442572
252	0x3d7611d5	0.0600756
253	0x3daf1101	0.08548165
254	0x3c649ad4	0.0139529295
255	0x3b9464c0	0.004528612

bias f4 [64]
0	0x3d9866b0	0.07441461
1	0xbc86927f	-0.016427277
2	0xbc53f458	-0.012936674
3	0x3d6a1a16	0.057153784
4	0xbc523a8b	-0.012831341
5	0xbcbb18f8	-0.022839054
6	0xba4fdaad	-0.00079290086
7	0x3d2f4d0e	0.042798094
8	0xbce4a2c8	-0.027909651
9	0xbc872e65	-0.016501615
10	0x3d9e5656	0.07731311
11	0xbd1a9b94	-0.037746027
12	0x3d37e18a	0.044892825
13	0x3c0275b8	0.007962637
14	0x3d060f60	0.032729506
15	0xbd70130e	-0.058611922
16	0x3d37e1ef	0.0448932
17	0x3b926f75	0.004468853
18	0x3dc90d56	0.09816997
19	0x3c9b8119	0.018982457
20	0x3cb551ca	0.022133727
21	0x3a8a7773	0.0010564163
22	0xbcc5b83d	-0.024135703
23	0x3d174040	0.036926508
24	0xbcf36965	-0.029713342
25	0x3da59a21	0.080860384
26	0x3bda1a46	0.006655964
27	0xbd43239a	-0.047641374
28	0xbd570782	-0.052497394
29	0xbd93d528	-0.07218391
30	0xbc33cab6	-0.010973623
31	0x3cec7e44	0.028868802
32	0xba3f4464	-0.0007296263
33	0x3d07c7c2	0.03314949
34	0x3d1f7658	0.03893122
35	0xbd54794d	-0.051873494
36	0x3c6ee550	0.01458104
37	0x3c25e849	0.010126182
38	0x3d1b5682	0.037924297
39	0x3d776b9a	0.06040535
40	0xbc665519	-0.014058375
41	0x3db28f5e	0.08718751
42	0xbce1d072	-0.027565215
43	0x3dac3d28	0.08410102
44	0xbd93427d	-0.07190416
45	0xbdb99463	-0.09061506
46	0xbdb52b50	-0.08846152
47	0xbca3b1e1	-0.01998228
48	0x3cdced44	0.026968606
49	0x3c852fd7	0.016258163
50	0xbc6ca20f	-0.014442935
51	0x3d2d311e	0.04228317
52	0xbdbb962d	-0.09159503
53	0x3d896716	0.06709115
54	0xbd6e0593	-0.058110785
55	0xbd4be92a	-0.04978291
56	0xbd492e83	-0.049116623
57	0xbd8583d9	-0.065192886
58	0xbd0c33ad	-0.03422897
59	0xbdb35dde	-0.08758138
60	0x3d34db27	0.044154312
61	0x3c82f22a	0.015984613
62	0x3cb94596	0.022616189
63	0xbda9af83	-0.08285429
