working/model_pretrained/net_F16B2_epoch_10.pth (torch_old, 135256 bytes, 16 tensors)

weight f4 [16, 3, 3, 3]
000000 b0 88 18 3e f1 4a 0c be ad da 24 be ba 05 15 be
       0.14895892 -0.13700463 -0.16099043 -0.14552966
000010 96 cd 1a 3e 85 08 03 3e 47 91 0e be 72 5f 2d 3e
       0.15117487 0.12796219 -0.13922606 0.16930941
000020 6b 48 af bd fd d5 2a be f2 2b 91 bd 25 dc b8 bc
       -0.085587345 -0.16683193 -0.0708846 -0.02256591
000030 09 a6 04 be 69 df d0 3d 81 45 28 3e 6c 6c c4 3d
       -0.12953962 0.10198862 0.16432764 0.09590992
000040 24 10 16 be 0a 76 1b 3e fc bd b3 3c 91 74 ca 3d
       -0.14654595 0.15181747 0.021941178 0.098855145
000050 cf bb 30 3e ce d5 46 bd a1 da c5 bd ce a1 91 3d
       0.17259143 -0.048543744 -0.09660841 0.0711094
000060 a5 d0 c4 bd aa 77 28 be 8b 94 a8 3d 41 62 dc 3d
       -0.09610108 -0.16451898 0.08231457 0.10760928
000070 6d 43 6b 3d 50 50 1e be 1a e3 13 bd 9a 55 85 bd
       0.05743735 -0.15460324 -0.036105253 -0.06510468
000080 70 18 c0 bd 65 cf eb bc 8a 01 13 3e 43 ee 21 be
       -0.09379661 -0.028785417 0.14356056 -0.15813546
000090 63 c0 c3 ba 80 22 c1 3d 0a e5 42 3d 5a 47 36 3e
       -0.0014934655 0.094304085 0.04758171 0.17800656
0000a0 a5 f4 40 3c ab 9b 18 be 9d d7 fa bd e5 23 56 bc
       0.011777078 -0.14903133 -0.12248156 -0.013070081
0000b0 99 81 1a 3c 98 4c 0b 3d e0 21 02 bd b2 63 9f bd
       0.009430313 0.034008592 -0.031770587 -0.07782687
0000c0 26 09 0f be bf 7b 58 3d 95 e0 2e 3b 7c 8a da bd
       -0.13968334 0.05285239 0.0026684154 -0.10670945
0000d0 f2 97 12 be 42 9e 63 bd db ce f4 bb 4d 3f 44 3e
       -0.14315775 -0.05557085 -0.007470948 0.19164772
0000e0 63 2d 38 3e 6b a2 ff bc 92 ba fc 3d 0d 41 40 3e
       0.17986064 -0.031205377 0.12340273 0.18774815
0000f0 e0 26 86 3c a1 65 2d be 9a 98 1d 3e 6c db 3d bd
       0.016375959 -0.169333 0.15390244 -0.046351835
000100 40 52 2b be 2a 0f cb bc 91 29 aa 3d c9 24 30 bd
       -0.16730595 -0.024787504 0.083087094 -0.04300383
000110 63 0d 3a 3c e7 0a a1 bd 62 27 10 be b4 e8 0f be
       0.011355731 -0.078634076 -0.14077523 -0.14053613
000120 f1 81 be 3d 46 f5 27 3e 1f 48 81 b9 e9 74 c3 bd
       0.09302128 0.16402158 -0.00024658532 -0.09543783
000130 a9 58 9b bd a2 07 65 3c 1a 24 c1 bd 80 15 0e be
       -0.0758527 0.013978871 -0.09430714 -0.13875389
000140 26 1e 0d be 65 61 24 be 43 53 c5 bd 3d a1 12 3e
       -0.13781032 -0.16052778 -0.096350215 0.1431932
000150 42 b6 c9 3d 26 00 d9 bc d1 67 0a bc e7 f6 ba bc
       0.09849216 -0.026489329 -0.008447603 -0.02282281
000160 3d 13 dc bd 43 ab d9 bc fd 7f 82 bc 4a 70 bd bd
       -0.10745857 -0.026570922 -0.01593017 -0.09249933
000170 05 08 55 bd 62 f4 e0 bd 21 f2 8c 3c 63 6e b0 bd
       -0.0520096 -0.10984112 0.0172053 -0.086148046
000180 26 d9 b2 bd b1 3d 49 3d be ab 29 bb d1 a0 10 3d
       -0.08732824 0.0491311 -0.002588972 0.035309616
000190 a8 df 0a 3e 13 6a 1b be a7 31 c5 bd c1 a4 2c 3e
       0.1356188 -0.15177183 -0.09628611 0.16859724
0001a0 04 6b f8 3d f0 cc 29 be e9 ed db 3d 47 35 40 3b
       0.121297866 -0.16582084 0.10738737 0.002932863
0001b0 8b b9 68 bd d7 91 1e be 42 92 9f 3d 15 bf ef bd
       -0.056817573 -0.15485321 0.07791568 -0.11706368
0001c0 80 47 d8 3d de 68 de bd d4 05 18 be 85 f6 86 3d
       0.105605125 -0.108598456 -0.14845973 0.065899886
0001d0 28 f7 87 bb 63 c7 7e 3d 69 45 76 bd 51 c1 e4 3b
       -0.0041493364 0.06220187 -0.06012479 0.006981053
0001e0 84 48 fd bc 37 83 9d 3d 91 74 0b bd 1d df 6f bd
       -0.030918367 0.07691043 -0.034046713 -0.058562387
0001f0 f0 13 d3 3d 7f fe ff bd 37 11 41 3e 68 32 ad 3d
       0.10306537 -0.12499713 0.18854223 0.0845688
000200 e1 ed 39 3e c2 27 ac bd 0f ba dc 3d f8 1b 4d bb
       0.1815715 -0.08406021 0.10777675 -0.0031297188
000210 a9 f8 ee 3d a2 0e ad bd 70 5f 10 3d 3b 25 bd bd
       0.11668522 -0.084500566 0.035247266 -0.09235617
000220 ab 47 00 3e 6a 09 40 bd f9 fe 02 be 86 14 16 3e
       0.12527339 -0.046883978 -0.12792577 0.14656267
000230 59 68 26 be 48 c9 a7 3d 90 d7 33 3c 33 3b 0f bd
       -0.16250743 0.08192688 0.010976687 -0.034968566
000240 65 7c 4d 3e 76 d8 26 3e 25 45 f8 3d 3b bf 25 be
       0.20066984 0.16293511 0.12122563 -0.1618623
000250 5d 90 3a 3e c4 5e 58 bb a4 b7 49 bd fd b7 79 3d
       0.18219133 -0.003301547 -0.0492474 0.06096648
000260 a7 a5 43 bb 72 86 b7 bd 9c 83 77 3c 57 05 17 bc
       -0.0029853375 -0.0896119 0.015107062 -0.009217582
000270 aa 5f 1d be 30 ec 41 be 5c 02 e8 3d 52 12 e3 3d
       -0.15368524 -0.18937755 0.11328575 0.11087479
000280 72 89 8e bd 28 df d2 3d 03 00 20 3d d4 b4 a6 bc
       -0.06959809 0.1029647 0.03906251 -0.020349897
000290 f9 ee 6b 3c 87 7e 29 3e 14 44 11 be c8 2a 29 3e
       0.014400237 0.16552173 -0.14186126 0.16520226
0002a0 1d 88 17 3e 0a 01 36 be a9 cf 39 be 5e b8 2b be
       0.14798017 -0.17773834 -0.18145622 -0.16769549
0002b0 8b b6 91 3c cb 82 b5 3c db 56 29 be ae 72 4c be
       0.017787239 0.022157094 -0.16537039 -0.19965622
0002c0 d0 9f fc bd 1a 1c 8d bd 0c 86 f4 bd 1d 20 38 3e
       -0.12335169 -0.068901256 -0.1193963 0.17981
0002d0 42 cd d3 3d ed 84 0f 3e 63 52 dd 3d 44 a3 69 bd
       0.10341884 0.14015551 0.1080673 -0.057040468
0002e0 27 2c 05 3e 7f d8 17 3e 04 00 30 bd 39 05 c4 bd
       0.13005124 0.1482868 -0.042968765 -0.09571309
0002f0 e0 d2 1a bd b3 41 9e bb 4c c8 1e be 02 42 b0 bd
       -0.037798762 -0.0048296093 -0.15506095 -0.0860634
000300 20 32 2b 3e f3 44 b4 3d 76 87 fb bd e3 63 c8 bd
       0.1671834 0.088022135 -0.122816965 -0.09784677
000310 94 30 01 bd ae 49 99 3c 0b 2c 21 3e c0 3d 49 3d
       -0.03154047 0.018711891 0.15739457 0.049131155
000320 61 40 24 3e 2e 31 1e 3e b6 83 c4 3d c8 dd 3c 3d
       0.16040184 0.15448448 0.09595434 0.046109945
000330 8a ee 0d 3d 17 bf da 3d 6c 63 92 3b 3f d5 c6 bd
       0.034651317 0.10680979 0.0044674184 -0.09708642
000340 98 3b 09 3e 22 c9 b8 3d ae f8 86 bd 3c 66 fd bd
       0.1340164 0.09022738 -0.06590401 -0.12373015
000350 00 31 20 3d 66 6e cd 3d de e2 2c 3e fe 10 24 bd
       0.03910923 0.100308225 0.16883418 -0.040055268
000360 01 7d 32 be 42 e2 be 3d 1d 1c 0c 3d ab 17 1f be
       -0.17430498 0.09320499 0.0342065 -0.15536372
000370 78 96 1d be 1f 15 1e 3e 8f 59 0d 3e 64 d0 be bd
       -0.1538943 0.15437745 0.13803695 -0.09317091
000380 65 89 bc bd 57 94 23 3e 5b 4b 00 bc 85 4e 37 3e
       -0.092058934 0.15974556 -0.007830466 0.17901047
000390 d4 8b c5 bc 26 1d 47 bd 35 af 24 be 2c 89 07 3e
       -0.024114527 -0.048611782 -0.16082461 0.1323592
0003a0 b1 85 b2 3d 81 66 8c bd 28 40 e2 bb e1 63 63 bd
       0.08716906 -0.068554886 -0.0069046207 -0.055515174
0003b0 17 f5 29 3e 08 a4 35 bc f1 77 2f 3e b7 e7 28 bd
       0.165974 -0.011086471 0.17135598 -0.041236605
0003c0 6f 7c 14 3d 66 f2 92 3d 53 65 12 bb 99 26 d2 bd
       0.03625148 0.0717514 -0.0022338226 -0.10261268
0003d0 24 8a 6a bd 48 20 b0 3b 92 55 a7 bd 8e e3 4c 3c
       -0.057260647 0.005374942 -0.08170618 0.012505425
0003e0 a3 b8 2b 3e 30 6f 0d be a5 4c a5 bc 89 c2 05 bd
       0.16769652 -0.13811946 -0.020178149 -0.032656226
0003f0 4a 0b a3 3d af cd 2d be 2e 3e 91 3d 57 19 f3 bc
       0.079611376 -0.16972993 0.07091938 -0.029675169

bias f4 [16]
000000 c7 d6 b1 3d 6f 86 00 3e 5e 93 1b 3e 18 2f 9b 3d
       0.08683544 0.12551282 0.15192935 0.07577342
000010 15 b5 cb bd e1 05 17 3d df 72 4c 3e a0 e2 11 3e
       -0.09946648 0.03687084 0.19965695 0.14246607
000020 ea 3d 55 3d a2 3b c6 3d 54 b3 15 3e 3f 77 20 3e
       0.052061 0.09679343 0.1461919 0.15670489
000030 d9 0b a5 3d e7 d0 0d bd 4f 7a 70 bc 74 8e ce bd
       0.080589004 -0.034623053 -0.014677598 -0.100857645

weight f4 [16, 16, 3, 3]
000000 05 6a 03 bc 85 79 46 bc e5 d8 92 bd f7 bd cf bb
       -0.0080208825 -0.012113933 -0.071702756 -0.0063397842
000010 20 60 f0 3d 5b 60 d9 bd 89 7b ea 3d 77 7d 59 bd
       0.117370844 -0.106140815 0.11449344 -0.05309817
000020 4a 73 7b 3d 89 c1 8a bc 9b 96 a1 3d 00 05 0b bd
       0.061389245 -0.016937988 0.07890054 -0.033940315
000030 57 21 00 3c 70 c2 85 bc 3d db 4c bd b8 85 e1 3b
       0.007820449 -0.016328067 -0.05001377 0.0068823956
000040 8b fc 49 3d ad 8b 52 3d 8b bc 04 3d f5 30 2e 3d
       0.04931311 0.051402736 0.03240637 0.042527158
000050 3a f2 e3 bc 2d e1 b7 bd 72 e4 e2 bc 8f 34 fb bd
       -0.027825464 -0.08978496 -0.027696822 -0.12265884
000060 a5 e7 9c bd 41 c1 39 bd 0b d1 6e 3d 8c 08 7a bd
       -0.0766137 -0.045350317 0.058304828 -0.061043307
000070 56 66 9f 3c 93 b4 c4 ba e6 69 1a bd 18 60 a5 3d
       0.019457977 -0.0015007429 -0.03769865 0.08074969
000080 46 0d a2 3d ed 08 94 bb b6 39 92 3d d8 b1 10 3d
       0.07912688 -0.0045176656 0.07139914 0.035325855
000090 a2 db 1d 3d 88 0c 93 bd 7e fb 91 3c d4 df c5 bc
       0.038539536 -0.071801245 0.017820116 -0.024154581
0000a0 05 0e 08 3e da 4f 1a bd cc f3 ec 3c ea 19 85 bd
       0.13286598 -0.03767381 0.028924845 -0.06499083
0000b0 63 93 2b bd d0 c5 9b 3d 6c e3 71 bd 52 a4 d2 3d
       -0.041888606 0.07606089 -0.059054777 0.10285248
0000c0 7e ee c8 bc ee 0f f9 3c e3 19 70 bd 2b d6 8d bc
       -0.024527784 0.030403104 -0.058618437 -0.017314037
0000d0 d4 0d cd bd 92 73 84 3d e0 fa 70 3c a9 25 46 bd
       -0.10012403 0.06467356 0.014708251 -0.04837576
0000e0 8e 9b b5 3c 6f 87 be bd 20 50 30 bd 98 50 45 bd
       0.0221689 -0.09303176 -0.043045163 -0.048172563
0000f0 82 b0 31 3b 1c 16 91 3c 69 1a 76 bd 0b 4a 77 bd
       0.0027113263 0.017710738 -0.06008378 -0.060373347
000100 ec 7d 4b bd 4f 23 8a bd 56 aa 10 3c d9 4c a8 bc
       -0.049680635 -0.06745016 0.008829674 -0.020544456
000110 6e 19 d9 bc 68 86 9e 3d 2f a4 d4 3c b5 fd 86 bd
       -0.026501384 0.0774048 0.025957195 -0.065913595
000120 ce 1b 4e bd 5d 07 b4 3c 84 07 f5 bc 1e 74 83 3d
       -0.050319485 0.021976167 -0.02991081 0.06418632
000130 d6 4e 33 ba 19 2f 24 3d 97 d3 cf bc a0 d7 cf 3b
       -0.00068400556 0.04008398 -0.025369449 0.006342843
000140 a5 ed 1b bd 10 b1 ac 3c cc 44 20 bc 69 14 ca 3d
       -0.038068432 0.021080524 -0.009782027 0.09867174
000150 13 96 d7 3d 6c 05 c1 bc 31 eb 03 3e 39 45 e2 3b
       0.10526671 -0.023562156 0.12882687 0.0069052246
000160 ae 9e 28 bc c9 de 70 3d 29 35 85 bd b0 b3 65 bb
       -0.010291738 0.058806214 -0.0650428 -0.003504973
000170 1e 72 7b 3c 2d 56 65 3d 90 89 e5 bc 38 b0 da 3c
       0.015347032 0.055990387 -0.028019696 0.026695356
000180 ba 31 2a 3b 2e 85 eb 3a b2 c1 95 3d f4 59 cb bc
       0.002596958 0.0017968768 0.07312335 -0.024823166
000190 d2 8e 4b 3d ea 68 b6 bd 02 82 be bc bd b0 80 3c
       0.04969675 -0.089067295 -0.023255352 0.015709275
0001a0 4b bd 30 bd 7b f3 9f bd 7f c1 d6 3d 00 1b 93 3d
       -0.043149274 -0.07810112 0.10486125 0.07182884
0001b0 35 68 f6 3c 20 80 14 bd d7 bb 00 bd 96 8c c0 3b
       0.030078987 -0.036255002 -0.031429138 0.005876134
0001c0 29 29 55 bd df 6a 74 bd 7a 78 25 3d 4e e6 a3 bd
       -0.052041207 -0.059672233 0.0403981 -0.080029115
0001d0 0c 29 5d bd 62 2c 9a bc f7 19 77 3d 96 47 5c 3d
       -0.053994223 -0.018819991 0.060327496 0.053779207
0001e0 a6 6c 73 3c ba f4 7e 3d d9 60 c6 3d e4 b7 0c 3d
       0.014857447 0.06224511 0.09686441 0.03435506
0001f0 b9 8c 56 bd a1 21 08 bd 28 9a 44 bc bd 67 77 bd
       -0.052380297 -0.033235196 -0.011999644 -0.060401667
000200 8f 8d 88 3d 46 6f 16 3d 2d 65 eb bd e4 c4 79 bc
       0.06667625 0.036727212 -0.11493907 -0.015244696
000210 7b 52 b0 bd b1 f1 49 bd 13 16 87 3d 07 d6 10 3d
       -0.08609482 -0.04930276 0.06596007 0.035360362
000220 0c a2 c3 bc 2d ab 9a 3c 3c 24 e9 bb 6f 84 9c bd
       -0.02388098 0.018880451 -0.007114915 -0.07642447
000230 5e 58 a4 bd 9b 85 7a bc ae 64 c4 3c 40 64 76 bd
       -0.08024667 -0.015290643 0.023973789 -0.0601542
000240 09 d8 c3 bd 32 e6 8c bd 5e 23 23 bd 03 cf 51 bd
       -0.0956269 -0.06879844 -0.03982865 -0.051222812
000250 6b 95 71 3d 49 46 3a bd 3b 94 00 3e 76 f3 33 3c
       0.058980387 -0.045477185 0.12556545 0.010983339
000260 d0 50 b5 bc c4 b4 4b 3d 09 de 66 bd 1b c5 46 bd
       -0.022133261 0.04973294 -0.056364093 -0.04852782
000270 4a 2b 50 3d 95 cb a5 bd 2d 1c 28 bc ab 72 d1 bb
       0.050822534 -0.08095471 -0.010260624 -0.0063918433
000280 65 22 8a 3b 31 b2 32 bb 83 3b 29 bc 91 58 4d 3c
       0.004215526 -0.0027266855 -0.01032913 0.012533323
000290 0b a7 2d bd 29 71 c0 bd fa 8e 0f bd 3e 97 eb 3c
       -0.042395633 -0.093965836 -0.035048462 0.028758641
0002a0 46 03 3a 3d af 67 8b bd 5c e9 94 bd b9 88 1c bd
       0.045413278 -0.068068855 -0.07271072 -0.038216326
0002b0 05 34 31 3d 6c f8 d8 3c 25 c6 45 3d 7a 8e a9 3c
       0.0432625 0.026485644 0.04828467 0.020697821
0002c0 f3 e9 64 3d 47 25 45 3c 5e 43 a9 bd 07 a0 0b bd
       0.055887174 0.012032813 -0.082648024 -0.03408816
0002d0 40 1f 9a bd e5 38 0a be 53 93 26 b9 82 42 1c 3c
       -0.07525492 -0.13498266 -0.00015885876 0.009537341
0002e0 98 56 9c 3d 71 47 83 bd 76 94 4a 3d 1b 61 47 3d
       0.07633704 -0.06410111 0.04945799 0.04867659
0002f0 da ef 17 3c 3c a4 4a 3c 13 ac 89 ba e6 05 41 3d
       0.009273494 0.012368258 -0.0010503553 0.047124766
000300 6f d8 e4 bc 31 ae 04 3d ad aa 6a bd 18 30 6e bd
       -0.027935235 0.032392684 -0.057291675 -0.058151335
000310 42 92 74 3d cb 00 a6 3d ff 07 83 bd b4 8c a8 bd
       0.059709795 0.0810562 -0.063980095 -0.08229962
000320 e0 27 3f 3c ab 96 2e 3d c9 d4 a1 3d fd 03 24 bc
       0.011667222 0.042624157 0.07901914 -0.0100107165
000330 3c ef b3 3c 7b b5 2c bd 65 10 88 3d b8 c6 8e bd
       0.021964662 -0.04216526 0.06643752 -0.06971496
000340 19 5b 8c 3d f7 55 c1 3b 1e bf 35 ba 88 98 09 bd
       0.06853313 0.0059001404 -0.0006933081 -0.03359273
000350 69 9f bd 3c 5b 34 da 3c 7e 7e f7 bc 20 77 33 bd
       0.023147302 0.026636293 -0.030211683 -0.04381478
000360 4f 44 57 bd 5d 6a ff bc 6a d4 d5 bc bd 5c b3 3d
       -0.05255538 -0.031178648 -0.026102263 0.08757923
000370 a0 78 24 3d cd 15 31 bc d6 e2 a3 bc ca ae 18 bb
       0.0401541 -0.01080842 -0.020005625 -0.0023297542
000380 d2 45 66 bd b3 d7 ea bc ca c3 03 bd 54 0a 38 bd
       -0.05621893 -0.028667307 -0.03216914 -0.044931725
000390 7c 39 fa 3b 36 5b f9 3c 2c 67 fb 3d 78 d2 98 3d
       0.007636247 0.030439 0.12275538 0.07462019
0003a0 3c 84 9a bb 5f 0f 1e bc f8 76 00 bd 41 3f 90 3d
       -0.0047154706 -0.009647219 -0.031363457 0.07043315
0003b0 0e 38 98 bd d1 3b 40 3d 24 fa 68 3d b5 41 83 bd
       -0.074325666 0.046932045 0.056879178 -0.06409017
0003c0 19 d3 b9 3c 6a b3 33 bd f0 77 97 bc 3b 85 00 bd
       0.022683667 -0.043872274 -0.018489808 -0.03137706
0003d0 97 59 91 3d 3e e9 51 3d 8c 9d 0b 3d c3 9d 3b bd
       0.07097166 0.051247828 0.034085795 -0.04580475
0003e0 3a fa b2 3d 90 13 83 bc 63 97 2b 3c 8a 67 47 3c
       0.08739133 -0.016000539 0.010473105 0.012170682
0003f0 29 d5 1a bd f4 91 a1 bd 7b da 11 bd 8c f4 a0 bd
       -0.03780094 -0.078891665 -0.03560875 -0.078591436

bias f4 [16]
000000 26 2c 61 bc a9 a0 ea bc ba 52 86 3d 2b 6a 08 3e
       -0.013743436 -0.028641062 0.065587476 0.1332175
000010 4b e5 4e 3d 2d be 1e 3d 20 69 d5 bb f0 6c 1d 3d
       0.05051164 0.038755585 -0.006512776 0.03843397
000020 e7 aa 42 3d 02 05 8f 3c a5 58 f7 3c 4f e7 a7 bc
       0.047526266 0.017458443 0.030193636 -0.020496039
000030 b9 e3 88 3c 89 6a 58 3c 38 36 1f bd c3 4b 3a 3d
       0.01671015 0.013208994 -0.038870066 0.04548241

weight f4 [16, 16, 3, 3]
000000 4e e9 15 3e ca 9d 1e bc da 60 29 bd ed ba ec bd
       0.1463978 -0.0096811745 -0.04135213 -0.11559091
000010 69 9b 9b 3d 57 ec a7 bb f9 5a 75 3d 34 bf f4 3a
       0.075980015 -0.0051246095 0.05990121 0.0018672706
000020 d2 23 60 bd e5 6a 11 3d 3c a1 9c bd 6b fa 31 bd
       -0.05472166 0.035502333 -0.076479405 -0.043451708
000030 5d f7 73 bd 0c 3d a1 3d 5f 82 a4 bd 87 1a d4 bc
       -0.059562076 0.07872972 -0.08032679 -0.025891555
000040 de f1 cb bd b9 d3 78 bd 1e 37 e4 bd dd 6c 50 3c
       -0.09958242 -0.06074879 -0.11143325 0.0127212675
000050 bb d6 09 3d d6 7b 73 bc be 46 08 3d 64 a1 15 bc
       0.03365205 -0.014861068 0.03327059 -0.009132717
000060 5e f2 35 bd 31 d0 82 bc 15 81 af 3d e9 04 64 3c
       -0.044420592 -0.015968414 0.08569542 0.013917186
000070 fa fe d7 bc 97 44 ad bc 8c 16 ef 3d b6 8e 9e 3c
       -0.0263667 -0.02115087 0.11674222 0.01935516
000080 d8 7a fd 3c ad 11 74 3d 38 28 1b 3e 0a 37 ea bc
       0.030942366 0.05958717 0.15152061 -0.028590698
000090 02 ae 83 bd 42 e2 b7 3c 7e 79 4c bd 96 45 24 3c
       -0.06429674 0.022446755 -0.04992055 0.010026356
0000a0 46 25 fe bc f9 86 3a 3d 19 e8 18 3c ac 69 7e bc
       -0.031023633 0.045538876 0.00933268 -0.015528124
0000b0 27 c0 64 bd bc 45 61 bc 95 4a a6 bd d7 e4 8b bc
       -0.055847313 -0.013749536 -0.08119694 -0.017076893
0000c0 f7 ca dc bd 53 3e bc 3c 5c e0 6f bd 23 b3 17 bd
       -0.107809 0.022978937 -0.058563575 -0.037036072
0000d0 5b e2 12 bd 31 19 67 bd d3 be 0a bd 2b 8a 39 bd
       -0.0358604 -0.05642051 -0.03387339 -0.045297783
0000e0 21 30 c1 bd 67 37 85 3d e9 9c 9e 3d 74 b9 3d 3d
       -0.09433008 0.06504708 0.07744772 0.04631944
0000f0 4f c2 81 bb 4c a7 96 3d 49 7c ed 3b ed bc 72 bd
       -0.003959931 0.07356128 0.007247482 -0.059262205
000100 4f fa 00 3d fe 44 f4 bc 33 8f 37 3d 9f 9a bc 3c
       0.031488713 -0.029818054 0.0448143 0.023022948
000110 35 4b a6 3c 8b 37 9c 3d b6 7e ad bd 15 99 93 3c
       0.020299533 0.076277815 -0.08471434 0.018017331
000120 b9 9c 95 3d 5a 10 a7 3c 44 19 7a bd 02 53 10 3d
       0.07305283 0.02039354 -0.06105925 0.035235412
000130 22 40 4c 3d a6 7d 9b bd 07 1c 8e 3c 90 2c 6d bd
       0.04986585 -0.07592325 0.017347349 -0.057903826
000140 4b bf 9c bd 03 9e e3 bb 3a 84 4d 3d 8c 96 1e bd
       -0.07653674 -0.0069463267 0.05017493 -0.03871779
000150 a8 93 ab bd 3d b3 df bd 8a e5 43 3d cf b1 0c bc
       -0.083777726 -0.10922859 0.047826327 -0.008587315
000160 a6 26 38 3d 57 d9 bd 3d d1 74 cc 3c 27 52 3b bd
       0.044958733 0.0926997 0.024958046 -0.045732643
000170 ba fc d3 3c 8c 76 7c bd 37 51 b0 bd 10 aa 97 3d
       0.025877345 -0.061636493 -0.086092405 0.07405484
000180 0b 1e 56 bd 1b 43 21 3d 97 40 4d bd 1d 4c 94 3c
       -0.052274745 0.039370637 -0.050110426 0.0181027
000190 5a d5 f5 3c 06 0c 9c bc d1 c1 8b 3d d8 36 a8 3d
       0.03000896 -0.019048702 0.06824077 0.082135856
0001a0 18 c2 ab bd 7e be 96 3d 1c b2 78 bd 13 95 e2 bc
       -0.0838663 0.07360552 -0.060716733 -0.027658975
0001b0 72 38 85 39 f9 99 3b 3d b0 83 bb bd 31 4e fe bc
       0.00025409792 0.045801137 -0.09155977 -0.031043144
0001c0 9d bc c8 bb ad 31 91 bd 69 15 8b bd d5 3e a3 bc
       -0.006126 -0.07089553 -0.06791193 -0.019927422
0001d0 bc 5a 21 bd f7 52 9b bd 41 2e 4f 3d 54 c6 85 bc
       -0.03939317 -0.07584184 0.05058122 -0.016329922
0001e0 c0 24 b3 ba 53 a5 7b bd 4b 14 73 3d 9d 62 00 3d
       -0.0013667569 -0.061436962 0.059345525 0.031344045
0001f0 27 3b 6d bd f8 18 6c 3b 7c f4 7f 3c 33 75 f9 3c
       -0.05791774 0.0036025625 0.015622254 0.030451393
000200 46 c6 e7 bc 68 45 bb bc 16 26 10 bc 95 bc 4d bc
       -0.028292786 -0.022860244 -0.008798143 -0.0125571685
000210 f5 c4 2e bd cb 67 2c bc 92 63 be 3c a2 21 32 bd
       -0.0426683 -0.010522793 0.023240838 -0.043489106
000220 ce 27 2f bd de 4c 2b bd 5f 89 cd 3c 3c 87 ab 3d
       -0.04276257 -0.041821353 0.025089918 0.08375403
000230 d8 04 95 bd c8 3b 8b 3d a6 14 6f 3d dd 10 5e bd
       -0.072763145 0.06798512 0.0583693 -0.0542153
000240 30 ec ac 3d 0c 6d 81 3d 11 35 b4 3d 01 e4 3f bd
       0.08443487 0.06319627 0.08799184 -0.0468483
000250 1f 2f 56 bd f5 07 92 bc 78 fd 2e 3d af 32 62 3d
       -0.052291032 -0.01782606 0.042722195 0.055224117
000260 dd 1a 56 3d cf f1 a6 3c 6b 46 0f bd d5 d6 e2 3c
       0.052271713 0.020378975 -0.034979265 0.02769033
000270 26 d8 b5 3d 47 c9 f6 bb 42 fe 78 bd 47 86 c0 b9
       0.08879118 -0.0075313183 -0.060789354 -0.00036721138
000280 2e 99 6c bd db 16 9f 3d 86 0e 50 3c 9d e9 fa bd
       -0.05776327 0.07768031 0.012698775 -0.122515894
000290 97 37 ce 3b e2 6f 29 3d 98 de 12 be 88 fe 2e bd
       0.006293248 0.041366465 -0.14342725 -0.04272321
0002a0 67 5c 4a 3c 13 02 0d be ee 42 fa 3c 0e 90 d6 bb
       0.012351132 -0.13770323 0.030549493 -0.0065479344
0002b0 d9 f8 00 be f0 5f 8e bd f0 07 ae 3c 6d 33 b2 bc
       -0.12594928 -0.069518924 0.02124402 -0.021753037
0002c0 80 74 a5 3d 0e e5 a7 bd 4f b3 45 bd 0d e4 11 bd
       0.08078861 -0.081979856 -0.048266705 -0.035617877
0002d0 fa 5b c2 bc 95 79 20 3d 7a 0a 6b bd 89 84 a6 bd
       -0.023725498 0.03917845 -0.057383038 -0.08130748
0002e0 63 8e ea 3c 1e 6a 0c 3d 0d 2f 81 bd 19 03 75 3d
       0.028632348 0.03428089 -0.06307802 0.059817407
0002f0 70 94 9c 3d f5 37 1d 3c fa 35 a4 3c 0b d1 87 3d
       0.076455 0.009595861 0.02004527 0.06631669
000300 27 d5 0e 3d 53 04 ba bd c3 fe 67 3c 50 92 8c bd
       0.034871247 -0.09082856 0.014159861 -0.068638444
000310 8d bc 7f 3c 1b 4a 54 bd 40 cd fd 3b 08 2a c0 3d
       0.015608919 -0.051828485 0.007745415 0.09383017
000320 b0 1a 9e 3d 4b 07 e4 3c 89 1e 30 3d 9d 24 22 3c
       0.07719934 0.027835509 0.04299787 0.009896425
000330 7d df 29 3c fe 08 1b bd e1 50 bb 3c 1a c4 ce 3d
       0.010368225 -0.037850372 0.022865715 0.10095997
000340 fd 77 88 3c 0e f8 18 3c 9f 39 b7 3b c6 12 06 3d
       0.016658777 0.009336485 0.0055915858 0.032732747
000350 78 47 28 bd 15 65 3f 3d 78 c4 47 3d 50 0d ba bc
       -0.041083783 0.04672726 0.04877135 -0.022711426
000360 a4 89 f9 3c c5 7d 70 bd a8 f8 8d 3d 17 8b 7b 3c
       0.03046114 -0.058713693 0.06932193 0.015352986
000370 3d ad 82 3d 63 ac 96 3d f7 c4 2e bc 16 da 27 bb
       0.06380699 0.07357099 -0.010667077 -0.0025612167
000380 ff b9 67 3d ca ea 4f 3d bb 1f 68 3d 12 70 b5 3d
       0.056573864 0.05076102 0.056670886 0.08859266
000390 3e 51 f1 bc ed 5c d8 3b 6a e3 38 bd 77 f8 d8 3b
       -0.029457685 0.0066028745 -0.045138754 0.006621416
0003a0 ba b4 af bc b1 dc 87 bc 0c 90 41 bc ba b0 04 bd
       -0.021448482 -0.016584726 -0.011814129 -0.032395102
0003b0 d2 92 81 bd 3b 43 3b 3d fe e0 8b bd 2c a5 a4 3b
       -0.06326832 0.045718413 -0.06830023 0.005024573
0003c0 c1 f4 3e bd 7d fb 94 3b fb bc 15 3c bb 7f 97 bd
       -0.046620134 0.0045465813 0.009139295 -0.073974095
0003d0 ad ce 11 3d 32 86 4b bd 27 63 c6 ba 0b 62 76 3d
       0.035597492 -0.049688525 -0.0015135751 0.060152095
0003e0 17 bb 93 3c d5 00 a8 3d e6 41 8a 3d 21 dc 39 3d
       0.018033547 0.08203284 0.067508504 0.045375947
0003f0 69 ca 92 3d 35 09 a6 bd 45 a6 84 3d 73 15 97 bd
       0.07167513 -0.08107225 0.06477026 -0.07377138

bias f4 [16]
000000 2c 02 5e 3d 00 94 50 3d 68 7a d3 3c ca 8c 9a 3d
       0.05420129 0.050922394 0.025815204 0.07546385
000010 f1 8f b3 bc 5c 7f 1f bc 0e 24 68 3c 93 02 b9 bd
       -0.021919223 -0.009734955 0.014168752 -0.09033694
000020 f9 03 b5 3c 5b 8b 84 bd db 17 c3 3d 49 05 14 3d
       0.02209662 -0.064718924 0.095260344 0.036137853
000030 bb 9b de 3c 33 db 98 3d b3 83 86 3d ad 06 54 3d
       0.027173867 0.07463684 0.065680884 0.05176418

weight f4 [16, 16, 3, 3]
000000 99 3f 80 bc 1d 78 11 bd 40 44 5f bd ea ab bb 3d
       -0.015655326 -0.03551494 -0.054508448 0.091636494
000010 8b 4c 36 bd 30 b4 81 bd 40 20 8b 3d c5 52 95 3c
       -0.04450659 -0.06333196 0.067932606 0.018227944
000020 3f f1 18 bd bf 8d 25 3d e2 8c 44 bd 71 90 61 3c
       -0.037339445 0.040418383 -0.04798592 0.013767348
000030 61 e0 8f 3d 05 1d 6c 3d 1b 58 0a 3d dc 92 a1 bd
       0.07025219 0.057644863 0.03377543 -0.07889339
000040 ec ec a6 3b a0 5a 7c 3a 23 c4 6c 3c 28 1c 38 bd
       0.0050941613 0.0009626541 0.0144510595 -0.044948727
000050 cb 86 2d 3d 27 3a a6 3c b6 45 88 bc 6d d0 3c bd
       0.042364877 0.020291401 -0.016634803 -0.046097208
000060 18 ea 92 b9 fc 6e 09 3d b4 6c 2e bd 7d 30 1e 3d
       -0.00028021703 0.03355311 -0.042584136 0.03862046
000070 a1 7d 38 3d 7c a9 15 bd cc 54 cd 3c e6 9e 74 bb
       0.045041684 -0.036538586 0.025064848 -0.0037326156
000080 6c d5 8c 3d 37 90 b9 bc 5f ac 76 3d b4 2c fa 3c
       0.068766445 -0.022651775 0.06022298 0.030538894
000090 47 ae 03 bc ea 34 93 bd b3 6e 6c 3b b0 00 23 bd
       -0.008037156 -0.07187827 0.0036076724 -0.039795578
0000a0 c3 14 9f bd 03 2d 95 bd 9b 77 56 3d 37 56 b8 bb
       -0.07767632 -0.07283976 0.05236016 -0.005625512
0000b0 fb e9 4a bd b1 92 8e bc b9 be 22 bd 44 b8 1b 3d
       -0.049539547 -0.017403932 -0.03973267 0.038017526
0000c0 8a 61 2b bd 79 79 36 bc 6a f0 83 bc 8b 24 b5 bb
       -0.041841067 -0.01113736 -0.01610585 -0.005528038
0000d0 c7 ff 00 bc e0 ec 80 3d 45 b0 29 bd ea 84 85 3d
       -0.007873482 0.0629518 -0.04142787 0.06519492
0000e0 be 5b 18 3d 60 9e b4 3c 32 40 2a bd af 32 99 3d
       0.037196867 0.022048175 -0.041565128 0.0748037
0000f0 63 38 56 3d 45 c1 30 3d 1b f8 ea bc 19 ce 80 bd
       0.05229987 0.043153066 -0.028682759 -0.0628931
000100 3d f9 24 3d 7c f3 45 bc cf 5e 87 3d 24 2c 4b 3b
       0.040276755 -0.012081977 0.0660988 0.0031001652
000110 28 74 28 bd 46 22 d0 3c fc 2d 86 3d 71 dd 7d bc
       -0.0411264 0.025406968 0.065517396 -0.01549469
000120 12 fd 5b 3d 16 a2 87 3d 6d 5f 93 3d 0c 21 1f bd
       0.053708144 0.06622712 0.071959354 -0.038849875
000130 5b 06 33 3d fb 83 03 3b c1 88 e1 3c 8d 83 9c bd
       0.043707233 0.002006768 0.02753103 -0.07642279
000140 db 93 db bc b9 52 9a 3d bc d1 ce 3c 67 91 40 3d
       -0.026803901 0.07535309 0.025246494 0.047013666
000150 95 2b a6 3c 8c 49 75 bd 2b 5a 1c bd a7 c2 54 3d
       0.020284453 -0.059884593 -0.03817193 0.051943447
000160 1c 64 63 3d 90 15 78 bd ec 9c 4f bd 37 47 61 bc
       0.055515394 -0.06056744 -0.05068676 -0.013749889
000170 b7 9d f7 3a af 56 7c bc 22 5d 9e bd d1 80 8c bd
       0.0018891607 -0.015401526 -0.077326074 -0.06860507
000180 33 b1 a2 bd f8 25 d0 bc 21 97 94 bd 08 8f 0b 3d
       -0.07943954 -0.02540873 -0.07255388 0.034071952
000190 c6 31 93 3d e4 6f 27 bd f5 c6 37 3d 0d 0d 06 bc
       0.07187228 -0.04087819 0.044867475 -0.0081818225
0001a0 eb a9 d0 3c c1 4d 2b 3d 7a 5e 80 bd f4 c9 39 bd
       0.025471648 0.0418222 -0.0626802 -0.045358613
0001b0 3e e7 ac 3d 32 8c 8e 3d d6 85 98 3d 6b ea 88 3d
       0.084425434 0.06960334 0.07447402 0.06685337
0001c0 af d8 8d 3d dd 62 ef bc 43 41 a8 bb 6e 33 24 3d
       0.06926095 -0.029221946 -0.005134733 0.04008811
0001d0 11 2e 6b 3d eb 3c 3e 3d 84 98 76 3d 5b b7 85 3d
       0.05741698 0.046444815 0.060204044 0.06529113
0001e0 71 ad 87 bd c8 a1 07 bd 02 52 8d 3d c0 65 a3 3c
       -0.06624878 -0.03311327 0.069004074 0.01994598
0001f0 53 21 05 3d 1d a8 9f bd dd bd 70 3d 31 5b 4b 3d
       0.032502484 -0.07795737 0.058774818 0.049647514
000200 31 3e 8e 3d 1a d5 af 3c 82 8b 1e 3d 1b 95 fb bc
       0.06945456 0.02146392 0.038707264 -0.030710747
000210 0e 34 a7 bd 17 90 87 bd 1e 1f da ba 1a d8 95 bd
       -0.081642255 -0.0661928 -0.0016641354 -0.07316609
000220 22 62 69 bc 49 43 3a 3d 3d cc a5 bb 8e d1 83 3d
       -0.014244588 0.045474324 -0.0050597475 0.06436454
000230 5e 32 91 bc 67 f3 46 3d 6e e7 19 bd 84 b5 06 bd
       -0.017724212 0.04857197 -0.037574224 -0.03288795
000240 66 f4 f0 bb 12 2c ca bc ed b2 59 bc e8 23 82 bd
       -0.0073533533 -0.024679217 -0.013287288 -0.06354505
000250 bb 58 7f 3d 4c d2 96 bd 56 df c5 bc 76 c4 5c bd
       0.06234048 -0.0736433 -0.024154346 -0.053898297
000260 9f e0 79 bd bc 52 23 bd 63 b0 23 3d e7 4e 07 3c
       -0.06100523 -0.039873824 0.039963137 0.008258558
000270 d1 f7 96 3d 11 c9 53 3b 14 3f 38 3d 82 1b a4 bd
       0.07371486 0.003231589 0.04498203 -0.08013059
000280 3c 3a 65 bd 30 dd 47 bc 3d 67 85 bc 9e c6 5f bd
       -0.05596374 -0.012198731 -0.01628458 -0.054632775
000290 33 ec f7 3c b1 5b ab 3c 53 1f f3 bb 54 fe cc bc
       0.030263996 0.020917745 -0.0074195056 -0.025023617
0002a0 37 6d d4 3b 23 44 8c bd a7 96 e3 3c 3f 9f 53 bc
       0.006482746 -0.068489335 0.027781798 -0.012916385
0002b0 bd 57 21 bd 03 aa 74 3d 13 3b 86 bd f5 57 aa bd
       -0.039390314 0.05973245 -0.06554236 -0.08317558
0002c0 7d 95 dc bc 68 ed 8f 3c e9 0e 0c bd df c6 94 3d
       -0.02692675 0.017569259 -0.034193907 0.07264494
0002d0 f1 ff de bc e9 38 62 bc c4 4f a2 bd 67 0f 29 bd
       -0.027221652 -0.013807514 -0.0792537 -0.041274454
0002e0 d0 7a 10 bd 2f ee e0 3c f4 05 3b bd a1 3a c2 3c
       -0.035273373 0.027457325 -0.045659974 0.023709597
0002f0 96 0b 9c 3d 17 cb a8 bc 94 fc 77 bd 45 0b 00 3d
       0.07619397 -0.020604653 -0.06054361 0.031260747
000300 d0 7d ee bc 83 4e 6f 3d c4 13 0f 3d 19 6c 53 3d
       -0.029112726 0.058424484 0.03493096 0.05161676
000310 82 a9 91 3b 96 db 5c 3d 3a 05 1a bd 4e 60 1e bd
       0.0044452557 0.05392035 -0.03760264 -0.038666062
000320 8f 57 da 3c 16 d1 1f bd df f6 10 3d eb 9d 86 bd
       0.02665308 -0.03901776 0.035391685 -0.06573089
000330 ca aa b7 b9 a3 a2 95 bc 55 50 7b 3c 84 4a 6b 3d
       -0.00035031728 -0.018266028 0.015338977 0.05744411
000340 c1 f2 e0 3c 45 34 66 3d 72 a9 e5 3a 48 8f 78 3d
       0.027459504 0.05620219 0.0017521812 0.06068352
000350 f4 a8 10 bd 35 09 18 3c ed 68 c7 3c 3a 11 8d bd
       -0.035317376 0.009279539 0.024342025 -0.06888051
000360 7d fb 8f bc 5a 96 88 bc de 68 96 3c 48 38 96 bc
       -0.017575974 -0.016673256 0.018360551 -0.018337384
000370 2b 8d 89 3d b0 7f 3a bd c8 17 5b 3c 88 85 1a 3d
       0.06716379 -0.04553193 0.013372369 0.037725
000380 a8 7a a4 bd dc 23 8b bd c0 2a c0 3d 66 e9 8e 3c
       -0.08031207 -0.06793949 0.09383154 0.017445277
000390 09 b3 87 bd 29 9c 54 bd c1 a4 86 3d d5 fe 40 3d
       -0.06625945 -0.05190674 0.06574393 0.047118027
0003a0 4b 07 ba bb 7b 06 27 bd f0 ca 59 3d 68 91 05 3d
       -0.005677139 -0.040777665 0.053172052 0.032609373
0003b0 98 41 9d bd 64 ba 0a bd ca 5d 69 bc d0 c0 51 bd
       -0.07678527 -0.033869162 -0.014243552 -0.05120927
0003c0 3e 1c a9 bc f2 b2 c4 bb 1d de b0 bd 60 36 e7 bc
       -0.02064335 -0.0060027773 -0.08636115 -0.02822417
0003d0 2b f2 94 3d fa 8e 86 bc 94 75 9f bd a4 56 23 3d
       0.072727524 -0.016425598 -0.07786098 0.03987755
0003e0 cb 17 60 3c 37 02 9f 3d 4e d1 80 3d 58 e0 b1 3b
       0.013677548 0.07764094 0.06289922 0.005428355
0003f0 40 66 9f bd 51 ad 4d bd b4 f4 8d 3d 52 b6 46 bb
       -0.077831745 -0.050214116 0.06931439 -0.0030321074

bias f4 [16]
000000 06 a6 a0 bd 06 cf 8a bd b9 2c e5 bc b8 0a a5 bd
       -0.078441665 -0.06777768 -0.027975427 -0.08058685
000010 84 91 9b bd f7 d1 22 3d 19 63 df 3b cf d8 19 3d
       -0.07596114 0.03975102 0.0068172333 0.03756028
000020 b0 28 35 3d 0d 58 9b bc ac 24 1d 3d 68 e0 8d bc
       0.044228256 -0.018962884 0.03836505 -0.01731892
000030 66 bc 9d 3c 96 17 6e 3c 7c 46 99 3c 1e 53 79 3d
       0.019254874 0.0145319905 0.018710367 0.060870282

weight f4 [16, 16, 3, 3]
000000 eb 15 6b bd dc 2c e3 bc 75 31 54 3c 01 b9 b7 3c
       -0.05739395 -0.027731352 0.012951245 0.022427084
000010 89 24 eb 3c c6 47 87 bd f2 34 a6 bd 6e fb 3d 3d
       0.028703945 -0.066054866 -0.08115567 0.04638236
000020 dc 70 11 3c ff f3 fa bc b5 6c bf 3c cd 9c 37 bd
       0.008877005 -0.030633925 0.023367265 -0.04482727
000030 60 09 10 3d ee fd e0 3c d9 dd 76 bd fe de 99 bd
       0.03516519 0.027464833 -0.060270164 -0.075132355
000040 bb d2 d2 bb 7c 21 05 bd 1b 16 5c 3d 28 85 0f 3c
       -0.0064338124 -0.032502636 0.05373202 0.008759774
000050 a6 a5 f8 bd 0c 13 0d be bd f9 5f 3d af f7 42 bd
       -0.1214097 -0.13776797 0.05468153 -0.04759949
000060 89 09 5e bd a3 38 97 3a 1b 66 d6 3b 20 2e a9 3b
       -0.054208312 0.0011537265 0.0065429336 0.005162969
000070 98 60 ce ba 60 a5 c6 39 5f cb a7 bd 77 c3 95 3b
       -0.001574534 0.00037888717 -0.08193087 0.0045704204
000080 c2 08 3d 3d a1 33 0d bd f6 fd f0 bc e1 9f 8e 3d
       0.04615093 -0.034473065 -0.029417973 0.06964088
000090 e7 1d a5 3c c8 0f a8 bd 71 4a b5 3c 7d 97 44 3d
       0.02015586 -0.08206135 0.022130223 0.047996033
0000a0 b7 26 0b bd 0b 34 2b bd d4 a5 14 bd a2 30 8a 3c
       -0.03397247 -0.04179768 -0.03629096 0.016868893
0000b0 30 b2 ab bd c1 3b d8 bb 51 29 22 bd a0 0d 4f bc
       -0.08383596 -0.00659892 -0.039590184 -0.012637526
0000c0 ea b8 88 bc c5 38 01 3b f1 02 58 bd 31 d5 1b 3d
       -0.016689736 0.0019717675 -0.05273718 0.038045112
0000d0 fe 33 81 3d 88 ae 68 bb 86 ff f6 3b 1c 40 80 3c
       0.06308745 -0.003550442 0.007537785 0.01565557
0000e0 2f 2b 1b bd ba 20 83 bd fb 4e a8 bd 3c 6c d9 bd
       -0.03788298 -0.064027265 -0.08218189 -0.10616347
0000f0 1b 9b 31 3d 7a 71 15 be da 10 dc bc ce 62 b4 3d
       0.04336081 -0.14594069 -0.026863504 0.08807908
000100 3b 05 a5 bd c9 44 99 bd 16 92 00 3d 78 f8 ba bd
       -0.08057638 -0.07483823 0.03138932 -0.09129423
000110 b3 a0 4b 3d 65 be a8 3d e8 8a 59 bd 13 8e f0 bc
       0.0497138 0.0823944 -0.053110987 -0.029364621
000120 71 51 12 3e 22 4f cb bd 87 dc ca 3d 69 79 23 3c
       0.1428888 -0.09927203 0.099053435 0.009977677
000130 fa 8e 10 3e 08 80 27 be 19 e0 8c 3d 8c 42 09 3d
       0.14117041 -0.16357434 0.06878681 0.03351073
000140 b9 28 cc bc 43 ba e5 bd 24 67 8e bc 30 24 1b 3d
       -0.024921762 -0.11217167 -0.017383166 0.037876308
000150 78 a8 25 3e 70 ff 71 bd 87 a8 88 ba fc cc 81 bd
       0.16177547 -0.059081495 -0.0010426202 -0.06337926
000160 59 da 82 bd 78 c9 e0 3d 53 fe c0 3d 1f 83 88 bd
       -0.06389303 0.10975927 0.094235085 -0.06665634
000170 22 10 f4 bc 24 c1 9a bd 8d 78 3b bd d4 e6 7a bd
       -0.029792849 -0.0755637 -0.045769263 -0.06125529
000180 e8 04 3b 3c a4 b0 bf bd 05 1a 40 3d 6e e0 4d bd
       0.011414744 -0.093598634 0.046899814 -0.05026286
000190 3e 75 7c bb d4 0d be 3d 26 9b 99 bd 17 fa 60 3d
       -0.003852203 0.09279981 -0.07500295 0.054926004
0001a0 de 2f 9d bd 99 0b 12 bd bc 28 b5 bd 89 c5 05 bc
       -0.076751456 -0.03565559 -0.0884566 -0.008164772
0001b0 8e 79 c9 3d 5b be e1 bd d9 ef d6 3c ef fc 0a 3d
       0.09837638 -0.110226355 0.026237415 0.033932623
0001c0 a7 8c b3 bd f1 44 46 bd d4 27 28 b9 19 a8 b8 3d
       -0.08767062 -0.04840559 -0.00016036566 0.09016437
0001d0 e3 ea 00 be b4 dc 37 3d e0 46 2b 3d 35 33 da 3c
       -0.12589602 0.044888213 0.04181564 0.026635746
0001e0 71 7e 85 3c ca e6 a9 bd 88 bc e5 3b cc c3 cd bc
       0.016295644 -0.08295973 0.007011 -0.025117777
0001f0 74 fb ec 3c 38 c9 f1 bc 49 a3 65 3d ab 31 53 3d
       0.028928496 -0.029514894 0.056063924 0.05156104
000200 ec b1 6e bd 38 46 1b bc f8 d6 7c 3d 0c f6 ad 3c
       -0.05827515 -0.009477191 0.061728448 0.021235488
000210 ff 5b fd bc 46 f5 cb bc 12 bc d3 bd b7 91 4e 3d
       -0.030927656 -0.024897229 -0.10338606 0.050431933
000220 eb c8 a6 bd 6f 27 f6 bc a0 62 f3 bb 20 9d 59 bd
       -0.08143791 -0.0300481 -0.0074275285 -0.05312836
000230 8f fc 4e bd 4d 09 5a bd 03 be 43 3d 95 eb 3b bc
       -0.050533827 -0.053231526 0.04778863 -0.011469741
000240 40 7f 85 bd 2b 78 22 3d 32 48 88 bc 24 b6 25 3c
       -0.06518412 0.039665382 -0.016635988 0.0101142265
000250 ff de 97 3c 4a 6f ce bb 64 dc 98 bd 5e 03 82 bc
       0.01853895 -0.006299888 -0.07463911 -0.015870746
000260 86 01 90 3d 0e a1 c9 bc 73 ff 8f 3d 88 03 ec 3b
       0.070315406 -0.02461293 0.07031145 0.0072025694
000270 84 f1 8d bc 5b e6 46 3b 85 24 21 bd 88 ae ee 3c
       -0.017327078 0.0030349705 -0.03934147 0.029135957
000280 9b f2 41 bd 9e 36 1b bd 84 65 88 bd 42 ff 15 3d
       -0.047350507 -0.037893884 -0.066599876 0.036620386
000290 79 2d 44 3d 5e 12 42 3d 5b e0 0f bd ba c0 db bc
       0.04789493 0.047380798 -0.03512607 -0.026825298
0002a0 0d aa c2 3b 78 50 83 bd d3 a7 90 3b 27 70 f3 3c
       0.005940682 -0.064118326 0.0044145375 0.029716564
0002b0 f1 2a 8c 3d 66 96 7c bd 5d aa aa 3c bf aa 94 3d
       0.06844128 -0.06166687 0.020833189 0.0725913
0002c0 3c cd a6 3c f9 aa 27 bd 98 b5 2f 3d ec e9 52 3d
       0.020361535 -0.040934537 0.04289779 0.051492617
0002d0 6b 0d a5 bd 5c af bb ba 82 f4 7f bd 99 52 34 bd
       -0.080592 -0.0014319229 -0.06248904 -0.044024084
0002e0 32 49 f9 bc 08 c6 7a 3c 82 2f fb 3c f8 2f 7b bc
       -0.03043041 0.015306003 0.030662302 -0.015331261
0002f0 49 38 25 bc 75 db b0 bb 96 83 af bd 32 86 d8 bb
       -0.01008422 -0.005397255 -0.0857002 -0.006607794
000300 cd ba 5e 3b d0 d7 88 3d 1d b3 77 bd c1 51 3f 3d
       0.0033985854 0.06681788 -0.06047355 0.046708826
000310 3f 37 de 3c 36 d0 3e bd 4d f2 5e bd 2c f0 05 bd
       0.027125953 -0.046585284 -0.054430295 -0.03269975
000320 3d 0d bf 3d 6f c7 33 bb 8e bd 9e bd e6 3a 7b 3d
       0.09328697 -0.0027432104 -0.077509984 0.061335467
000330 37 2b 06 bd 34 e9 9a bd 40 8f c2 3d 06 db 79 bd
       -0.032756057 -0.07564011 0.09499979 -0.060999893
000340 cb 00 83 bd 0b 31 d6 3c 82 5c 98 3d b3 cc 7d bd
       -0.063966356 0.026146432 0.074395195 -0.061962795
000350 89 2f a6 3d 02 f5 7d 3d 2d bf b0 3b cb 89 94 bd
       0.08114535 0.062001236 0.0053938837 -0.072528444
000360 79 a5 86 3d cc 0e b3 3d 97 d1 6d 3d 73 a0 79 bd
       0.0657453 0.08743057 0.05806121 -0.060944032
000370 68 b0 a1 3d 9c a3 50 3d 5d 71 27 3c 63 ed 42 bd
       0.07894975 0.05093728 0.010219899 -0.04758967
000380 be 29 fa bc 44 b0 a8 3d 63 2d e0 3c 35 2e b6 bb
       -0.030537482 0.08236745 0.027365392 -0.0055597075
000390 a0 07 81 bd eb 6d f8 bd d9 c3 ce 3c 06 62 db bc
       -0.063002825 -0.1213034 0.025239872 -0.02678014
0003a0 b2 67 94 3c e6 d0 db bc c1 da 84 bd be c2 84 3c
       0.018115852 -0.026833009 -0.064870365 0.016206142
0003b0 10 cb 02 3c f9 ec 10 3d eb b7 4e bc 45 b5 7d 3a
       0.007982984 0.035382245 -0.012617092 0.00096781953
0003c0 60 0a 6a bd ef e3 79 bd 8f 55 19 3d 05 32 b0 bd
       -0.0571388 -0.06100839 0.03743511 -0.086032905
0003d0 66 a5 81 3b 92 25 3a bd 57 1c 39 bd 39 bb cd bd
       0.0039564846 -0.045445986 -0.045193043 -0.100454755
0003e0 3a e4 e1 3d 0b 6c b5 bc 8d 0c 10 bd f1 26 b4 3d
       0.11029859 -0.022146245 -0.03516822 0.0879649
0003f0 48 50 6b 3d 5b 3e 86 bc 1a bc a6 bd fa 31 69 3d
       0.05744961 -0.016387155 -0.08141346 0.056932427

bias f4 [16]
000000 81 9c bb 3c a4 15 9b 3d 50 0a 39 bd 4d a0 5b bd
       0.022901775 0.07572487 -0.04517585 -0.05361967
000010 14 f1 50 3c 59 b3 cf 3c c9 00 54 bd 18 86 6a ba
       0.01275279 0.025354074 -0.05175856 -0.0008946373
000020 61 20 a7 3d 7e f5 83 3c e3 22 d3 bc b3 fd c7 bd
       0.08160473 0.01610827 -0.025773471 -0.09765186
000030 66 21 9b 3d a8 74 b7 3c e3 cb 94 bc c2 4a 2f 3c
       0.075747296 0.022394493 -0.018163627 0.010698976

weight f4 [64, 16, 3, 3]
000000 9b 53 9c bd a1 92 96 3d 36 ce ae 3d 43 06 32 bd
       -0.07633134 0.07352186 0.08535425 -0.043463003
000010 65 1e bd bd c4 0c 78 bc fd ad d2 bc 42 c1 c6 bd
       -0.09234313 -0.015139762 -0.02571773 -0.0970483
000020 f1 95 a7 3c 80 c7 38 bd e0 d2 83 bd ed 5d f0 3c
       0.02045724 -0.045112133 -0.064367056 0.029341662
000030 a0 18 34 3b cb a4 0a bd 7a 3a 83 bd 22 1a 2e bd
       0.0027480498 -0.033848565 -0.06407638 -0.04250539
000040 31 9d ae 3c 93 08 73 bc dd 4c 6d 3d 6d 5f 20 3c
       0.02131519 -0.014833587 0.05793463 0.009788376
000050 35 fe 80 b9 b0 2d 8a 3d 97 84 68 3b 97 2e d9 3d
       -0.00024603461 0.067469954 0.003547942 0.106045894
000060 78 43 8c 3d 24 7a d3 bd 9f 55 8a bc 00 0a 1f 3c
       0.06848806 -0.10326031 -0.01688653 0.009706974
000070 60 ea 9d 3c 56 1a 4c bd 58 4c 9c bc 66 0f 3d 3b
       0.019276798 -0.049829803 -0.019079372 0.002884829
000080 7c 50 b9 bc 4f d6 13 3d 0d 14 0d bd 6a b5 77 bd
       -0.022621386 0.036093052 -0.03444295 -0.060475744
000090 5c c2 91 3c 5e 99 be 3c 78 6b 8f 3d 53 27 f9 bb
       0.017792873 0.02326649 0.0700292 -0.0076035648
0000a0 91 93 90 3c 55 a6 30 bd 6c 60 83 bd 6f c8 01 3d
       0.01764849 -0.043127377 -0.064148754 0.03168529
0000b0 83 35 98 bd df e1 3d bd 98 94 71 3d b7 18 82 bd
       -0.074320816 -0.046357986 0.0589796 -0.0635237
0000c0 f0 6b 15 3c 69 f0 b0 3d ea 84 c1 3a c2 2a cc bc
       0.009119973 0.086396046 0.0014764343 -0.024922732
0000d0 ba a5 56 bd 36 c5 92 bc f5 e2 36 bd 6a cb 5f bd
       -0.052404143 -0.017916303 -0.044650037 -0.05463735
0000e0 fe c0 87 bb 7c 46 aa bd 7e 55 94 3d cd 7f cf bc
       -0.0041428795 -0.08314225 0.07242869 -0.025329495
0000f0 04 9d 30 bd ac 1f 3e 3b a3 d4 7a bc 9d 8f 8b 3d
       -0.04311849 0.0029010577 -0.015309486 0.068145014
000100 a9 ad 83 3c 4b 65 45 bd 62 95 10 bc 69 86 84 bd
       0.016074019 -0.048192304 -0.008824678 -0.06470949
000110 86 4e 5a 3b 78 ea 3a 3d c3 59 1d bd 83 a8 1a bd
       0.0033310964 0.045633763 -0.03841568 -0.03775836
000120 fb 78 19 3d 8e 62 64 bd 0a 8a 55 bd e7 bf 90 bd
       0.03746889 -0.05575805 -0.052133597 -0.070678525
000130 d5 0c 91 bd 98 53 2d 3c f0 39 ce bd 8c 0e 07 bd
       -0.07082526 0.010579012 -0.100696445 -0.032972857
000140 0a 24 ac bd b0 f5 20 bd 11 81 dc bd ba 28 4b 3d
       -0.084053114 -0.039296806 -0.10766805 0.049599387
000150 f8 58 91 3c fa b1 99 bd b1 d8 22 bd 72 7b 61 ba
       0.017742619 -0.075046495 -0.039757434 -0.00086014636
000160 45 e9 d4 bc da 84 d2 bc 83 5f d8 3c 09 e8 29 3d
       -0.025990138 -0.025698114 0.026412731 0.04148105
000170 9e 4a 8d bb 09 e2 1a bd e4 ac 8d bd b4 58 21 bd
       -0.0043118736 -0.03781322 -0.06917742 -0.039391235
000180 03 e9 d3 bc 8d 9d 93 3d 09 6a 3d bd a2 6e ec bb
       -0.025867945 0.07207785 -0.0462437 -0.007215337
000190 7b af 10 3c 2b a6 86 bc 7b 65 8f bc 4e 8e 5d 3c
       0.0088309 -0.016436657 -0.017504444 0.013522698
0001a0 63 cf 18 3d 47 61 80 bd 2a 68 d1 3c b0 0d 27 3d
       0.037307154 -0.06268554 0.025562365 0.040784538
0001b0 7c 59 0b bd d6 ed ba 3d e9 c6 9c bd c0 5c 2a 3c
       -0.034020886 0.09127395 -0.076551266 0.01039809
0001c0 46 4a a3 bc e4 3a 2b 3d bd 95 a4 bc c1 5a 36 3d
       -0.019932877 0.04180421 -0.020090932 0.044520143
0001d0 89 0d 68 3d 12 11 fc 3b 2f 3a a6 3d 0d 63 97 bd
       0.056653533 0.0076924646 0.081165664 -0.07391939
0001e0 50 b7 a4 bc f3 b2 93 bc 96 b4 41 3d ba 47 cb 3c
       -0.020106941 -0.018029666 0.04729136 0.024814475
0001f0 94 2f c4 3c f1 61 e2 3b 5e f3 82 3c 6b f9 76 bd
       0.023948468 0.006908648 0.015985187 -0.060296457
000200 45 f7 4a 3d 65 bc 8f 3c ec 83 cc bc 2b b2 fe 3c
       0.04955222 0.017545888 -0.024965249 0.031090816
000210 f3 98 05 3d f9 06 d5 ba ee ff ac bd 6f 85 50 bd
       0.032616567 -0.0016252688 -0.08447252 -0.050908502
000220 f6 d0 c1 3b 7e c6 8f bd fb a6 94 3d 9f 39 46 bd
       0.0059148027 -0.07020281 0.072584115 -0.048394796
000230 ec 21 08 3d 6a 70 f5 bc 76 33 08 3d a3 d1 a0 3c
       0.033235475 -0.02996083 0.033252202 0.019631213
000240 33 35 39 bc 63 5c 0e bd 96 5b 02 3c 32 7c 9f bd
       -0.011304188 -0.034756076 0.007956406 -0.0778736
000250 d3 0b d7 bc 5a 06 a8 3d f9 1a 63 3d 14 98 46 3c
       -0.026250755 0.082043365 0.055445645 0.012121219
000260 1f ac b3 bc 79 be 8e bc 3e 91 96 3d 20 8d 99 3b
       -0.02193266 -0.017424809 0.073519215 0.004686013
000270 64 5b ba 3c dd f7 16 bd bb cd 94 bc 5d c1 29 3d
       0.022748657 -0.036857475 -0.018164506 0.04144417
000280 3a b8 b2 bd 54 d4 3b 3d 07 9a 90 3d 0a fe 6c bc
       -0.08726545 0.04585679 0.070606284 -0.0144648645
000290 61 b6 9f bd d0 72 17 bd eb 8d d4 3d 01 f9 b5 3d
       -0.07798458 -0.036974728 0.10378631 0.08885384
0002a0 9f dc 2b 3c 46 58 8d 3c 26 e0 de bd 0d 8c a6 bd
       0.010489612 0.017254006 -0.10882597 -0.08132181
0002b0 24 c7 23 bd dd 04 ef 3c 9f ed 3d bc b7 68 cd bd
       -0.039984837 0.029177124 -0.011592298 -0.100297384
0002c0 f9 33 2c bd 8c 7a ce 3d 7f 04 28 bd 68 e7 86 3d
       -0.042041752 0.10081968 -0.041019913 0.06587106
0002d0 a3 be 9a 3b f9 0c d8 3b 68 ab 58 bc 6e b7 cb 3d
       0.0047224327 0.0065933433 -0.01322446 0.09947096
0002e0 67 a5 02 be e7 f6 5b 3c ea a8 a0 bd c0 31 ad bc
       -0.12758408 0.013425565 -0.07844718 -0.021141887
0002f0 1a bd ba bd 4a 0f b0 bd 83 16 17 3d aa e0 d3 3b
       -0.091180995 -0.08596666 0.036886703 0.006465991
000300 fe 08 6e bd 27 c4 67 3d 8c 9b 99 3c 67 0a f5 bc
       -0.058114044 0.05658355 0.018750928 -0.029912187
000310 fe bb ed 3c 0e 9c 0e bd 51 9f 8f bc 59 1c 69 bb
       0.029020306 -0.034816794 -0.017532023 -0.0035569875
000320 8b bf 5a 3d df 83 43 bd fe 18 0a 3b a2 d0 b4 3c
       0.053405326 -0.047733184 0.0021072025 0.02207214
000330 6e 7e 45 3d eb 2f 6b 3c 25 a6 b7 3c 1b 52 0b bd
       0.048216276 0.014354686 0.022418091 -0.03401385
000340 33 d4 c0 3c 57 34 d7 bc 3e 8d 92 bd 13 fa 49 bd
       0.023538684 -0.026270075 -0.07155846 -0.049310755
000350 b9 c3 53 3d f0 53 d0 bb 79 4f 9d bd 2c 7c 47 3d
       0.051700328 -0.0063576624 -0.07681174 0.048702404
000360 34 28 5b 3d f3 05 69 3d da a5 ab bd 48 0c 57 3c
       0.053505138 0.05689044 -0.08381243 0.013125487
000370 6e 54 bb 3c 7a ad 04 bd 15 e1 ec 3b dc f6 e7 bc
       0.022867408 -0.032392003 0.0072289803 -0.028315954
000380 ba 27 6a bc f8 d2 7e 3d 3c 20 e2 3c db d7 88 bd
       -0.014291698 0.062212914 0.027603261 -0.06681796
000390 b1 d3 3d bd 57 4f 87 bc c4 2d 8b bd 4e 6e 31 bd
       -0.046344463 -0.016517324 -0.067958385 -0.043318085
0003a0 c8 0d 2d 3c 39 67 93 bd 73 44 a0 bb 20 16 a7 3d
       0.010562368 -0.071974225 -0.0048909723 0.08158517
0003b0 4a e7 9e bd 0f 12 5b 3d a9 c1 17 3c 35 a7 59 3c
       -0.07758959 0.05348402 0.009262481 0.013284494
0003c0 27 68 65 3c 33 6a 7a 3c 05 43 9d 3c ce 24 c9 3c
       0.014001883 0.015284109 0.019196996 0.024553683
0003d0 2b 21 d4 bb 81 66 7e bd 85 ba da bb 57 ee 8b 3b
       -0.0064736805 -0.062109474 -0.006675067 0.0042703557
0003e0 46 46 68 3d 56 2d fd 3c 10 64 e5 3c 68 b5 86 3d
       0.056707643 0.030905407 0.028001815 0.06577569
0003f0 a7 0c 7a 3d 09 a9 ab 3d 0b 31 70 3c cb 59 df 3b
       0.061047222 0.0838185 0.01466013 0.006816124

bias f4 [64]
000000 e3 8f 92 3d 99 88 98 bc c9 6f 93 bc 8e 27 68 3d
       0.071563505 -0.018619822 -0.01799764 0.056678347
000010 56 4b 3f bc 1f 35 b8 bc 94 ba 56 ba 42 d7 32 3d
       -0.011675676 -0.022486268 -0.00081912545 0.043662317
000020 f8 2e ef bc 8b b9 93 bc ce 5b a1 3d 9d 5a 20 bd
       -0.029197201 -0.01803281 0.078788385 -0.039148916
000030 a9 64 39 3d c3 28 28 3c 10 0a 07 3d 65 57 65 bd
       0.045262013 0.010263625 0.03296858 -0.05599155
000040 06 15 35 3d c7 09 ee 3a ef 11 c8 3d 99 de 9b 3c
       0.044209503 0.0018160873 0.097690456 0.019027041
000050 ab ad b3 3c 5a ca 4a 3a 5b f7 ba bc 4d 8f 19 3d
       0.021933397 0.0007735841 -0.022823026 0.037490178
000060 42 4c ff bc af ce a5 3d b2 21 68 3b 0d 4f 41 bd
       -0.031164292 0.080960624 0.0035420475 -0.04719453
000070 28 13 52 bd 7d 6f 92 bd d6 04 25 bc 27 d8 ed 3c
       -0.0512878 -0.07150171 -0.010071954 0.029033734
000080 e2 d3 61 3a 0f ee 0b 3d 82 99 22 3d 5c 72 4f bd
       0.0008614642 0.034162577 0.039697178 -0.05064617
000090 9c 10 85 3c 8d 75 25 3c 33 02 1d 3d c3 57 73 3d
       0.016243272 0.010098827 0.038332175 0.059409868
0000a0 56 ec 69 bc 7b b8 af 3d 66 e4 e4 bc 82 46 ac 3d
       -0.014277538 0.08580109 -0.02794094 0.08411886
0000b0 b1 88 90 bd 8a 54 b7 bd 0d 99 b2 bd af 42 9e bc
       -0.07057322 -0.089516714 -0.08720598 -0.019318907
0000c0 f3 21 e9 3c 2a 25 8e 3c e2 23 71 bc 3e ac 31 3d
       0.028458571 0.017351706 -0.014718028 0.043377154
0000d0 64 47 b9 bd d7 e9 8b 3d 15 8d 68 bd 24 31 47 bd
       -0.0904682 0.06831711 -0.05677517 -0.04863085
0000e0 7d 07 49 bd 24 90 83 bd 49 36 0c bd 33 21 b2 bd
       -0.049079407 -0.06423977 -0.034231458 -0.086977385
0000f0 a1 d4 33 3d 70 41 6f 3c 4a 62 ba 3c 9e c0 ab bd
       0.04390395 0.014603004 0.022751946 -0.08386348
