working/model_pretrained/net_F16B2_epoch_15.pth (torch_old, 135256 bytes, 16 tensors)

weight f4 [16, 3, 3, 3]
0.14745127 -0.1422558 -0.16335382 -0.14903767 0.15507753 0.13153993 -0.13542736 0.17189974
-0.089838706 -0.16531633 -0.073885456 -0.021855593 -0.13511597 0.10580686 0.167514 0.094855815
-0.14884879 0.1442328 0.026609143 0.09419438 0.16424464 -0.060025007 -0.09524567 0.07318171
-0.08716091 -0.16368885 0.0773002 0.1070163 0.056879047 -0.1535713 -0.035314683 -0.06531258
-0.094088204 -0.026984455 0.14407253 -0.15695152 -0.0015880384 0.09476702 0.0494125 0.17887172
0.011840077 -0.14939484 -0.12124786 -0.0130147105 0.009896489 0.035375837 -0.031852644 -0.075961575
-0.13665277 0.05249306 0.002400713 -0.10435161 -0.14371003 -0.053339507 -0.009637932 0.19209087
0.18023978 -0.031914797 0.12463614 0.19062021 0.016890401 -0.1702996 0.15458499 -0.046640284
-0.16717982 -0.025732355 0.082235396 -0.04392079 0.011978332 -0.077509455 -0.14217883 -0.1398306
0.0940267 0.16660728 -0.0008043887 -0.095849164 -0.07646465 0.012799624 -0.09266563 -0.13684663
-0.13170704 -0.15806146 -0.09539412 0.14408125 0.09940307 -0.026726946 -0.00826924 -0.019828146
-0.10730438 -0.026204776 -0.0145343905 -0.09104674 -0.049851075 -0.11012478 0.016268855 -0.085400164
-0.08520131 0.048000377 -0.0024745928 0.03564665 0.13499449 -0.15227966 -0.09639751 0.16777161
0.120053306 -0.16611645 0.10530326 0.0012003311 -0.060843028 -0.15683891 0.072166786 -0.11635277
0.11603031 -0.113041684 -0.14851917 0.06298283 -0.00016843402 0.0549854 -0.06061018 0.0038048734
-0.03386811 0.088322155 -0.036984764 -0.06187324 0.0961865 -0.12072591 0.18371505 0.08487025
0.18169612 -0.083126664 0.12088091 -0.005739607 0.11596527 -0.088756844 0.033905182 -0.0943936
0.12750721 -0.04609542 -0.12663886 0.14940989 -0.16110653 0.078651965 0.010510912 -0.036259837
0.1986213 0.16427304 0.11942022 -0.16164726 0.18394063 -0.0023011956 -0.05221636 0.05992621
-0.0027200982 -0.08323397 0.0127524305 -0.009677309 -0.1554451 -0.19568971 0.11525432 0.10949276
-0.07172682 0.10330852 0.03960707 -0.019710194 0.014567434 0.1656781 -0.14575219 0.16564041
0.14844842 -0.17711307 -0.18113649 -0.16695833 0.019673303 0.024284994 -0.16579925 -0.2027105
-0.12041773 -0.07016738 -0.1190948 0.18054745 0.10108446 0.141211 0.10395385 -0.054126173
0.12975521 0.1535776 -0.043207463 -0.097558916 -0.03903178 -0.005337909 -0.15555598 -0.08797907
0.16669098 0.09007749 -0.123971716 -0.09892418 -0.03444917 0.018430727 0.15595405 0.047921356
0.15776603 0.15347365 0.09846093 0.045768213 0.033217788 0.104695596 0.005492121 -0.097239666
0.13534503 0.09183504 -0.066017285 -0.12188449 0.038285088 0.10150051 0.16712898 -0.04000649
-0.17233737 0.09248111 0.032998946 -0.15493038 -0.15354599 0.1533817 0.13705806 -0.09358041
-0.08996378 0.1610163 -0.007388693 0.17932977 -0.02443526 -0.046938192 -0.16005063 0.13007931
0.08615887 -0.06645536 -0.0081879925 -0.0559295 0.16429164 -0.012017563 0.17546578 -0.041188426
0.03252575 0.07041217 -0.0038741985 -0.102144994 -0.057152677 0.0062192734 -0.083363555 0.01396881
0.16713746 -0.13751054 -0.021028621 -0.032876737 0.08011785 -0.16930373 0.07212001 -0.030598598
00000000: 77fd 163e 81ab 11be 3946 27be 559d 18be
00000010: a5cc 1e3e 67b2 063e 78ad 0abe 7c06 303e
00000020: 5bfd b7bd af48 29be 4251 97bd 800a b3bc
00000030: d75b 0abe 44b1 d83d ca88 2b3e c443 c23d
00000040: d16b 18be c3b1 133e 6bfb d93c fce8 c03d
00000050: bf2f 283e c8dc 75bd 2910 c3bd 4be0 953d
00000060: 6b81 b2bd 0d9e 27be 914f 9e3d 5d2b db3d
00000070: 01fa 683d cb41 1dbe 21a6 10bd 9ac2 85bd
00000080: 51b1 c0bd 810e ddbc c087 133e e6b7 20be
00000090: ba25 d0ba 3615 c23d c364 4a3d 262a 373e
000000a0: e2fc 413c f6fa 18be cc50 f8bd a73b 55bc
000000b0: e224 223c 41e6 103d eb77 02bd be91 9bbd
000000c0: b4ee 0bbe f602 573d 4855 1d3b 4cb6 d5bd
000000d0: b928 13be 877a 5abd 6be8 1dbc 78b3 443e
000000e0: c790 383e 17b9 02bd 3c41 ff3d f231 433e
000000f0: bd5d 8a3c 0563 2ebe 874b 1e3e e209 3fbd
00000100: 3031 2bbe a9cc d2bc 086b a83d 49e6 33bd
00000110: c440 443c 47bd 9ebd 5497 11be c12f 0fbe
00000120: 1291 c03d 199b 2a3e 9ddd 52ba 914c c4bd
00000130: 8099 9cbd 84b5 513c 7ac7 bdbd 8621 0cbe
00000140: 36de 06be ddda 21be fe5d c3bd 098a 133e
00000150: d693 cb3d 78f2 dabc b57b 07bc a36e a2bc
00000160: 66c2 dbbd 66ab d6bc a721 6ebc b776 babd
00000170: a430 4cbd 1a89 e1bd 4346 853c 48e6 aebd
00000180: 067e aebd 0b9c 443d c72c 22bb 3902 123d
00000190: ff3b 0a3e 33ef 1bbe 0f6c c5bd 52cc 2b3e
000001a0: 82de f53d 6e1a 2abe 3ca9 d73d 6e54 9d3a
000001b0: 8a36 79bd 619a 20be 2ecc 933d 5c4a eebd
000001c0: 4da1 ed3d 6682 e7bd 6915 18be 24fd 803d
000001d0: aa9d 30b9 5f38 613d 6142 78bd 2f5b 793b
000001e0: 4ab9 0abd 3fe2 b43d 567d 17bd cb6e 7dbd
000001f0: 6dfd c43d 253f f7bd cc1f 3c3e 74d0 ad3d
00000200: 8c0e 3a3e 503e aabd 6990 f73d 5013 bcbb
00000210: 337f ed3d 26c6 b5bd 29e0 0a3d 6f51 c1bd
00000220: 4091 023e 8dce 3cbd 9ead 01be e8fe 183e
00000230: 1cf9 24be 4814 a13d f635 2c3c 3285 14bd
00000240: 6263 4b3e 3137 283e 9792 f43d dc86 25be
00000250: ef5a 3c3e a8cf 16bb d2e0 55bd 3075 753d
00000260: ad43 32bb 9276 aabd 92ef 503c 938d 1ebc
00000270: 002d 1fbe e262 48be 750a ec3d bd3d e03d
00000280: 83e5 92bd 6b93 d33d 063b 223d 4677 a1bc
00000290: 3fac 6e3c 85a7 293e 1040 15be a49d 293e
000002a0: dd02 183e 215d 35be d87b 39be 20f7 2abe
000002b0: e829 a13c 53f1 c63c 47c7 29be 5793 4fbe
000002c0: 929d f6bd eab3 8fbd f9e7 f3bd 6ee1 383e
000002d0: 5f05 cf3d 9e99 103e c2e5 d43d 68b3 5dbd
000002e0: 8dde 043e 7243 1d3e 4ffa 30bd f8cc c7bd
000002f0: cadf 1fbd a0e9 aebb 114a 1fbe 5f2e b4bd
00000300: 0ab1 2a3e 8c7a b83d e2e4 fdbd c398 cabd
00000310: 931a 0dbd 09fc 963c 6bb2 1f3e 2f49 443d
00000320: 6b8d 213e 3228 1d3e e2a5 c93d 7377 3b3d
00000330: 600f 083d a56a d63d 40f7 b33b 9725 c7bd
00000340: e397 0a3e 0214 bc3d 1234 87bd 939e f9bd
00000350: d3d0 1c3d 80df cf3d dc23 2b3e d8dd 23bd
00000360: 3579 30be bc66 bd3d e729 073d 12a6 1ebe
00000370: 293b 1dbe 1810 1d3e f358 0c3e 16a7 bfbd
00000380: ee3e b8bd 75e1 243e d91c f2bb 39a2 373e
00000390: 742c c8bc 4342 40bd 50e4 23be 8333 053e
000003a0: 1074 b03d bf19 88bd ee26 06bc 5516 65bd
000003b0: 113c 283e 50e5 44bc 4dad 333e 32b5 28bd
000003c0: b939 053d 4134 903d 44e6 7dbb 6531 d1bd
000003d0: ed18 6abd 0ccb cb3b 83ba aabd 70dd 643c
000003e0: 1526 2b3e 90cf 0cbe 3744 acbc c2a9 06bd
000003f0: d414 a43d f55d 2dbe a8b3 933d e9a9 fabc

bias f4 [16]
0.096193 0.12746921 0.15393092 0.07513724 -0.09982908 0.03964232 0.19983533 0.1409489
0.053315334 0.094620496 0.15032291 0.15452385 0.0824547 -0.03622649 -0.014086126 -0.097708605
00000000: d600 c53d 4a87 023e 11a0 1d3e 8ee1 993d
00000010: 3073 ccbd fc5f 223d a2a1 4c3e e954 103e
00000020: 2e61 5a3d 64c8 c13d 40ee 193e 803b 1e3e
00000030: 02de a83d 3a62 14bd 7fc9 66bc 731b c8bd

weight f4 [16, 16, 3, 3]
-0.0064035733 -0.033290893 -0.0762295 -0.0006587937 0.103684396 -0.110132106 0.13205288 -0.05158414
0.067541316 -0.01940397 0.08063743 -0.026901493 0.012708275 -0.012604569 -0.037509836 -0.0005893446
0.050722536 0.06260913 0.047189105 0.03731164 -0.039580364 -0.08646698 -0.034458406 -0.12845127
-0.090763874 -0.038634595 0.06988069 -0.06707877 0.021247005 0.0006241198 -0.03548867 0.08566005
0.07230655 -0.0058603664 0.07057111 0.036800575 0.010926743 -0.11069759 0.001508234 0.0020834901
0.13283598 -0.02514365 0.031425145 -0.071829714 -0.06644915 0.07383416 -0.05790766 0.10583529
-0.002710231 0.03967985 -0.04730656 -0.013503233 -0.11588325 0.061383963 0.013622832 -0.060349546
0.0013697369 -0.08454385 -0.045446515 -0.061213233 0.009840953 0.018907813 -0.07779513 -0.05915539
-0.046940178 -0.06502778 0.0054000528 -0.0196676 -0.031991977 0.06893775 0.023614442 -0.07222517
-0.0643845 0.009322055 -0.047976788 0.06551207 0.0052485866 0.048448242 -0.006148098 0.00027193563
-0.066378474 0.031130731 -0.010631276 0.12791798 0.101164006 -0.012226353 0.13208656 0.00013968589
0.0021023992 0.07371205 -0.06373062 -0.01227977 0.013693202 0.059765246 -0.03866783 0.029980928
0.0093785245 -0.0065837605 0.07649791 -0.024643114 0.043469768 -0.09795516 -0.039328672 0.03179897
-0.03884531 -0.07850423 0.10953675 0.06999519 0.026662223 -0.03781136 -0.024988001 0.0043105045
-0.057547655 -0.05646046 0.050230715 -0.08145278 -0.03953364 -0.015339972 0.05822794 0.05367461
0.011728864 0.064004906 0.09826881 0.027994288 -0.055398148 -0.037804108 -0.0037811925 -0.06441994
0.06527406 0.055889964 -0.13427506 -0.012316601 -0.11153575 -0.053741302 0.04748115 0.026643943
-0.026613371 0.022430576 0.0021091036 -0.08273597 -0.077496536 -0.02815081 0.013429854 -0.058451187
-0.106287494 -0.068394735 -0.032897916 -0.05456818 0.067114234 -0.04103816 0.13122627 0.005366069
-0.030299284 0.050556954 -0.056449905 -0.04714832 0.052069914 -0.081542775 -0.008696618 -0.005875272
0.0031705257 -0.0005800911 -0.014640328 0.011213187 -0.04622469 -0.09984802 -0.031191828 0.03307148
0.039960355 -0.06965201 -0.07029531 -0.039466206 0.0426963 0.028342009 0.049841713 0.021723246
0.05738032 0.011454451 -0.08404488 -0.034212463 -0.08582364 -0.15640478 -0.0065549845 0.010342329
0.06547033 -0.056352675 0.0577974 0.055914495 0.0021368116 0.015155065 0.0012929376 0.048314285
-0.030817306 0.030251315 -0.056433387 -0.0548614 0.06148057 0.086620696 -0.06475637 -0.08315123
0.0065926528 0.040993184 0.08020651 -0.013531661 0.020048762 -0.043878134 0.06316782 -0.07061199
0.06756206 0.005394276 -0.00077707943 -0.03443669 0.021946117 0.026983654 -0.028704343 -0.044069942
-0.048935093 -0.032578733 -0.029688034 0.08500247 0.03978437 -0.010435944 -0.01731726 0.0010300718
-0.058193773 -0.032165043 -0.03765654 -0.022023832 0.013058979 0.041225426 0.14172861 0.07515219
-0.0045316885 -0.016933689 -0.028992051 0.07092151 -0.07394964 0.047249846 0.057647724 -0.06559066
0.023104517 -0.045372736 -0.019243307 -0.035047967 0.067143224 0.049443018 0.034769867 -0.042995565
0.086496025 -0.017134376 0.0028656528 0.008949974 -0.03666271 -0.07729418 -0.034838535 -0.077904835
00000000: 11d5 d1bb 085c 08bd 361e 9cbd e6b2 2cba
00000010: 7c58 d43d f18c e1bd df38 073e e449 53bd
00000020: 1a53 8a3d 13f5 9ebc 3d25 a53d 8560 dcbc
00000030: 5e36 503c 6583 4ebc eaa3 19bd 3f7e 1aba
00000040: 6fc2 4f3d 3739 803d 5d49 413d 17d4 183d
00000050: 051f 22bd 9a15 b1bd 4224 0dbd bb88 03be
00000060: 69e2 b9bd 4f3f 1ebd 9b1d 8f3d 9860 89bd
00000070: 330e ae3c f99b 233a 915c 11bd 896e af3d
00000080: 7515 943d 5108 c0bb 9687 903d 33bc 163d
00000090: 1506 333c 6bb5 e2bd efaf c53a 2a8b 083b
000000a0: 2806 083e 0efa cdbc a7b7 003d 751b 93bd
000000b0: 7e16 88bd 5d36 973d 9530 6dbd 2cc0 d83d
000000c0: 229e 31bb 5787 223d 86c4 41bd aa3c 5dbc
000000d0: 3354 edbd c06d 7b3d 4c32 5f3c 1631 77bd
000000e0: be88 b33a 5325 adbd 2026 3abd baba 7abd
000000f0: f33b 213c 8fe4 9a3c 0e53 9fbd ec4c 72bd
00000100: 5844 40bd 492d 85bd edf2 b03b f21d a1bc
00000110: 050a 03bd 3c2f 8d3d 1373 c13c caea 93bd
00000120: 05dc 83bd 88bb 183c 4f83 44bd 312b 863d
00000130: 56fc ab3b aa71 463d fc75 c9bb 9592 8e39
00000140: 70f1 87bd e005 ff3c ce2e 2ebc eefc 023e
00000150: 132f cf3d 0b51 48bc b341 073e a578 1239
00000160: 68c8 093b 58f6 963d 3385 82bd 1731 49bc
00000170: 7459 603c 67cc 743d 2962 1ebd 909a f53c
00000180: 62a8 193c 96bc d7bb f0aa 9c3d 5be0 c9bc
00000190: 5b0d 323d b79c c8bd 1a17 21bd a33f 023d
000001a0: 431c 1fbd d3c6 a0bd ce54 e03d a359 8f3d
000001b0: bc6a da3c 16e0 1abd a3b3 ccbc 223f 8d3b
000001c0: 17b7 6bbd 1543 67bd b9be 4d3d b7d0 a6bd
000001d0: 07ee 21bd 8254 7bbc 6c80 6e3d e8d9 5b3d
000001e0: 6c2a 403c 0115 833d 2841 c93d 4754 e53c
000001f0: 2be9 62bd 7bd8 1abd e2cd 77bb 9aee 83bd
00000200: 68ae 853d e0ec 643d 677f 09be 92cb 49bc
00000210: db6c e4bd d71f 5cbd 987b 423d 6644 da3c
00000220: 4904 dabc 54c0 b73c e338 0a3b 7a71 a9bd
00000230: 81b6 9ebd 879c e6bc e408 5c3c 836a 6fbd
00000240: 42ad d9bd 8a12 8cbd f7bf 06bd e282 5fbd
00000250: 3073 893d a117 28bd 2e60 063e d9d5 af3b
00000260: 3436 f8bc cf14 4f3d 0438 67bd 991e 41bd
00000270: 4347 553d e6ff a6bd 427c 0ebc 5b85 c0bb
00000280: 98c8 4f3b 4111 18ba fcdd 6fbc 84b7 373c
00000290: 1a56 3dbd 1e7d ccbd 0186 ffbc f675 073d
000002a0: 78ad 233d b7a5 8ebd fdf6 8fbd 51a7 21bd
000002b0: 51e2 2e3d 802d e83c d326 4c3d f3f4 b13c
000002c0: a007 6b3d 73ab 3b3c b91f acbd 5e22 0cbd
000002d0: 4ec4 afbd 9328 20be 32cb d6bb df72 293c
000002e0: 4f15 863d 10d2 66bd f7bc 6c3d 9906 653d
000002f0: c009 0c3b f34c 783c c977 a93a 33e5 453d
00000300: 9374 fcbc 9bd1 f73c b226 67bd 59b6 60bd
00000310: 0dd3 7b3d 3166 b13d fd9e 84bd 314b aabd
00000320: 2e07 d83b 78e8 273d 5043 a43d e6b3 5dbc
00000330: 4d3d a43c 8fb9 33bd 215e 813d 059d 90bd
00000340: fa5d 8a3d 78c2 b03b ebb4 4bba 7d0d 0dbd
00000350: 58c8 b33c d30c dd3c 5f25 ebbc af82 34bd
00000360: 2a70 48bd 4771 05bd 5234 f3bc c615 ae3d
00000370: f0f4 223d 86fb 2abc eddc 8dbc 7903 873a
00000380: 985c 6ebd 7ebf 03bd be3d 1abd 536b b4bc
00000390: 54f5 553c fedb 283d 4e21 113e 64e9 993d
000003a0: 8f7e 94bb 85b8 8abc bd80 edbc 4c3f 913d
000003b0: e972 97bd 0e89 413d 0520 6c3d 6554 86bd
000003c0: af45 bd3c c3d8 39bd 24a4 9dbc 758e 0fbd
000003d0: 6382 893d c384 4a3d d96a 0e3d 1e1c 30bd
000003e0: d424 b13d 645d 8cbc adcd 3b3b e9a2 123c
000003f0: a32b 16bd 694c 9ebd dab2 0ebd 928c 9fbd

bias f4 [16]
-0.015858117 -0.027659947 0.07896514 0.13542576 0.048802704 0.0326041 -0.005789229 0.03798839
0.044371 -0.013541615 0.02694721 -0.019526277 0.02221552 0.014166387 -0.024752785 0.044391908
00000000: e2e8 81bc 1d97 e2bc 7ab8 a13d 0dad 0a3e
00000010: 58e5 473d e08b 053d 93b3 bdbb b799 1b3d
00000020: 5ebe 353d a6dd 5dbc 65c0 dc3c 92f5 9fbc
00000030: 52fd b53c 221a 683c 5ac6 cabc 4ad4 353d

weight f4 [16, 16, 3, 3]
0.14476615 -0.017067349 -0.04320332 -0.13413724 0.089068 -0.012880053 0.048012663 0.0026370008
-0.056142088 0.04513361 -0.07530314 -0.04744333 -0.06202513 0.0815851 -0.09164884 -0.027781695
-0.0976929 -0.064970315 -0.104278386 0.0047639366 -0.030020116 -0.042515613 0.096292086 -0.12906995
0.010867341 -0.06708809 0.1462018 0.01843917 -0.02761851 -0.027245894 0.12094554 0.020262182
0.02770032 0.062089514 0.14865728 -0.028102634 -0.062342 0.0262249 -0.045723148 0.010281552
-0.032279678 0.044664234 0.011697243 -0.015986377 -0.055044517 -0.009988952 -0.075839 -0.02763061
-0.10389819 0.023402981 -0.065667674 -0.026981013 -0.032630756 -0.06042292 -0.030121207 -0.045183178
-0.09174536 0.059977025 0.079412624 0.03938293 -0.010245233 0.080089115 0.0052759736 -0.057566326
0.03226033 -0.028744686 0.04908969 0.022458887 0.026692612 0.078676045 -0.08195313 0.02141723
0.07072821 0.019490616 -0.06629169 0.0349747 0.050547175 -0.07376171 0.021309063 -0.059921835
-0.07857605 -0.048657253 0.11843514 -0.04140194 -0.06411564 -0.12965932 0.08841866 0.043896
-0.033667795 0.12888291 0.022449145 -0.047187638 0.025044149 -0.06413458 -0.08565755 0.07495793
-0.050563406 0.035051227 -0.050652143 0.019189755 0.029906664 -0.0206368 0.06616052 0.083171256
-0.084170625 0.07038612 -0.060531616 -0.027587619 0.005989532 0.04046867 -0.10290383 -0.032775052
-0.007886201 -0.05724405 -0.08695478 0.006690798 -0.021809723 -0.07325092 0.04501119 -0.018985905
-0.0033491876 -0.06164421 0.059746344 0.033224843 -0.05846186 0.009196699 0.019111846 0.03753675
-0.038437665 -0.029497163 -0.011919092 0.010407498 -0.026580945 -0.010419605 0.023462739 -0.04001914
-0.04187696 -0.047063064 0.027675722 0.08184515 -0.0815557 0.07262474 0.059194155 -0.06423864
0.08400375 0.063711144 0.09313828 -0.046102 -0.05041921 -0.016564935 0.042396598 0.05560012
0.053813145 0.01697201 -0.036255784 0.027829997 0.09146404 -0.00419754 -0.059630632 0.001421865
-0.057691365 0.078471094 0.025194783 -0.11104505 -0.050347444 0.059272446 -0.15519261 -0.11107934
0.028196026 -0.15552147 0.09979849 -0.0072827702 -0.12602405 -0.06900455 0.022750597 -0.020501558
0.08211245 -0.08035045 -0.04673447 -0.034552414 -0.023999607 0.039404195 -0.057636756 -0.082286865
0.028244646 0.03421553 -0.0642598 0.060212344 0.07572288 0.010065787 0.020181432 0.06541383
0.03658722 -0.08883095 0.013466902 -0.06652594 0.017450063 -0.051859945 0.0055857277 0.0944768
0.07786556 0.028659422 0.04432761 0.010095606 0.009653645 -0.037467543 0.021488102 0.10254958
0.019108374 0.0122863725 0.007689205 0.03322776 -0.039314672 0.04859896 0.04967383 -0.0207154
0.033776533 -0.057202525 0.07020027 0.018710244 0.06519373 0.07445095 -0.0075301826 0.0012401729
0.05888106 0.028742705 0.06558876 0.10015274 -0.041829772 -0.009402243 9.712141e-05 0.008378729
-0.06079925 0.03598945 -0.012060372 -0.031665254 -0.060794935 0.045515236 -0.06806449 0.006036782
-0.045349415 0.006781994 0.010044343 -0.07430151 0.035958722 -0.04904769 -0.0011290765 0.060800053
0.018986374 0.081705965 0.06822505 0.046230838 0.07194972 -0.07028175 0.07957114 -0.06784214
00000000: 943d 143e d3d0 8bbc f7f5 30bd 465b 09be
00000010: 4969 b63d dc06 53bc eda8 443d 88d1 2c3b
00000020: 3ff5 65bd 05de 383d 8838 9abd f053 42bd
00000030: 100e 7ebd 1716 a73d 63b2 bbbd 7096 e3bc
00000040: 3713 c8bd 280f 85bd e88f d5bd cc1a 9c3b
00000050: bfec f5bc da24 2ebd c934 c53d ea2a 04be
00000060: ef0c 323c 7b65 89bd edb5 153e be0d 973c
00000070: 3740 e2bc c832 dfbc 4cb2 f73d e0fc a53c
00000080: c8eb e23c 9351 7e3d 9d39 183e 7f37 e6bc
00000090: 535a 7fbd 9ad5 d63c 3248 3bbd f473 283c
000000a0: b237 04bd d8f1 363d cba5 3f3c ddf5 82bc
000000b0: 5c76 61bd b4a8 23bc 7a51 9bbd 9759 e2bc
000000c0: 93c8 d4bd 9cb7 bf3c c67c 86bd 4907 ddbc
000000d0: d4a7 05bd 067e 77bd c0c0 f6bc ff11 39bd
000000e0: fee4 bbbd 78aa 753d 16a3 a23d ff4f 213d
000000f0: 9fdb 27bc c305 a43d 13e2 ac3b abca 6bbd
00000100: 6823 043d fa79 ebbc 4512 493d b3fb b73c
00000110: 77aa da3c e820 a13d 0bd7 a7bd 3073 af3c
00000120: f4d9 903d c9aa 9f3c f0c3 87bd a241 0f3d
00000130: 8e0a 4f3d 6110 97bd 5890 ae3c 9970 75bd
00000140: 7bec a0bd d44c 47bd 1f8e f23d 1595 29bd
00000150: 104f 83bd 6ac5 04be d814 b53d 4bcc 333d
00000160: 3ee7 09bd e2f9 033e 45e7 b73c d347 41bd
00000170: 6329 cd3c fe58 83bd 3a6d afbd 8b83 993d
00000180: 931b 4fbd e091 0f3d 9f78 4fbd d533 9d3c
00000190: d2fe f43c 820e a9bc 2b7f 873d b155 aa3d
000001a0: a661 acbd 9926 903d 00f0 77bd 6eff e1bc
000001b0: d643 c43b 7ac2 253d 3ebf d2bd 223f 06bd
000001c0: 2035 01bc bd78 6abd 5915 b2bd 7b3e db3b
000001d0: 4eaa b2bc 9404 96bd a75d 383d 5488 9bbc
000001e0: 0b7e 5bbb a47e 7cbd 95b8 743d c616 083d
000001f0: b475 6fbd c0ad 163c 7290 9c3c 23c0 193d
00000200: d070 1dbd 09a4 f1bc 4c48 43bc 3684 2a3c
00000210: 48c0 d9bc feb6 2abc ee34 c03c 1ceb 23bd
00000220: 2d87 2bbd 33c5 40bd 32b8 e23c 6e9e a73d
00000230: ad06 a7bd 48bc 943d 9275 723d 8c8f 83bd
00000240: 280a ac3d fd7a 823d 48bf be3d 73d5 3cbd
00000250: 6084 4ebd 30b3 87bc 0ea8 2d3d f4bc 633d
00000260: 2c6b 5c3d e208 8b3c f280 14bd bcfb e33c
00000270: 8051 bb3d 858b 89bb 403f 74bd df5d ba3a
00000280: c84d 6cbd 74b5 a03d 4a65 ce3c 966b e3bd
00000290: 1f39 4ebd aac7 723d d0ea 1ebe 917d e3bd
000002a0: 5afb e63c 0541 1fbe 2763 cc3d 4ea4 eebb
000002b0: 730c 01be 4252 8dbd 765f ba3c e2f2 a7bc
000002c0: 922a a83d c78e a4bd a56c 3fbd d586 0dbd
000002d0: d39a c4bc 4b66 213d 8514 6cbd 0486 a8bd
000002e0: 5161 e73c 9525 0c3d a49a 83bd 38a1 763d
000002f0: 9914 9b3d f8ea 243c 8853 a53c b0f7 853d
00000300: 7bdc 153d 00ed b5bd 48a4 5c3c c13e 88bd
00000310: 6ff3 8e3c 186b 54bd 7b08 b73b 0d7d c13d
00000320: fb77 9f3d 2ac7 ea3c de90 353d 0a68 253c
00000330: 522a 1e3c 9177 19bd d107 b03c 8405 d23d
00000340: 2a89 9c3c c84c 493c baf5 fb3b d519 083d
00000350: 6c08 21bd b40f 473d c976 4b3d 58b3 a9bc
00000360: 4359 0a3d 324d 6abd 29c5 8f3d 3a46 993c
00000370: 4a84 853d bd79 983d c0bf f6bb 4c8d a23a
00000380: 442d 713d d275 eb3c 6653 863d e11c cd3d
00000390: b255 2bbd de0b 1abc a9ad cb38 f046 093c
000003a0: a208 79bd ac69 133d de98 45bc 6db3 01bd
000003b0: 1c04 79bd 2f6e 3a3d 6565 8bbd 33d0 c53b
000003c0: 4fc0 39bd 7d3b de3b 0791 243c 642b 98bd
000003d0: 7449 133d 3be6 48bd 85fd 93ba 7a09 793d
000003e0: 5089 9b3c 7555 a73d 93b9 8b3d 8c5c 3d3d
000003f0: 605a 933d e1ef 8fbd 32f6 a23d d2f0 8abd

bias f4 [16]
0.06351891 0.052321043 0.027950417 0.07500903 -0.01936785 -0.006455915 0.015022808 -0.09252079
0.022431951 -0.06659938 0.10036861 0.03377755 0.028721236 0.072708465 0.06511218 0.054084647
00000000: 3416 823d 974e 563d 46f8 e43c 569e 993d
00000010: 53a9 9ebc 248c d3bb 3922 763c 8a7b bdbd
00000020: 36c3 b73c 4165 88bd 0f8e cd3d 545a 0a3d
00000030: cc48 eb3c 2de8 943d 8959 853d dd87 5d3d

weight f4 [16, 16, 3, 3]
-0.016089989 -0.036738764 -0.0476672 0.095838204 -0.03689909 -0.06695537 0.07678659 0.017699456
-0.040376097 0.038591728 -0.04474409 0.012646742 0.06039844 0.06318378 0.027868187 -0.097731315
-0.0004157117 -0.0006556828 0.03148683 -0.037808117 0.04088939 0.026532862 -0.02077898 -0.04855449
0.007617628 0.033304736 -0.03653796 0.03390597 0.03827073 -0.038884304 0.02402094 -0.005758156
0.069590576 -0.02437112 0.06431409 0.030929772 -0.012729572 -0.08020632 -0.014755727 -0.04760654
-0.089220464 -0.09049636 0.04924324 -0.005575378 -0.046244252 -0.00795711 -0.03140833 0.049646765
-0.040804967 -0.0063303486 -0.014687347 -0.00991753 -0.0019007167 0.0631572 -0.040596616 0.059805963
0.028056504 0.02719764 -0.05052021 0.07141945 0.0549904 0.035279576 -0.030656071 -0.06270979
0.041739162 -0.011843097 0.06334141 0.0034291786 -0.041473042 0.024542319 0.0677882 -0.015563193
0.06066539 0.06512585 0.06911957 -0.03812224 0.043241076 -5.420281e-05 0.030334815 -0.07078291
-0.024731724 0.061970368 0.022658808 0.03831572 0.0072230054 -0.05895807 -0.037521668 0.05137596
0.056248106 -0.06033969 -0.05415874 -0.015358386 -0.0012871994 -0.012975232 -0.07720895 -0.07187181
-0.077420995 -0.031841375 -0.07402183 0.020896189 0.066150546 -0.041730005 0.032573648 -0.006219868
0.025577687 0.029435715 -0.056664687 -0.04753143 0.08269708 0.068067014 0.074258916 0.07003118
0.071149796 -0.025573958 -0.003304532 0.038280934 0.057404578 0.048386324 0.061240442 0.059102718
-0.06623419 -0.03384524 0.06986616 0.023116745 0.034063313 -0.076041676 0.05849483 0.055965085
0.07383888 0.022046316 0.04153449 -0.028694522 -0.07970074 -0.06513353 -0.00037688055 -0.07431762
-0.009778814 0.042665076 -0.006700871 0.060851227 -0.022365559 0.04546453 -0.045850404 -0.037267976
-0.0027717971 -0.011140583 -0.0024845528 -0.06369874 0.06824423 -0.07278571 -0.023697546 -0.048603572
-0.05309583 -0.03985936 0.03715563 0.01057058 0.07541949 0.0027167927 0.049477864 -0.075537734
-0.054445922 -0.0067996606 -0.013381698 -0.05000212 0.0315521 0.023164466 -0.0047860867 -0.023177335
0.008578817 -0.068254635 0.027756635 -0.012509726 -0.04016578 0.05861169 -0.06503877 -0.08464456
-0.02792245 0.021237113 -0.03531128 0.07018023 -0.022523737 -0.009487014 -0.07830227 -0.03931758
-0.03574857 0.022854157 -0.04291994 0.023380388 0.06854774 -0.023707196 -0.06016438 0.03370854
-0.031657808 0.05859026 0.0341983 0.049438912 0.0025378063 0.05278009 -0.03508986 -0.03721604
0.025462765 -0.038149145 0.03734008 -0.06533809 0.00058933516 -0.01769306 0.0147481775 0.05604544
0.02711187 0.057797253 0.00026098845 0.060559005 -0.0348924 0.007103678 0.023413293 -0.069613315
-0.019259812 -0.016968155 0.017770767 -0.020619582 0.0671476 -0.047722615 0.0116301235 0.036778256
-0.08297855 -0.07011934 0.10296101 0.018893166 -0.061374877 -0.0511588 0.06733139 0.05938456
-0.01235064 -0.039637066 0.052758433 0.030701527 -0.08124156 -0.031515338 -0.014372334 -0.05595818
-0.018584378 -0.0061489707 -0.086311616 -0.032454226 0.06672875 -0.016367998 -0.0760405 0.036019303
0.013113765 0.07863534 0.060069554 -0.004062014 -0.07669326 -0.050903883 0.069028296 -0.0036033704
00000000: 27cf 83bc 637b 16bd af3e 43bd d246 c43d
00000010: 8023 17bd e61f 89bd 4a42 9d3d 73fe 903c
00000020: 6861 25bd 5c12 1e3d 9445 37bd 4834 4f3c
00000030: 5b64 773d 7f66 813d d34b e43c 5b27 c8bd
00000040: e1f3 d9b9 21e2 2bba 56f8 003d afdc 1abd
00000050: a27b 273d 725b d93c ae38 aabc 13e1 46bd
00000060: 4c9d f93b 8c6a 083d d4a8 15bd fde0 0a3d
00000070: c5c1 1c3d 2645 1fbd 90c7 c43c eaae bcbb
00000080: 8185 8e3d f1a5 c7bc 1bb7 833d 6f60 fd3c
00000090: b28f 50bc 3643 a4bd 01c2 71bc 13ff 42bd
000000a0: 38b9 b6bd 2856 b9bd 48b3 493d a9b1 b6bb
000000b0: 9d6a 3dbd 8a5e 02bc 05a6 00bd 685a 4b3d
000000c0: 1c23 27bd d06e cfbb 33a3 70bc 237d 22bc
000000d0: 7821 f9ba 9058 813d a348 26bd 19f7 743d
000000e0: c1d6 e53c 96cd de3c 48ee 4ebd 5c44 923d
000000f0: 9d3d 613d 5181 103d 7122 fbbc fe6d 80bd
00000100: aff6 2a3d 8d09 42bc 24b9 813d 12bc 603b
00000110: a3df 29bd f90c c93c 8ad4 8a3d c3fc 7ebc
00000120: 467c 783d b460 853d 908e 8d3d 1126 1cbd
00000130: 8e1d 313d d357 63b8 b880 f83c a1f6 90bd
00000140: 2f9a cabc a4d4 7d3d f79e b93c f2f0 1c3d
00000150: f6ae ec3b 047e 71bd 52b0 19bd 996f 523d
00000160: 6a64 663d c026 77bd 8ed5 5dbd bda1 7bbc
00000170: 3fb7 a8ba 1196 54bc ba1f 9ebd 8731 93bd
00000180: e68e 9ebd 1a6c 02bd c298 97bd 7c2e ab3c
00000190: f079 873d 15ed 2abd f26b 053d 09d0 cbbb
000001a0: 4c88 d13c 2b23 f13c 3b19 68bd 51b0 42bd
000001b0: 165d a93d b866 8b3d 0f15 983d 826c 8f3d
000001c0: fcb6 913d 7a80 d1bc d990 58bb 78cc 1c3d
000001d0: 1021 6b3d bd30 463d 42d7 7a3d b115 723d
000001e0: caa5 87bd 4ea1 0abd fd15 8f3d 545f bd3c
000001f0: f985 0b3d bdbb 9bbd 4698 6f3d a53b 653d
00000200: d738 973d 7a9a b43c 1220 2a3d c610 ebbc
00000210: 243a a3bd ba64 85bd 0d98 c5b9 d633 98bd
00000220: 5237 20bc 93c1 2e3d fb92 dbbb 233f 793d
00000230: fa37 b7bc 0439 3a3d a2cd 3bbd 4ea6 18bd
00000240: 0aa7 35bb fe86 36bc e1d3 22bb 7c74 82bd
00000250: a1c3 8b3d ad10 95bd 5b21 c2bc 8a14 47bd
00000260: 037b 59bd 9143 23bd 8030 183d 3a30 2d3c
00000270: 8975 9a3d 380c 323b 4da9 4a3d 87b3 9abd
00000280: b002 5fbd b0cf debb e93e 5bbc 06cf 4cbd
00000290: c63c 013d 68c3 bd3c 9bd4 9cbb 65de bdbc
000002a0: 2b8e 0c3c 16c9 8bbd e261 e33c 98f5 4cbc
000002b0: df84 24bd d012 703d 0c33 85bd 215a adbd
000002c0: 9fbd e4bc 74f9 ad3c 90a2 10bd a7ba 8f3d
000002d0: b383 b8bc 6c6f 1bbc f15c a0bd 790b 21bd
000002e0: 186d 12bd a438 bb3c d2cc 2fbd 3a88 bf3c
000002f0: c262 8c3d 9835 c2bc ed6e 76bd f711 0a3d
00000300: 9eab 01bd 57fc 6f3d 8413 0c3d 7580 4a3d
00000310: 5351 263b f02f 583d 63ba 0fbd d96f 18bd
00000320: 4a97 d03c 4742 1cbd e9f1 183d facf 85bd
00000330: 9d7d 1a3a 09f1 90bc 57a2 713c e78f 653d
00000340: b619 de3c d0bc 6c3d 47d5 8839 b80c 783d
00000350: 55eb 0ebd f8c5 e83b 3ccd bf3c 6d91 8ebd
00000360: c1c6 9dbc cd00 8bbc 0094 913c 66ea a8bc
00000370: ae84 893d ca78 43bd 468c 3e3c cca4 163d
00000380: a8f0 a9bd bb9a 8fbd 39dd d23d d7c5 9a3c
00000390: 3964 7bbd e48b 51bd 0ae5 893d 393d 733d
000003a0: 575a 4abc 7a5a 22bd 3a19 583d c581 fb3c
000003b0: fa61 a6bd 3a16 01bd f079 6bbc 6834 65bd
000003c0: 443e 98bc 4e7d c9bb 25c4 b0bd b9ee 04bd
000003d0: 15a9 883d 2e16 86bc 1fbb 9bbd fa88 133d
000003e0: 1edb 563c 910b a13d 7e0b 763d a51a 85bb
000003f0: 5b11 9dbd 9780 50bd b55e 8d3d 8626 6cbb

bias f4 [16]
-0.08067241 -0.06680319 -0.028352214 -0.08051816 -0.07565609 0.041415595 0.0052242726 0.0149817495
0.046021283 -0.017481765 0.033493392 -0.016307779 0.019619018 0.015160231 0.025246754 0.05754595
00000000: 9437 a5bd 1cd0 88bd e742 e8bc b4e6 a4bd
00000010: 95f1 9abd 66a3 293d 6030 ab3b 0376 753c
00000020: d080 3c3d eb35 8fbc 5e30 093d e497 85bc
00000030: 10b8 a03c 9e62 783c 48d2 ce3c 4db5 6b3d

weight f4 [16, 16, 3, 3]
-0.057319615 -0.013065534 0.018156836 0.021699723 0.03682903 -0.06384113 -0.07770831 0.04065179
0.02154458 -0.021661505 0.032911703 -0.04319505 0.043821137 0.03463744 -0.059597783 -0.062310588
-0.0014907713 -0.028864797 0.061235275 0.003708994 -0.12911221 -0.12072191 0.052960474 -0.05507996
-0.02669555 0.0042642765 0.007121057 0.0058548627 -0.00192403 0.00037696853 -0.08249601 0.0053636306
0.044481788 -0.033788636 -0.029869203 0.070615135 0.018633476 -0.09116915 0.019807553 0.052646622
-0.047297776 -0.053639658 -0.035986986 0.011213388 -0.09429478 -0.0114000365 -0.038015332 -0.0137802325
-0.016291505 0.0056466972 -0.047559123 0.043747943 0.067595944 -0.0021278353 -0.0041803895 0.0091808
-0.02200677 -0.0636625 -0.07803514 -0.108628 0.04884639 -0.14024131 -0.023638263 0.07717795
-0.07084913 -0.0788957 0.043798093 -0.11787355 0.092203416 0.08298347 -0.061865292 -0.007978875
0.23527768 -0.18183544 0.13619399 -0.07639997 0.2212523 -0.2980501 0.09701166 0.01936581
0.022111999 -0.06814115 -0.010639933 0.051278457 0.15799113 -0.068823226 0.0068148496 -0.054019097
-0.058137204 0.110335775 0.08527216 -0.050355937 -0.013146351 -0.06870598 -0.055798706 -0.047735974
-0.0026058967 -0.10052731 0.040459473 -0.02786848 -0.0020333447 0.087338835 -0.06861489 0.05253048
-0.091025546 -0.028002022 -0.08285891 -0.011804537 0.10169495 -0.0955767 0.02969473 0.04504088
-0.082843475 -0.04351502 0.015958136 0.0946147 -0.12464208 0.0631365 0.048334375 0.024029292
0.010768035 -0.06163447 -0.0074052075 -0.024015684 0.032894857 -0.026410183 0.04700283 0.058847893
-0.058520745 -0.014171826 0.056870494 0.0051995255 -0.018885937 -0.03572388 -0.11950037 0.03609031
-0.083493076 -0.037585594 -0.0041342215 -0.053127035 -0.048723146 -0.04261745 0.03561066 -0.010750645
-0.06626947 0.034854535 -0.016939186 0.010011863 0.01920513 -0.005556986 -0.078149706 -0.019907843
0.073294245 -0.024121808 0.0731648 0.008677572 -0.01601791 0.0057198624 -0.037157226 0.031138385
-0.045148537 -0.034608528 -0.063564874 0.03665158 0.047861937 0.049857184 -0.03373859 -0.024494817
0.009105365 -0.06115122 0.008661353 0.027192885 0.073734336 -0.06365234 0.022106297 0.069793895
0.020818733 -0.04013558 0.0480856 0.04992509 -0.0801448 0.0010597522 -0.059383724 -0.04353927
-0.031067438 0.015624833 0.032519862 -0.013348164 -0.0072748847 -0.005200128 -0.08750774 -0.0063133184
0.0035331943 0.065442614 -0.058509067 0.045374215 0.021891085 -0.045732647 -0.053088903 -0.031419322
0.09400821 -0.0021148692 -0.07717679 0.06249604 -0.031637847 -0.075258315 0.09677589 -0.055747204
-0.07435768 0.028399535 0.08025826 -0.07769483 0.10970672 0.06998218 -0.018154226 -0.058785383
0.060389724 0.11194079 0.021898445 -0.071160726 0.1078385 -0.013434809 -0.005980347 -0.0032544602
-0.07596619 0.08299254 0.029756753 -0.003705022 -0.063012645 -0.12106031 0.027992718 -0.026903894
0.018833878 -0.025271866 -0.064080864 0.016226659 0.0107764 0.036588408 -0.013750112 0.0033059698
-0.057013124 -0.06356614 0.037658416 -0.08661132 0.005646157 -0.043199345 -0.045658123 -0.09999326
0.111211866 -0.022534901 -0.03480347 0.08876237 0.057840377 -0.015246361 -0.07944039 0.057469603
00000000: f9c7 6abd d210 56bc a5bd 943c 9ec3 b13c
00000010: 09da 163d 23bf 82bd 8925 9fbd 7e82 263d
00000020: 427e b03c 7873 b1bc 6cce 063d 4bed 30bd
00000030: cb7d 333d fddf 0d3d ce1c 74bd 6339 7fbd
00000040: fc65 c3ba de75 ecbc d7d1 7a3d 9812 733b
00000050: fe35 04be 0c3d f7bd 15ed 583d 869b 61bd
00000060: a0b0 dabc 58bb 8b3b c157 e93b 26da bf3b
00000070: bc2f fcba dca3 c539 abf3 a8bd 65c1 af3b
00000080: 8932 363d f465 0abd 42b0 f4bc ab9e 903d
00000090: 3ba5 983c e4b6 babd 7343 a23c fca3 573d
000000a0: 50bb 41bd 42b5 5bbd 1767 13bd 5cb8 373c
000000b0: 9f1d c1bd 38c7 3abc f7b5 1bbd 7cc6 61bc
000000c0: c375 85bc ee07 b93b 5bcd 42bd 0b31 333d
000000d0: be6f 8a3d 2773 0bbb a6fb 88bb 116b 163c
000000e0: 8b47 b4bc 7c61 82bd e3d0 9fbd 5b78 debd
000000f0: 2713 483d 6b9b 0fbe 08a5 c1bc 790f 9e3d
00000100: 5919 91bd 1294 a1bd a165 333d b067 f1bd
00000110: 25d5 bc3d 3df3 a93d 7666 7dbd d4b9 02bc
00000120: a2ec 703e 1233 3abe 7076 0b3e 9677 9cbd
00000130: f78f 623e 069a 98be 0dae c63d 0ca5 9e3c
00000140: 3924 b53c 968d 8bbd 1d53 2ebc 5c09 523d
00000150: 6dc8 213e 31f3 8cbd 1a4f df3b 2143 5dbd
00000160: 4721 6ebd b9f7 e13d 2ca3 ae3d 0742 4ebd
00000170: cb63 57bc b9b5 8cbd 2f8d 64bd cc86 43bd
00000180: b1c7 2abb 43e1 cdbd d5b8 253d 704c e4bc
00000190: dd41 05bb b4de b23d f785 8cbd 332a 573d
000001a0: 9a6b babd 7f64 e5bc efb1 a9bd d167 41bc
000001b0: 7145 d03d b8bd c3bd 5d42 f33c c97c 383d
000001c0: d7a9 a9bd ce3c 32bd a3ba 823c 5ac5 c13d
000001d0: 5944 ffbd b64d 813d 44fa 453d 14d9 c43c
000001e0: 6a6c 303c 6d74 7cbd 62a7 f2bb 8abc c4bc
000001f0: c2bc 063d 2b5a d8bc 0a86 403d 7d0a 713d
00000200: 73b3 6fbd f230 68bc 09f1 683d c860 aa3b
00000210: aeb6 9abc 3453 12bd 9cbc f4bd 6fd3 133d
00000220: 6bfe aabd 5af3 19bd 5d78 87bb bc9b 59bd
00000230: ec91 47bd a38f 2ebd 7cdc 113d 7923 30bc
00000240: 4ab8 87bd a1c3 0e3d 0cc4 8abc cc08 243c
00000250: 1454 9d3c 6117 b6bb f40c a0bd c615 a3bc
00000260: 4b1b 963d 199b c5bc 6dd7 953d 602c 0e3c
00000270: fe37 83bc af6d bb3b 2d32 18bd ed15 ff3c
00000280: aced 38bd acc1 0dbd 4d2e 82bd f81f 163d
00000290: e10a 443d 0c37 4c3d 7a31 0abd 5ba9 c8bc
000002a0: ab2e 153c b479 7abd 59e8 0d3c 9dc3 de3c
000002b0: 0702 973d 285c 82bd 4418 b53c 1af0 8e3d
000002c0: 0c8c aa3c 3565 24bd 68f5 443d 407e 4c3d
000002d0: f522 a4bd 62e7 8a3a 593c 73bd 3c56 32bd
000002e0: 2481 febc 4dff 7f3c 8c33 053d 42b2 5abc
000002f0: 2862 eebb d665 aabb 4237 b3bd f4df cebb
00000300: 2a8d 673b c706 863d 34a7 6fbd 50da 393d
00000310: ef54 b33c 2852 3bbd c073 59bd 8cb1 00bd
00000320: 6087 c03d 9e99 0abb dd0e 9ebd d9fb 7f3d
00000330: b096 01bd 0821 9abd 7032 c63d 2e57 64bd
00000340: d748 98bd 24a6 e83c 715e a43d 781e 9fbd
00000350: ebad e03d d152 8f3d 2cb8 94bc f1c8 70bd
00000360: 375b 773d 3741 e53d 5e64 b33c b7bc 91bd
00000370: 6eda dc3d ac1d 5cbc c9f6 c3bb c848 55bb
00000380: 2994 9bbd fef7 a93d 6fc4 f33c f4cf 72bb
00000390: c60c 81bd 78ee f7bd fc50 e53c 8e65 dcbc
000003a0: 8149 9a3c f206 cfbc d43c 83bd c5ed 843c
000003b0: 7f8f 303c badd 153d 2648 61bc f8a8 583b
000003c0: 9886 69bd f72e 82bd b63f 1a3d 4761 b1bd
000003d0: 6603 b93b ccf1 30bd 0304 3bbd 44c9 ccbd
000003e0: 0cc3 e33d 1d9b b8bc 158e 0ebd 0cc9 b53d
000003f0: 08ea 6c3d dfcb 79bc a5b1 a2bd 3f65 6b3d

bias f4 [16]
0.031149141 0.077932104 -0.042779073 -0.053731896 0.014875193 0.029492622 -0.052279092 -0.002234998
0.08096568 0.01492962 -0.02435916 -0.10086972 0.077472754 0.021241779 -0.019249829 0.012405
00000000: 7c2c ff3c de9a 9f3d 1c39 2fbd fa15 5cbd
00000010: 15b7 733c 839a f13c 9a22 56bd 0b79 12bb
00000020: 56d1 a53d 5d9b 743c dc8c c7bc c994 cebd
00000030: 09aa 9e3d 3d03 ae3c d1b1 9dbc 573e 4b3c

weight f4 [64, 16, 3, 3]
-0.07382431 0.074571736 0.08349232 -0.038075384 -0.08803335 -0.014937121 -0.026242102 -0.0957756
0.021406217 -0.047697164 -0.065217435 0.030067418 0.0013320189 -0.033483125 -0.059291847 -0.04352468
0.019669527 -0.013124872 0.052839838 0.007519672 -0.002314753 0.07502697 0.007317465 0.11356267
0.066608995 -0.11192588 -0.013443751 0.019701475 0.015060544 -0.04316751 -0.015289091 -0.0065462743
-0.01634301 0.04475226 -0.04205767 -0.06046213 0.03613239 0.04498005 0.058685966 -0.01315601
0.023591809 -0.042378567 -0.08257158 0.038907073 -0.074494846 -0.05507018 0.06427132 -0.07428148
0.008973033 0.0966019 -0.006778072 -0.024779076 -0.04690115 -0.02150741 -0.04542248 -0.05750246
0.0023658318 -0.082213394 0.06350597 -0.021211086 -0.03603306 -0.0013806724 -0.013041212 0.0659909
0.013288664 -0.051023584 -0.011367279 -0.06394685 0.0047673583 0.04581434 -0.038950603 -0.03744954
0.037166502 -0.059605613 -0.04761112 -0.07089274 -0.0787084 0.005902934 -0.09735851 -0.029350916
-0.080345705 -0.029956019 -0.11517432 0.04784889 0.020525957 -0.076946124 -0.03998509 0.0022143014
-0.020552607 -0.018499168 0.02357947 0.049017012 -0.005753088 -0.039067883 -0.060815074 -0.04527424
-0.02327142 0.07825872 -0.0494288 0.015362306 0.013069489 -0.015284824 -0.036191434 -0.006427679
0.040213488 -0.068083994 0.033065494 0.044704765 -0.035738274 0.096363604 -0.08022692 0.0058417544
-0.013251051 0.04210337 -0.021424334 0.045970976 0.04826942 0.006225946 0.07963086 -0.07752114
-0.023869095 -0.021528108 0.04276911 0.026064603 0.029419577 0.0071579814 0.023904175 -0.061385438
0.06366364 0.0120420335 -0.028032985 0.027689548 0.022830322 0.00227739 -0.08255787 -0.047481626
0.005454484 -0.072412506 0.07110711 -0.04648317 0.026785744 -0.025415786 0.039346166 0.017371861
-0.011592598 -0.029320441 0.009399071 -0.074951224 -0.02614903 0.08424529 0.05589496 0.009334627
-0.019989276 -0.021108838 0.071201965 0.00029485373 0.022471057 -0.03940985 -0.018980855 0.04235278
-0.08883753 0.04465038 0.063961186 -0.02154073 -0.08254742 -0.03468547 0.10408668 0.092438005
0.003130728 0.0069619436 -0.107585825 -0.07722406 -0.040113438 0.03382727 -0.010116465 -0.10287955
-0.041303053 0.106844075 -0.041740157 0.065107174 0.011849293 0.030942874 0.007640736 0.08899858
-0.119779944 0.021761047 -0.10344886 -0.013211683 -0.07935435 -0.09393061 0.04142024 -0.0010107368
-0.06353267 0.059004623 0.01321699 -0.024271868 0.033172328 -0.04197735 -0.014159921 -0.005178059
0.06073054 -0.050968446 -0.0032315585 0.02610387 0.0461931 0.0108832745 0.035115328 -0.03451579
0.020783797 -0.028660154 -0.070693694 -0.048180897 0.05578877 -0.0031749057 -0.07605432 0.0487343
0.05748605 0.056860827 -0.07903564 0.0135553535 0.019412298 -0.03638953 0.0062081395 -0.023850216
-0.008408508 0.06494383 0.020437008 -0.07104331 -0.03961627 -0.015673166 -0.067490436 -0.04122931
0.015283045 -0.065850064 -0.005332116 0.08710522 -0.07377849 0.048111636 0.01417313 0.010559695
0.013237912 0.022333814 0.019195242 0.039010566 0.008878523 -0.058470324 -0.01650059 -0.01720868
0.059026092 0.03319642 0.043994505 0.07670685 0.060046684 0.086774856 0.0126889385 0.0031063256
00000000: 3331 97bd 11b9 983d 05fe aa3d eff4 1bbd
00000010: d44a b4bd d4ba 74bc adf9 d6bc ff25 c4bd
00000020: 175c af3c 1a5e 43bd b890 85bd f24f f63c
00000030: 2397 ae3a 9a25 09bd 02dc 72bd ef46 32bd
00000040: fd21 a13c b409 57bc 966e 583d 9567 f63b
00000050: 1cb3 17bb bda7 993d 58c7 ef3b 8c93 e83d
00000060: 4c6a 883d 6539 e5bd 2e43 5cbc fd64 a13c
00000070: 80c0 763c 6ad0 30bd 187f 7abc 2182 d6bb
00000080: c7e1 85bc 254e 373d aa44 2cbd 23a7 77bd
00000090: 8fff 133d 003d 383d b260 703d 4e8c 57bc
000000a0: 9c43 c13c 2695 2dbd 4a1b a9bd 065d 1f3d
000000b0: c190 98bd 4591 61bd afa0 833d e320 98bd
000000c0: a103 133c 38d7 c53d 971a debb 7dfd cabc
000000d0: 6c1b 40bd 4f30 b0bc ec0c 3abd b387 6bbd
000000e0: 120c 1b3b 7f5f a8bd 6b0f 823d dfc2 adbc
000000f0: 6797 13bd aef7 b4ba cfaa 55bc 3d26 873d
00000100: b2b8 593c 1bfe 50bd d33d 3abc 91f6 82bd
00000110: 8037 9c3b d1a7 3b3d ab8a 1fbd b064 19bd
00000120: e73b 183d 0425 74bd e103 43bd 3630 91bd
00000130: df31 a1bd 666d c13b e663 c7bd 5571 f0bc
00000140: 4a8c a4bd 5366 f5bc 84e0 ebbd 33fd 433d
00000150: 0d26 a83c ee95 9dbd 68c7 23bd d01d 113b
00000160: f15d a8bc 918b 97bc bc29 c13c 10c6 483d
00000170: 6684 bcbb a505 20bd 3a19 79bd 7b71 39bd
00000180: b4a3 bebc 1c46 a03d da75 4abd 2eb2 7b3c
00000190: 6921 563c 336d 7abc 783d 14bd 489f d2bb
000001a0: e6b6 243d 9f6f 8bbd af6f 073d 581c 373d
000001b0: 4c62 12bd 485a c53d 034e a4bd 306c bf3b
000001c0: f01a 59bc 9574 2c3d 1682 afbc 104c 3c3d
000001d0: 28b6 453d 0503 cc3b 8115 a33d 67c3 9ebd
000001e0: 1f89 c3bc b75b b0bc aa2e 2f3d 6f85 d53c
000001f0: 5301 f13c 808d ea3b b0d2 c33c 4c6f 7bbd
00000200: 1562 823d f34b 453c 6ea5 e5bc 31d5 e23c
00000210: a806 bb3c 4440 153b 1a14 a9bd 187c 42bd
00000220: 87bb b23b 024d 94bd 9ba0 913d 2365 3ebd
00000230: c76d db3c c434 d0bc 7229 213d 6f4f 8e3c
00000240: e1ee 3dbc 6c31 f0bc 90fe 193c 0780 99bd
00000250: 7e36 d6bc cb88 ac3d 1df2 643d 43f0 183c
00000260: 8dc0 a3bc 71ec acbc 56d2 913d 9996 9a39
00000270: 3915 b83c 396c 21bd bd7d 9bbc 1c7a 2d3d
00000280: 73f0 b5bd 51e3 363d 15fe 823d 2f76 b0bc
00000290: 9f0e a9bd 5a12 0ebd 662b d53d 2350 bd3d
000002a0: e62c 4d3b 0421 e43b f555 dcbd a627 9ebd
000002b0: fd4d 24bd 778e 0a3d 88bf 25bc 83b2 d2bd
000002c0: 642d 29bd 11d1 da3d baf7 2abd e956 853d
000002d0: 8923 423c e97b fd3c 245f fa3b e344 b63d
000002e0: 304f f5bd 3944 b23c ffdc d3bd d175 58bc
000002f0: 8984 a2bd b15e c0bd 45a8 293d b37a 84ba
00000300: 6b1d 82bd d5ae 713d 138c 583c ccd5 c6bc
00000310: b5df 073d 71f0 2bbd 03ff 67bc b5ac a9bb
00000320: 96c0 783d 4ac4 50bd 8ec8 53bb c8d7 d53c
00000330: fa34 3d3d c34f 323c 17d5 0f3d 6e60 0dbd
00000340: c842 aa3c b3c8 eabc dbc7 90bd 5559 45bd
00000350: c482 643d 1412 50bb 5ec2 9bbd 9e9d 473d
00000360: 7e76 6b3d e6e6 683d 70dd a1bd 4617 5e3c
00000370: 8a06 9f3c 300d 15bd a66d cb3b 8761 c3bc
00000380: d7c3 09bc 4501 853d 836b a73c 287f 91bd
00000390: ac44 22bd 0365 80bc 6d38 8abd 11e0 28bd
000003a0: bd65 7a3c 66dc 86bd 08b9 aebb 3964 b23d
000003b0: 2d19 97bd b510 453d 6a36 683c 9202 2d3c
000003c0: d4e3 583c 67f5 b63c 573f 9d3c 8bc9 1f3d
000003d0: 3977 113c 947e 6fbd 3f2c 87bc 38f9 8cbc
000003e0: 58c5 713d f8f8 073d 9533 343d 7b18 9d3d
000003f0: 83f3 753d 04b7 b13d 44e5 4f3c 7f93 4b3b

bias f4 [64]
0.075870395 -0.015745502 -0.0107706515 0.056986243 -0.013387416 -0.023073766 -0.0006932769 0.04249411
-0.027357237 -0.015654901 0.076118715 -0.037008364 0.044792134 0.006566979 0.032811638 -0.06010724
0.045712974 0.0077941273 0.0984539 0.020417878 0.022359386 0.0011098095 -0.025139248 0.036510177
-0.028871765 0.08028178 0.008599408 -0.048228577 -0.053095866 -0.07228705 -0.011388607 0.029092832
-0.0015813549 0.032772187 0.038633265 -0.05219063 0.01365399 0.010422838 0.037831146 0.061235607
-0.014399978 0.08794487 -0.02759946 0.0841557 -0.07270202 -0.09114785 -0.088925004 -0.020104634
0.026606092 0.015284743 -0.014237749 0.040910527 -0.09187063 0.06716868 -0.058927245 -0.050096236
-0.04898858 -0.065786384 -0.033946503 -0.087807365 0.044332616 0.017257504 0.022340983 -0.082274675
00000000: f061 9b3d b6fc 80bc 6377 30bc 686a 693d
00000010: e456 5bbc 3205 bdbc 06bd 35ba 4e0e 2e3d
00000020: 491c e0bc b53e 80bc 21e4 9b3d 1596 17bd
00000030: f577 373d d02f d73b 7f65 063d 0233 76bd
00000040: 873d 3b3d e165 ff3b 33a2 c93d 6543 a73c
00000050: 082b b73c 0777 913a d3f0 cdbc b28b 153d
00000060: 7b84 ecbc c66a a43d 88e4 0c3c 548b 45bd
00000070: 0d7b 59bd 3c0b 94bd 4897 3abc 1754 ee3c
00000080: 7745 cfba 213c 063d ea3d 1e3d d8c5 55bd
00000090: fcb4 5f3c 8dc4 2a3c d5f4 1a3d 30d2 7a3d
000000a0: e3ed 6bbc 711c b43d 4318 e2bc d359 ac3d
000000b0: cce4 94bd b9ab babd 501e b6bd 79b2 a4bc
000000c0: 05f5 d93c dc6c 7a3c 7345 69bc cc91 273d
000000d0: ab26 bcbd bc8f 893d b25d 71bd b631 4dbd
000000e0: 40a8 48bd 03bb 86bd 7d0b 0bbd 59d4 b3bd
000000f0: 1e96 353d 9c5f 8d3c 7004 b73c a07f a8bd

weight f4 [64, 16, 3, 3]
0.04132707 0.0770249 0.044604164 0.0012070765 0.050302565 -0.07555171 -0.056948945 -0.0024289533
-0.0047377166 -0.060359914 -0.030175911 -0.024119357 0.06763443 -0.015977493 -0.027535062 -0.037614014
-0.07240258 0.033897787 -0.045106784 0.09015261 -0.006908519 0.016669927 -0.0065737003 -0.05855389
0.027042886 -0.032299515 -0.041482385 -0.0064486065 -0.07476912 -0.0639928 0.020036425 0.028858148
-0.013096496 0.030608576 0.05728987 -0.046836853 0.0743891 -0.02210043 -0.04701002 0.067755505
0.09313801 -0.0130010005 0.009057919 -0.002947693 0.050891224 0.03789795 -0.08383703 -0.023245025
0.03441142 -0.016417053 -0.05330736 0.047271974 -0.024380438 -0.045373105 -0.001224755 0.08245136
0.011647065 -0.054265518 0.08947545 0.043410335 0.028077276 0.015590982 0.033935394 -0.075405
0.0006150851 -0.05843664 0.040923346 -0.05306597 0.055786524 0.06471201 0.056063507 -0.0014630725
0.0040710727 0.012493248 -0.012899642 0.0042086667 -0.021764867 -0.065012276 -0.053960577 0.0012292156
0.027570006 -0.055633817 0.052109253 -0.05940358 0.051103823 -0.09477508 -0.042763364 -0.059773896
-0.0991471 -0.04635881 -0.05431741 -0.02270905 0.05789176 0.06909379 0.006326646 -0.07035142
-0.035858687 -0.060947128 0.0730007 -0.036850404 -0.05488367 -0.06323673 -0.010571505 -0.01712148
-0.08008918 0.0037711614 0.058671482 -0.06330649 0.03243941 -0.10959391 -0.0818614 -0.06968459
-0.016465122 0.0145346755 -0.0043426245 -0.029314011 -0.01864711 -0.00020174024 0.03623735 0.06460122
-0.047631085 -0.083554864 0.0077886633 0.037181526 0.03690344 0.011350257 -0.004167035 0.030782072
0.017591145 0.0698537 -0.062005054 -0.045598812 -0.014012314 -0.026658576 -0.04527947 0.083786346
0.024154156 -0.02742187 -0.045990128 -0.020719863 -0.00014714002 0.009041819 0.039552182 0.07729907
-0.028806508 0.06261465 -0.06619028 0.04246429 0.041599087 -0.053565666 0.018534563 -0.0379011
0.015491215 -0.038408004 -0.03001684 0.07474038 0.052040134 -0.066034436 -0.07226108 -0.04678217
-0.07432719 -0.0512512 -0.05385867 0.0336454 0.008070251 -0.054409385 0.09380525 -0.025897235
-0.052415628 0.0139275305 -0.06665547 0.020415979 -0.050102647 -0.049810242 -0.064143784 -0.016652199
-0.09168552 0.056825317 -0.009090046 -0.043825403 0.047461025 0.04693054 -0.018988626 0.08907873
0.11698335 -0.045914166 0.08353279 0.013063171 -0.014955117 -0.07570628 0.038686547 0.08112245
-0.08242388 0.051312372 -0.02773346 -0.025874307 -0.077676 -0.0070962557 0.062045597 0.019704644
-0.07476378 -0.08072576 0.101358324 0.07708924 0.021833897 -0.04977837 0.035123326 -0.08324298
-0.03822014 0.05694428 -0.07627567 -0.006589413 -0.010621338 -0.063005805 -0.04697708 0.025696617
0.055383407 0.01459279 -0.083719425 -0.0067268703 -0.015468505 -0.09036777 -0.04705062 -0.025728999
-0.019472199 0.037744973 0.042285815 0.02612373 0.018904412 -0.028414313 -0.018564874 0.051737525
0.046299417 -0.0016276612 -0.07073888 -0.012906992 0.06573629 0.0018025497 0.08549353 -0.057424664
0.05104706 -0.06989998 0.06838295 -0.038878478 -0.029247114 -0.019284863 -0.067375064 -0.064545594
-0.017255336 0.03571056 0.0396828 -0.025660269 -0.023964854 0.0473037 -0.084082805 -0.021927683
00000000: 9346 293d 3bbf 9d3d dbb2 363d c436 9e3a
00000010: 100a 4e3d dbba 9abd 4c43 69bd 132f 1fbb
00000020: d93e 9bbb f53b 77bd 7933 f7bc f595 c5bc
00000030: ec83 8a3d 3be3 82bc 3691 e1bc 2711 1abd
00000040: ce47 94bd 68d8 0a3d e4c1 38bd eea1 b83d
00000050: dc60 e2bb 5f8f 883c 3268 d7bb 34d6 6fbd
00000060: 0b89 dd3c 7f4c 04bd 6fe9 29bd d54e d3bb
00000070: 8d20 99bd a80e 83bd 6e23 a43c ec67 ec3c
00000080: b092 56bc d6be fa3c c8a8 6a3d 00d8 3fbd
00000090: 5059 983d f60b b5bc 948d 40bd 66c3 8a3d
000000a0: 24bf be3d 2602 55bc aa67 143c 152e 41bb
000000b0: 5173 503d e13a 1b3d c0b2 abbd 5a6c bebc
000000c0: fdf2 0c3d 0e7d 86bc d158 5abd 42a0 413d
000000d0: 7cb9 c7bc 26d9 39bd f587 a0ba 42dc a83d
000000e0: 55d3 3e3c 8545 5ebd e83e b73d 09cf 313d
000000f0: 5102 e63c 5171 7f3c d7ff 0a3d f06d 9abd
00000100: aa3d 213a 425b 6fbd 3d9f 273d b45b 59bd
00000110: 6980 643d bb87 843d d9a2 653d 91c4 bfba
00000120: a266 853b 7bb0 4c3c 0559 53bc dbe8 893b
00000130: 3c4c b2bc 2825 85bd c405 5dbd a21d a13a
00000140: 7eda e13c 49e0 63bd 8370 553d 2b51 73bd
00000150: 3e52 513d 7019 c2bd a328 2fbd 79d5 74bd
00000160: a20d cbbd bce2 3dbd ef7b 5ebd 5408 babc
00000170: e91f 6d3d 0c81 8d3d c14f cf3b 6814 90bd
00000180: 8fe0 12bd b2a3 79bd 6481 953d 73f0 16bd
00000190: b3cd 60bd 4282 81bd 1b34 2dbc 5942 8cbc
000001a0: cc05 a4bd 9725 773b 8251 703d d5a6 81bd
000001b0: 30df 043d c672 e0bd f3a6 a7bd cbb6 8ebd
000001c0: dde1 86bc d922 6e3c 934c 8ebb f023 f0bc
000001d0: d3c1 98bc 3c8a 53b9 9e6d 143d a54d 843d
000001e0: d018 43bd d01e abbd 0b38 ff3b a84b 183d
000001f0: 1028 173d 6ef6 393c a08b 88bb af2a fc3c
00000200: 4e1b 903c 750f 8f3d 03f9 7dbd d2c5 3abd
00000210: e893 65bc 1663 dabc f776 39bd 2d98 ab3d
00000220: f0de c53c d4a3 e0bc 2560 3cbd b4bc a9bc
00000230: 9949 1ab9 2324 143c 7801 223d fa4e 9e3d
00000240: a0fb ebbc 1c3c 803d c58e 87bd 09ef 2d3d
00000250: ce63 2a3d ac67 5bbd ccd5 973c 2f3e 1bbd
00000260: ddce 7d3c b651 1dbd e0e5 f5bc 7c11 993d
00000270: 0928 553d 103d 87bd 9efd 93bd a99e 3fbd
00000280: db38 98bd c7ec 51bd e99a 5cbd c2cf 093d
00000290: 1639 043c 60dc 5ebd f81c c03d 7026 d4bc
000002a0: c5b1 56bd 4c30 643c aa82 88bd 693f a73c
000002b0: 6f38 4dbd d305 4cbd d15d 83bd 316a 88bc
000002c0: 9ec5 bbbd aac1 683d 6bee 14bc 4482 33bd
000002d0: 7e66 423d 3d3a 403d 098e 9bbc e96e b63d
000002e0: f794 ef3d 7e10 3cbd 3d13 ab3d e906 563c
000002f0: 4f06 75bc e50b 9bbd c975 1e3d 8723 a63d
00000300: dacd a8bd ec2c 523d 4831 e3bc 5bf6 d3bc
00000310: 9814 9fbd b587 e8bb 8623 7e3d a26b a13c
00000320: c11d 99bd 8c53 a5bd f494 cf3d f7e0 9d3d
00000330: 00dd b23c 67e4 4bbd 7add 0f3d 4c7b aabd
00000340: b98c 1cbd 683e 693d 6b36 9cbd 01ec d7bb
00000350: 1f05 2ebc 3009 81bd 0a6b 40bd b681 d23c
00000360: b6d9 623d 9916 6f3c 1775 abbd 146d dcbb
00000370: 9d6f 7dbc bd12 b9bd 27b8 40bd 9fc5 d2bc
00000380: 2984 9fbc 799a 1a3d e433 2d3d 6f01 d63c
00000390: 6ddd 9a3c 22c5 e8bc 5d15 98bc baea 533d
000003a0: 75a4 3d3d 3f57 d5ba 8cdf 90bd d977 53bc
000003b0: bfa0 863d 8843 ec3a 3b17 af3d 2036 6bbd
000003c0: b916 513d b927 8fbd 5c0c 8c3d 0a3f 1fbd
000003d0: a597 efbc 4afb 9dbc f0fb 89bd 7b30 84bd
000003e0: 105b 8dbc 3c45 123d 6f8a 223d 7c35 d2bc
000003f0: f151 c4bc 86c1 413d 9b33 acbd afa1 b3bc

bias f4 [64]
-0.023583548 0.08016524 -0.08580332 -0.050096776 -0.011819554 0.059360567 -0.023902759 -0.042548444
0.03750455 -0.046269514 0.012078507 0.016877698 -0.069830395 0.048642445 0.06042082 0.029140433
0.030967506 -0.051795278 -0.029876562 0.011317647 -0.029935434 0.028345002 -0.00055308035 0.012176993
-0.050382156 0.05132542 0.07162453 -0.047721934 -0.06593965 0.058123026 -0.022498747 0.048970137
0.07391752 -0.08927137 0.0038463082 -0.08416477 -0.007682223 -0.034883395 0.019929722 -0.069659695
0.022979807 -0.06781595 -0.028685713 0.03455372 0.041220006 0.075539336 0.017978989 -0.050117593
-0.075498216 -0.05627798 -0.07739631 -0.05475666 0.056227565 0.06217026 -0.022612385 -0.050782103
-0.040827837 0.033198584 -0.07571983 0.041997258 -0.03551856 0.00084669207 -0.021447126 -0.053397167
00000000: 4932 c1bc ac2d a43d a7b9 afbd 4732 4dbd
00000010: cda6 41bc 1124 733d b8cf c3bc 4747 2ebd
00000020: 5f9e 193d 1a85 3dbd eee4 453c 1943 8a3c
00000030: 3d03 8fbd 4d3d 473d d27b 773d ebb7 ee3c
00000040: 91af fd3c 4927 54bd b1bf f4bc a76d 393c
00000050: 283b f5bc c733 e83c 98fc 10ba 0382 473c
00000060: 855d 4ebd 9b3a 523d e2af 923d 1378 43bd
00000070: 5e0b 87bd 6912 6e3d 4b4f b8bc e994 483d
00000080: 1262 973d e8d3 b6bd 5812 7c3b 945e acbd
00000090: 28bb fbbb e4e1 0ebd a843 a33c bea9 8ebd
000000a0: 2640 bc3c 17e3 8abd 4dfe eabc 3488 0d3d
000000b0: 4fd6 283d 5eb4 9a3d ac48 933c 1b48 4dbd
000000c0: cf9e 9abd bd83 66bd f581 9ebd 8548 60bd
000000d0: e04e 663d 3ea6 7e3d 9c3d b9bc e500 50bd
000000e0: 173b 27bd 3dfb 073d 0013 9bbd 5105 2c3d
000000f0: e97b 11bd 8bf4 5d3a e2b1 afbc fdb6 5abd
