working/model_pretrained/net_F16B2_epoch_2.pth (torch_old, 135469 bytes, 16 tensors)

weight f4 [16, 3, 3, 3]
0	0x3e10e9f7	0.1415175
1	0xbe038244	-0.12842661
2	0xbe205045	-0.1565562
3	0xbe0971b2	-0.13422278
4	0x3e188a12	0.1489642
5	0x3e001044	0.12506205
6	0xbe1a2ec6	-0.15056905
7	0x3e2d7e1f	0.16942643
8	0xbd9f2ddc	-0.07772419
9	0xbe363388	-0.17793095
10	0xbd845532	-0.06461562
11	0xbca5df5b	-0.020248106
12	0xbdf2e969	-0.11860926
13	0x3dc81028	0.097687066
14	0x3e2349f1	0.15946175
15	0x3daf82ac	0.085698456
16	0xbe1517f4	-0.14559919
17	0x3e237234	0.15961534
18	0x3c2bb99c	0.010481264
19	0x3ddefa16	0.10887544
20	0x3e38528d	0.1800024
21	0xbcea3174	-0.028588034
22	0xbdce5dba	-0.10076471
23	0x3d81274c	0.063063234
24	0xbdd82444	-0.10553792
25	0xbe26089a	-0.16214219
26	0x3db7ecb4	0.089806944
27	0x3df7baf4	0.12096205
28	0x3d818b0d	0.0632535
29	0xbe1c1bd5	-0.15244992
30	0xbd174be0	-0.036937594
31	0xbd7287f6	-0.059211694
32	0xbdb105a1	-0.08643652
33	0xbd0386a0	-0.03211081
34	0x3e125c30	0.14292979
35	0xbe210cc1	-0.15727521
36	0x3c0b5b72	0.008505689
37	0x3dc34889	0.09535319
38	0x3d37f9b4	0.04491587
39	0x3e329caa	0.17442575
40	0x3c6d50ca	0.014484594
41	0xbe143a37	-0.14475332
42	0xbe029386	-0.12751588
43	0xbc812227	-0.015763355
44	0x3c079643	0.008275571
45	0x3d2dc663	0.042425524
46	0xbceaa7be	-0.028644439
47	0xbdae8397	-0.085211925
48	0xbe139475	-0.144121
49	0x3d810b95	0.06301037
50	0x3be377d8	0.0069417767
51	0xbddfb2ed	-0.10922799
52	0xbe0dbe7f	-0.138422
53	0xbd6e9981	-0.05825186
54	0xbbf584d1	-0.0074926396
55	0x3e41fde8	0.18944514
56	0x3e379595	0.17928155
57	0xbcf4f3c6	-0.029901396
58	0x3df62e43	0.120205425
59	0x3e3e6fd9	0.18597354
60	0x3c409e8f	0.011756553
61	0xbe302da4	-0.1720491
62	0x3e1a0f81	0.15044977
63	0xbd3ea809	-0.04654697
64	0xbe2b4eec	-0.16729325
65	0xbcb47a27	-0.022030903
66	0x3db05aa2	0.08611037
67	0xbd2d3c0a	-0.042293586
68	0x3c63aa02	0.0138955135
69	0xbda7abe5	-0.08187083
70	0xbe0fc9b8	-0.14041793
71	0xbe108482	-0.14113048
72	0x3db24005	0.08703617
73	0x3e252ed8	0.1613115
74	0xbaec26cc	-0.0018016933
75	0xbdc320c4	-0.09527734
76	0xbd96d042	-0.07363941
77	0x3c8603be	0.016359206
78	0xbdd2bb1e	-0.10289596
79	0xbe110090	-0.14160371
80	0xbe17e480	-0.1483326
81	0xbe259e1c	-0.16173595
82	0xbdc87057	-0.09787052
83	0x3e0e3ab3	0.1388958
84	0x3dc67c7e	0.09691714
85	0xbcace981	-0.021107437
86	0xbc13e7d1	-0.009027437
87	0xbcd2533b	-0.025674453
88	0xbddabbb9	-0.106803365
89	0xbce86740	-0.028369546
90	0xbc7ef44b	-0.015561174
91	0xbdc0e481	-0.09418584
92	0xbd6a9d13	-0.057278704
93	0xbde0bf9d	-0.10974047
94	0x3cc205ce	0.023684409
95	0xbdb1cb9a	-0.08681412
96	0xbdb5a8e7	-0.08870106
97	0x3d51740c	0.05113606
98	0xbb7bb774	-0.0038408907
99	0x3d17b8da	0.037041523
100	0x3e0d8fbf	0.13824366
101	0xbe1b0ae2	-0.1514087
102	0xbdc74766	-0.09730415
103	0x3e34eb21	0.1766782
104	0x3dfe7209	0.12424094
105	0xbe26f69c	-0.16305012
106	0x3de5829a	0.11206551
107	0x3b9e3f05	0.00482929
108	0xbd677b69	-0.056514177
109	0xbe13d786	-0.14437684
110	0x3da569e3	0.08076837
111	0xbde9066a	-0.113781765
112	0x3dc46e3e	0.095913395
113	0xbdca7dc0	-0.09887266
114	0xbe25eae4	-0.16202885
115	0x3d96e04c	0.07367
116	0xbbd8a4e3	-0.006611453
117	0x3d836f2c	0.06417689
118	0xbd5a2a59	-0.053263042
119	0x3b8f8b49	0.0043806178
120	0xbccd7e00	-0.025084496
121	0x3d806d89	0.06270892
122	0xbcef2a8a	-0.029195089
123	0xbd8fa74e	-0.07014333
124	0x3de3156a	0.11088069
125	0xbe05a046	-0.1304942
126	0x3e3d0013	0.1845706
127	0x3da9656b	0.08271297
128	0x3e311ed5	0.17296918
129	0xbdb29550	-0.08719885
130	0x3da1fcc0	0.07909536
131	0xbb8102c1	-0.003937096
132	0x3de29298	0.11063117
133	0xbd95019b	-0.07275697
134	0x3d325374	0.04353662
135	0xbdc6af8b	-0.09701451
136	0x3e009b80	0.12559319
137	0xbd263c1b	-0.040584665
138	0xbe02aa30	-0.12760234
139	0x3e0fc34b	0.14039342
140	0xbe2b76c9	-0.16744532
141	0x3d9eb115	0.077486195
142	0x3c2caa68	0.010538675
143	0xbd1480f2	-0.036255784
144	0x3e48161c	0.19539684
145	0x3e273422	0.16328481
146	0x3e03cf40	0.12872028
147	0xbe23d62a	-0.15999666
148	0x3e3569a8	0.17716086
149	0xbc04e436	-0.00811105
150	0xbd5aa606	-0.05338099
151	0x3d7d1487	0.061787155
152	0xbba4a224	-0.0050242115
153	0xbddcf89a	-0.107896045
154	0x3c97a03e	0.018509027
155	0xbc3cbdd8	-0.011519872
156	0xbe1468a6	-0.14493045
157	0xbe39297b	-0.1808223
158	0x3dd724ac	0.105050415
159	0x3ddd1153	0.1079432
160	0xbd7ace71	-0.061232034
161	0x3dc635bb	0.09678217
162	0x3d1b5409	0.03792194
163	0xbc83f984	-0.01611019
164	0x3ca123a0	0.019670308
165	0x3e2c0d39	0.16801919
166	0xbe091a9a	-0.13389054
167	0x3e2be03c	0.16784757
168	0x3e16be9f	0.14721154
169	0xbe383151	-0.17987563
170	0xbe3bdd0e	-0.18346044
171	0xbe2db112	-0.16962078
172	0x3cab381d	0.02090078
173	0x3cdb8a28	0.026799276
174	0xbe265262	-0.16242364
175	0xbe44ddc7	-0.19225226
176	0xbdf8f636	-0.12156336
177	0xbd8b55df	-0.06803488
178	0xbdf74bae	-0.12074982
179	0x3e370437	0.17872702
180	0x3dd21668	0.1025818
181	0x3e0edc22	0.13951162
182	0x3df05205	0.11734394
183	0xbd767846	-0.060173295
184	0x3e041850	0.128999
185	0x3e125f7c	0.14294237
186	0xbd24add5	-0.04020484
187	0xbdc25eb5	-0.0949072
188	0xbd1a4918	-0.037667364
189	0xbb35f14a	-0.0027762228
190	0xbe1f39be	-0.1554937
191	0xbdac02cd	-0.08398972
192	0x3e2d63b9	0.16932572
193	0x3dad8366	0.08472328
194	0xbdf99239	-0.12186093
195	0xbdc3dae5	-0.09563235
196	0xbcd142a4	-0.025544472
197	0x3cb847b0	0.02249512
198	0x3e222eaf	0.15838121
199	0x3d404af6	0.04694649
200	0x3e245b2f	0.16050409
201	0x3e1ececf	0.15508579
202	0x3db83883	0.08995154
203	0x3d32974d	0.043601323
204	0x3d103838	0.035209864
205	0x3de180ce	0.11010896
206	0x3b99a228	0.00468852
207	0xbdc0763a	-0.0939755
208	0x3e08e13c	0.1336717
209	0x3db2e3c1	0.08734847
210	0xbd8482d6	-0.064702675
211	0xbe01b2e7	-0.12665902
212	0x3d16d0e1	0.036820296
213	0x3dcb4a30	0.099262595
214	0x3e3309fb	0.17484276
215	0xbd1d1614	-0.038351133
216	0xbe3a2c68	-0.18181002
217	0x3dc3e7b5	0.09565679
218	0x3d24d332	0.040240474
219	0xbe20df84	-0.15710264
220	0xbe1ff4c0	-0.15620708
221	0x3e21d690	0.15804505
222	0x3e1113ea	0.14167753
223	0xbdb19f53	-0.08672967
224	0xbdc644d0	-0.09681094
225	0x3e18ef1f	0.14934967
226	0xbc33319f	-0.010937124
227	0x3e3732df	0.178905
228	0xbce36c89	-0.027761715
229	0xbd6610db	-0.05616842
230	0xbe26fc66	-0.1630722
231	0x3e09e1ea	0.13465086
232	0x3db9da57	0.09074848
233	0xbd9e1276	-0.07718365
234	0xbc48476a	-0.012224058
235	0xbd7409ac	-0.059579536
236	0x3e304935	0.17215426
237	0xbc6bc757	-0.014390788
238	0x3e1f3f80	0.15551567
239	0xbd25b538	-0.040456027
240	0x3d3b8801	0.045784
241	0x3da116ca	0.07865675
242	0x3a95be98	0.0011424599
243	0xbdce6cce	-0.100793466
244	0xbd6a28e1	-0.05716789
245	0x3a92269e	0.0011150425
246	0xbda9df86	-0.08294587
247	0x3c47e2ce	0.012200071
248	0x3e31095f	0.17288731
249	0xbe0bfe6b	-0.13671272
250	0xbc85a41e	-0.016313609
251	0xbcbf44b8	-0.023348197
252	0x3da3b2bc	0.07993075
253	0xbe2f7d3b	-0.17137615
254	0x3d845281	0.06461049
255	0xbd0b421f	-0.033998605

bias f4 [16]
0	0x3dabe4ff	0.08393287
1	0x3e04af2b	0.12957446
2	0x3e2104ca	0.15724483
3	0x3d87070f	0.06593143
4	0xbde9e9a7	-0.11421519
5	0x3d4a955c	0.049458846
6	0x3e3c8c0b	0.18412797
7	0x3e1df286	0.15424547
8	0x3ce689b5	0.028141836
9	0x3ded59ad	0.1158937
10	0x3e00921d	0.12555738
11	0x3e31c91b	0.17361872
12	0x3d9be4da	0.07612009
13	0xbce458f8	-0.027874455
14	0xbc5636bc	-0.013074573
15	0xbde0eba7	-0.10982447

weight f4 [16, 16, 3, 3]
0	0x3cc1d598	0.02366142
1	0x3d15ffe2	0.036620982
2	0xbd92ddeb	-0.07171234
3	0x3b4a298c	0.0030847518
4	0x3de93735	0.11387483
5	0xbce21b39	-0.027600871
6	0x3d9a25c3	0.07526734
7	0xbd5cf41f	-0.05394375
8	0x3ce568c7	0.028004063
9	0xbc7b2641	-0.015328945
10	0x3d841b17	0.064504795
11	0xbd472fc2	-0.04862953
12	0xbb42acc5	-0.002970503
13	0xbc0e2452	-0.008675652
14	0xbd6f46da	-0.05841718
15	0x3cd8c99a	0.026463319
16	0x3d313bb8	0.043269843
17	0x3d150227	0.036379006
18	0x3cabf8d0	0.020992666
19	0x3d51ee8d	0.05125289
20	0xbc4717da	-0.012151683
21	0xbd59f5a2	-0.05321277
22	0x3cbcd664	0.023051448
23	0xbd8579a3	-0.06517341
24	0xbcfa4501	-0.030550482
25	0xbd0edea6	-0.034880303
26	0x3d223f67	0.039611246
27	0xbd5c8d5d	-0.053845752
28	0x3c708a15	0.014681359
29	0xbc188f90	-0.009311572
30	0xbd23e977	-0.04001757
31	0x3d9db3e5	0.07700328
32	0x3d92c299	0.07166023
33	0xbaec0faf	-0.0018010045
34	0x3d7885bc	0.060674414
35	0x3cbc0f75	0.02295659
36	0x3cff085e	0.03113192
37	0xbb50301c	-0.0031766957
38	0xbb92bd0a	-0.0044781016
39	0xbd602401	-0.054721836
40	0x3d9162a2	0.07098891
41	0xbd4fad14	-0.05070217
42	0xbb834e75	-0.0040071555
43	0xbd10a204	-0.03531076
44	0xbd538d53	-0.05164845
45	0x3d8f4da6	0.06997232
46	0xbd5e4746	-0.05426719
47	0x3dbe6c99	0.09298057
48	0xbd86c672	-0.06580819
49	0xbb67e4e3	-0.003538423
50	0xbd3e3d74	-0.046445325
51	0xbcab1e88	-0.020888582
52	0xbd441f78	-0.047881573
53	0x3dbfc6bd	0.09364078
54	0x3c32d647	0.0109153455
55	0xbd3bfa99	-0.045893285
56	0x3d210d49	0.03931931
57	0xbdc9caa1	-0.098531015
58	0xbd2f6f5c	-0.04283081
59	0xbceb8a97	-0.028752608
60	0xbbff460b	-0.007790332
61	0x3b903b42	0.0044015953
62	0xbd87c79e	-0.06629871
63	0xbd8ed626	-0.06974439
64	0xbd740f15	-0.059584696
65	0xbd87c846	-0.06629996
66	0x3be6c10b	0.0070420555
67	0xbcc119fa	-0.023571957
68	0xbcf1a306	-0.029496681
69	0x3daabd39	0.083368726
70	0x3cc37d8c	0.023863576
71	0xbd549224	-0.051897183
72	0xbd6e63ce	-0.05820065
73	0x3d4760b2	0.0486762
74	0xbc8d3640	-0.017237782
75	0x3d5b87c4	0.053596273
76	0xbd0f5654	-0.03499444
77	0x3cbf394c	0.023342751
78	0xbd8e5c51	-0.06951202
79	0x3c90dbac	0.017682873
80	0xbd003877	-0.03130385
81	0x3d06106d	0.03273051
82	0xbc312f18	-0.010814451
83	0x3d8dfda0	0.06933141
84	0x3de9014d	0.11377201
85	0xbc201efa	-0.00977301
86	0x3dd27d88	0.102778494
87	0x3d0bffc9	0.034179483
88	0xbd854a0f	-0.06508266
89	0x3cf0ba64	0.029385753
90	0xbd568d13	-0.052380633
91	0xb8513463	-4.9878272e-05
92	0x3c1ce142	0.00957519
93	0x3d115ee1	0.035490874
94	0xbccee334	-0.025254823
95	0x3cc2cb7e	0.023778673
96	0xbc03112a	-0.007999698
97	0xbbb68ec8	-0.00557122
98	0x3d7b404c	0.061340615
99	0x3b900a77	0.0043957788
100	0x3c82f50a	0.015985984
101	0xbd97f73b	-0.07420202
102	0xbd2d51d4	-0.042314366
103	0x3d1c4934	0.03815575
104	0xbd1eb119	-0.038743112
105	0xbd83f7f4	-0.06443778
106	0x3d20e1a0	0.039277673
107	0x3d5fcedc	0.054640636
108	0x3cdb5ed4	0.026778616
109	0xbccede80	-0.02525258
110	0xbd08215c	-0.03323494
111	0x3c9d55d7	0.01920597
112	0xbd58cded	-0.05293076
113	0xbd50a811	-0.05094153
114	0x3cb6684c	0.02226653
115	0xbd8af85e	-0.067856535
116	0xbd755102	-0.05989171
117	0xbd0d72f1	-0.034533445
118	0x3d6c1a6c	0.057642385
119	0x3d7e454a	0.062077798
120	0x3cd035f2	0.025416348
121	0x3d8143d0	0.06311762
122	0x3dc81bbc	0.09770915
123	0x3d10f9cf	0.035394486
124	0xbd71fe8e	-0.059080653
125	0xbd0406de	-0.03223311
126	0x3c238540	0.0099805
127	0xbd2935da	-0.041311122
128	0x3d1cf550	0.038319886
129	0x3c9b2946	0.01894058
130	0xbde66fd5	-0.11251799
131	0xbd0426cd	-0.032263566
132	0xbd79cd8d	-0.060987044
133	0xbd473e22	-0.04864324
134	0x3dbb82ca	0.091558054
135	0x3d04fa93	0.03246553
136	0xbcc11890	-0.023571283
137	0x3c3a44ba	0.011368925
138	0xbc154b37	-0.009112171
139	0xbda6cf2c	-0.08144984
140	0xbdac36ad	-0.08408866
141	0xbbb9056d	-0.0056463988
142	0x3d3683a4	0.044559136
143	0xbd504405	-0.05084612
144	0xbd38de74	-0.045134023
145	0xbcbd770b	-0.023128053
146	0xbd368900	-0.044564247
147	0xbd4f7ac8	-0.050654203
148	0x3d422e0e	0.047407202
149	0xbd1756a6	-0.03694787
150	0x3dc70d7c	0.09719369
151	0x3d3573fb	0.04430006
152	0x3c9651d6	0.01834957
153	0x3d421e88	0.047392398
154	0xbd6b6992	-0.057473727
155	0xbd43120b	-0.04762463
156	0x3d42293a	0.047402598
157	0xbda021ef	-0.07818972
158	0xbc4fe246	-0.012688225
159	0xbc1bb278	-0.0095029995
160	0xba3869a6	-0.0007034786
161	0xbc01c969	-0.007921555
162	0xbbc97c68	-0.0061488636
163	0x3b65159a	0.0034955502
164	0xbd7239c9	-0.05913714
165	0xbda92112	-0.08258261
166	0xbd3a70d0	-0.045517743
167	0xbad9fb16	-0.0016630616
168	0x3ce71d67	0.028212262
169	0xbd7a5f13	-0.061125826
170	0xbd6c5c6e	-0.057705335
171	0xbd1403b8	-0.03613636
172	0x3d3fbc03	0.04681016
173	0x3cf36def	0.029715506
174	0x3d3dda4d	0.046350766
175	0x3c934149	0.017975466
176	0x3d524da6	0.051343583
177	0x3c75898f	0.01498641
178	0xbda697eb	-0.08134445
179	0xbce237c1	-0.027614476
180	0xbd382e16	-0.044965826
181	0xbd9bbc68	-0.07604295
182	0xbc9cf423	-0.019159382
183	0x3d276ed0	0.040877163
184	0x3da3b985	0.079943694
185	0xbd80bc64	-0.06285933
186	0x3d2bb3c5	0.04191949
187	0x3d43eb54	0.04783185
188	0x3c6737bf	0.014112412
189	0x3a4603c5	0.0007553662
190	0xbc2cbf7e	-0.010543702
191	0x3cdbc08a	0.026825208
192	0xbce01ded	-0.02735802
193	0x3d355586	0.044271015
194	0xbd254ee1	-0.040358428
195	0xbd884599	-0.066539
196	0x3d822905	0.0635548
197	0x3d8cde22	0.06878306
198	0xbd66ef9b	-0.05638085
199	0xbdaeaffc	-0.0852966
200	0x3c33f1fc	0.010982987
201	0x3d36df77	0.044646706
202	0x3d950cc7	0.07277828
203	0xbc6da263	-0.014504048
204	0x3c9054b6	0.017618518
205	0xbd10f264	-0.03538741
206	0x3da2acb4	0.07943097
207	0xbd90d5cc	-0.070720285
208	0x3d8857e1	0.066573866
209	0x3bc88f8e	0.0061206287
210	0xb9efc69c	-0.00045733608
211	0xbd04be1e	-0.032407872
212	0x3cca39ba	0.02468573
213	0x3cd2e4ad	0.025743807
214	0xbd0dc9a6	-0.034616135
215	0xbd309256	-0.043108307
216	0xbd71cfa6	-0.05903592
217	0xbd18d56b	-0.037312906
218	0xbd2e49c5	-0.04255082
219	0x3dc386ea	0.09547217
220	0x3d0ceffd	0.03440856
221	0xbc44f228	-0.012020625
222	0xbc8949de	-0.016758855
223	0x3b9215b7	0.004458155
224	0xbd69f4e6	-0.05711832
225	0xbca5bae1	-0.020230712
226	0xbc59882a	-0.013277093
227	0xbd780abb	-0.06055711
228	0x395021e7	0.00019849055
229	0x3c333205	0.010937219
230	0x3da3ed9d	0.080043055
231	0x3daf41ed	0.08557496
232	0xbc14e5c8	-0.009087987
233	0x3cb958c7	0.02262534
234	0xbccefa76	-0.025265913
235	0x3d99b202	0.075046554
236	0xbd930802	-0.07179262
237	0x3d36c11f	0.04461777
238	0x3d6d46d2	0.057928868
239	0xbd6d6ad2	-0.0579632
240	0x3cf949d8	0.03043072
241	0xbd19f378	-0.037585706
242	0xbc8eed13	-0.01744703
243	0xbc60f0d6	-0.013729295
244	0x3d9482b9	0.07251496
245	0x3d833d85	0.06408218
246	0x3bb76639	0.0055969027
247	0xbd77e004	-0.060516372
248	0x3d984fd3	0.074371
249	0xbc8d6bae	-0.01726326
250	0x3bf81bad	0.0075716586
251	0x3cfe2dd9	0.031027721
252	0xbd3615f3	-0.044454526
253	0xbd9f1985	-0.07768539
254	0xbd0af4e4	-0.033924952
255	0xbd9ca2cc	-0.076482385

bias f4 [16]
0	0xbc0f8576	-0.008759847
1	0xbd0ca865	-0.03434028
2	0x3d85d6d9	0.065351196
3	0x3dead606	0.11466603
4	0x3d69a78e	0.05704456
5	0x3d848c2f	0.064720504
6	0xba62f3de	-0.0008657555
7	0x3d55fb2e	0.052241497
8	0x3d77cccd	0.060498048
9	0x3c07de15	0.008292695
10	0x3d444422	0.04791654
11	0xbcf1f8f9	-0.029537665
12	0x3c8d407f	0.017242668
13	0x3c2b5609	0.010457524
14	0xbd8912c8	-0.06693035
15	0x3d51316a	0.051072516

weight f4 [16, 16, 3, 3]
0	0x3dcbab3a	0.09944768
1	0x3bd2500b	0.0064182333
2	0xbd316c71	-0.04331631
3	0xbd132632	-0.035925098
4	0x3d1a8f3b	0.03773425
5	0x3d08f682	0.033438213
6	0x3cd43197	0.025902553
7	0x3d3c5d91	0.04598767
8	0xbd54ad9c	-0.05192338
9	0xbc98eced	-0.018667663
10	0xbd7ac113	-0.061219286
11	0xbd4340d8	-0.04766926
12	0xbd128706	-0.0357733
13	0x3d3900fd	0.045166958
14	0xbd905aa0	-0.07048535
15	0xbd6ec01c	-0.05828868
16	0xbd8e085f	-0.069351904
17	0xbd573cf9	-0.052548382
18	0xbdcca690	-0.09992707
19	0x3c764800	0.015031815
20	0x3d948bf7	0.07253259
21	0xbb702f3b	-0.0036649245
22	0x3bc130ca	0.0058957087
23	0x3d07d3af	0.03316086
24	0xbd8162d1	-0.06317676
25	0xbcf1e781	-0.029529335
26	0x3d95c16c	0.07312283
27	0xbd537e49	-0.051634107
28	0xbd97f6dd	-0.07420132
29	0x3c83a09f	0.016067801
30	0x3de05a50	0.10954726
31	0xbbedcfb7	-0.0072574276
32	0x3d3b6420	0.045749784
33	0x3d4ef71e	0.050528638
34	0x3e07604f	0.13220333
35	0xbd15b40e	-0.036548667
36	0xbd82d475	-0.06388179
37	0x3cb232b1	0.021752687
38	0xbd48cee3	-0.049025428
39	0x3c380f36	0.011234095
40	0xbcff491b	-0.03116279
41	0x3d43c1c2	0.047792204
42	0x3ac2cb04	0.0014861529
43	0xbcaa4f2e	-0.020789709
44	0xbd558cbc	-0.052136168
45	0xbd0f6b92	-0.035014696
46	0xbd6f7a6e	-0.058466367
47	0x3b117074	0.0022192271
48	0xbde169ed	-0.11006532
49	0x3cab5654	0.020915188
50	0x3b9112c9	0.004427288
51	0xbdcc17ee	-0.09965502
52	0x3c19cb41	0.009386838
53	0xbd15adda	-0.03654275
54	0xbcf252b0	-0.029580444
55	0xbd0571d9	-0.032579277
56	0xbda31bb5	-0.07964269
57	0x3d8ad1a6	0.067782685
58	0x3d95b786	0.07310395
59	0x3d761434	0.06007786
60	0x3bc8c9e2	0.006127582
61	0x3d83f11c	0.06442472
62	0x3c355478	0.011067502
63	0xbd9aae06	-0.075527236
64	0xbc820d3d	-0.015875453
65	0x3c57fe58	0.013183199
66	0x3dae4f2c	0.085111946
67	0x3d63a588	0.055577785
68	0xbd18761e	-0.03722202
69	0x3dad28bb	0.08455034
70	0xbdd0d176	-0.101962015
71	0xbc8fd0a0	-0.017555535
72	0x3d993192	0.07480158
73	0x3c959b56	0.018262547
74	0xbd8c29b2	-0.0684389
75	0x3d2414bf	0.040058848
76	0x3d48e851	0.04904968
77	0xbd9c2075	-0.07623378
78	0x3c31a37f	0.010842203
79	0xbd69cd90	-0.057080805
80	0xbda96791	-0.08271707
81	0x3cc09d5f	0.02351254
82	0x3c8d3590	0.017237455
83	0xbd3c4cb3	-0.045971584
84	0xbdd24962	-0.10267903
85	0xbde01bba	-0.109427884
86	0x3cf54173	0.029938435
87	0xbc0941fd	-0.008377549
88	0x3d8a7b3b	0.067617856
89	0x3d82fcb9	0.06395859
90	0x3ccb95d2	0.024851713
91	0xbd419d9f	-0.04726946
92	0x3ce5eee7	0.02806802
93	0xbd86396e	-0.065539226
94	0xbda9fb71	-0.08299912
95	0x3d9fdcbc	0.078057736
96	0xbd6babe7	-0.057536986
97	0x3d0220f3	0.031769704
98	0xbd4d8f86	-0.050185703
99	0x3bc384bc	0.005966751
100	0x3c9fc29d	0.019501979
101	0xbbd3643a	-0.006451157
102	0x3d8837ff	0.066513054
103	0x3da422d1	0.08014453
104	0xbd7efb3a	-0.062251307
105	0x3db6f261	0.08932949
106	0xbd47491c	-0.048653707
107	0xbbdb82c2	-0.006698937
108	0x3b9f8904	0.0048686285
109	0x3d55f484	0.05223514
110	0xbdb51a6a	-0.08842929
111	0xbd009cc4	-0.031399503
112	0x3b39582c	0.0028281314
113	0xbdae84d3	-0.08521428
114	0xbd5be143	-0.053681623
115	0xbcc022cb	-0.02345409
116	0xbd5dec42	-0.05418039
117	0xbdb3df77	-0.08782857
118	0x3d703e41	0.05865312
119	0xbc82b92f	-0.015957443
120	0xba09ec67	-0.0005261362
121	0xbd849c9e	-0.06475185
122	0x3d811e59	0.063046165
123	0x3d172c7e	0.036907665
124	0xbd75e088	-0.060028583
125	0xbc652614	-0.013986129
126	0x3d3a03fb	0.045413952
127	0x3d435eca	0.04769782
128	0xbca12820	-0.019672453
129	0x3c10a3f8	0.008828156
130	0x3d322fdd	0.043502677
131	0xbd2c1a3b	-0.042017203
132	0xbd8e19fe	-0.06938551
133	0xbcaa2679	-0.020770298
134	0x3ce157c5	0.027507672
135	0xbd640af5	-0.055674512
136	0xbd33f3e1	-0.043933753
137	0xbd2e1147	-0.042496946
138	0x3ccea2bf	0.025224088
139	0x3d9dab38	0.07698673
140	0xbd8e5697	-0.069501095
141	0x3d67b4a5	0.05656876
142	0x3d65f29e	0.05613958
143	0xbd44d6b0	-0.048056304
144	0x3dcc4e87	0.099759154
145	0x3d6a3e7d	0.0571885
146	0x3d9c1f90	0.076232076
147	0xbd35774f	-0.044303235
148	0xbd42ffff	-0.04760742
149	0xbc8822a5	-0.016618082
150	0x3d60b249	0.054857526
151	0x3d5dcfb6	0.054153167
152	0x3d5e2ab2	0.054239936
153	0x3cec85b2	0.028872345
154	0xbd53610b	-0.05160622
155	0x3c2c09d7	0.010500393
156	0x3d8c65da	0.06855364
157	0xbc9c7668	-0.01909943
158	0xbd7b5c17	-0.06136712
159	0xbb1da8d8	-0.0024056938
160	0xbd82110d	-0.063509084
161	0x3da063b8	0.0783152
162	0xbd1be8dd	-0.038063873
163	0xbde23132	-0.110445395
164	0x3cdad149	0.026711123
165	0x3b8e2034	0.004337335
166	0xbdbb2027	-0.09136992
167	0xbb7b046e	-0.00383022
168	0xbd42362b	-0.04741494
169	0xbd9cd966	-0.07658653
170	0x3cf28e3b	0.029608836
171	0xbbd02065	-0.006351518
172	0xbe04b029	-0.12957825
173	0xbda4b5bc	-0.080424756
174	0x3bf31a69	0.00741892
175	0xbd01218c	-0.031526133
176	0x3d9ca99b	0.07649537
177	0xbdab0c72	-0.08351983
178	0xbd714096	-0.058899485
179	0xbd114395	-0.035464842
180	0xbc9c0946	-0.01904739
181	0x3d366123	0.04452623
182	0xbd48aab8	-0.048990935
183	0xbda037de	-0.07823156
184	0x3cfec1cf	0.031098275
185	0x3d1e263d	0.038610686
186	0xbd77517d	-0.060380448
187	0x3d6ef955	0.05834325
188	0x3d9dcdfe	0.077053055
189	0x3cdf269a	0.027240086
190	0x3cb3026e	0.021851745
191	0x3d99aec8	0.0750404
192	0x3d0a6258	0.033785194
193	0xbdb44307	-0.08801847
194	0x3ca93a1e	0.020657595
195	0xbd81485b	-0.06312629
196	0x3cc3b1ee	0.023888554
197	0xbd271950	-0.040795624
198	0x3c4e4bc5	0.012591307
199	0x3dbeb771	0.093123324
200	0x3d9e2e6c	0.07723698
201	0x3cbedea9	0.023299532
202	0x3d25a20e	0.04043775
203	0x3c29880f	0.01034738
204	0x3c477e67	0.012176133
205	0xbcfcf071	-0.03087637
206	0x3d0dd87f	0.034630295
207	0x3db6dab6	0.089284346
208	0x3c3a00c7	0.011352724
209	0xbb6187cb	-0.0034413214
210	0x3b9043f8	0.0044026338
211	0x3d1a917f	0.037736412
212	0xbd277957	-0.040887203
213	0x3d463ad8	0.04839596
214	0x3d6e6842	0.058204897
215	0xbcdf58ba	-0.027263988
216	0x3c78511a	0.015156055
217	0xbd8cdddf	-0.06878256
218	0x3d7bf3e1	0.061511878
219	0x3c0975ae	0.008389873
220	0x3d7db455	0.061939556
221	0x3d8d7b0a	0.069082335
222	0xbc8d3265	-0.017235944
223	0xbc50d847	-0.012746877
224	0x3d5acdea	0.05341903
225	0x3d586765	0.05283298
226	0x3d3f493f	0.046700712
227	0x3d98c0b8	0.07458633
228	0xbcd51827	-0.026012493
229	0x3c75213a	0.014961535
230	0xbda2ed87	-0.07955461
231	0xbc0ace8b	-0.008472095
232	0xbc09e380	-0.008416057
233	0xbd32ecd5	-0.043682892
234	0xbb413787	-0.002948256
235	0xbd07ad05	-0.03312399
236	0xbd851fb2	-0.06500186
237	0x3d35bb37	0.044367995
238	0xbd9447ca	-0.07240255
239	0xb9ef7a92	-0.00045676954
240	0xbd5f59f5	-0.05452915
241	0xbb696c3f	-0.0035617498
242	0x3bf09adc	0.0073426794
243	0xbd92b651	-0.0716368
244	0x3d126d03	0.035748493
245	0xbd519f96	-0.051177584
246	0xba13fec8	-0.00056455703
247	0x3d70e7a5	0.058814663
248	0x3c82df10	0.015975505
249	0x3dac32b2	0.08408107
250	0x3d8cd110	0.06875813
251	0x3d4a068d	0.049322654
252	0x3d895aaf	0.0670675
253	0xbdb37962	-0.08763386
254	0x3d8bed59	0.0683238
255	0xbd93bf69	-0.07214243

bias f4 [16]
0	0x3d577727	0.052603867
1	0x3d69a8fe	0.05704593
2	0x3cea7560	0.028620422
3	0x3d876b2c	0.06612238
4	0xbd2b0e3a	-0.041761614
5	0xbb2d59f0	-0.0026451312
6	0xbb5333bd	-0.0032226883
7	0xbda4ef8b	-0.08053502
8	0xbb89999c	-0.00419922
9	0xbd506649	-0.050878797
10	0x3da180e4	0.07885912
11	0x3d54e994	0.05198057
12	0x3caab9cd	0.02084055
13	0x3da211b8	0.07913536
14	0x3d9215a9	0.071330376
15	0x3d4327a1	0.047645215

weight f4 [16, 16, 3, 3]
0	0xbc7a57b2	-0.015279697
1	0xbcfc3e68	-0.030791476
2	0xbd493e27	-0.04913154
3	0x3db7c756	0.08973567
4	0xbd49e0a3	-0.049286496
5	0xbd812e35	-0.063076414
6	0x3d7fa923	0.06241716
7	0x3c2cd9f2	0.010550009
8	0xbd224170	-0.039613187
9	0x3d2eb2eb	0.0426511
10	0xbd68ed13	-0.056866717
11	0x3c556cf4	0.013026465
12	0x3d912ef4	0.07089034
13	0x3d41ca0e	0.047311835
14	0x3cef2dcd	0.029196644
15	0xbd984b5d	-0.074362494
16	0x3a42f677	0.0007437239
17	0xbb8cb8ac	-0.0042944755
18	0xbb52dfec	-0.0032176925
19	0xbd4b27cb	-0.049598496
20	0x3d13fda4	0.036130562
21	0x3bf68ee0	0.0075243562
22	0xbca86b58	-0.020558998
23	0xbd3ec866	-0.046577834
24	0xbc041360	-0.00806126
25	0x3cda97bd	0.026683683
26	0xbd621acd	-0.05520134
27	0x3d3361a6	0.043794297
28	0x3d4aeee6	0.049544238
29	0xbd07f779	-0.033194993
30	0x3cfaddfa	0.030623425
31	0xbafb14e9	-0.0019156012
32	0x3d8ede7b	0.069760285
33	0xbc9b5f08	-0.018966213
34	0x3d724186	0.05914452
35	0x3ce7acef	0.028280703
36	0x3b8e1f31	0.0043372144
37	0xbd868e9a	-0.06570168
38	0x3cb024f3	0.021501994
39	0xbd06e06a	-0.03292886
40	0xbd7fecb3	-0.062481593
41	0xbd87d687	-0.06632715
42	0x3d819603	0.063274406
43	0xbaf1949c	-0.001843113
44	0xbd4f52f3	-0.050616216
45	0xbcd970b3	-0.026542997
46	0xbd340365	-0.04394855
47	0x3d2741cf	0.040834244
48	0xbd402369	-0.04690877
49	0xbc5ab90e	-0.013349785
50	0xbc66fd47	-0.014098472
51	0xbada1cbc	-0.0016640644
52	0xbb9ef215	-0.004850636
53	0x3d79b0da	0.060959674
54	0xbd20da6c	-0.039270803
55	0x3d8c690d	0.06855974
56	0x3d20bfc3	0.03924538
57	0x3caa0456	0.02075402
58	0xbd2a2d7c	-0.041547284
59	0x3da48436	0.0803303
60	0x3d4df4f0	0.05028242
61	0x3d270e0a	0.040784873
62	0xbcea643d	-0.02861225
63	0xbd83bdee	-0.064327106
64	0x3d1e2384	0.03860809
65	0xbc3dd681	-0.011586786
66	0x3d874559	0.06605024
67	0x3b9c6753	0.0047730594
68	0xbd204f15	-0.03913792
69	0x3cd3a8fc	0.025837414
70	0x3d89c850	0.0672766
71	0xbc4694f8	-0.012120478
72	0x3d52fa17	0.051508036
73	0x3d918af5	0.07106582
74	0x3d9b0a1d	0.07570288
75	0xbd2d8a03	-0.042367946
76	0x3d5f0e24	0.054456845
77	0x3c0aacdc	0.008464064
78	0x3cf0339d	0.029321486
79	0xbd99d24b	-0.07510813
80	0xbcd59cbf	-0.026075719
81	0x3daac2dc	0.08337948
82	0x3d0ca837	0.03434011
83	0x3d544641	0.05182481
84	0x3d02661e	0.031835668
85	0xbd512897	-0.0510641
86	0xbd30d1f6	-0.043168984
87	0x3d7ab18d	0.061204482
88	0x3d79e874	0.0610127
89	0xbd7923f5	-0.060825307
90	0xbd433f10	-0.047667563
91	0xbc28768a	-0.010282168
92	0x3ad3aa32	0.0016148745
93	0xbc7759a1	-0.015097053
94	0xbda23405	-0.07920078
95	0xbd8c72b3	-0.06857815
96	0xbda627f9	-0.08113093
97	0xbcda1ceb	-0.026625117
98	0xbd932962	-0.071856275
99	0x3d14e2b2	0.036349006
100	0x3d9666c3	0.07343819
101	0xbd0d946a	-0.034565367
102	0x3d5a7403	0.053333294
103	0xbc3a03d5	-0.011353453
104	0x3d089c42	0.033352144
105	0x3d405069	0.046951685
106	0xbd7caff2	-0.061691232
107	0xbd31f179	-0.043443177
108	0x3dabaea3	0.08382919
109	0x3d8d7cc4	0.06908563
110	0x3d989903	0.0745106
111	0x3d844d92	0.06460108
112	0x3d866177	0.06561559
113	0xbd036431	-0.03207797
114	0xbc0b92cb	-0.008518885
115	0x3d14bc57	0.036312427
116	0x3d677b81	0.056514267
117	0x3d2ed463	0.042683017
118	0x3d7b4fe7	0.061355498
119	0x3d8d352e	0.06894909
120	0xbd8b1298	-0.06790656
121	0xbd016c1a	-0.031597234
122	0x3d91fd45	0.071283855
123	0x3c96df68	0.018417075
124	0x3d05f73f	0.032706495
125	0xbd9f9ed1	-0.07793964
126	0x3d734c47	0.059398916
127	0x3d3f7364	0.046740904
128	0x3d80a1f2	0.062808886
129	0x3cb0e7f7	0.021594984
130	0x3d233a4b	0.039850514
131	0xbd14cb4e	-0.0363267
132	0xbda8e3db	-0.08246585
133	0xbd861b23	-0.06548145
134	0xba89100f	-0.0010457056
135	0xbd8b4465	-0.068001546
136	0xbc96491d	-0.01834541
137	0x3d3989d1	0.045297448
138	0xbb83c1a8	-0.0040208884
139	0x3d856922	0.06514193
140	0xbc8fafeb	-0.017539939
141	0x3d42c605	0.047552127
142	0xbd227e3f	-0.03967118
143	0xbd010258	-0.031496376
144	0xbcc3843d	-0.023866767
145	0xbcf9dc82	-0.030500654
146	0xbc16a12d	-0.009193701
147	0xbd83915b	-0.06424209
148	0x3d5ee4c1	0.054417375
149	0xbd839426	-0.064247414
150	0xbd0a7749	-0.033805165
151	0xbd724820	-0.059150815
152	0xbd6e5b50	-0.05819255
153	0xbd3db6ac	-0.046316788
154	0x3d271b7b	0.04079769
155	0x3c5b7781	0.013395191
156	0x3d8f8b1e	0.070089564
157	0x3c2f0e2f	0.010684534
158	0x3d38089b	0.04493008
159	0xbda90870	-0.082535625
160	0xbd4988ec	-0.049202845
161	0xbc51dc87	-0.0128089255
162	0xbcf87971	-0.030331345
163	0xbd836d1d	-0.06417296
164	0x3cd481b3	0.025940752
165	0x3c8464fc	0.016161434
166	0xbc5571ff	-0.013027667
167	0xbcd561fa	-0.026047695
168	0x3c0e306f	0.00867854
169	0xbd85fccd	-0.065423585
170	0x3d18d19f	0.037309285
171	0xbc7a8257	-0.0152898645
172	0xbd1bdde6	-0.038053416
173	0x3d7dd423	0.061969887
174	0xbd88a167	-0.0667141
175	0xbda47a07	-0.08031087
176	0xbccd4e67	-0.0250618
177	0x3c45c7bc	0.012071546
178	0xbd10cdc8	-0.0353525
179	0x3d930d5a	0.07180281
180	0xbce561c9	-0.02800073
181	0xbc99932d	-0.018746937
182	0xbd8adadb	-0.067800246
183	0xbd0479ab	-0.032342594
184	0xbcca5a9f	-0.024701415
185	0x3cae0822	0.021244112
186	0xbd3d0256	-0.046144806
187	0x3cf49da2	0.029860321
188	0x3d9ce2a0	0.07660413
189	0xbca953c8	-0.020669833
190	0xbd65ef07	-0.056136157
191	0x3cef2b67	0.0291955
192	0xbcece149	-0.028916018
193	0x3d4daa10	0.050211012
194	0x3d1dcb4f	0.03852397
195	0x3d5afcc7	0.053463724
196	0x3c660409	0.014039048
197	0x3d5eb554	0.054372147
198	0xbd21a203	-0.039461147
199	0xbd29a6f7	-0.041418996
200	0x3cdb9c3e	0.0268079
201	0xbd1a1726	-0.037619732
202	0x3ce7a7db	0.028278282
203	0xbd80234e	-0.06256734
204	0xba2062ff	-0.0006118267
205	0xbcc815ae	-0.0244244
206	0x3cb27580	0.021784544
207	0x3d80e01e	0.06292747
208	0x3cdccead	0.02695402
209	0x3d56290d	0.052285243
210	0x3b73c36e	0.0037195343
211	0x3d7b6fa4	0.061385766
212	0xbd1eec5e	-0.038799636
213	0x3c4a8bbe	0.012362419
214	0x3cb524ac	0.022112213
215	0xbd91d2a1	-0.071202524
216	0xbb51c3b7	-0.0032007524
217	0xbc3a7431	-0.011380241
218	0x3c3f1507	0.011662728
219	0xbc51b444	-0.012799326
220	0x3d829b31	0.06377257
221	0xbd46f65e	-0.048574798
222	0x3c9c612d	0.019089306
223	0x3d19cd2e	0.03754919
224	0xbd9f869e	-0.07789348
225	0xbd8efedd	-0.06982205
226	0x3da7139b	0.08158036
227	0x3c534bff	0.012896537
228	0xbd8ba584	-0.06818679
229	0xbd2a7373	-0.041614007
230	0x3d6741b8	0.05645916
231	0x3d21bc63	0.0394863
232	0xbbb1d95d	-0.005427523
233	0xbd43a090	-0.047760546
234	0x3d67eb53	0.056620907
235	0x3d298522	0.04138673
236	0xbd8ca530	-0.068674445
237	0xbd04f842	-0.03246332
238	0xbc732f7c	-0.014842864
239	0xbd28da9c	-0.041224107
240	0xbc990f17	-0.018683953
241	0xbb1b9980	-0.0023742616
242	0xbda8fdf9	-0.082515664
243	0xbd21f0bb	-0.03953622
244	0x3d9c324c	0.07626781
245	0xbcc51de8	-0.024062112
246	0xbdaa6b54	-0.083212525
247	0x3d1c4c0f	0.038158473
248	0x3c2aa5d2	0.010415511
249	0x3d9604aa	0.07325108
250	0x3d7735c3	0.060354006
251	0xb70e532e	-8.483226e-06
252	0xbda616e8	-0.08109838
253	0xbd553b93	-0.052058768
254	0x3d969bf7	0.07353967
255	0xbb898aa3	-0.004197435

bias f4 [16]
0	0xbd95c9b3	-0.07313862
1	0xbda5479a	-0.080702975
2	0xbcb94a41	-0.022618415
3	0xbd9fcf58	-0.078032196
4	0xbd918b3d	-0.07106636
5	0x3d2315c0	0.039815664
6	0x3c189b2e	0.0093143415
7	0x3d4734b7	0.048634257
8	0x3d1fd084	0.039017215
9	0xbd9b66c9	-0.07587964
10	0x3d460337	0.04834291
11	0xbd275447	-0.040851858
12	0x3b3b5726	0.002858588
13	0x3b898dd0	0.0041978136
14	0x3c6b18a2	0.014349135
15	0x3d860747	0.06544357

weight f4 [16, 16, 3, 3]
0	0xbd7a913c	-0.061173663
1	0xbd025cd3	-0.031826805
2	0x3c39bee5	0.011337017
3	0x3cb8d841	0.022564055
4	0x3c66d875	0.014089693
5	0xbd917415	-0.07102219
6	0xbda55c3e	-0.080742344
7	0x3d43a6c1	0.04776645
8	0x3a158792	0.00057041005
9	0xbd0027de	-0.03128802
10	0x3c9c4a55	0.019078413
11	0xbd44498d	-0.047921706
12	0x3cf89406	0.03034402
13	0x3cb6822d	0.02227887
14	0xbd5fc080	-0.05462694
15	0xbd9cb263	-0.07651212
16	0xbc006076	-0.007835498
17	0xbd00d15f	-0.03144967
18	0x3c9735ea	0.018458325
19	0x3bf3b331	0.0074371328
20	0xbdac55ec	-0.08414826
21	0xbdd41475	-0.10355464
22	0x3d549109	0.05189613
23	0xbd947ec1	-0.07250739
24	0xbc8b8aec	-0.017034017
25	0x3d167596	0.036733232
26	0x3d1b11ce	0.037858777
27	0x3b9f92b6	0.004869784
28	0xbae150fd	-0.0017190274
29	0xb9bb313c	-0.00035704102
30	0xbda77edb	-0.08178493
31	0x3b9dd19a	0.004816246
32	0x3d3ceeda	0.046126224
33	0xbd0e120d	-0.034685183
34	0xbcf54ed0	-0.029944807
35	0x3d8e53d5	0.069495834
36	0x3c8f25b9	0.017474042
37	0xbd9bfe0c	-0.07616815
38	0x3cc4f5ac	0.024042927
39	0x3d3ad24c	0.04561071
40	0xbcf16bf3	-0.02947042
41	0xbd073560	-0.033009887
42	0xbd2197ab	-0.039451282
43	0x3cbf33a8	0.023340061
44	0xbd9290db	-0.07156535
45	0xbb40677c	-0.0029358556
46	0xbd437003	-0.047714245
47	0xbc4a789e	-0.012357859
48	0xbc54fdd8	-0.012999974
49	0xbb46308a	-0.0030241334
50	0xbd5bb338	-0.053637713
51	0x3d18f7e5	0.037345786
52	0x3d6bd97a	0.05758045
53	0xbbfce74b	-0.007718002
54	0x3cf0e9ed	0.02940842
55	0x3d7d0d02	0.061779983
56	0xbd9758b7	-0.07389968
57	0xbd0c706e	-0.03428691
58	0xbdbc0935	-0.091814436
59	0xbd94c740	-0.072645664
60	0x3ca72344	0.020402558
61	0xbdfa4260	-0.12219691
62	0xbc5ba864	-0.013406847
63	0x3db2cec7	0.08730846
64	0xbdb4cc3e	-0.088280186
65	0xbd936076	-0.07196133
66	0x3cfef3cc	0.03112211
67	0xbd9da48b	-0.076974
68	0x3d119ac9	0.035548005
69	0x3dafda51	0.085865624
70	0xbd514236	-0.051088534
71	0xbd20c4b5	-0.039250094
72	0x3d6c0a4e	0.057627015
73	0xbd9d3c58	-0.07677525
74	0x3da7ed86	0.08199601
75	0x3d4073d2	0.046985455
76	0x3d5f2617	0.054479685
77	0xbdaaaa0a	-0.083332136
78	0x3d821e87	0.06353479
79	0x3ce65454	0.028116383
80	0xbdae5514	-0.08512321
81	0xbd97395c	-0.07383987
82	0xbd37ddd6	-0.044889294
83	0xbd75ef27	-0.060042527
84	0x3d8e9e82	0.06963827
85	0xbc7a8b9b	-0.015292074
86	0x3d499ad7	0.049219932
87	0x3ccbf244	0.024895795
88	0xbd9a201c	-0.075256556
89	0x3d0ec2e9	0.03485385
90	0x3d3ed64c	0.04659109
91	0xbdba7ab1	-0.09105433
92	0xbd8a912d	-0.06765971
93	0xbd99656c	-0.07490048
94	0xbd54a5e3	-0.051916014
95	0xbd816617	-0.063183
96	0x3ccbc040	0.024871945
97	0xbd89c413	-0.06726851
98	0x3d7cb1fe	0.061693184
99	0xbd93ff15	-0.072263874
100	0x3c00175f	0.007818072
101	0x3da8a34f	0.08234274
102	0xbdb106a7	-0.08643847
103	0x3d4bdf01	0.04977322
104	0xbcafbd3a	-0.021452535
105	0xbd73fc7c	-0.05956696
106	0xbd42553e	-0.047444575
107	0x3aec22b0	0.0018015709
108	0x3dc75658	0.09733266
109	0xbde4375c	-0.111433715
110	0xbb326e35	-0.0027226333
111	0x3c532fed	0.012889844
112	0xbdc2867c	-0.09498307
113	0xbcda6aab	-0.026662191
114	0xbcdeb2d4	-0.027184881
115	0x3dbea645	0.09309057
116	0xbdd9e766	-0.10639839
117	0x3ccabf3c	0.02474939
118	0x3d1fd4b0	0.039021194
119	0x3d21b509	0.03947929
120	0x3cbc6425	0.022996971
121	0xbda28981	-0.07936383
122	0x3d13eabe	0.03611254
123	0xbcc54bb9	-0.024083959
124	0x3c55bac5	0.013045018
125	0xbd130b9e	-0.03589975
126	0x3d9f63c7	0.07782703
127	0x3d4020b9	0.046906207
128	0xbd81e2c5	-0.06342081
129	0xbbd1c6d8	-0.006401878
130	0x3d86210c	0.06549272
131	0x3cfe1686	0.0310166
132	0xbd994f46	-0.07485823
133	0x3b40f303	0.0029441721
134	0xbd7bc42c	-0.06146638
135	0x3d58de5f	0.052946445
136	0xbdad9aa5	-0.08476762
137	0xbcba1f24	-0.022719927
138	0xbb2381e9	-0.0024949259
139	0xbd5a86a8	-0.053351074
140	0xbd819828	-0.063278496
141	0xbd76af83	-0.060225975
142	0x3d477c42	0.048702486
143	0xbc320d06	-0.010867363
144	0xbd8124da	-0.06305857
145	0x3d49e127	0.049286988
146	0xbc885f9b	-0.01664715
147	0x3c127af2	0.008940445
148	0x3cb4adb1	0.022055479
149	0xbb424b4a	-0.0029646927
150	0xbd9a2f03	-0.07528498
151	0xbc8393a9	-0.01606162
152	0x3d9025cd	0.0703846
153	0xbccd3765	-0.025050828
154	0x3d90b74e	0.070662126
155	0x3bfc71b2	0.007703983
156	0xbcb6ae62	-0.02229995
157	0xb98821b9	-0.00025965067
158	0xbd25990d	-0.040429164
159	0x3cb198b7	0.021679265
160	0xbd502056	-0.050812088
161	0xbd2c3471	-0.0420422
162	0xbd9b1616	-0.07572572
163	0x3d2056ed	0.0391454
164	0x3d5f0647	0.054449346
165	0x3d2b9ffc	0.04190062
166	0xbd1c780b	-0.03820042
167	0xbc7748dc	-0.015093055
168	0x3a4d0653	0.0007821072
169	0xbda25600	-0.079265594
170	0xbb53e4cc	-0.0032332418
171	0x3cf26515	0.029589215
172	0x3d867237	0.065647535
173	0xbd7cb75c	-0.061698303
174	0x3cb00b0f	0.021489648
175	0x3d986d75	0.07442752
176	0x3c98aa4b	0.01863589
177	0xbd26a591	-0.04068524
178	0x3d2d62ea	0.04233066
179	0x3d580aa2	0.052744515
180	0xbd8ee332	-0.06976928
181	0x3a3b7ae7	0.0007151798
182	0xbd7a682b	-0.0611345
183	0xbd30593a	-0.043053843
184	0xbccbe919	-0.024891423
185	0x3c8f4286	0.017487776
186	0x3cce8df8	0.02521418
187	0xbcb5fa35	-0.022214035
188	0xbc8c8af5	-0.017156104
189	0xbc020c49	-0.007937499
190	0xbda86ea9	-0.08224232
191	0xbc200854	-0.009767611
192	0x3ba7f6d0	0.005125858
193	0x3d971e85	0.07378868
194	0xbd6e3f33	-0.05816574
195	0x3d460136	0.048341
196	0x3d12ef27	0.035872605
197	0xbd3b155b	-0.045674663
198	0xbd8213ea	-0.063514546
199	0xbd3aea48	-0.045633584
200	0x3dad30e4	0.08456591
201	0xbc3a9507	-0.01138807
202	0xbd9a4d70	-0.07534301
203	0x3d661f78	0.056182355
204	0xbd43e919	-0.04782972
205	0xbd98c456	-0.07459323
206	0x3db80789	0.08985812
207	0xbd839b5f	-0.06426119
208	0xbd877d64	-0.06615713
209	0x3ccd5aee	0.025067773
210	0x3d9138ff	0.07090949
211	0xbd809547	-0.062784724
212	0x3da2e2f2	0.07953443
213	0x3d7ce0bd	0.061737765
214	0x3bb478af	0.0055075507
215	0xbd8d37ec	-0.06895432
216	0x3d7c8579	0.061650727
217	0x3da24534	0.07923356
218	0x3da6dd89	0.08147723
219	0xbd65390c	-0.055962607
220	0x3dab0235	0.0835003
221	0x3db32eb2	0.08749141
222	0x3c6eb5ee	0.014569743
223	0xbd578dbd	-0.052625407
224	0x3cb00325	0.021485874
225	0x3da80033	0.08203163
226	0x3d851d51	0.06499732
227	0x3d71ba32	0.05901546
228	0xbc238a19	-0.0099816555
229	0xbdbaa034	-0.091125876
230	0xbb54a62d	-0.0032447681
231	0xbd079eb9	-0.033110354
232	0x3cc23e20	0.023711264
233	0x3c03b2ce	0.008038236
234	0xbd751046	-0.059829973
235	0x3c904b93	0.017614162
236	0x3c10c284	0.008835439
237	0x3d10e8b4	0.035378173
238	0xbc1e62da	-0.009667123
239	0x3c255103	0.0100901155
240	0xbd40a2e4	-0.047030345
241	0xbd80a8f5	-0.06282226
242	0x3d592879	0.053017113
243	0xbd91a35b	-0.07111236
244	0xbc03a3e0	-0.008034676
245	0xbd41a979	-0.047280762
246	0xbd20dc9a	-0.039272882
247	0xbdd929ea	-0.106036976
248	0x3dd2fbf3	0.10301962
249	0xbcc67c39	-0.024229156
250	0xbd2ed85e	-0.042686813
251	0x3daaf761	0.08347965
252	0x3d76eaf1	0.06028265
253	0xbcaf7d78	-0.021422133
254	0xbda6a818	-0.0813753
255	0x3d6b9e69	0.05752412

bias f4 [16]
0	0x3c4b7628	0.012418307
1	0x3d98fce3	0.07470109
2	0xbcff6b91	-0.031179221
3	0xbd7d7279	-0.061876748
4	0xbca24e40	-0.019812703
5	0x3d1ea278	0.03872916
6	0xbd98c6ec	-0.07459816
7	0x3c33daad	0.010977429
8	0x3d5dd654	0.054159477
9	0x3d128a6e	0.035776548
10	0xbd3e2d81	-0.046430115
11	0xbd9a3225	-0.075290956
12	0x3d8bd90c	0.06828508
13	0x3d04c7bd	0.032417048
14	0xbc57366a	-0.013135532
15	0xbbf221e9	-0.0073892963

weight f4 [64, 16, 3, 3]
0	0xbdc01f5c	-0.09380981
1	0x3d58b550	0.052907288
2	0x3d93941c	0.07205984
3	0xbd326b89	-0.043559585
4	0xbdbb26af	-0.09138238
5	0xbcbc156d	-0.022959435
6	0xbbaec351	-0.005333342
7	0xbda9c9eb	-0.08290466
8	0x3d2d617a	0.04232929
9	0xbd1f8d0c	-0.038952872
10	0xbd6c4d22	-0.057690747
11	0x3d29f464	0.041492835
12	0x3c1c9d46	0.009558981
13	0xbd0cdbaa	-0.034389175
14	0xbd87dded	-0.06634126
15	0xbce2cdbb	-0.02768599
16	0x3d096d70	0.033551633
17	0xbc4e196b	-0.012579302
18	0x3d474218	0.048647016
19	0x3c2ff7ed	0.010740262
20	0x3b878412	0.004135617
21	0x3d04cec1	0.03242374
22	0xbc805d38	-0.01566945
23	0x3db870b5	0.09005872
24	0x3d96fddd	0.07372639
25	0xbd9e196b	-0.07719692
26	0x3c3c8a7c	0.011507627
27	0xbbc1acf3	-0.0059105097
28	0x3d09a7ac	0.03360717
29	0xbd79f7b6	-0.06102725
30	0xbca59bd0	-0.020215899
31	0x3cc9f2e7	0.024651958
32	0xbce1b9d4	-0.02755443
33	0x3cbef357	0.023309393
34	0xbcbba28d	-0.022904659
35	0xbd7ddc14	-0.06197746
36	0xbb881fcf	-0.0041541825
37	0xbba10509	-0.0049139303
38	0x3d6aa1fd	0.05728339
39	0xbc647ccc	-0.0139457695
40	0x3d2f2f63	0.0427698
41	0xbd9f4766	-0.0777729
42	0xbd002826	-0.03128829
43	0x3d0407dd	0.03223406
44	0xbd8adc46	-0.06780295
45	0xbcded0af	-0.027199117
46	0x3d557af4	0.05211921
47	0xbd59d969	-0.053185854
48	0xbbad457a	-0.0052878233
49	0x3d7c376e	0.0615763
50	0xbc0b83f3	-0.008515346
51	0xbc8afdd3	-0.016966736
52	0xbd886759	-0.06660337
53	0xbc950d82	-0.018194918
54	0xbd027138	-0.031846255
55	0xbd557200	-0.052110672
56	0xbcdcbc5d	-0.026945287
57	0xbd95ba49	-0.07310922
58	0x3db3537d	0.087561585
59	0xbd0b8a1d	-0.034067262
60	0xbd36b5e0	-0.044607043
61	0x3cc5e604	0.024157532
62	0xbc5d79f8	-0.013517849
63	0x3d98b566	0.07456474
64	0x3c95bb50	0.018277794
65	0xbd4d9ca8	-0.050198227
66	0xbaa5a328	-0.0012637125
67	0xbd85df85	-0.065367736
68	0xba917f8a	-0.0011100632
69	0x3d55c9c6	0.05219438
70	0xbd23342b	-0.039844673
71	0xbd2b67f8	-0.0418472
72	0x3d81759b	0.063212596
73	0xbd123025	-0.035690445
74	0xbd8b7cab	-0.06810888
75	0xbd86a75d	-0.06574891
76	0xbd33f7aa	-0.043937363
77	0x3b7ffccc	0.003906059
78	0xbdbf986d	-0.09355245
79	0xbcdf993f	-0.027294753
80	0xbdaccdc2	-0.08437683
81	0xbd978b70	-0.073996425
82	0xbdaa8f3c	-0.08328101
83	0x3d5f486f	0.054512437
84	0x3ca56f84	0.020194776
85	0xbd704de4	-0.058668032
86	0xbcb809ad	-0.022465551
87	0xbb3d1462	-0.002885126
88	0xbd03af09	-0.03214935
89	0xbc92ba0c	-0.01791098
90	0x3d03b33b	0.03215335
91	0x3d233505	0.039845485
92	0x3b67d2b0	0.0035373382
93	0xbcf356e9	-0.029704528
94	0xbd991e1a	-0.074764445
95	0xbca68586	-0.02032734
96	0xbcf3162a	-0.029673655
97	0x3d963cd9	0.073358245
98	0xbd0728fa	-0.032998063
99	0xbd12f54c	-0.035878465
100	0x3c2d320c	0.010571014
101	0xbce4aad5	-0.02791349
102	0x3cba58a5	0.022747347
103	0x3ccc4968	0.024937347
104	0x3d207263	0.039171588
105	0xbd5cdd06	-0.053921722
106	0x3cd481d6	0.025940817
107	0x3c4c1598	0.01245632
108	0xbcb8ce12	-0.0225592
109	0x3da354ed	0.07975183
110	0xbd916542	-0.070993915
111	0x3c92b26f	0.01790735
112	0xbd0e089f	-0.03467619
113	0x3d0c39ab	0.034234684
114	0xbc99a647	-0.018756045
115	0x3d07d53a	0.033162333
116	0x3d8353ef	0.064124934
117	0x3c4d260d	0.012521279
118	0x3da3be10	0.07995236
119	0xbda0d0dd	-0.078523375
120	0xbc3500fc	-0.011047598
121	0xbc53f595	-0.012936969
122	0x3d46c942	0.04853178
123	0x3cd94467	0.026521875
124	0x3c9aed1e	0.018911894
125	0x3befe7c7	0.007321331
126	0x3b1e1b63	0.002412521
127	0xbd637e8e	-0.055540614
128	0x3d3b94c2	0.045796163
129	0x3cc95f5f	0.02458161
130	0xbc8750fe	-0.016518112
131	0x3d30f980	0.04320669
132	0x3d39dddd	0.0453776
133	0xbbfd940b	-0.0077385954
134	0xbdabe7ce	-0.083938226
135	0xbcff656b	-0.03117629
136	0x3bddadbf	0.006765097
137	0xbd863e76	-0.06554882
138	0x3dad6c63	0.08467939
139	0xbd38fd5d	-0.0451635
140	0x3cfbe0b4	0.030746795
141	0xbc912fef	-0.017723052
142	0x3cccf0ac	0.025017105
143	0x3c9da5a2	0.019244019
144	0xbc55514b	-0.01301987
145	0xbd71eee4	-0.059065714
146	0xbc53230f	-0.012886777
147	0xbda61141	-0.0810876
148	0xbccf48b9	-0.025303232
149	0x3d8f9d29	0.07012398
150	0x3d89e4dd	0.06733105
151	0x3c1a0ae5	0.0094020115
152	0x381a6f60	3.6820187e-05
153	0xbc1d94b4	-0.009617973
154	0x3dafe7b0	0.08589113
155	0x3c775bcb	0.015097569
156	0x3cb7cec8	0.022437468
157	0xbd0cb35e	-0.034350745
158	0xbc6ff8b7	-0.014646701
159	0x3d52b8a9	0.051445637
160	0xbd893356	-0.06699245
161	0x3d557977	0.05211779
162	0x3d849fe3	0.064758085
163	0xbcb87646	-0.022517335
164	0xbd7e5e3a	-0.06210158
165	0xbd983232	-0.07431449
166	0x3d893bbf	0.06700849
167	0x3d9fcc7a	0.07802673
168	0x3cd74ec4	0.026282676
169	0x3cf5fdc7	0.030028237
170	0xbdb38294	-0.0876514
171	0xbdacf150	-0.08444464
172	0xbcd73889	-0.026272075
173	0x3cfbd3e4	0.030740686
174	0xbca0d94c	-0.019634865
175	0xbdb2cca5	-0.08730439
176	0xbd139160	-0.036027312
177	0x3da44fc3	0.08023026
178	0xbd216357	-0.03940138
179	0x3d909b43	0.07060864
180	0xbd4e4f8f	-0.05036884
181	0xbca6ff2e	-0.020385351
182	0xbd3f96c8	-0.046774656
183	0x3da27a9e	0.079335436
184	0xbdd73cba	-0.105096295
185	0x3c6085b1	0.0137037495
186	0xbd57ceb5	-0.052687366
187	0xbd095dcb	-0.033536714
188	0xbdbca4aa	-0.09211095
189	0xbd878470	-0.06617057
190	0x3d0fa925	0.03507342
191	0x3b887dad	0.0041653723
192	0xbd2e9c4f	-0.042629536
193	0x3d90901c	0.07058737
194	0xbb2a732f	-0.0026008596
195	0xbc8c2530	-0.017107576
196	0x3c75ab1f	0.014994412
197	0xbcf44af7	-0.029820902
198	0xbc86756f	-0.016413419
199	0xbc32ee85	-0.010921125
200	0x3d45dfa1	0.048308972
201	0xbd479405	-0.048725147
202	0x3c3cd929	0.011526384
203	0x3cad6bea	0.021169621
204	0x3d412a84	0.047159687
205	0x3cbe143b	0.023203006
206	0x3c9706b4	0.018435813
207	0xbd01c771	-0.031684343
208	0x3d0067ee	0.031349115
209	0xbce9cd2e	-0.02854022
210	0xbd81ebee	-0.06343828
211	0xbd3c5ce9	-0.045987044
212	0x3d3a4254	0.04547341
213	0x3a869128	0.0010266649
214	0xbd8faa21	-0.070148714
215	0x3d3861d6	0.04501518
216	0x3d492428	0.049106747
217	0x3d8b9958	0.068163574
218	0xbda8e6e9	-0.082471676
219	0x3cd564cf	0.026049046
220	0x3d5a5caf	0.053311046
221	0xbcd1fb82	-0.025632624
222	0x3ca33d67	0.01992674
223	0xbcfaac4f	-0.030599741
224	0xbc97c6f8	-0.018527493
225	0x3d4c5594	0.0498863
226	0x3d746be7	0.059673216
227	0xbd3a9bf5	-0.04555889
228	0xbd6e19a3	-0.058129918
229	0xbcde62c1	-0.027146699
230	0xbd4704db	-0.048588615
231	0xbd43dd1c	-0.04781829
232	0x3a938b2f	0.001125669
233	0xbd941a5f	-0.072315924
234	0xba60399a	-0.0008553505
235	0x3d9d14af	0.07669961
236	0xbd9b6d6b	-0.07589229
237	0x3d8667d5	0.06562773
238	0x3be66d06	0.0070320396
239	0x3cdc0fdf	0.026863037
240	0x3acae74e	0.0015480311
241	0x3befc39c	0.0073170196
242	0x3ce969d6	0.02849285
243	0x3c61d90a	0.013784656
244	0x3b51c436	0.003200782
245	0xbd9fb5b1	-0.07798327
246	0x3c910dea	0.01770683
247	0x3d010671	0.031500284
248	0x3d31fe9d	0.04345571
249	0x3d077a6c	0.033075735
250	0x3d5bc3b2	0.053653426
251	0x3cf5f105	0.030022154
252	0x3da9eb1b	0.08296796
253	0x3da853c7	0.08219104
254	0x3c85e711	0.016345533
255	0x3c7f8306	0.015595203

bias f4 [64]
0	0x3d9a7805	0.07542423
1	0xbc52e60b	-0.012872229
2	0xbd06fcbe	-0.032955877
3	0x3d5b0a29	0.053476486
4	0xb9cb9ca7	-0.00038835892
5	0xbc9b7f5b	-0.018981626
6	0x3bf34984	0.007424535
7	0x3d59dc84	0.053188816
8	0xbd442157	-0.047883358
9	0xbcbdb6ac	-0.023158394
10	0x3d602de8	0.05473128
11	0xbd8dadba	-0.06917901
12	0x3d86814a	0.06567629
13	0x3caadfd7	0.020858688
14	0x3d47a06b	0.04873697
15	0xbd269044	-0.040664926
16	0x3cdba76c	0.026813231
17	0xbc2e1bf4	-0.010626782
18	0x3d93a650	0.07209456
19	0x3c00654e	0.007836653
20	0x3cffdbf1	0.031232806
21	0x3c2f8a97	0.010714195
22	0xbc7cda87	-0.01543296
23	0x3d4b2dac	0.049604103
24	0xbd31984e	-0.04335814
25	0x3d8c4488	0.06849009
26	0xbc2e9b69	-0.01065717
27	0xbd517b93	-0.05114324
28	0xbd190f36	-0.037368022
29	0xbd61c75f	-0.055121776
30	0xba8c65a5	-0.0010711445
31	0x3d23122d	0.039812256
32	0x3c351ec5	0.011054699
33	0x3d1b718d	0.037950087
34	0x3d6d53a7	0.057941105
35	0xbd0a2e2e	-0.033735447
36	0x3cf3030c	0.029664539
37	0x3ce4a1e1	0.027909221
38	0x3d7177b5	0.058952052
39	0x3da2963d	0.07938812
40	0xbd0f2055	-0.034942944
41	0x3d84edd6	0.06490676
42	0xbd29ade9	-0.04142562
43	0x3d8575f6	0.0651664
44	0xbd5dbf16	-0.054137312
45	0xbd8d9a8d	-0.06914244
46	0xbd7acbd4	-0.061229542
47	0x3bc13d52	0.0058972025
48	0xbbd88736	-0.0066079153
49	0xbd05510f	-0.032548007
50	0xbd3544ef	-0.044255193
51	0x3c7c4ed0	0.01539965
52	0xbd868ca4	-0.06569794
53	0x3da9367b	0.082623444
54	0xbd262298	-0.040560335
55	0xbd30a744	-0.043128267
56	0xbd131728	-0.035910755
57	0xbd30339a	-0.04301796
58	0xbc910899	-0.017704295
59	0xbd8845ff	-0.06653976
60	0x3d2b939f	0.04188883
61	0x3c3e00ff	0.011596917
62	0x3c9e9b15	0.019361058
63	0xbdb65087	-0.08902078
