working/model_pretrained/net_F16B2_epoch_9.pth (torch_old, 135256 bytes, 16 tensors)

weight f4 [16, 3, 3, 3]
0	0x3e189081	0.14898874
1	0xbe0b53ce	-0.13606188
2	0xbe24012c	-0.16016072
3	0xbe141425	-0.1446081
4	0x3e1a6486	0.15077409
5	0x3e028ec9	0.1274978
6	0xbe0fc534	-0.14040071
7	0x3e2cd8a9	0.16879524
8	0xbdae2058	-0.08502263
9	0xbe2b3d3e	-0.16722581
10	0xbd8ff598	-0.07029265
11	0xbcb50099	-0.022095012
12	0xbe036ada	-0.1283373
13	0x3dd0009d	0.10156367
14	0x3e27be83	0.16381268
15	0x3dc36db7	0.09542411
16	0xbe15f017	-0.14642368
17	0x3e1c7b57	0.15281425
18	0x3cabe4d3	0.020983135
19	0x3dcbd398	0.09952468
20	0x3e3213fd	0.17390437
21	0xbd3ce834	-0.046119884
22	0xbdc67467	-0.09690171
23	0x3d8fef81	0.070281036
24	0xbdc6f25f	-0.09714197
25	0xbe286456	-0.16444525
26	0x3daa45ed	0.083141185
27	0x3ddd2ee9	0.10799963
28	0x3d6c789c	0.05773221
29	0xbe1e7f76	-0.1547831
30	0xbd146377	-0.03622767
31	0xbd84caf3	-0.06484022
32	0xbdbfd8b7	-0.09367507
33	0xbcefd0e3	-0.02927441
34	0x3e1307b2	0.14358404
35	0xbe222abb	-0.15836613
36	0xbaa35463	-0.0012461062
37	0x3dc1332f	0.094335906
38	0x3d41439e	0.047183625
39	0x3e361c34	0.17784196
40	0x3c43f2c4	0.011959735
41	0xbe188454	-0.14894229
42	0xbdfbad32	-0.12288894
43	0xbc547def	-0.012969478
44	0x3c184666	0.009294128
45	0x3d0a8eef	0.03382772
46	0xbd016a86	-0.03159573
47	0xbda08388	-0.078375876
48	0xbe0fb3f7	-0.14033495
49	0x3d5a6898	0.053322405
50	0x3b30fe93	0.0027007207
51	0xbddbc187	-0.10730272
52	0xbe122c16	-0.1427463
53	0xbd65cbc9	-0.056102548
54	0xbbed2ac4	-0.007237764
55	0x3e43fcd2	0.19139412
56	0x3e3828e1	0.17984344
57	0xbcffa8da	-0.031208444
58	0x3dfbecb5	0.12301008
59	0x3e3f9ea4	0.1871286
60	0x3c848fbc	0.01618182
61	0xbe2d4b07	-0.16923152
62	0x3e1d6d39	0.15373696
63	0xbd3e3c26	-0.04644408
64	0xbe2b791a	-0.16745415
65	0xbcc7f983	-0.024410969
66	0x3daa2da8	0.083094895
67	0xbd2ffb98	-0.042964548
68	0x3c38eed6	0.011287412
69	0xbda19f20	-0.07891679
70	0xbe0fdc4a	-0.14048877
71	0xbe0fe6d1	-0.14052893
72	0x3dbd79cb	0.09251746
73	0x3e275d6b	0.1634423
74	0xb8275823	-3.9897986e-05
75	0xbdc3e6e5	-0.09565524
76	0xbd9b32f9	-0.07578082
77	0x3c67e866	0.014154529
78	0xbdc2643d	-0.09491775
79	0xbe0e70df	-0.13910244
80	0xbe0e7699	-0.13912429
81	0xbe24ea47	-0.16104995
82	0xbdc5a621	-0.09650827
83	0x3e123c64	0.1428085
84	0x3dc932ca	0.0982414
85	0xbcd6fdef	-0.026244132
86	0xbc0b783f	-0.008512556
87	0xbcc0b467	-0.023523523
88	0xbddbe04e	-0.10736142
89	0xbcda1970	-0.026623458
90	0xbc84d43f	-0.016214488
91	0xbdbdef74	-0.09274188
92	0xbd57a9cb	-0.05265216
93	0xbde0e31e	-0.10980819
94	0x3c900b5c	0.017583542
95	0xbdb0c487	-0.086312346
96	0xbdb3cc08	-0.0877915
97	0x3d4aa021	0.049469117
98	0xbb292113	-0.0025807067
99	0x3d0fcb54	0.03510602
100	0x3e0b34d3	0.1359437
101	0xbe1b4fd3	-0.1516717
102	0xbdc59e8d	-0.09649382
103	0x3e2d0fbb	0.16900532
104	0x3df90e8e	0.12160979
105	0xbe29cf2e	-0.16582939
106	0x3ddd36ad	0.10801444
107	0x3b5f54b1	0.003407758
108	0xbd6597c0	-0.056052923
109	0xbe1dfdbf	-0.15428828
110	0x3da1d37e	0.07901667
111	0xbdf0375a	-0.117293075
112	0x3dd4bbaa	0.103873566
113	0xbddc597d	-0.10759256
114	0xbe188d67	-0.1489769
115	0x3d8778ee	0.066148624
116	0xbba7f4d4	-0.0051256213
117	0x3d823604	0.06357959
118	0xbd7559f2	-0.05990023
119	0x3bf4a2df	0.007465705
120	0xbcf9279c	-0.030414395
121	0x3d993ceb	0.07482322
122	0xbd092bd2	-0.033489056
123	0xbd6f330b	-0.058398288
124	0x3dd489f5	0.10377876
125	0xbe01216b	-0.12610404
126	0x3e41d3af	0.18928407
127	0x3dac83c1	0.084235676
128	0x3e3a0da4	0.18169266
129	0xbdad334a	-0.08457048
130	0x3dd6c900	0.104875565
131	0xbb208a44	-0.0024496475
132	0x3def4ee9	0.11684973
133	0xbdab4352	-0.0836245
134	0x3d13cbb6	0.036082946
135	0xbdbc5bff	-0.09197234
136	0x3dffd881	0.12492467
137	0xbd3f9603	-0.04677392
138	0xbe03568b	-0.12825982
139	0x3e1563a9	0.14588799
140	0xbe268f12	-0.16265514
141	0x3da8b119	0.08236904
142	0x3c368205	0.0111393975
143	0xbd0e2664	-0.03470458
144	0x3e4de574	0.2010706
145	0x3e26a960	0.16275549
146	0x3df9779b	0.12181016
147	0xbe25db05	-0.1619683
148	0x3e3a1ecd	0.18175812
149	0xbb589881	-0.0033049884
150	0xbd47df1e	-0.048796766
151	0x3d7b084b	0.061287206
152	0xbb3d6622	-0.0028899987
153	0xbdba4993	-0.090960644
154	0x3c8003d1	0.01562682
155	0xbc1447ee	-0.0090503525
156	0xbe1d07fe	-0.1533508
157	0xbe409c77	-0.18809687
158	0x3de7d0cf	0.11319124
159	0x3de2df48	0.11077744
160	0xbd8da2bd	-0.069158055
161	0x3dd227ca	0.102614954
162	0x3d1f7495	0.03892954
163	0xbca64363	-0.020295804
164	0x3c6cbe30	0.014449641
165	0x3e297a43	0.16550545
166	0xbe102c2c	-0.1407935
167	0x3e294f9d	0.16534276
168	0x3e176036	0.14782795
169	0xbe365344	-0.17805201
170	0xbe39ddf8	-0.1815108
171	0xbe2be970	-0.16788268
172	0x3c9003a9	0.01757987
173	0x3cb3087e	0.021854635
174	0xbe29382e	-0.16525337
175	0xbe4b84cd	-0.19874878
176	0xbdfd1cee	-0.123590335
177	0xbd8cae9a	-0.0686924
178	0xbdf5048a	-0.119637564
179	0x3e381148	0.17975342
180	0x3dd4ec66	0.10396652
181	0x3e0f47c6	0.13992223
182	0x3ddecd07	0.108789496
183	0xbd6c14ae	-0.05763691
184	0x3e0538ea	0.13009992
185	0x3e16a97b	0.14713089
186	0xbd2e4c63	-0.042553317
187	0xbdc35c2d	-0.095390655
188	0xbd1a4870	-0.037666738
189	0xbb980e04	-0.0046403427
190	0xbe1eb434	-0.1549843
191	0xbdaf7f6e	-0.08569227
192	0x3e2b4f47	0.1672946
193	0x3db349eb	0.08754333
194	0xbdfb38ec	-0.12266716
195	0xbdc7df88	-0.09759432
196	0xbcfc724e	-0.030816223
197	0x3c9b4e2b	0.018958172
198	0x3e217dc9	0.1577064
199	0x3d49b339	0.049243186
200	0x3e24a8fd	0.16080089
201	0x3e1e57de	0.15463206
202	0x3dc33878	0.09532255
203	0x3d3c7842	0.046013124
204	0x3d0f041b	0.034916025
205	0x3ddbdd1b	0.10735532
206	0x3b90ad8c	0.0044152196
207	0xbdc6821e	-0.09692787
208	0x3e090bf2	0.13383463
209	0x3db7fc6d	0.08983693
210	0xbd86f5ca	-0.06589849
211	0xbdfe2d67	-0.124110036
212	0x3d20295b	0.03910194
213	0x3dcccf94	0.1000053
214	0x3e2d83d4	0.1694482
215	0xbd234bbd	-0.03986715
216	0xbe33070b	-0.17483155
217	0x3dbf3c92	0.09337725
218	0x3d0d77fe	0.03453826
219	0xbe1f3f32	-0.15551451
220	0xbe1d9f21	-0.15392734
221	0x3e1e6dcd	0.15471573
222	0x3e0d9fde	0.13830516
223	0xbdbe7872	-0.09300317
224	0xbdbd8e02	-0.092556015
225	0x3e231ce3	0.15928988
226	0xbc0307db	-0.007997478
227	0x3e371fc4	0.17883211
228	0xbcc59eb8	-0.024123535
229	0xbd48a4c0	-0.048985243
230	0xbe24def0	-0.16100669
231	0x3e080e9e	0.13286826
232	0x3db2e868	0.08735734
233	0xbd8db992	-0.0692016
234	0xbbdc8eaa	-0.006730874
235	0xbd6341e9	-0.05548278
236	0x3e2a864b	0.16652791
237	0xbc34edb9	-0.011043006
238	0x3e2e6c5b	0.17033522
239	0xbd282324	-0.041049138
240	0x3d188c46	0.03724315
241	0x3d93c2dc	0.07214901
242	0xbadafe80	-0.0016707927
243	0xbdd24e03	-0.10268786
244	0xbd6ab752	-0.057303734
245	0x3ba964cb	0.005169486
246	0xbda67e2c	-0.08129534
247	0x3c46e9bc	0.012140688
248	0x3e2bdc63	0.1678329
249	0xbe0d9a22	-0.13828328
250	0xbca42698	-0.020037934
251	0xbd0550d2	-0.03254778
252	0x3da2c30a	0.07947357
253	0xbe2df8f8	-0.16989505
254	0x3d909419	0.070594974
255	0xbcf15946	-0.029461514

bias f4 [16]
0	0x3dafac4b	0.08577784
1	0x3e002ffd	0.12518306
2	0x3e1b174a	0.15145603
3	0x3d9a6550	0.07538855
4	0xbdcbd011	-0.09951795
5	0x3d18af09	0.0372763
6	0x3e4bc282	0.19898418
7	0x3e1325fd	0.1436996
8	0x3d536b20	0.051615834
9	0x3dc82076	0.097718164
10	0x3e1456cc	0.14486235
11	0x3e211552	0.1573079
12	0x3da45681	0.08024312
13	0xbd0b5ea9	-0.03402582
14	0xbc727fe3	-0.014800998
15	0xbdd00b7c	-0.101584405

weight f4 [16, 16, 3, 3]
0	0xbba007ea	-0.004883756
1	0xbbe84e7c	-0.007089434
2	0xbd8f5cc2	-0.07000114
3	0xbbf80059	-0.007568401
4	0x3df56d7c	0.11983773
5	0xbdd403a4	-0.10352257
6	0x3de13fc9	0.10998494
7	0xbd6078bf	-0.054802652
8	0x3d712315	0.058871347
9	0xbc8edffb	-0.017440787
10	0x3d9f6410	0.07782757
11	0xbd13c59d	-0.03607713
12	0x3bd67e6b	0.006545832
13	0xbc87ee60	-0.016593158
14	0xbd54de16	-0.05196961
15	0x3c0d70c8	0.008632846
16	0x3d4628fb	0.048378926
17	0x3d45d542	0.04829908
18	0x3ceccd09	0.028906362
19	0x3d2f3aa1	0.042780522
20	0xbcca6fe4	-0.024711557
21	0xbdb6e37a	-0.089301065
22	0xbcc8568b	-0.02445533
23	0xbdf67cd9	-0.120355316
24	0xbd95cbd8	-0.07314271
25	0xbd43987e	-0.04775285
26	0x3d5861c5	0.052827615
27	0xbd738b82	-0.059459217
28	0x3c9b5893	0.018963134
29	0xbb2a82a9	-0.002601782
30	0xbd1c8933	-0.03821678
31	0x3da2dd26	0.07952337
32	0x3da37ff4	0.079833895
33	0xbb5c56f1	-0.0033621157
34	0x3d915e84	0.070981055
35	0x3d0dbf87	0.034606483
36	0x3d37230d	0.04471116
37	0xbd766bae	-0.060161285
38	0x3cbe331d	0.023217732
39	0xbce8ed5c	-0.028433494
40	0x3e06ff33	0.13183288
41	0xbd1d1372	-0.038348623
42	0x3cf7cd40	0.030249238
43	0xbd826959	-0.0636775
44	0xbd147dbf	-0.036252733
45	0x3d9a7829	0.0754245
46	0xbd71f4b8	-0.059071273
47	0x3dd230d0	0.102632165
48	0xbcede65c	-0.029040508
49	0x3cec77c1	0.028865697
50	0xbd752e16	-0.059858404
51	0xbc99ddd7	-0.01878254
52	0xbdc47149	-0.0959192
53	0x3d8a9112	0.06765951
54	0x3c733d24	0.01484612
55	0xbd40720e	-0.04698377
56	0x3cdeb63f	0.027186511
57	0xbdc1fed8	-0.09472436
58	0xbd2f42e4	-0.0427884
59	0xbd3b0947	-0.045663144
60	0x3a36e2f6	0.0006976569
61	0x3c859dfc	0.016310684
62	0xbd6ed6eb	-0.05831043
63	0xbd788be7	-0.060680296
64	0xbd4c9c94	-0.049954012
65	0xbd8a10a2	-0.06741454
66	0x3c1b169e	0.009465842
67	0xbcaa85e5	-0.020815799
68	0xbcd13095	-0.025535861
69	0x3da1a9a1	0.07893682
70	0x3cd8fae6	0.026486825
71	0xbd83652f	-0.064157836
72	0xbd44cbd1	-0.048045937
73	0x3cd112b9	0.025521623
74	0xbcc71e04	-0.024306305
75	0x3d845b3f	0.06462716
76	0xbb1e35e1	-0.0024141
77	0x3d1d64db	0.03842626
78	0xbcf4ee90	-0.029898912
79	0x3bf243e7	0.0073933485
80	0xbd03c7c6	-0.03217294
81	0x3cb2d0f0	0.021828145
82	0xbc0ee22f	-0.008720919
83	0x3dba6ba3	0.09102561
84	0x3ddb7e6c	0.107174724
85	0xbcd1c01c	-0.0256043
86	0x3e01c8a6	0.12674198
87	0x3c321c39	0.010870987
88	0xbc709cf7	-0.014685861
89	0x3d5b0b49	0.05347756
90	0xbd84e30f	-0.064886205
91	0xbb0ae54d	-0.0021193803
92	0x3c80cde3	0.015723174
93	0x3d61e5bd	0.055150736
94	0xbcd75277	-0.02628444
95	0x3cd6b81d	0.026210839
96	0x3a6908c3	0.000888955
97	0x3b5158d8	0.0031943824
98	0x3d956f03	0.072965644
99	0xbcd1c99e	-0.025608834
100	0x3d49fac5	0.049311418
101	0xbdb4b4db	-0.08823558
102	0xbcb29042	-0.021797303
103	0x3c56de80	0.013114572
104	0xbd322fa9	-0.043502484
105	0xbda15c52	-0.07878937
106	0x3dcfeedc	0.10152981
107	0x3d921f6c	0.071348995
108	0x3cf92698	0.03041391
109	0xbd151ddd	-0.036405433
110	0xbd065c70	-0.032803
111	0x3bc487d0	0.0059976354
112	0xbd50d1b4	-0.05098124
113	0xbd73e95a	-0.059548713
114	0x3d1cbf1d	0.038268197
115	0xbda271ac	-0.079318374
116	0xbd64d48b	-0.05586676
117	0xbca016d4	-0.019542135
118	0x3d791efa	0.060820557
119	0x3d5ee1eb	0.05441467
120	0x3c8049dc	0.015660219
121	0x3d7e60b6	0.06210395
122	0x3dc66787	0.09687715
123	0x3d11b30d	0.035571147
124	0xbd568fcf	-0.05238324
125	0xbd0793c5	-0.03309991
126	0xbc5a9eaf	-0.013343497
127	0xbd751c0f	-0.059841212
128	0x3d801fbe	0.06256054
129	0x3d03b738	0.032157153
130	0xbdea8958	-0.114519775
131	0xbc7e23ad	-0.015511435
132	0xbda3c8f8	-0.07997316
133	0xbd475603	-0.04866601
134	0x3d8ef401	0.06980134
135	0x3d163f05	0.036681194
136	0xbcc3810f	-0.02386525
137	0x3c928d2d	0.017889583
138	0xbc14ecb4	-0.009089638
139	0xbd9af444	-0.07566121
140	0xbda3b5fa	-0.07993694
141	0xbc47a9f2	-0.012186514
142	0x3cd959af	0.026532022
143	0xbd74d911	-0.059777323
144	0xbdbe9843	-0.09306385
145	0xbd8cceac	-0.06875357
146	0xbd2b5643	-0.041830312
147	0xbd55dc96	-0.05221232
148	0x3d6ac11f	0.05731308
149	0xbd3f28a5	-0.04666962
150	0x3df72076	0.12066738
151	0x3c4aa7fd	0.012369153
152	0xbc9943bc	-0.018709056
153	0x3d4ae0f7	0.04953095
154	0xbd673023	-0.05644239
155	0xbd4871f4	-0.0489368
156	0x3d4fa638	0.050695628
157	0xbda56de7	-0.08077603
158	0xbc2c6587	-0.010522253
159	0xbbc8c0eb	-0.0061265132
160	0x3b8fb071	0.004385047
161	0xbb540ac4	-0.003235505
162	0xbc32dd25	-0.010916983
163	0x3c32f2e2	0.010922166
164	0xbd3019aa	-0.042993225
165	0xbdbdfbc3	-0.09276535
166	0xbd104f0f	-0.035231646
167	0x3cdd2a44	0.026997693
168	0x3d3d0d36	0.046155177
169	0xbd882c36	-0.066490576
170	0xbd9449ae	-0.07240616
171	0xbd1ad98e	-0.037805133
172	0x3d318fe9	0.043350134
173	0x3cd51d9b	0.026015094
174	0x3d448241	0.047975782
175	0x3ca72b72	0.020406459
176	0x3d6398ad	0.055565525
177	0x3c4a7333	0.012356567
178	0xbda8ab54	-0.08235803
179	0xbd0af403	-0.033924114
180	0xbd94be5e	-0.07262872
181	0xbe0567a7	-0.13027821
182	0xb9f6f499	-0.00047103016
183	0x3c32913b	0.010898883
184	0x3da0aa1f	0.07844948
185	0xbd86eae7	-0.06587773
186	0x3d49567b	0.04915474
187	0x3d3ead56	0.046552025
188	0x3c3ba622	0.011453183
189	0x3c399995	0.011328121
190	0xbb102ca5	-0.0021999266
191	0x3d3e2863	0.046425235
192	0xbce1847c	-0.027528994
193	0x3d062123	0.032746445
194	0xbd6b6f46	-0.057479165
195	0xbd72531e	-0.059161298
196	0x3d72d028	0.059280545
197	0x3da42942	0.08015682
198	0xbd830bcc	-0.063987345
199	0xbda97b45	-0.08275465
200	0x3c4adb47	0.012381381
201	0x3d2fbdc8	0.0429056
202	0x3da139e1	0.07872368
203	0xbc211c93	-0.009833473
204	0x3cb72cdf	0.022360263
205	0xbd28c233	-0.041200828
206	0x3d89defb	0.06731983
207	0xbd8e6659	-0.06953115
208	0x3d8c9ad8	0.068654716
209	0x3bc3444a	0.0059590684
210	0xba19e1d6	-0.0005870139
211	0xbd093fcf	-0.03350812
212	0x3cbff3db	0.023431709
213	0x3cd9e355	0.026597658
214	0xbcfb362b	-0.030665478
215	0xbd3371c9	-0.043809686
216	0xbd5ae86a	-0.053444304
217	0xbcff773a	-0.031184781
218	0xbccf486f	-0.025303094
219	0x3db54c1a	0.08852406
220	0x3d22f265	0.039781947
221	0xbc3c7fac	-0.011505049
222	0xbca5e0c4	-0.020248778
223	0xbb4763cd	-0.0030424476
224	0xbd64d6ce	-0.055868916
225	0xbce3856b	-0.02777358
226	0xbcf848a5	-0.030308077
227	0xbd4c7815	-0.049919207
228	0x3bd5b38e	0.0065216487
229	0x3ce26807	0.027637495
230	0x3df311d8	0.11868638
231	0x3d98053d	0.07422874
232	0xbbafaa32	-0.005360865
233	0xbbe9f1dd	-0.007139428
234	0xbd01c582	-0.0316825
235	0x3d90c95b	0.070696555
236	0xbd97db4a	-0.07414873
237	0x3d3fe949	0.046853337
238	0x3d68ad25	0.05680575
239	0xbd8296d3	-0.06376424
240	0x3cb90ad7	0.022588177
241	0xbd316346	-0.043307565
242	0xbc9509fb	-0.018193236
243	0xbcf5f23d	-0.030022735
244	0x3d927369	0.07150919
245	0x3d522981	0.051309112
246	0x3d0aaa58	0.03385386
247	0xbd400e86	-0.04688885
248	0x3db2873e	0.08717202
249	0xbc80d3fe	-0.015726086
250	0x3c3ea5d2	0.011636214
251	0x3c59e4b3	0.013299155
252	0xbd1c9a38	-0.038233012
253	0xbda225b4	-0.079173476
254	0xbd116f18	-0.035506338
255	0xbda17b0e	-0.07884799

bias f4 [16]
0	0xbc559c79	-0.013037794
1	0xbcef62e2	-0.029221956
2	0x3d85977d	0.06523035
3	0x3e07a077	0.13244806
4	0x3d511c63	0.051052462
5	0x3d2546d0	0.040350735
6	0xbbdd509d	-0.0067539946
7	0x3d1f08af	0.03882664
8	0x3d465e83	0.048429977
9	0x3c9bcf0c	0.019019626
10	0x3d00c3c0	0.03143668
11	0xbcaac4a4	-0.020845719
12	0x3c833efc	0.016021244
13	0x3c531836	0.01288419
14	0xbd23e50e	-0.040013365
15	0x3d3d267d	0.046179283

weight f4 [16, 16, 3, 3]
0	0x3e14a866	0.14517364
1	0xbc25d7a2	-0.010122212
2	0xbd1ef5e3	-0.038808715
3	0xbde20b35	-0.11037294
4	0x3d97a102	0.07403757
5	0xbafdc3cb	-0.0019360719
6	0x3d82626c	0.06366429
7	0x3af678bd	0.0018804293
8	0xbd644fc4	-0.055740133
9	0x3d00480f	0.03131872
10	0xbd9c5d33	-0.07634964
11	0xbd2d5edc	-0.042326793
12	0xbd71f6e1	-0.059073333
13	0x3da0aab0	0.07845056
14	0xbd9d1e96	-0.076718494
15	0xbcc725af	-0.024309961
16	0xbdcc48e0	-0.09974837
17	0xbd73d0b1	-0.059525196
18	0xbde45ec5	-0.11150888
19	0x3c4c64c9	0.012475201
20	0x3d314b13	0.043284487
21	0xbc560129	-0.0130618
22	0x3cde645a	0.02714746
23	0x3b0096d9	0.0019621162
24	0xbd486155	-0.048920948
25	0xbc844f4b	-0.016151091
26	0x3da8838c	0.082282156
27	0x3c43688f	0.011926784
28	0xbcd94c7f	-0.026525734
29	0xbc9b693b	-0.018971076
30	0x3deba8b3	0.11506786
31	0x3c990fe7	0.01868434
32	0x3cfc9d1e	0.030836638
33	0x3d6ebde4	0.058286563
34	0x3e1bcb67	0.1521431
35	0xbcf37614	-0.02971939
36	0xbd82bc72	-0.06383599
37	0x3cb67881	0.022274258
38	0xbd4e9d7e	-0.050443165
39	0x3c291975	0.010321011
40	0xbcfc640b	-0.030809423
41	0x3d3bcac0	0.045847654
42	0x3c09fb60	0.008421749
43	0xbc8111e3	-0.0157556
44	0xbd64e3ae	-0.055881195
45	0xbc793324	-0.015209947
46	0xbdaaba4d	-0.08336315
47	0xbc70f939	-0.014707857
48	0xbddf7323	-0.109106325
49	0x3cb42a64	0.02199287
50	0xbd655b3f	-0.055995222
51	0xbd2667ed	-0.040626455
52	0xbd169180	-0.036759853
53	0xbd644a13	-0.055734705
54	0xbd0c7aa4	-0.034296647
55	0xbd390b77	-0.04517695
56	0xbdbfb5c9	-0.09360845
57	0x3d893489	0.066994734
58	0x3d9bca70	0.07606971
59	0x3d42f394	0.047595575
60	0xbae1d43c	-0.0017229388
61	0x3d90e825	0.07075528
62	0x3bdaa7ed	0.0066728503
63	0xbd70302a	-0.058639683
64	0x3d00b1b8	0.031419486
65	0xbcf54f60	-0.029945076
66	0x3d3c4b47	0.045970228
67	0x3cbffb1b	0.023435166
68	0x3c919243	0.017769938
69	0x3d9d0690	0.07667267
70	0xbdb1a0ed	-0.08673272
71	0x3c87dca4	0.016584702
72	0x3d96411e	0.07336639
73	0x3ca52cc6	0.020162951
74	0xbd79f1a4	-0.061021462
75	0x3d124090	0.035706103
76	0x3d4c335a	0.04985366
77	0xbd9c8f94	-0.07644573
78	0x3c861f9f	0.0163725
79	0xbd6ce2ac	-0.05783336
80	0xbd9d2c20	-0.07674432
81	0xbb2e80b6	-0.002662701
82	0x3d1deb16	0.038554274
83	0xbd1d91af	-0.038469013
84	0xbdb0a43c	-0.08625075
85	0xbde411d7	-0.11136215
86	0x3d2e77f3	0.04259486
87	0xbc2c674f	-0.010522678
88	0x3d5ea017	0.054351892
89	0x3db19261	0.08670498
90	0x3cd08228	0.025452688
91	0xbd3a2573	-0.04544587
92	0x3cdba31d	0.026811177
93	0xbd7b7674	-0.061392263
94	0xbdb0327d	-0.0860338
95	0x3d977099	0.07394523
96	0xbd5a974e	-0.05336695
97	0x3d20b122	0.039231427
98	0xbd4f5bf2	-0.050624795
99	0x3c9526b5	0.018206934
100	0x3cf3b424	0.029748984
101	0xbc9570a2	-0.018242184
102	0x3d8dd428	0.06925231
103	0x3da783c3	0.081794284
104	0xbdabdd90	-0.08391869
105	0x3d9966b2	0.07490291
106	0xbd779e14	-0.06045349
107	0xbce23fc5	-0.027618298
108	0x398ccfc5	0.0002685768
109	0x3d3dcfa4	0.0463406
110	0xbdb8048a	-0.08985241
111	0xbcfd3fd8	-0.030914232
112	0xbb939694	-0.0045040343
113	0xbd95c288	-0.073124945
114	0xbd84f24f	-0.06491529
115	0xbca9eaf5	-0.020741919
116	0xbd2f69aa	-0.04282538
117	0xbd9e1d92	-0.07720484
118	0x3d5497eb	0.051902693
119	0xbc76e364	-0.015068863
120	0xba4d513f	-0.0007832236
121	0xbd7b8c87	-0.061413314
122	0x3d7137a5	0.058890957
123	0x3d00ffac	0.031493828
124	0xbd6de54b	-0.05808
125	0x3ade1563	0.001694363
126	0x3c95f417	0.018304868
127	0x3d04f633	0.032461356
128	0xbcc2aaa1	-0.023763003
129	0xbc99b82b	-0.018764576
130	0xbb95d781	-0.004572809
131	0xbc621d73	-0.013800967
132	0xbd374ccf	-0.044750985
133	0xbc34eb31	-0.011042402
134	0x3cb105cb	0.021609208
135	0xbd352934	-0.044228747
136	0xbd2e7f15	-0.042601664
137	0xbd286c88	-0.04111913
138	0x3ccd4555	0.025057474
139	0x3dab2627	0.08356886
140	0xbd92a777	-0.07160848
141	0x3d889b01	0.0667019
142	0x3d6e556a	0.058186926
143	0xbd588197	-0.05285796
144	0x3dad666e	0.084668025
145	0x3d810f06	0.063016936
146	0x3db162b6	0.08661406
147	0xbd408b44	-0.047007814
148	0xbd57962f	-0.05263346
149	0xbc9611e9	-0.018319087
150	0x3d2fe46b	0.042942446
151	0x3d6256f8	0.05525872
152	0x3d54d304	0.051959053
153	0x3cae06a8	0.021243408
154	0xbd0f3563	-0.034963023
155	0x3ce16fb8	0.027519092
156	0x3db46674	0.08808604
157	0xbc0ebc75	-0.008711924
158	0xbd7ac5d3	-0.061223816
159	0xba607a2e	-0.0008563128
160	0xbd6e1a41	-0.058130506
161	0x3d9eedd3	0.07760205
162	0x3c00d1ad	0.007862491
163	0xbdfdcac3	-0.12392189
164	0x3c59e694	0.013299603
165	0x3d194bdc	0.03742586
166	0xbe0d9712	-0.1382716
167	0xbd07440d	-0.033023883
168	0x3bd1bb67	0.006400514
169	0xbe08632c	-0.13319081
170	0x3cd8fc99	0.026487635
171	0xbbd83c4e	-0.0065989858
172	0xbe00d838	-0.12582481
173	0xbd8f07fd	-0.069839455
174	0x3ca7f097	0.020500464
175	0xbcb4c4ac	-0.022066437
176	0x3da4a85d	0.08039925
177	0xbda91c18	-0.082573116
178	0xbd47eedf	-0.04881179
179	0xbd12bec5	-0.035826463
180	0xbcc192bc	-0.023629539
181	0x3d210af0	0.03931707
182	0xbd697a66	-0.057001494
183	0xbda61b14	-0.081106335
184	0x3ceb808d	0.028747821
185	0x3d0d1b74	0.03445001
186	0xbd80e513	-0.062936924
187	0x3d745c8d	0.059658576
188	0x3d9cda72	0.07658853
189	0x3c1c438c	0.009537589
190	0x3ca3ae1c	0.019980483
191	0x3d88c8e9	0.066789456
192	0x3d0cd29b	0.034380537
193	0xbdbb20f8	-0.09137148
194	0x3c694800	0.014238358
195	0xbd8d8299	-0.06909675
196	0x3c7b5f5e	0.0153425615
197	0xbd541651	-0.051779095
198	0x3c0797d4	0.008275945
199	0x3dbf9994	0.093554646
200	0x3d9d7421	0.076881655
201	0x3ce06b65	0.02739496
202	0x3d2e1c9f	0.042507764
203	0x3c1f78ac	0.00973336
204	0x3c2b91d1	0.010471777
205	0xbd1af70f	-0.03783327
206	0x3cbfe833	0.02342615
207	0x3dcd31c2	0.10019256
208	0x3c826b75	0.01592038
209	0x3c0af92c	0.008482259
210	0x3b9d499a	0.0048000338
211	0x3d055ab3	0.0325572
212	0xbd29c1e5	-0.041444678
213	0x3d3d235b	0.046176296
214	0x3d47258e	0.0486198
215	0xbcbe4eb1	-0.023230882
216	0x3cf14eea	0.029456574
217	0xbd729563	-0.059224498
218	0x3d8d49ac	0.068988174
219	0x3c6dbb84	0.014510039
220	0x3d81de6e	0.06341253
221	0x3d9642a2	0.07336928
222	0xbc3dbd08	-0.011580713
223	0xbb6fa129	-0.0036564565
224	0x3d651e15	0.05593689
225	0x3d5bad2e	0.053631954
226	0x3d623c84	0.055233493
227	0x3dae9d9a	0.08526154
228	0xbcd37bf0	-0.025815934
229	0x3bf6e982	0.0075351605
230	0xbd59f422	-0.05321134
231	0x3c184851	0.009294585
232	0xbc89bd59	-0.01681392
233	0xbcc53bb5	-0.024076322
234	0xbc401c9d	-0.011725572
235	0xbd0513d0	-0.032489598
236	0xbd82e7f8	-0.06391901
237	0x3d3aaf7d	0.045577515
238	0xbd8c0d85	-0.06838516
239	0x3b9a7e3a	0.0047147544
240	0xbd4205b7	-0.04736873
241	0x3b7cb9ed	0.003856297
242	0x3c109de4	0.008826707
243	0xbd9748f9	-0.07386965
244	0x3d11aa6a	0.03556291
245	0xbd4c421b	-0.04986773
246	0xbad7b7d2	-0.0016457981
247	0x3d75d395	0.060016233
248	0x3c911736	0.017711263
249	0x3da81dc5	0.08208803
250	0x3d8a26bb	0.067456685
251	0x3d395ae4	0.045252696
252	0x3d90abd4	0.070640236
253	0xbdab23d0	-0.0835644
254	0x3d805175	0.06265537
255	0xbd985b7c	-0.07439324

bias f4 [16]
0	0x3d58678d	0.05283313
1	0x3d4f5cf6	0.050625764
2	0x3ccecb9d	0.025243575
3	0x3d99d24c	0.07510814
4	0xbcb961e7	-0.022629691
5	0xbc1ac79f	-0.009447007
6	0x3c5c0171	0.013428078
7	0xbdb62897	-0.08894461
8	0x3cb24038	0.021759138
9	0xbd82d93f	-0.06389093
10	0x3dc031ed	0.093845226
11	0x3d16780e	0.036735587
12	0x3cdbf190	0.026848584
13	0x3d9a40c0	0.07531881
14	0x3d86c1b2	0.06579913
15	0x3d52ec59	0.05149493

weight f4 [16, 16, 3, 3]
0	0xbc7e6fa7	-0.01552955
1	0xbd0e4e03	-0.034742367
2	0xbd60026c	-0.05468981
3	0x3dbabf04	0.091184646
4	0xbd3a007b	-0.045410614
5	0xbd8332e9	-0.06406195
6	0x3d88be49	0.06676919
7	0x3c94ac93	0.018148696
8	0xbd1b5829	-0.037925873
9	0x3d2861c1	0.04110885
10	0xbd494df2	-0.0491466
11	0x3c62ab53	0.013834792
12	0x3d914480	0.070931435
13	0x3d666405	0.05624773
14	0x3d0b2151	0.03396732
15	0xbd9e49f8	-0.07728952
16	0x3b9f1c79	0.004855689
17	0x3a186ff0	0.000581502
18	0x3c353977	0.011061064
19	0xbd3d8a67	-0.04627457
20	0x3d2d094b	0.04224519
21	0x3c982d29	0.018576222
22	0xbc881d82	-0.016615633
23	0xbd3b067f	-0.045660492
24	0xbafc565d	-0.0019251812
25	0x3d06c0c0	0.032898664
26	0xbd34df70	-0.0441584
27	0x3d21c8c1	0.039498094
28	0x3d3ca36b	0.046054285
29	0xbd125657	-0.03572687
30	0x3cd2a513	0.02571348
31	0xbb55822a	-0.0032578805
32	0x3d8d53bc	0.06900737
33	0xbcb5bdf5	-0.022185305
34	0x3d7646d2	0.060126133
35	0x3cf955d2	0.03043643
36	0xbbfab994	-0.007651517
37	0xbd90775c	-0.07054016
38	0x3be5a3c7	0.007008049
39	0xbd1f591b	-0.038903337
40	0xbd9acbac	-0.075583786
41	0xbd8f7dbe	-0.07006405
42	0x3d591c29	0.05300537
43	0xbba35e11	-0.004985579
44	0xbd4ba261	-0.049715403
45	0xbc9d41d4	-0.019196428
46	0xbd280fc6	-0.041030668
47	0x3d18d1c0	0.03730941
48	0xbd2e2242	-0.04251314
49	0xbc3e8f64	-0.011630867
50	0xbc81f14d	-0.015862131
51	0xbba5d026	-0.0050602136
52	0xbbfe28ce	-0.007756329
53	0x3d802e9f	0.06258892
54	0xbd299a03	-0.041406643
55	0x3d86b733	0.06577911
56	0x3d1ab99f	0.03777468
57	0x3cb21a85	0.021741161
58	0xbd28a905	-0.041176815
59	0x3d9a8a10	0.075458646
60	0x3d55b232	0.052171893
61	0x3d324b3f	0.04352879
62	0xbcea5966	-0.028607082
63	0xbd812700	-0.06306267
64	0x3d239f74	0.03994699
65	0xbc46928f	-0.012119903
66	0x3d87d03e	0.06631516
67	0x3b556058	0.0032558646
68	0xbd27ab8f	-0.040935095
69	0x3cd075f0	0.025446862
70	0x3d85fbfb	0.06542202
71	0xbc7af6dd	-0.015317646
72	0x3d56b93d	0.05242275
73	0x3d87933c	0.066198796
74	0x3d94ddf9	0.072689004
75	0xbd20d878	-0.03926894
76	0x3d36828f	0.044558104
77	0x3b383076	0.0028105057
78	0x3cdf071a	0.027225066
79	0xbd9ccc3d	-0.07656143
80	0xbcdc4d06	-0.026892196
81	0x3d9e19a5	0.07719735
82	0x3cddbbc9	0.027067082
83	0x3d47787b	0.048698884
84	0x3cb64643	0.0222503
85	0xbd6f0b93	-0.058360647
86	0xbd1e8cad	-0.038708378
87	0x3d573f7b	0.052550774
88	0x3d665fda	0.056243755
89	0xbd79a176	-0.060944997
90	0xbd4d8dd0	-0.05018407
91	0xbc575657	-0.013143144
92	0x3af85944	0.0018947502
93	0xbc7faba6	-0.015604889
94	0xbd9eb754	-0.07749811
95	0xbd8c43cf	-0.06848871
96	0xbda2cd3f	-0.07949304
97	0xbccd6e59	-0.025077032
98	0xbd93f8be	-0.07225178
99	0x3d138466	0.036014937
100	0x3d949cb4	0.07256451
101	0xbd22a6c1	-0.03970981
102	0x3d3e1e92	0.046415873
103	0xbc0703c5	-0.008240645
104	0x3cd89ef4	0.026442982
105	0x3d311575	0.043233354
106	0xbd80a1cd	-0.06280861
107	0xbd362edc	-0.044478282
108	0x3dad7850	0.084702134
109	0x3d8f5187	0.06997972
110	0x3d98e62f	0.07465779
111	0x3d886f9d	0.066619135
112	0x3d8ca08d	0.0686656
113	0xbcf43bf2	-0.02981374
114	0xbbb29565	-0.005449938
115	0x3d22cefe	0.039748184
116	0x3d69ffbe	0.05712866
117	0x3d3bc352	0.04584057
118	0x3d76ccd8	0.060253948
119	0x3d876172	0.06610383
120	0xbd880fc0	-0.06643629
121	0xbd06cca2	-0.032909997
122	0x3d8d7b35	0.069082655
123	0x3c9f6199	0.019455718
124	0x3d044b1a	0.032298185
125	0xbda02f7d	-0.07821558
126	0x3d707538	0.05870554
127	0x3d47f932	0.048821636
128	0x3d8b7112	0.06808676
129	0x3cad673d	0.021167392
130	0x3d1db9a8	0.038507134
131	0xbd020fd7	-0.031753387
132	0xbda7e7a4	-0.08198479
133	0xbd880a74	-0.06642619
134	0xbaedce87	-0.0018143215
135	0xbd9491ef	-0.07254397
136	0xbc729a69	-0.014807322
137	0x3d3a2b19	0.045451257
138	0xbb911940	-0.004428059
139	0x3d84ea03	0.06489947
140	0xbc8e1355	-0.017343203
141	0x3d48cbc1	0.04902244
142	0xbd17e6a1	-0.03708518
143	0xbd04fce2	-0.03246773
144	0xbc1a700a	-0.009426126
145	0xbcdb11e8	-0.026741937
146	0xbc726990	-0.014795676
147	0xbd83de3d	-0.06438873
148	0x3d7b6aad	0.06138103
149	0xbd957c2f	-0.07299077
150	0xbcd0ca5a	-0.025487114
151	0xbd61ee14	-0.05515869
152	0xbd7eaaa1	-0.062174443
153	0xbd2452ba	-0.040117957
154	0x3d258b6c	0.040416166
155	0x3c06bc84	0.008223657
156	0x3d95d0ae	0.07315193
157	0x3b5a61dd	0.0033322491
158	0x3d354106	0.044251464
159	0xbda64acf	-0.08119737
160	0xbd667d22	-0.05627168
161	0xbc5bf91c	-0.0134260915
162	0xbc8d6aff	-0.017262934
163	0xbd63ee62	-0.05564726
164	0x3cf4c6af	0.029879896
165	0x3ca518a3	0.02015335
166	0xbc038cc4	-0.008029167
167	0xbccf4757	-0.025302572
168	0x3bbd32d8	0.0057738833
169	0xbd8c4fc2	-0.0685115
170	0x3ce603ec	0.028078042
171	0xbc54ba1a	-0.012983823
172	0xbd20a9b2	-0.039224334
173	0x3d763abc	0.060114607
174	0xbd86756a	-0.06565364
175	0xbda99de3	-0.082820676
176	0xbcd9c7a2	-0.02658445
177	0x3c895ff5	0.016769389
178	0xbd0b2c6e	-0.03397792
179	0x3d9581d6	0.07300155
180	0xbce73554	-0.028223671
181	0xbc6b4177	-0.01435887
182	0xbda21b70	-0.079153895
183	0xbd2a58b8	-0.041588515
184	0xbd0f9e06	-0.035062812
185	0x3ce84749	0.028354304
186	0xbd3e6397	-0.046481695
187	0x3cc30cbc	0.023809783
188	0x3d9de79c	0.077101916
189	0xbca4edec	-0.020132981
190	0xbd780ce6	-0.060559176
191	0x3cfc6b99	0.030813025
192	0xbcec4606	-0.028841984
193	0x3d6ee8ba	0.058327414
194	0x3d1082e5	0.03528108
195	0x3d546af6	0.05185982
196	0x3ba125c5	0.0049178326
197	0x3d5eb58f	0.054372367
198	0xbd1b0b5d	-0.037852634
199	0xbd1f8dac	-0.03895347
200	0x3cdab682	0.026698355
201	0xbd1f745b	-0.038929325
202	0x3d0e9906	0.034813903
203	0xbd86b94d	-0.06578312
204	0xb9f16222	-0.00046040217
205	0xbc98e8ef	-0.018665759
206	0x3c7f2e07	0.015574939
207	0x3d6cc30c	0.0578032
208	0x3ce1871f	0.027530251
209	0x3d650f60	0.055922866
210	0x3b069dd0	0.002054084
211	0x3d78b6b5	0.060721118
212	0xbd11289a	-0.03543911
213	0x3c201e9d	0.009772924
214	0x3cc8a89b	0.02449446
215	0xbd8caba4	-0.06868675
216	0xbc8b31ef	-0.016991584
217	0xbc880c6f	-0.016607491
218	0x3c968c20	0.018377364
219	0xbc91ad0b	-0.017782709
220	0x3d898f44	0.06716779
221	0xbd38f2b4	-0.045153335
222	0x3c622b46	0.0138042625
223	0x3d1ba501	0.037999157
224	0xbda2f669	-0.07957155
225	0xbd8a96bd	-0.06767032
226	0x3dbdd9aa	0.09270032
227	0x3c8a17f2	0.016857121
228	0xbd887039	-0.0666203
229	0xbd50f21c	-0.051012143
230	0x3d84ec09	0.06490333
231	0x3d3b1368	0.045672804
232	0xbb8a0b56	-0.004212777
233	0xbd2a1a01	-0.041528706
234	0x3d5a1301	0.05324078
235	0x3d079e74	0.033110097
236	0xbd9b400b	-0.075805746
237	0xbd0c3016	-0.034225546
238	0xbc6a4d31	-0.01430063
239	0xbd4d122c	-0.05006616
240	0xbcac00f3	-0.020996546
241	0xbbc808a0	-0.006104544
242	0xbdb0a4e3	-0.086252
243	0xbce77b49	-0.02825703
244	0x3d964376	0.07337086
245	0xbc8423fc	-0.01613044
246	0xbda03a28	-0.078235924
247	0x3d24f7b3	0.040275287
248	0x3c60ca63	0.013720128
249	0x3d9eaf15	0.07748238
250	0x3d808814	0.06275955
251	0x3bd15198	0.0063879006
252	0xbda00fc4	-0.07815507
253	0xbd4db206	-0.050218605
254	0x3d8dfd66	0.069330975
255	0xbb4a960c	-0.0030912189

bias f4 [16]
0	0xbd9f2253	-0.07770219
1	0xbd8bb71c	-0.06822035
2	0xbce40fff	-0.027839659
3	0xbda4a267	-0.08038788
4	0xbd9aef8b	-0.075652204
5	0x3d229461	0.039692286
6	0x3bec1b2b	0.007205387
7	0x3d22ff58	0.039794296
8	0x3d348e2d	0.044080902
9	0xbca2d803	-0.019878393
10	0x3d20598b	0.039147895
11	0xbc911513	-0.017710244
12	0x3c9b0130	0.018921465
13	0x3c69f136	0.014278701
14	0x3c91c95d	0.017796213
15	0x3d7c6673	0.06162114

weight f4 [16, 16, 3, 3]
0	0xbd6c1b95	-0.05764349
1	0xbcf1e8a4	-0.029529877
2	0x3c40061b	0.011720206
3	0x3cba5dea	0.02274986
4	0x3cda83f0	0.02667424
5	0xbd8994bd	-0.06717823
6	0xbda644fb	-0.08118626
7	0x3d3e2848	0.046425134
8	0x3be9b883	0.007132591
9	0xbd00a2e5	-0.03140535
10	0x3cb82074	0.022476412
11	0xbd381914	-0.04494579
12	0x3d0ab780	0.033866405
13	0x3cd85eed	0.026412452
14	0xbd74c2f7	-0.059756245
15	0xbd9cf019	-0.076629825
16	0xbbe8c530	-0.0071035847
17	0xbd061e48	-0.032743722
18	0x3d4e2f3f	0.050338026
19	0x3c2578f7	0.010099641
20	0xbdf59686	-0.11991601
21	0xbe10afc8	-0.14129555
22	0x3d6422d8	0.055697292
23	0xbd44beec	-0.04803364
24	0xbd6a54d3	-0.0572098
25	0x3b41b709	0.002955856
26	0x3bea2bae	0.0071463203
27	0x3ba4c3ec	0.0050282385
28	0xbac01791	-0.0014655461
29	0x399a3131	0.0002940982
30	0xbda7934c	-0.081823915
31	0x3b9388ec	0.0045024063
32	0x3d3d9ad5	0.046290237
33	0xbd0d649e	-0.034519784
34	0xbcf12689	-0.02943732
35	0x3d8e7cff	0.06957435
36	0x3ca669f8	0.020314202
37	0xbda612c6	-0.081090495
38	0x3cb8a0b3	0.022537565
39	0x3d42354b	0.047414105
40	0xbd040c2c	-0.03223817
41	0xbd2072d5	-0.039172012
42	0xbd15d85c	-0.03658329
43	0x3c90661b	0.017626813
44	0xbda8054c	-0.08204135
45	0xbbc04421	-0.0058674966
46	0xbd24f1c6	-0.040269636
47	0xbc4efba8	-0.012633242
48	0xbc86c0b3	-0.016449308
49	0x3a8369c2	0.0010026025
50	0xbd5a9249	-0.053362165
51	0x3d196fa9	0.037460003
52	0x3d7ec64f	0.06220084
53	0xbb81082e	-0.0039377427
54	0x3c2b11d2	0.01044126
55	0x3c99ccd5	0.01877443
56	0xbd273e22	-0.04083074
57	0xbd80e714	-0.06294075
58	0xbda85c2f	-0.082207076
59	0xbdd4a8de	-0.10383771
60	0x3d2b94f8	0.041890115
61	0xbe15d49c	-0.14631885
62	0xbcdb2d92	-0.026755128
63	0x3db57023	0.08859279
64	0xbda70f64	-0.081572324
65	0xbd985965	-0.07438926
66	0x3cfa6d16	0.030569594
67	0xbdb527bf	-0.088454716
68	0x3d3f4a2b	0.04670159
69	0x3da8dd05	0.08245281
70	0xbd56e615	-0.052465517
71	0xbd00cced	-0.031445432
72	0x3e0335ba	0.12813464
73	0xbdb30180	-0.087405205
74	0x3dcd4eaa	0.100247696
75	0x3cb41473	0.021982407
76	0x3e030965	0.12796552
77	0xbe10e6d1	-0.1415055
78	0x3d866340	0.06561899
79	0x3d0bd468	0.034138113
80	0xbcf3c248	-0.029755726
81	0xbdf562ae	-0.11981712
82	0xbc8e3d31	-0.017363163
83	0x3d0ef1c4	0.034898534
84	0x3e26cd68	0.16289294
85	0xbd660abb	-0.056162577
86	0xbb4d7b2c	-0.0031353934
87	0xbd8422e2	-0.06451966
88	0xbd84ecfc	-0.06490514
89	0x3de09db8	0.109675825
90	0x3dbe5818	0.09294146
91	0xbd8f323d	-0.06992004
92	0xbd0b4bd6	-0.03400787
93	0xbd9f088b	-0.07765301
94	0xbd335cce	-0.043789677
95	0xbd80654c	-0.06269321
96	0x3c51cba9	0.012804904
97	0xbdba570b	-0.090986334
98	0x3d4c2868	0.049843222
99	0xbd5f304c	-0.05448942
100	0xbb85c7dc	-0.004082663
101	0x3dc108fe	0.09425543
102	0xbd9cf54a	-0.07663973
103	0x3d670725	0.056403298
104	0xbd94383f	-0.072372906
105	0xbd1e5e5e	-0.038664214
106	0xbdb4fc4c	-0.08837184
107	0xbbe57b9c	-0.007003261
108	0x3dc9b6c9	0.098493166
109	0xbde7a8c0	-0.113114834
110	0x3ccd5f39	0.02506982
111	0x3d02dbda	0.031947948
112	0xbdb5a982	-0.08870222
113	0xbd4adeda	-0.049528934
114	0xbb81c29d	-0.0039599673
115	0x3db5d03f	0.088776104
116	0xbe0118e1	-0.12607147
117	0x3d292ce4	0.041302577
118	0x3d28b365	0.04118671
119	0x3cee0aca	0.029057879
120	0x3c8ebf28	0.017425135
121	0xbdaedc61	-0.08538128
122	0x3c2a43e2	0.010392161
123	0xbcd25f75	-0.025680283
124	0x3cd8dfee	0.026473965
125	0xbcf71c7f	-0.030164955
126	0x3d705a68	0.058679968
127	0x3d505357	0.05086073
128	0xbd720124	-0.05908312
129	0xbc0ff160	-0.008785576
130	0x3d809a42	0.06279422
131	0x3cc9fbf0	0.024656266
132	0xbd0d0a16	-0.034433447
133	0xbcb2a67c	-0.021807902
134	0xbdca2a0e	-0.098713025
135	0x3d553c9c	0.052059755
136	0xbda675de	-0.0812795
137	0xbcea82fb	-0.02862691
138	0xbbe74d01	-0.00705874
139	0xbd58ee12	-0.052961417
140	0xbd542d25	-0.051800866
141	0xbd5dc2d9	-0.0541409
142	0x3d4810f1	0.04884428
143	0xbc30d4ca	-0.01079292
144	0xbd850690	-0.06495392
145	0x3d287360	0.041125655
146	0xbc8b958f	-0.017039089
147	0x3c271dd9	0.010199987
148	0x3c999cda	0.01875155
149	0xbbe367f9	-0.0069398847
150	0xbd9797b8	-0.07401985
151	0xbc76501d	-0.015033749
152	0x3d8f0e9a	0.06985207
153	0xbccbca63	-0.024876779
154	0x3d8f4b22	0.06996752
155	0x3bdaf950	0.0066825524
156	0xbc923fb7	-0.017852647
157	0x3b279846	0.002557294
158	0xbd23b5ed	-0.03996842
159	0x3ce836f9	0.028346526
160	0xbd4452c3	-0.04793049
161	0xbd1eecda	-0.038800098
162	0xbd8a2b9d	-0.067466
163	0x3d16dee0	0.036833644
164	0x3d44d125	0.04805102
165	0x3d3fb88a	0.04680685
166	0xbd10bd84	-0.035336986
167	0xbcdeff1e	-0.027221259
168	0x3ba4c8e8	0.0050288327
169	0xbd8549e4	-0.06508234
170	0x3b5b891a	0.0033498467
171	0x3cf61dcb	0.030043503
172	0x3d8b386a	0.067978695
173	0xbd7dfccf	-0.062008675
174	0x3ca8f1aa	0.020623047
175	0x3d961d8c	0.07329854
176	0x3ca48daf	0.020087091
177	0xbd265ba9	-0.040614758
178	0x3d2d2972	0.042275853
179	0x3d548066	0.051880263
180	0xbda46eb2	-0.08028926
181	0xbac84bb5	-0.0015281352
182	0xbd810284	-0.06299308
183	0xbd3460df	-0.044037696
184	0xbcf58a49	-0.029973166
185	0x3c78b384	0.015179519
186	0x3cf6f4b8	0.030145988
187	0xbc80b649	-0.01571192
188	0xbc312829	-0.010812798
189	0xbbb7edea	-0.0056130784
190	0xbdaf0eb1	-0.08547724
191	0xbbe3d5dc	-0.0069529843
192	0x3b54b13b	0.003245427
193	0x3d8985f3	0.06715002
194	0xbd790392	-0.06079442
195	0x3d409064	0.0470127
196	0x3ce67f47	0.028136862
197	0xbd3f1426	-0.046650074
198	0xbd609a97	-0.05483493
199	0xbd0772fe	-0.03306865
200	0x3dbeaf51	0.09310783
201	0xbb45a9e0	-0.0030161068
202	0xbd9ed428	-0.07755309
203	0x3d7a5c72	0.06112332
204	0xbd088165	-0.033326525
205	0xbd9b315a	-0.075777724
206	0x3dc19835	0.09452859
207	0xbd7b14d6	-0.061299168
208	0xbd823a20	-0.06358743
209	0x3ccf7fd7	0.025329513
210	0x3d97f015	0.07418839
211	0xbd7a4bf5	-0.061107595
212	0x3da21517	0.07914179
213	0x3d7de54b	0.06198625
214	0x3bdedeff	0.0068014855
215	0xbd94f32c	-0.07272944
216	0x3d8822ed	0.066472866
217	0x3dac8780	0.08424282
218	0x3d7c7ef6	0.061644517
219	0xbd6d5431	-0.05794162
220	0x3d9eb475	0.07749263
221	0x3d6d80e8	0.057984263
222	0x3c4b609a	0.012413168
223	0xbd545d0c	-0.05184655
224	0xbcbc2866	-0.022968482
225	0x3da87f84	0.08227447
226	0x3cdba84b	0.026813647
227	0xbbbe26b5	-0.005802954
228	0xbd80e69d	-0.06293986
229	0xbdf82087	-0.12115579
230	0x3cc9fedb	0.024657657
231	0xbcdb8601	-0.026797296
232	0x3c937add	0.018002922
233	0xbcddd891	-0.027080806
234	0xbd84f42c	-0.064918846
235	0x3c85282d	0.016254509
236	0x3bf13e82	0.007362188
237	0x3d1043d0	0.03522092
238	0xbc4b462f	-0.01240687
239	0x3a0c65cd	0.00053557457
240	0xbd69e38b	-0.057101768
241	0xbd789a30	-0.06069392
242	0x3d19e361	0.03757036
243	0xbdaf5304	-0.08560756
244	0x3b67b690	0.0035356618
245	0xbd3bb5a3	-0.04582752
246	0xbd37a54a	-0.044835366
247	0xbdcde4cc	-0.10053405
248	0x3de18772	0.11012162
249	0xbcb4e51c	-0.022081904
250	0xbd1058c0	-0.03524089
251	0x3db3c902	0.087785736
252	0x3d6b2e3a	0.057417132
253	0xbc87f88a	-0.016598005
254	0xbda78ffb	-0.08181759
255	0x3d68cd0c	0.056836173

bias f4 [16]
0	0x3cb0e7cc	0.021594904
1	0x3d9a1184	0.07522872
2	0xbd3bd0aa	-0.045853294
3	0xbd5d1187	-0.053971794
4	0x3c3fd4ea	0.0117084775
5	0x3cd31e70	0.02577135
6	0xbd566437	-0.052341666
7	0xb797b21e	-1.8083545e-05
8	0x3da6ae80	0.08138752
9	0x3c895dcc	0.016768359
10	0xbcd90768	-0.02649279
11	0xbdc61f23	-0.096739076
12	0x3d9a5124	0.075350076
13	0x3cbba119	0.022903966
14	0xbc9405ad	-0.018069113
15	0x3c24bf84	0.0100554265

weight f4 [64, 16, 3, 3]
0	0xbd9e83d0	-0.07739985
1	0x3d946e93	0.07247653
2	0x3daea1e2	0.085269704
3	0xbd34d000	-0.044143677
4	0xbdbffce9	-0.09374411
5	0xbc7e8356	-0.015534243
6	0xbcce2479	-0.025163876
7	0xbdc66b37	-0.09688418
8	0x3ca8cc76	0.020605307
9	0xbd36d2c6	-0.044634603
10	0xbd839195	-0.06424252
11	0x3cf13e9e	0.029448804
12	0x3b48fb30	0.0030667298
13	0xbd0baf37	-0.034102645
14	0xbd856065	-0.065125264
15	0xbd2bfab5	-0.04198714
16	0x3cb2ee32	0.021842096
17	0xbc771893	-0.015081543
18	0x3d6e5444	0.05818583
19	0x3c25bece	0.010116292
20	0x39e2911e	0.000432142
21	0x3d84dd5b	0.06487533
22	0x3b15ef0b	0.0022878076
23	0x3dd54491	0.10413469
24	0x3d8c0a1b	0.06837865
25	0xbdce5419	-0.10074634
26	0xbc8b6330	-0.01701507
27	0x3bf1131f	0.0073570157
28	0x3ca782ef	0.020448176
29	0xbd53d4c9	-0.0517166
30	0xbca1d939	-0.0197569
31	0x3bb05f49	0.0053824526
32	0xbcc49606	-0.023997318
33	0x3d0b4406	0.03400042
34	0xbd06f0a8	-0.03294435
35	0xbd788be9	-0.060680304
36	0x3c64b58c	0.0139593
37	0x3ca312e5	0.01990647
38	0x3d8fc658	0.07020253
39	0xbbc40998	-0.005982589
40	0x3c93a7b5	0.018024305
41	0xbd32302e	-0.04350298
42	0xbd7a8da9	-0.061170254
43	0x3cfc16e7	0.03077264
44	0xbd9aa046	-0.07550101
45	0xbd35f67d	-0.044424523
46	0x3d6f5a9d	0.058436025
47	0xbd7a3697	-0.061087217
48	0x3c0873a9	0.008328357
49	0x3dabacf9	0.08382601
50	0x3b31dc01	0.002713919
51	0xbcca0741	-0.024661662
52	0xbd5c9a88	-0.05385831
53	0xbc8d944a	-0.017282624
54	0xbd332939	-0.043740485
55	0xbd5d7de9	-0.054075155
56	0xbbbfa07f	-0.00584799
57	0xbda949cc	-0.08266029
58	0x3d98a8af	0.07454049
59	0xbcd6ca7b	-0.026219597
60	0xbd35c2e9	-0.044375334
61	0x3b8e834b	0.0043491474
62	0xbc861ab0	-0.016370147
63	0x3d8cdba0	0.06877828
64	0x3c87b994	0.016567983
65	0xbd4326f1	-0.04764456
66	0xbc03fd36	-0.008055976
67	0xbd84d819	-0.0648653
68	0x3b45d0ce	0.0030184272
69	0x3d3c6cd9	0.046002243
70	0xbd1dd0aa	-0.038529076
71	0xbd1b4d70	-0.037915647
72	0x3d1dd5a5	0.038533825
73	0xbd5e258e	-0.054235034
74	0xbd586f5c	-0.052840576
75	0xbd902bd1	-0.07039607
76	0xbd8ce133	-0.06878891
77	0x3c42faf9	0.011900657
78	0xbdcf0347	-0.10108047
79	0xbd09bbbc	-0.033626303
80	0xbdae3f54	-0.08508173
81	0xbd2c5a5e	-0.04207837
82	0xbdd83738	-0.10557407
83	0x3d50308b	0.050827544
84	0x3c8bfed9	0.017089294
85	0xbd9765f1	-0.07392491
86	0xbd21652c	-0.039403126
87	0xbb1a3722	-0.0023531397
88	0xbcdd81cb	-0.02703943
89	0xbcdd129a	-0.026986409
90	0x3cdf80f6	0.027283173
91	0x3d2355c2	0.039876707
92	0xbb8b5604	-0.004252197
93	0xbd197b1c	-0.037470922
94	0xbd91442e	-0.07093082
95	0xbd1ae89a	-0.037819482
96	0xbcd99812	-0.02656177
97	0x3d9150bb	0.07095476
98	0xbd39f8cd	-0.04540329
99	0xbc26b6fe	-0.010175465
100	0x3c038683	0.008027676
101	0xbc886f37	-0.016654594
102	0xbc4aa17d	-0.012367603
103	0x3c8a4279	0.0168774
104	0x3d16229b	0.036654096
105	0xbd75c4d3	-0.06000216
106	0x3cc8126a	0.024422843
107	0x3d1dcf3c	0.038527712
108	0xbd09602e	-0.03353899
109	0x3db825ce	0.08991586
110	0xbd9b6d9d	-0.075892664
111	0x3c378e5b	0.011203374
112	0xbcb61270	-0.022225589
113	0x3d296380	0.041354656
114	0xbca2c714	-0.019870318
115	0x3d3316f6	0.04372307
116	0x3d6f6fe8	0.05845633
117	0x3c02dbdb	0.007986988
118	0x3da6e399	0.081488796
119	0xbd955fc6	-0.07293658
120	0xbc9c9cd0	-0.019117743
121	0xbc8c9587	-0.017161144
122	0x3d457ab3	0.04821272
123	0x3cc939d7	0.024563713
124	0x3cbc0ef8	0.022956356
125	0x3be49519	0.0069757816
126	0x3c74a1ca	0.014931152
127	0xbd7549a4	-0.059884682
128	0x3d41354c	0.04716997
129	0x3c9be773	0.019031262
130	0xbcc3848c	-0.023866914
131	0x3d03c5e2	0.032171138
132	0x3d0d83d8	0.034549564
133	0xbb177204	-0.002310873
134	0xbdad4871	-0.08461083
135	0xbd500543	-0.050786268
136	0x3bbcf2e8	0.0057662614
137	0xbd8eba43	-0.0696912
138	0x3d967fc6	0.073485896
139	0xbd485f3f	-0.04891896
140	0x3d0b4586	0.03400185
141	0xbcfd28a1	-0.030903162
142	0x3d007cec	0.031369135
143	0x3ca24d45	0.019812236
144	0xbc40044f	-0.011719777
145	0xbd153790	-0.03642994
146	0x3bdcb51e	0.006735458
147	0xbd9f9c56	-0.077934906
148	0xbcd8922b	-0.026436886
149	0x3da6e4e1	0.08149124
150	0x3d65ef0f	0.056136187
151	0x3c54dba7	0.012991822
152	0xbcb527ce	-0.022113707
153	0xbc890643	-0.016726619
154	0x3d977038	0.07394451
155	0x3bb42254	0.0054972563
156	0x3cbc6f5c	0.023002319
157	0xbd15e928	-0.03659931
158	0xbc93e20f	-0.01805213
159	0x3d2a30c5	0.041550416
160	0xbdb1754b	-0.0866495
161	0x3d3cf114	0.046128348
162	0x3d92155b	0.071329795
163	0xbc636baf	-0.013880654
164	0xbd9d45be	-0.07679318
165	0xbd1cf53d	-0.038319815
166	0x3dd24485	0.10266975
167	0x3db4837a	0.0881414
168	0x3c431289	0.011906275
169	0x3ca17846	0.019710671
170	0xbdddf0ef	-0.1083697
171	0xbda82f97	-0.08212202
172	0xbd22cf6e	-0.0397486
173	0x3ce8386b	0.028347215
174	0xbc44c168	-0.012009002
175	0xbdcb0bf6	-0.09914391
176	0xbd2b1725	-0.04177012
177	0x3dca9eb3	0.09893551
178	0xbd278019	-0.040893648
179	0x3d87f0e8	0.06637746
180	0x3ae71dad	0.0017632745
181	0x3a947a8f	0.0011328029
182	0xbc8f3902	-0.017483238
183	0x3dcefde1	0.10107017
184	0xbe01ab31	-0.1266296
185	0x3c636d32	0.013881015
186	0xbd9946a9	-0.074841805
187	0xbcb60ec1	-0.022223832
188	0xbdc08602	-0.0940056
189	0xbdabaa76	-0.08382122
190	0x3d1525c0	0.036412954
191	0x3c082dca	0.008311698
192	0xbd68b667	-0.056814577
193	0x3d6558d8	0.05599293
194	0x3ca0541e	0.01957136
195	0xbcf7ea42	-0.03026307
196	0x3ce346de	0.027743753
197	0xbd090dee	-0.03346055
198	0xbc92462a	-0.017855722
199	0xbb45597b	-0.003011315
200	0x3d53a380	0.051669598
201	0xbd40c5a3	-0.04706348
202	0x3b8d691b	0.004315508
203	0x3caf9c2f	0.021436779
204	0x3d463037	0.048385825
205	0x3c7de21b	0.015495802
206	0x3ca3e72e	0.020007696
207	0xbd0a7065	-0.033798594
208	0x3cc68f72	0.024238322
209	0xbcd31667	-0.025767518
210	0xbd92966e	-0.071575984
211	0xbd4a6cc6	-0.04942014
212	0x3d501001	0.050796513
213	0xbbdad14d	-0.0066777826
214	0xbd9d3b26	-0.07677297
215	0x3d46b2d6	0.048510395
216	0x3d599115	0.053116877
217	0x3d6ba0e7	0.057526495
218	0xbdac943d	-0.08426712
219	0x3c585279	0.013203257
220	0x3cc600ed	0.024170363
221	0xbcfc5a6c	-0.030804835
222	0x3bfb2991	0.007664867
223	0xbcf10153	-0.029419577
224	0xbc7ed8ea	-0.015554646
225	0x3d7a10e1	0.061051253
226	0x3cee7d5b	0.029112509
227	0xbd840a9c	-0.06447336
228	0xbd45a279	-0.04825065
229	0xbc8b9f35	-0.01704369
230	0xbd8962be	-0.06708287
231	0xbd3786ca	-0.04480628
232	0x3c1d1d16	0.009589454
233	0xbd95c83b	-0.073135816
234	0xbb950a3e	-0.00454834
235	0x3da49eda	0.08038111
236	0xbda10e7a	-0.07864089
237	0x3d60a651	0.05484611
238	0x3c0980d1	0.008392529
239	0x3c65b7bc	0.0140208565
240	0x3c6184e9	0.013764598
241	0x3c620f77	0.013797632
242	0x3c9ce691	0.019152911
243	0x3cb8d003	0.022560125
244	0xbbff2d48	-0.0077873804
245	0xbd80ea4b	-0.06294688
246	0xbb66a78b	-0.0035195078
247	0x3c079957	0.008276305
248	0x3d625666	0.055258177
249	0x3d01bf6f	0.031676706
250	0x3ce1c8a5	0.027561495
251	0x3d7e00af	0.06201237
252	0x3d7cf2d6	0.061755024
253	0x3daa6c57	0.083214454
254	0x3c6f6de0	0.014613599
255	0x3bfbf50e	0.007689125

bias f4 [64]
0	0x3d913be4	0.07091501
1	0xbc9da883	-0.019245392
2	0xbca498dd	-0.020092422
3	0x3d67a116	0.056550108
4	0xbc3297c4	-0.010900442
5	0xbcb61404	-0.022226341
6	0xb9fb2ec0	-0.00047909282
7	0x3d3561f8	0.044282883
8	0xbcf707d7	-0.030155106
9	0xbc9ab3e0	-0.0188846
10	0x3da15bc3	0.0787883
11	0xbd24aad2	-0.04020197
12	0x3d3b377d	0.045707215
13	0x3c37b2e2	0.011212083
14	0x3d08aa0f	0.033365306
15	0xbd605d00	-0.05477619
16	0x3d330bd7	0.043712463
17	0x3ab7393c	0.0013978849
18	0x3dc6d0cc	0.097077936
19	0x3c9f7698	0.01946573
20	0x3cb69768	0.022288993
21	0x3a81d8fd	0.0009906586
22	0xbcb5d99b	-0.022198489
23	0x3d1b5120	0.037919164
24	0xbd0347c9	-0.03205088
25	0x3da50ada	0.080587104
26	0x3b04884c	0.002022284
27	0xbd42103f	-0.047378775
28	0xbd4f0a15	-0.050546724
29	0xbd910e1b	-0.070827685
30	0xbc1a0db7	-0.009402684
31	0x3cf1b901	0.029507162
32	0x3af0b4c5	0.001836442
33	0x3d0e4085	0.0347295
34	0x3d251e5f	0.040312167
35	0xbd4c4705	-0.049872417
36	0x3c8c6212	0.017136607
37	0x3c2ffa94	0.010740895
38	0x3d1fe27c	0.03903435
39	0x3d7426b1	0.05960721
40	0xbc757913	-0.01498248
41	0x3dadc5d0	0.08484995
42	0xbcea9efd	-0.028640265
43	0x3dab3601	0.0835991
44	0xbd8eaafc	-0.069662064
45	0xbdb5bcb7	-0.08873885
46	0xbdb07d28	-0.08617622
47	0xbc9912aa	-0.018685658
48	0x3ce780f8	0.02825974
49	0x3c87e3dc	0.016588144
50	0xbc844beb	-0.016149482
51	0x3d2d2240	0.04226899
52	0xbdb71da1	-0.08941198
53	0x3d8d9898	0.069138706
54	0xbd654a86	-0.055979274
55	0xbd44e364	-0.04806842
56	0xbd474879	-0.0486531
57	0xbd821894	-0.06352344
58	0xbd0a4a04	-0.033761993
59	0xbdb0bf4a	-0.086302355
60	0x3d32fbac	0.043697044
61	0x3c676c31	0.014124916
62	0x3cb8cb97	0.022558017
63	0xbdacfc9b	-0.08446618
