working/model_pretrained/net_F16B2_epoch_3.pth (torch_old, 135469 bytes, 16 tensors)

weight f4 [16, 3, 3, 3]
0.14510377 -0.12984285 -0.15886909 -0.13727729 0.14914359 0.12585519 -0.14730732 0.16913973
-0.08158794 -0.17403471 -0.06602741 -0.022664445 -0.12159763 0.09810142 0.16045657 0.08920869
-0.14570878 0.15581837 0.01405359 0.1061618 0.17602542 -0.032459512 -0.10039135 0.06404186
-0.10156375 -0.1620168 0.085870385 0.11770805 0.062172864 -0.15318824 -0.036201756 -0.06104881
-0.08947328 -0.033395216 0.1431956 -0.15649602 0.0057736393 0.0950635 0.04493877 0.17567207
0.013184853 -0.14732742 -0.1285526 -0.015078774 0.009416862 0.039949134 -0.028801754 -0.084059335
-0.14282812 0.060340147 0.003519864 -0.111294575 -0.13925424 -0.057748813 -0.0076251803 0.18937571
0.17876923 -0.030873993 0.11988363 0.18470237 0.012554071 -0.17077185 0.15115152 -0.046578806
-0.16738714 -0.022593513 0.08512335 -0.04270575 0.012539069 -0.081114605 -0.13925621 -0.14049701
0.08732717 0.16098607 -0.0020170107 -0.09648476 -0.07484826 0.014745638 -0.10195438 -0.14075613
-0.14729847 -0.16230932 -0.09775389 0.13952394 0.09694611 -0.022563908 -0.009624437 -0.02606398
-0.106611304 -0.027474381 -0.016143663 -0.093999356 -0.05658205 -0.10968572 0.02220099 -0.087418705
-0.089099124 0.05134479 -0.0029273056 0.036192082 0.13805944 -0.1511774 -0.09728385 0.17473558
0.12312571 -0.16401131 0.11186158 0.005380888 -0.054867484 -0.14807539 0.0811334 -0.11673717
0.096418716 -0.10043911 -0.1593589 0.07167567 -0.009179844 0.06595612 -0.05663362 0.0053427983
-0.028028743 0.06386399 -0.030130764 -0.06732405 0.109247394 -0.13261078 0.18752189 0.081152886
0.17596698 -0.08873447 0.08369135 -0.0020619524 0.11361156 -0.07366209 0.04172451 -0.09372429
0.1260307 -0.04272221 -0.12931615 0.14167435 -0.16404988 0.081030555 0.012005108 -0.03567166
0.1987087 0.16361462 0.12636834 -0.16214748 0.17813572 -0.0048342287 -0.050045658 0.06289207
-0.0046806475 -0.10325945 0.018674625 -0.013025376 -0.14860462 -0.18159571 0.10846351 0.11011296
-0.06250325 0.096268155 0.03745274 -0.01706416 0.017520247 0.16736896 -0.13458496 0.16785131
0.1477066 -0.17970757 -0.18252724 -0.16975695 0.02019839 0.024712684 -0.16279478 -0.19272031
-0.121398434 -0.06730523 -0.12045983 0.17970139 0.103039615 0.13940126 0.11464976 -0.059616677
0.12938446 0.14355563 -0.039081667 -0.09464148 -0.037049945 -0.0030769298 -0.15520203 -0.08357923
0.16876069 0.08536377 -0.12186074 -0.09579684 -0.025956927 0.02253335 0.15804772 0.047239743
0.16100127 0.15450612 0.09066386 0.043755513 0.03507083 0.109769076 0.004936221 -0.09493019
0.13325736 0.08786861 -0.06557689 -0.12631263 0.037129927 0.09911228 0.1742374 -0.03777145
-0.17980976 0.096027486 0.039104562 -0.15608254 -0.15402418 0.15788428 0.14199422 -0.08860575
-0.096250504 0.15193193 -0.009775963 0.17849915 -0.026318168 -0.0532711 -0.16258842 0.13540402
0.08931435 -0.07610933 -0.009155846 -0.057110194 0.17205139 -0.012571927 0.16002236 -0.03959388
0.04595953 0.07687458 0.0013826847 -0.09999783 -0.057864044 0.005150802 -0.0799917 0.012031462
0.17066152 -0.13883226 -0.01735083 -0.027143335 0.08041036 -0.17243291 0.06859433 -0.030983608
00000000: 1596 143e 86f5 04be 94ae 22be 6b92 0cbe
00000010: 19b9 183e 2fe0 003e bbd7 16be f732 2d3e
00000020: 9417 a7bd 2836 32be 6139 87bd c9aa b9bc
00000030: 2e08 f9bd 66e9 c83d ba4e 243e 0cb3 b63d
00000040: af34 15be da8e 1f3e 0741 663c 5c6b d93d
00000050: 0240 343e 44f4 04bd fb99 cdbd 6128 833d
00000060: a800 d0bd bbe7 25be d0dc af3d eb10 f13d
00000070: f9a8 7e3d 61dd 1cbe 4b48 14bd 510e 7abd
00000080: c43d b7bd 6cc9 08bd dea1 123e 7e40 20be
00000090: cc30 bd3b a7b0 c23d b711 383d 61e3 333e
000000a0: 4805 583c 00dd 16be 4ba3 03be f60c 77bc
000000b0: 2f49 1a3c b4a1 233d a8f1 ebbc 4d27 acbd
000000c0: 8941 12be 3b27 773d 85ad 663b 69ee e3bd
000000d0: aa98 0ebe 058a 6cbd a6dc f9bb b5eb 413e
000000e0: 480f 373e 75eb fcbc 8c85 f53d 9e22 3d3e
000000f0: 97af 4d3c d1de 2ebe 77c7 1a3e 6bc9 3ebd
00000100: 8967 2bbe 0816 b9bc 2755 ae3d 39ec 2ebd
00000110: ab70 4d3c 6a1f a6bd 2e99 0ebe 73de 0fbe
00000120: 96d8 b23d 88d9 243e d32f 04bb cd99 c5bd
00000130: 0b4a 99bd b097 713c 75cd d0bd 6022 10be
00000140: 69d5 16be 6a34 26be 3133 c8bd 5ddf 0e3e
00000150: af8b c63d f2d7 b8bc d1af 1dbc 2184 d5bc
00000160: 0757 dabd f411 e1bc b73f 84bc bc82 c0bd
00000170: 94c2 67bd e8a2 e0bd dade b53c 9408 b3bd
00000180: 9a79 b6bd ea4e 523d 0ad8 3fbb 263e 143d
00000190: 745f 0d3e 40ce 1abe c13c c7bd e2ed 323e
000001a0: 5529 fc3d 95f2 27be af17 e53d 2952 b03b
000001b0: babc 60bd 13a1 17be 4529 a63d e613 efbd
000001c0: 2d77 c53d 05b3 cdbd fb2e 23be b2ca 923d
000001d0: 0e67 16bc 0114 873d a8f8 67bd a412 af3b
000001e0: 899c e5bc 20cb 823d cbd4 f6bc 31e1 89bd
000001f0: 19bd df3d 1fcb 07be bd05 403e 7c33 a63d
00000200: b030 343e 6bba b5bd 5f66 ab3d d221 07bb
00000210: 2dad e83d 26dc 96bd 52e7 2a3d 85f2 bfbd
00000220: 310e 013e 7cfd 2ebd 746b 04be 1513 113e
00000230: b1fc 27be 59f3 a53d 13b1 443c 721c 12bd
00000240: 4b7a 4b3e 978a 273e b466 013e fd09 26be
00000250: 3669 363e 7368 9ebb adfc 4cbd 8fcd 803d
00000260: 1e60 99bb b179 d3bd 87fb 983c 6368 55bc
00000270: cf2b 18be 3af4 39be 1e22 de3d e782 e13d
00000280: b401 80bd 3d28 c53d 0b68 193d 23ca 8bbc
00000290: 9f86 8f3c c562 2b3e a4d0 09be 37e1 2b3e
000002a0: 6640 173e 4305 38be 6ce8 3abe c4d4 2dbe
000002b0: 1877 a53c 4172 ca3c adb3 26be 7958 45be
000002c0: be9f f8bd 53d7 89bd a5b3 f6bd a403 383e
000002d0: 6f06 d33d 34bf 0e3e 7ecd ea3d 9e30 74bd
000002e0: 5c7d 043e 3f00 133e 1914 20bd 64d3 c1bd
000002f0: afc1 17bd 51a6 49bb 48ed 1ebe 962b abbd
00000300: 9acf 2c3e 33d3 ae3d 2092 f9bd 2231 c4bd
00000310: 9fa3 d4bc dc97 b83c 43d7 213e 767e 413d
00000320: 84dd 243e da36 1e3e f9ad b93d fb38 333d
00000330: 6ea6 0f3d 9cce e03d 06c0 a13b c26a c2bd
00000340: 9e74 083e 75f4 b33d 2d4d 86bd 1958 01be
00000350: 8d15 183d 61fb ca3d 4a6b 323e 3cb6 1abd
00000360: 0d20 38be 0faa c43d 1b2c 203d 1ad4 1fbe
00000370: 84b8 1dbe 6bac 213e ef66 113e ee76 b5bd
00000380: fc1e c5bd 0b94 1b3e 5c2b 20bc 7bc8 363e
00000390: 3399 d7bc cc32 5abd 947d 26be 5aa7 0a3e
000003a0: 71ea b63d 35df 9bbd 6702 16bc 61ec 69bd
000003b0: 3d2e 303e 7cfa 4dbc e7dc 233e 312d 22bd
000003c0: 0f40 3c3d 6b70 9d3d 333b b53a aacb ccbd
000003d0: d902 6dbd 0fc8 a83b b0d2 a3bd 9c1f 453c
000003e0: e5c1 2e3e 0b2a 0ebe 5423 8ebc b35b debc
000003f0: 30ae a43d 4192 30be 2f7b 8c3d 56d1 fdbc

bias f4 [16]
0.08201241 0.12762544 0.15718256 0.065962754 -0.11440935 0.05093244 0.18490636 0.15361834
0.0318056 0.11171144 0.12642966 0.16807374 0.07758532 -0.02890534 -0.014048991 -0.10953139
00000000: 1ff6 a73d 3eb0 023e 77f4 203e 7b17 873d
00000010: 734f eabd 899e 503d 1858 3d3e 204e 1d3e
00000020: 9746 023d f8c8 e43d c776 013e 861b 2c3e
00000030: 0de5 9e3d e4ca ecbc bd2d 66bc fe51 e0bd

weight f4 [16, 16, 3, 3]
0.018485038 0.026340676 -0.062292293 -0.0012669154 0.12067094 -0.044858582 0.069809474 -0.05978348
0.03736578 -0.016677452 0.068180755 -0.04988507 -0.0017699419 -0.010738181 -0.059928738 0.022851858
0.04229733 0.036964968 0.02539184 0.04868539 -0.009064461 -0.056257743 0.01978559 -0.076913476
-0.03742582 -0.03807369 0.03794204 -0.05364481 0.013163314 -0.011173048 -0.042614136 0.07521252
0.07353122 -0.0011138152 0.061112415 0.024868438 0.036712006 -0.0008499709 0.007044559 -0.047077987
0.08132822 -0.042492826 0.0060916026 -0.044603508 -0.043762323 0.06655936 -0.05597248 0.09330006
-0.05795042 0.0039593843 -0.053918928 -0.024055833 -0.05454924 0.09377439 0.013050179 -0.048265036
0.044858254 -0.09857955 -0.043250274 -0.032546543 -0.008432946 0.006894598 -0.06392741 -0.06611071
-0.055662293 -0.06548157 0.00870578 -0.02325406 -0.025781248 0.08408424 0.025423722 -0.05336248
-0.059349388 0.04281536 -0.007281704 0.05963215 -0.0340674 0.025089687 -0.06307062 0.01553278
-0.028437315 0.034331463 -0.010832373 0.06841927 0.11275879 -0.015688349 0.109902866 0.030994022
-0.060718145 0.030606214 -0.0597823 -0.0018353984 0.013066837 0.038952623 -0.025895013 0.020504484
-0.01002018 -0.0034264585 0.06475948 0.0059371563 0.029150229 -0.07465895 -0.03167973 0.037491035
-0.042162277 -0.071282424 0.05190107 0.063758604 0.023499036 -0.03305664 -0.035138585 0.011290281
-0.052561942 -0.052584454 0.023582397 -0.07077499 -0.061099574 -0.027733317 0.05924525 0.062012743
0.024015646 0.06401164 0.09998992 0.03709798 -0.057329375 -0.033223607 0.0034620536 -0.031472214
0.040360563 0.02104558 -0.1127869 -0.015798718 -0.06018514 -0.050556075 0.08988373 0.032996386
-0.024750698 0.009797321 -0.014539208 -0.08164872 -0.08051522 -0.004716057 0.04168584 -0.055008907
-0.057772797 -0.044947173 -0.052972276 -0.052058686 0.050974164 -0.040850967 0.091991186 0.029671017
0.008046998 0.04859811 -0.057350665 -0.05169246 0.048391268 -0.07803955 -0.0133524 -0.00876252
0.0016379503 -0.0067224577 -0.0117596695 -0.004969683 -0.05744729 -0.084723644 -0.043307118 0.0055055865
0.03382287 -0.05913995 -0.06052109 -0.035825025 0.045718804 0.025647867 0.04591482 0.0186726
0.052190065 0.014477045 -0.081581645 -0.030652957 -0.05438487 -0.08192352 -0.020877218 0.034982175
0.07963033 -0.06611955 0.047835764 0.047823012 0.015525514 -0.00044306996 -0.012563271 0.03229023
-0.025718272 0.040804762 -0.05164339 -0.06602142 0.062303618 0.07100648 -0.061361723 -0.08977838
0.01399518 0.043945488 0.07294169 -0.013036209 0.020312697 -0.034225423 0.07857025 -0.07011434
0.06798662 0.006982046 -0.00017471192 -0.03309349 0.024860444 0.026358752 -0.033590753 -0.04298123
-0.06515072 -0.035628535 -0.027008433 0.09503639 0.032520127 -0.014797332 -0.013987593 0.0022143712
-0.056029025 -0.021535 -0.015055929 -0.06637198 0.00056520215 0.013645709 0.089266665 0.08102963
-0.013015146 0.013010439 -0.027817434 0.073824115 -0.071743146 0.04592183 0.05829564 -0.059771523
0.0271032 -0.039821897 -0.016994776 -0.012805554 0.06876581 0.053390868 0.015156573 -0.05302085
0.07699798 -0.018847946 0.008709872 0.026905693 -0.043524344 -0.07808486 -0.03376121 -0.078564085
00000000: ef6d 973c 67c8 d73c 3426 7fbd a00e a6ba
00000010: 5322 f73d a2bd 37bd 45f8 8e3d 86df 74bd
00000020: dc0c 193d 279f 88bc 5aa2 8b3d 4a54 4cbd
00000030: 65fd e7ba 32ef 2fbc d677 75bd d233 bb3c
00000040: f73f 2d3d 9468 173d 8c02 d03c 556a 473d
00000050: 1b83 14bc 856e 66bd 6415 a23c d084 9dbd
00000060: d14b 19bd 28f3 1bbd 1d69 1b3d a9ba 5bbd
00000070: f1aa 573c 290f 37bc 298c 2ebd 0609 9a3d
00000080: 8997 963d 70fd 91ba 0351 7a3d e5b8 cb3c
00000090: 545f 163d 95d0 5eba 0bd6 e63b d9d4 40bd
000000a0: 698f a63d f50c 2ebd 119c c73b 2bb2 36bd
000000b0: 1f40 33bd 4650 883d 6643 65bd 1a14 bf3d
000000c0: 6b5d 6dbd b9bd 813b 18da 5cbd bd10 c5bc
000000d0: 066f 5fbd ca0c c03d 6bd0 553c 8fb1 45bd
000000e0: 4abd 373d 13e4 c9bd 3327 31bd 864f 05bd
000000f0: 572a 0abc 14ec e13b 60ec 82bd 0d65 87bd
00000100: 25fe 63bd 341b 86bd b0a2 0e3c 4c7f bebc
00000110: 3233 d3bc 5c34 ac3d 6945 d03c 9e92 5abd
00000120: 5818 73bd 295f 2f3d 5c9b eebb d740 743d
00000130: 428a 0bbd e388 cd3c 2b2b 81bd 347d 7e3c
00000140: 5ff5 e8bc 269f 0c3d 447a 31bc 671f 8c3d
00000150: 15ee e63d da84 80bc c114 e13d 2de7 fd3c
00000160: 97b3 78bd e2b9 fa3c 49de 74bd c091 f0ba
00000170: 4916 563c c98c 1f3d c721 d4bc 05f9 a73c
00000180: ae2b 24bc 6f8e 60bb 9ea0 843d 7a8c c23b
00000190: 76cc ee3c cbe6 98bd 9bc2 01bd 3390 193d
000001a0: 5ab2 2cbd 85fc 91bd 3796 543d df93 823d
000001b0: 0d81 c03c 6666 07bd 7aed 0fbd dffa 383c
000001c0: 314b 57bd cc62 57bd df2f c13c 7af2 90bd
000001d0: 8c43 7abd fb30 e3bc 26ab 723d 1301 7e3d
000001e0: 76bc c43c 8918 833d 84c7 cc3d 0df4 173d
000001f0: 35d2 6abd 7a15 08bd 9fe3 623b 02e9 00bd
00000200: 1e51 253d c867 ac3c d1fc e6bd 506c 81bc
00000210: b284 76bd e313 4fbd f614 b83d 3827 073d
00000220: fac1 cabc f184 203c dc35 6ebc 7237 a7bd
00000230: 2ae5 a4bd 2789 9abb c5be 2a3d 0551 61bd
00000240: 2ba3 6cbd 871a 38bd 75f9 58bd 7d3b 55bd
00000250: 49ca 503d 5853 27bd e065 bc3d a210 f33c
00000260: 8ed7 033c d00e 473d 88e8 6abd 79bb 53bd
00000270: ec35 463d 33d3 9fbd 06c4 5abc ac90 0fbc
00000280: 7eb0 d63a 1048 dcbb a1ab 40bc b9d8 a2bb
00000290: d94d 6bbd 9783 adbd ce62 31bd 3568 b43b
000002a0: da89 0a3d bb3c 72bd f6e4 77bd 43bd 12bd
000002b0: a443 3b3d 7a1b d23c 2e11 3c3d 48f7 983c
000002c0: 40c5 553d 2131 6d3c 4714 a7bd e91b fbbc
000002d0: abc2 5ebd 85c7 a7bd b306 abbc 7849 0f3d
000002e0: 3a15 a33d b069 87bd 6fef 433d 10e2 433d
000002f0: ba5e 7e3c d84b e8b9 2ed6 4dbc c342 043d
00000300: 20af d2bc e522 273d 0588 53bd 3d36 87bd
00000310: 1432 7f3d d86b 913d 6e56 7bbd badd b7bd
00000320: 0a4c 653c 2f00 343d 7462 953d d395 55bc
00000330: d066 a63c f52f 0cbd 70e9 a03d 1b98 8fbd
00000340: 923c 8b3d a6c9 e43b e032 37b9 0a8d 07bd
00000350: 21a8 cb3c 4fee d73c 7596 09bd 160d 30bd
00000360: be6d 85bd 3aef 11bd ca40 ddbc 70a2 c23d
00000370: d333 053d 8270 72bc 382c 65bc fc1e 113b
00000380: b17e 65bd 2b6a b0bc 25ad 76bc 08ee 87bd
00000390: 132a 143a 4092 5f3c 71d1 b63d ddf2 a53d
000003a0: 7b3d 55bc bd29 553c 63e1 e3bc 1931 973d
000003b0: 12ee 92bd 8718 3c3d 69c7 6e3d fcd2 74bd
000003c0: 8807 de3c 491c 23bd a138 8bbc 63ce 51bc
000003d0: 17d5 8c3d 62b0 5a3d 4653 783c 642c 59bd
000003e0: 1eb1 9d3d 0267 9abc dab3 0e3c 5469 dc3c
000003f0: 9546 32bd f5ea 9fbd 3249 0abd 35e6 a0bd

bias f4 [16]
-0.0073566553 -0.03419468 0.0654291 0.12050962 0.05653771 0.06790969 -0.0005194316 0.04709959
0.058983605 0.012733243 0.047249082 -0.02598666 0.016079932 0.010803631 -0.061280098 0.05103548
00000000: 1910 f1bb b90f 0cbd b1ff 853d bfcd f63d
00000010: 1694 673d 3c14 8b3d 772a 08ba 80eb 403d
00000020: cb98 713d 189f 503c 4188 413d fae1 d4bc
00000030: 10ba 833c b601 313c d700 7bbd 940a 513d

weight f4 [16, 16, 3, 3]
0.115916856 -0.0072623333 -0.051329564 -0.05832247 0.04543527 0.027345734 0.03887714 0.03625466
-0.0656678 -0.0038377186 -0.0726933 -0.053574394 -0.0410673 0.05503793 -0.06511795 -0.049938
-0.08046045 -0.06041052 -0.10058162 0.009421801 0.07188768 -0.0036215193 0.002172927 0.029938731
-0.0598313 -0.03536862 0.0731697 -0.031076077 -0.054773618 0.0010449353 0.105417185 -0.0058638905
0.0337847 0.050748523 0.14105794 -0.04268626 -0.062195487 0.022078298 -0.05019434 0.010987166
-0.031762723 0.046688847 0.0017917154 -0.019757899 -0.05369469 -0.029381119 -0.07720821 -0.0094910655
-0.11164387 0.019026317 -0.014009695 -0.08431351 -0.0029164676 -0.049863406 -0.029200995 -0.042835996
-0.0813682 0.07302857 0.07472009 0.057303376 0.0065593375 0.059290506 0.0075288257 -0.08498458
0.005715303 0.0078020454 0.07204039 0.03710866 -0.030167215 0.094665095 -0.119446084 -0.0148686925
0.074719645 0.017005332 -0.067047715 0.03914411 0.048871443 -0.07829884 0.010109156 -0.058697246
-0.082444444 0.019824993 0.014433519 -0.04326554 -0.09885309 -0.10798387 0.025320169 -0.0057630213
0.064945765 0.063629396 0.02541663 -0.04803372 0.028044011 -0.064533554 -0.08422486 0.07571523
-0.058071427 0.03365571 -0.052439235 0.009633433 0.014517009 -0.012877978 0.06891481 0.07733501
-0.076206364 0.08456131 -0.058704868 -0.019380834 0.0044091623 0.05168539 -0.08696684 -0.031046094
0.0024968649 -0.084455706 -0.054734718 -0.023270678 -0.053457666 -0.08716228 0.05707393 -0.014394157
0.0013275536 -0.06388053 0.059942055 0.035406835 -0.060849465 -0.012758187 0.043831404 0.04611026
-0.013039664 0.003907532 0.03149081 -0.039064426 -0.06884351 -0.017718043 0.023190668 -0.05318362
-0.043528326 -0.04171182 0.023910644 0.07744965 -0.070447944 0.05942004 0.056763448 -0.05061753
0.09451826 0.05860603 0.0765549 -0.04426045 -0.052177798 -0.023174772 0.050392933 0.055712953
0.052331932 0.026870431 -0.045300946 0.017091168 0.07662146 -0.01947194 -0.06663997 -0.005634501
-0.062620215 0.07743045 -0.03158863 -0.11534351 0.026689868 0.009549043 -0.0985413 -0.005765378
-0.039410528 -0.087344475 0.027947951 -0.0055832644 -0.12763923 -0.07712617 0.008787592 -0.028250821
0.076346576 -0.08463593 -0.05741575 -0.04011249 -0.021609988 0.041944012 -0.051965076 -0.07943348
0.030142827 0.037051976 -0.061425474 0.05808141 0.07690098 0.019690799 0.019592691 0.07236973
0.03453948 -0.09085272 0.018810315 -0.06482456 0.022690553 -0.04364528 0.0105245765 0.09056246
0.073087744 0.023087895 0.03716795 0.00783517 0.011264673 -0.033919994 0.031463925 0.09734892
0.011280258 -0.0032916828 0.003005442 0.03723973 -0.04408946 0.053466033 0.05570811 -0.031189865
0.018554982 -0.066940516 0.06273127 0.010104791 0.06100886 0.068894364 -0.016843196 -0.012170471
0.050813116 0.054268684 0.047593486 0.07659941 -0.024506137 0.012997043 -0.07632032 -0.00048514424
-0.0068073934 -0.04382326 -0.006933549 -0.033182457 -0.06658236 0.04474429 -0.071842626 0.0013724697
-0.054809634 -0.0025068927 0.007429959 -0.07189922 0.03492033 -0.05345951 -0.00062403607 0.05752965
0.014616601 0.08425611 0.06800258 0.04658307 0.07094624 -0.086975515 0.06984046 -0.0707009
00000000: d165 ed3d def8 edbb f33e 52bd 8be3 6ebd
00000010: 551a 3a3d 2904 e03c a33d 1f3d c47f 143d
00000020: d77c 86bd 3c82 7bbb 3ae0 94bd d370 5bbd
00000030: 2f36 28bd 746f 613d 8f5c 85bd ca8b 4cbd
00000040: 73c8 a4bd 0571 77bd bdfd cdbd e65d 1a3c
00000050: d939 933d 0357 6dbb aa67 0e3b 1242 f53c
00000060: aa11 75bd b0de 10bd ffd9 953d 4293 febc
00000070: 4d5a 60bd 36f6 883a f7e4 d73d e125 c0bb
00000080: d361 0a3d afdd 4f3d 7e71 103e cad7 2ebd
00000090: b2c0 7ebd 8cdd b43c 9598 4dbd 8403 343c
000000a0: a119 02bd ce3c 3f3d fed7 ea3a 51db a1bc
000000b0: f7ee 5bbd acb0 f0bc 571f 9ebd 6a80 1bbc
000000c0: 8ba5 e4bd 14dd 9b3c eb88 65bc 90ac acbd
000000d0: 3522 3fbb 923d 4cbd ed36 efbc cc74 2fbd
000000e0: 5fa4 a6bd 0190 953d d906 993d f2b6 6a3d
000000f0: b6ef d63b 9ada 723d 5eb4 f63b 650c aebd
00000100: 7047 bb3b 4da8 ff3b e989 933d 40ff 173d
00000110: 3c21 f7bc c6df c13d 26a0 f4bd d19b 73bc
00000120: 9d06 993d c44e 8b3c 5050 89bd 9355 203d
00000130: 6c2d 483d 245b a0bd e0a0 253c 866c 70bd
00000140: a2d8 a8bd 0668 a23c 917a 6c3c 3537 31bd
00000150: 7d73 cabd a626 ddbd 3e6c cf3c bad7 bcbb
00000160: 4902 853d 2150 823d 8936 d03c 02bf 44bd
00000170: 8ebc e53c 2b2a 84bd 157e acbd 9610 9b3d
00000180: 4edc 6dbd 92da 093d 86ca 56bd 8cd5 1d3c
00000190: c0d8 6d3c 28fe 52bc 3523 8d3d d161 9e3d
000001a0: 1512 9cbd 7b2e ad3d 8474 70bd 8ec4 9ebc
000001b0: bc7a 903b 0fb4 533d ac1b b2bd 6154 febc
000001c0: 71a2 233b 1df7 acbd 8331 60bd 26a2 bebc
000001d0: 6df6 5abd 2382 b2bd 5ac6 693d 78d5 6bbc
000001e0: 4f01 ae3a ccd3 82bd cd85 753d c206 113d
000001f0: 4a3d 79bd b707 51bc 8f88 333d 1dde 3c3d
00000200: 51a4 55bc c10a 803b 82fc 003d 0502 20bd
00000210: d3fd 8cbd 6e25 91bc 5bfa bd3c 11d7 59bd
00000220: c24a 32bd 03da 2abd 41e0 c33c ec9d 9e3d
00000230: 0347 90bd 6e62 733d ca80 683d 5454 4fbd
00000240: ca92 c13d e00c 703d d1c8 9c3d 724a 35bd
00000250: 63b8 55bd 05d9 bdbc d268 4e3d 4433 643d
00000260: 025a 563d 611f dc3c 7c8d 39bd c702 8c3c
00000270: b6eb 9c3d 9e83 9fbc 897a 88bd 9fa1 b8bb
00000280: 073f 80bd db93 9e3d 1463 01bd 3839 ecbd
00000290: b6a4 da3c 9773 1c3c 05d0 c9bd 7feb bcbb
000002a0: ef6c 21bd a9e1 b2bd 1af3 e43c d1f3 b6bb
000002b0: dcb3 02be 53f4 9dbd d5f9 0f3c 446e e7bc
000002c0: 985b 9c3d 9a55 adbd c72c 6bbd ff4c 24bd
000002d0: 6e07 b1bc 7ccd 2b3d 55d9 54bd 05ae a2bd
000002e0: 17ee f63c d0c3 173d 4799 7bbd c6e6 6d3d
000002f0: 437e 9d3d 994e a13c da80 a03c 9536 943d
00000300: 4579 0d3d fe10 babd 1718 9a3c bdc2 84bd
00000310: 8ae1 b93c 65c5 32bd 466f 2c3c d078 b93d
00000320: 07af 953d d322 bd3c 6c3d 183d 165f 003c
00000330: 778f 383c b1ef 0abd 51e0 003d df5e c73d
00000340: d5d0 383c 46b9 57bb f3f6 443b b088 183d
00000350: 2697 34bd 33ff 5a3d 302e 643d e381 ffbc
00000360: 9e00 983c 1c18 89bd 4179 803d 918e 253c
00000370: 6de4 793d 7d18 8d3d befa 89bc a866 47bc
00000380: 6a21 503d d748 5e3d 63f1 423d 27e0 9c3d
00000390: 18c1 c8bc 8df1 543c d44d 9cbd f55a feb9
000003a0: 8e10 dfbb 0580 33bd d332 e3bb 54ea 07bd
000003b0: 555c 88bd ca45 373d 3a22 93bd 71e4 b33a
000003c0: 1180 60bd ae4a 24bb 0377 f33b e63f 93bd
000003d0: 9f08 0f3d 5cf8 5abd 5a96 23ba 36a4 6b3d
000003e0: 787a 6f3c 788e ac3d f044 8b3d e4cd 3e3d
000003f0: 434c 913d 3820 b2bd 8408 8f3d a2cb 90bd

bias f4 [16]
0.05060686 0.054869197 0.029224306 0.06646116 -0.04197632 -0.0010963911 -0.0022757407 -0.08093706
-0.00027289544 -0.053554337 0.079455614 0.04727146 0.023081321 0.07835651 0.069794014 0.04803461
00000000: 2449 4f3d 86be 603d d067 ef3c ca1c 883d
00000010: 5def 2bbd c8b4 8fba 9824 15bb 54c2 a5bd
00000020: 6813 8fb9 cb5b 5bbd a0b9 a23d b89f 413d
00000030: 0a15 bd3c 6179 a03d 2af0 8e3d f0bf 443d

weight f4 [16, 16, 3, 3]
-0.0154567165 -0.029798666 -0.051200338 0.09004258 -0.048376564 -0.06378226 0.06314382 0.012741153
-0.040305786 0.043143176 -0.054747857 0.012180159 0.07078797 0.047566406 0.029749317 -0.074859776
0.0011411603 -0.0051983823 -0.0010257518 -0.050883897 0.03543292 0.008383941 -0.019625159 -0.046821233
-0.008292286 0.02624514 -0.054377448 0.043512225 0.050068744 -0.032961577 0.030020991 -0.0011783077
0.07014479 -0.018900374 0.06015461 0.028882645 0.0012437433 -0.06472114 0.020431919 -0.03149215
-0.06392947 -0.06380218 0.062010672 -0.0006336817 -0.049622584 -0.026645504 -0.04385367 0.037047733
-0.046771824 -0.012525902 -0.014162935 -0.003200651 -0.0060556796 0.061584804 -0.038914338 0.06721649
0.039084416 0.021546042 -0.04074826 0.079458036 0.05140904 0.041314017 -0.028357364 -0.064385906
0.03853545 -0.011602899 0.066001706 0.004242277 -0.039520632 0.025445858 0.06694071 -0.012760134
0.05025134 0.06689702 0.07474727 -0.041224588 0.052803278 0.00739076 0.027334284 -0.07637655
-0.024081437 0.083168805 0.034264367 0.053141672 0.030878482 -0.05258466 -0.042498734 0.059803557
0.06205753 -0.061421372 -0.047972642 -0.010044856 0.0021712603 -0.014970978 -0.078361385 -0.06806261
-0.08079492 -0.026106184 -0.07167856 0.03801827 0.07514458 -0.03596156 0.05062142 -0.010540484
0.03205998 0.046585802 -0.06147492 -0.042940773 0.08384821 0.06943716 0.075382166 0.06497325
0.06585395 -0.031951174 -0.007671584 0.03645492 0.056329917 0.04310895 0.060347226 0.0684381
-0.068103686 -0.0321126 0.07057577 0.01831376 0.032400623 -0.077897385 0.05869854 0.0471204
0.06409251 0.021412035 0.039192032 -0.03555349 -0.083392605 -0.065492615 -0.0016461831 -0.068812154
-0.01789143 0.04624729 -0.0031278313 0.06519451 -0.016960895 0.048799492 -0.038430013 -0.03253835
-0.018414943 -0.026664926 -0.014071728 -0.06361916 0.058326736 -0.061467767 -0.030499136 -0.060479466
-0.05936291 -0.04499555 0.04168885 0.0120799085 0.06843785 0.0067578414 0.04380732 -0.0855289
-0.052773077 -0.016530853 -0.02600334 -0.062478233 0.026466409 0.014295101 -0.011143004 -0.023623507
0.0049174004 -0.06743912 0.037476826 -0.014807344 -0.037547976 0.06135853 -0.06646846 -0.080637164
-0.025759686 0.012819646 -0.03527365 0.07171892 -0.029176721 -0.015497244 -0.072255865 -0.03437525
-0.030380562 0.023425788 -0.046939492 0.025917457 0.072363734 -0.020512184 -0.056556176 0.028645761
-0.029871313 0.05465595 0.040420387 0.05302685 0.010103356 0.057147905 -0.037311967 -0.041999012
0.025867293 -0.037604593 0.029663892 -0.06426522 -0.0019432164 -0.024849126 0.020560097 0.061522134
0.027179958 0.05396571 0.0039730365 0.060995393 -0.03775282 0.012618398 0.023884628 -0.06947748
-0.0065379944 -0.014633451 0.014729899 -0.012105203 0.067396745 -0.04685954 0.018039761 0.039373647
-0.07526418 -0.070005834 0.08505992 0.014741374 -0.0668116 -0.044206724 0.058665812 0.042122837
-0.002410318 -0.048031036 0.057351723 0.03990379 -0.069965884 -0.032216985 -0.013713797 -0.0421594
-0.019446338 -0.0040190807 -0.08335693 -0.0370575 0.07532671 -0.024138378 -0.08476475 0.038315322
0.01026324 0.07387133 0.05906159 -0.0005849845 -0.080470584 -0.0513062 0.072728306 -0.0035657259
00000000: 2b3e 7dbc 551c f4bc 72b7 51bd 3f68 b83d
00000010: 8126 46bd 46a0 82bd 8c51 813d 45c0 503c
00000020: ae17 25bd e6b6 303d 4a3f 60bd 4a8f 473c
00000030: 49f9 903d fed4 423d d7b4 f33c 1550 99bd
00000040: fc92 953a 3157 aabb 8572 86ba a26b 50bd
00000050: 1c22 113d cc5c 093c f1c4 a0bc 9fc7 3fbd
00000060: 5edc 07bc 0c00 d73c e3ba 5ebd e039 323d
00000070: e214 4d3d b802 07bd 95ee f53c 7271 9aba
00000080: 12a8 8f3d f5d4 9abc ae64 763d 4c9b ec3c
00000090: 1a05 a33a 848c 84bd d760 a73c eafd 00bd
000000a0: 74ed 82bd b8aa 82bd e7fe 7d3d a91d 26ba
000000b0: 0d41 4bbd ac47 dabc e89f 33bd 5dbf 173d
000000c0: d093 3fbd 7139 4dbc a80b 68bc 03c2 51bb
000000d0: b96e c6bb 5940 7c3d a464 1fbd cda8 893d
000000e0: fb16 203d 5381 b03c a6e7 26bd e5ba a23d
000000f0: 4992 523d e338 293d b44d e8bc c2dc 83bd
00000100: 59d7 1d3d 161a 3ebc e72b 873d cc02 8b3b
00000110: 63e0 21bd d573 d03c 3618 893d e20f 51bc
00000120: 59d4 4d3d 4e01 893d 1915 993d 1ddb 28bd
00000130: 4048 583d 302e f23b 26ec df3c 4f6b 9cbd
00000140: 6f46 c5bc 6854 aa3d cb58 0c3d 15ab 593d
00000150: dff4 fc3c 0363 57bd 2713 2ebd 93f4 743d
00000160: 0930 7e3d fa94 7bbd f67e 44bd 2e93 24bc
00000170: b44b 0e3b d548 75bc ef7b a0bd 6964 8bbd
00000180: cf77 a5bd a3dc d5bc 35cc 92bd 0cb9 1b3d
00000190: 67e5 993d 6e4c 13bd 6858 4f3d ffb1 2cbc
000001a0: 5351 033d c1d0 3e3d 20cd 7bbd aae2 2fbd
000001b0: 9cb8 ab3d 1235 8e3d f761 9a3d b210 853d
000001c0: 70de 863d 3cdf 02bd e961 fbbb c151 153d
000001d0: 33ba 663d 0393 303d a72e 773d 4629 8c3d
000001e0: f279 8bbd 8088 03bd 088a 903d bd06 963c
000001f0: 84b6 043d aa88 9fbd e16d 703d 5201 413d
00000200: ef42 833d 4b68 af3c d387 203d 89a0 11bd
00000210: bec9 aabd fe20 86bd bdc4 d7ba 63ed 8cbd
00000220: 0c91 92bc cc6d 3d3d 4dfc 4cbb b384 853d
00000230: 93f1 8abc fae1 473d ca68 1dbd ef46 05bd
00000240: efda 96bc 6770 dabc 1b8d 66bc c34a 82bd
00000250: 04e8 6e3d a0c5 7bbd 53d9 f9bc 51b9 77bd
00000260: 8626 73bd 414d 38bd edc1 2a3d cfea 453c
00000270: 2529 8c3d e270 dd3b 4e6f 333d c729 afbd
00000280: 9528 58bd b66b 87bc f504 d5bc 2de9 7fbd
00000290: 15d0 d83c 0036 6a3c 2591 36bc 1686 c1bc
000002a0: 2522 a13b 851d 8abd 4d81 193d 819a 72bc
000002b0: e8cb 19bd 1553 7b3d 9e20 88bd 1925 a5bd
000002c0: fa05 d3bc 7e09 523c 1a7b 10bd 5ee1 923d
000002d0: 0504 efbc 27e8 7dbc e2fa 93bd 10cd 0cbd
000002e0: a8e0 f8bc 70e7 bf3c a043 40bd d950 d43c
000002f0: 7033 943d 2b09 a8bc 73a7 67bd 84aa ea3c
00000300: afb4 f4bc ebde 5f3d d98f 253d af32 593d
00000310: 8c88 253c ec13 6a3d 6fd4 18bd 2807 2cbd
00000320: a5e7 d33c 4607 1abd b101 f33c 7c9d 83bd
00000330: 86b3 feba 6590 cbbc a66d a83c a2fe 7b3d
00000340: 81a8 de3c 260b 5d3d 3f30 823b 4ed6 793d
00000350: b3a2 1abd 66bd 4e3c b2a9 c33c 364a 8ebd
00000360: ac3c d6bb 24c1 6fbc ad55 713c e754 46bc
00000370: 4e07 8a3d caef 3fbd 1fc8 933c 4346 213d
00000380: 1b24 9abd 385f 8fbd e533 ae3d ce85 713c
00000390: 85d4 88bd 1c12 35bd 904b 703d ff88 2c3d
000003a0: 6df6 1dbb 31bc 44bd a4e9 6a3d 2872 233d
000003b0: 464a 8fbd f5f5 03bd d5af 60bc 56af 2cbd
000003c0: ed4d 9fbc 7eb2 83bb 0ab7 aabd 9bc9 17bd
000003d0: e444 9a3d d9bd c5bc 2499 adbd 87f0 1c3d
000003e0: 2627 283c da49 973d 91ea 713d a559 19ba
000003f0: c3cd a4bd 7326 52bd 94f2 943d f4ae 69bb

bias f4 [16]
-0.074651256 -0.07800301 -0.024167167 -0.07868789 -0.070823684 0.040048037 0.007488007 0.048770692
0.044347774 -0.053441636 0.04893381 -0.033079967 0.010085856 0.0061036027 0.017340738 0.06440572
00000000: c2e2 98bd 0bc0 9fbd 39fa c5bc 1e27 a1bd
00000010: 020c 91bd 6909 243d f55d f53b c7c3 473d
00000020: 03a6 353d 9ee5 5abd d26e 483d dc7e 07bd
00000030: 253f 253c bb00 c83b 2a0e 8e3c 25e7 833d

weight f4 [16, 16, 3, 3]
-0.05967835 -0.031833787 0.008721525 0.02285235 0.0159368 -0.070922926 -0.08102442 0.047172923
-4.5346787e-05 -0.030243477 0.019398661 -0.04828461 0.03189278 0.023255179 -0.056046028 -0.0772313
-0.008220552 -0.032181136 0.031959802 0.021436054 -0.10281593 -0.12138936 0.048874374 -0.06300521
-0.025867673 0.031483166 0.032286167 0.0047903885 -0.0016534912 -0.0002875615 -0.08176446 0.004663891
0.046112295 -0.034678686 -0.029842462 0.06943269 0.018198228 -0.07841666 0.02248738 0.045128487
-0.02847265 -0.03275135 -0.037353884 0.020884119 -0.07287009 -0.002556254 -0.046451468 -0.012555029
-0.013397527 -0.0038773103 -0.05423465 0.03684206 0.057259623 -0.007144743 0.035413083 0.053266995
-0.07189815 -0.043548826 -0.08517045 -0.07751628 0.031710986 -0.13473415 -0.021452518 0.087719604
-0.08663802 -0.0717208 0.030913694 -0.07767345 0.03614896 0.08447299 -0.05071117 -0.038809154
0.06383999 -0.06474746 0.09541004 0.0628139 0.070308715 -0.0893584 0.06655101 0.021742301
-0.058226522 -0.114356294 -0.035091884 -0.008232465 0.123029254 -0.022656 -0.0034934322 -0.018379243
-0.07025914 0.082213804 0.058798984 -0.086858466 -0.06766242 -0.08197361 -0.0477169 -0.06148989
0.02268795 -0.07159183 0.05633182 -0.069458134 -0.00020785142 0.08538634 -0.086844966 0.060500745
-0.0399112 -0.049035836 -0.064397454 -0.006389157 0.096711144 -0.1184036 0.009561114 0.019229371
-0.0886777 -0.043353885 -0.025850296 0.09964464 -0.1230333 0.022872536 0.03972737 0.040240172
0.022751484 -0.084193535 0.02713783 -0.021491649 0.012021811 -0.031876713 0.07664635 0.046609517
-0.06298982 -0.0061766147 0.06282614 0.027971717 -0.06835476 -0.0014155244 -0.06800972 0.054054614
-0.082947984 -0.023986572 -0.003914537 -0.05505869 -0.06105502 -0.057274647 0.048543375 -0.011251311
-0.063109465 0.04826665 -0.017512664 0.009581197 0.020983396 -0.005469553 -0.073608615 -0.01528971
0.069553815 -0.02573835 0.07064367 0.007321263 -0.02149857 0.0006738549 -0.040849894 0.022300452
-0.05009405 -0.042790845 -0.07195435 0.043346003 0.057585835 0.04658789 -0.033938736 -0.02187855
0.00048034106 -0.076522075 -0.0069272225 0.029715497 0.06593904 -0.06180065 0.021208696 0.07431947
0.018723655 -0.040607646 0.041971285 0.052574735 -0.070733644 0.0013811727 -0.061613303 -0.04254867
-0.025248857 0.01601516 0.026592685 -0.019897798 -0.016312083 -0.007145272 -0.082624674 -0.009184128
0.004499031 0.0722734 -0.059487235 0.048430186 0.034472656 -0.046409942 -0.060103208 -0.041254923
0.09012498 -0.0062842276 -0.076819405 0.055424694 -0.046668567 -0.07585612 0.090635955 -0.06261163
-0.06531286 0.024648337 0.07197649 -0.061706986 0.07864826 0.062665366 0.0066863755 -0.07005183
0.059373483 0.07423934 0.07207742 -0.056628104 0.080658436 0.081097506 0.016188627 -0.055989295
0.011657085 0.083105184 0.031871665 0.014412787 -0.052056458 -0.12099268 0.017454678 -0.028318265
0.011859654 -0.021392947 -0.061135057 0.018763814 0.00832776 0.036220588 -0.01080547 0.004326132
-0.05132237 -0.062099885 0.047160644 -0.07570969 -0.0035868846 -0.04667912 -0.04043343 -0.10422353
0.10649492 -0.024368234 -0.0371102 0.08388574 0.05775519 -0.021121718 -0.08394218 0.05604482
00000000: 4971 74bd 2564 02bd bae4 0e3c da34 bb3c
00000010: e48d 823c 0a40 91bd 22f0 a5bd 6538 413d
00000020: be32 3eb8 2bc1 f7bc f1e9 9e3c 15c6 45bd
00000030: 01a2 023d a581 be3c 8590 65bd 722b 9ebd
00000040: 7eaf 06bc 5ed0 03bd 48e8 023d aa9a af3c
00000050: 2991 d2bd fc9a f8bd 7f30 483d e008 81bd
00000060: 71e8 d3bc 7ef4 003d 803e 043d b1f8 9c3b
00000070: f5b9 d8ba dac3 96b9 2074 a7bd 8ed3 983b
00000080: 3fe0 3c3d 3d0b 0ebd 2e78 f4bc ba32 8e3d
00000090: 7314 953c ea98 a0bd 7437 b83c a6d8 383d
000000a0: 7a3f e9bc 4826 06bd 6300 19bd 2c15 ab3c
000000b0: ea3c 95bd d386 27bb e543 3ebd 9cb3 4dbc
000000c0: 4d81 5bbc 791a 7ebb 2725 5ebd b3e7 163d
000000d0: 1189 6a3d 731e eabb 4f0d 113d 7e2e 5a3d
000000e0: 563f 93bd 4160 32bd d86d aebd dbc0 9ebd
000000f0: 61e3 013d c0f7 09be 31bd afbc 56a6 b33d
00000100: 466f b1bd 5be2 92bd b73e fd3c 4213 9fbd
00000110: ef10 143d 2d00 ad3d 84b6 4fbd 59f6 1ebd
00000120: 8abe 823d 519a 84bd 5766 c33d 93a4 803d
00000130: 04fe 8f3d 8901 b7bd e54b 883d e91c b23c
00000140: ef7e 6ebd a233 eabd 82bc 0fbd 76e1 06bc
00000150: c3f6 fb3d 1399 b9bc 11f2 64bb 1190 96bc
00000160: 06e4 8fbd b65f a83d 34d7 703d dae2 b1bd
00000170: 9892 8abd c8e1 a7bd cc72 43bd d3dc 7bbd
00000180: 14dc b93c bd9e 92bd 32bc 663d 1140 8ebd
00000190: b1f2 59b9 09df ae3d c6db b1bd a1cf 773d
000001a0: ed79 23bd cdd9 48bd d0e2 83bd 225c d1bb
000001b0: 7e10 c63d 967d f2bd 38a6 1c3c ea86 9d3c
000001c0: a79c b5bd d893 31bd 00c4 d3bc 7d12 cc3d
000001d0: e2f8 fbbd 2f5f bb3c 2bb9 223d e1d2 243d
000001e0: 5261 ba3c a96d acbd 2850 de3c 410f b0bc
000001f0: 21f7 443c 2891 02bd c3f8 9c3d 9fe9 3e3d
00000200: cf00 81bd 3365 cabb feaa 803d f124 e53c
00000210: 95fd 8bbd 1e89 b9ba ae48 8bbd 5f68 5d3d
00000220: a2e0 a9bd 7d7f c4bc 8445 80bb 3985 61bd
00000230: d414 7abd d298 6abd 6bd5 463d 6b57 38bc
00000240: 893f 81bd 40b3 453d b876 8fbc 74fa 1c3c
00000250: 5fe5 ab3c f039 b3bb 1dc0 96bd b181 7abc
00000260: 3b72 8e3d 3bd9 d2bc a1ad 903d 35e7 ef3b
00000270: c51d b0bc a3a5 303a 3852 27bd 70af b63c
00000280: 6b2f 4dbd 7445 2fbd cd5c 93bd 948b 313d
00000290: 20df 6b3d f1d2 3e3d 5803 0bbd a53a b3bc
000002a0: 49d6 fb39 9bb7 9cbd c1fd e2bb ea6d f33c
000002b0: 0c0b 873d ae22 7dbd dcbd ad3c ce34 983d
000002c0: 5a62 993c 3454 26bd 15ea 2b3d 9b58 573d
000002d0: cddc 90bd 7708 b53a 3b5e 7cbd 8447 2ebd
000002e0: b1d6 cebc 3a32 833c e7d8 d93c b500 a3bc
000002f0: eba0 85bc e322 eabb 2037 a9bd 0679 16bc
00000300: 9c6c 933b 1404 943d e3a8 73bd bb5e 463d
00000310: 3333 0d3d 5a18 3ebd c82e 76bd ecfa 28bd
00000320: 7293 b83d eceb cdbb 7e53 9dbd 0105 633d
00000330: 8a27 3fbd 745a 9bbd 589f b93d 873a 80bd
00000340: c0c2 85bd 4feb c93c 6968 933d 77c0 7cbd
00000350: 5712 a13d b356 803d 6219 db3b 5577 8fbd
00000360: 9c31 733d cc0a 983d 549d 933d dff2 67bd
00000370: 4030 a53d 7316 a63d 039e 843c 0855 65bd
00000380: 5cfd 3e3c 0d33 aa3d dd8b 023d 9c23 6c3c
00000390: 2739 55bd 03cb f7bd 1dfd 8e3c b5fb e7bc
000003a0: ff4e 423c 4340 afbc c168 7abd 92b6 993c
000003b0: 2871 083c 0a5c 143d 6d09 31bc 3ac2 8d3b
000003c0: 6837 52bd 735c 7ebd 852b 413d af0d 9bbd
000003d0: f011 6bbb 9b32 3fbd 869d 25bd 2573 d5bd
000003e0: 021a da3d e49f c7bc dd00 18bd 49cc ab3d
000003f0: b590 6c3d 7407 adbc e1e9 abbd 418f 653d

bias f4 [16]
0.01228123 0.073745154 -0.032266803 -0.06131348 -0.018855292 0.03974056 -0.07209668 0.0096543245
0.057709783 0.030077958 -0.044514213 -0.08207674 0.07058803 0.030465351 -0.014854581 -0.004086976
00000000: 3637 493c b307 973d 322a 04bd d823 7bbd
00000010: 6a76 9abc ffc6 223d 6da7 93bd 2c2d 1e3c
00000020: 1861 6c3d 0d66 f63c 8954 36bd da17 a8bd
00000030: 7590 903d 7992 f93c a160 73bc 0aec 85bb

weight f4 [64, 16, 3, 3]
-0.09219003 0.05695543 0.07323079 -0.044764366 -0.09655457 -0.02194048 -0.004724525 -0.08621356
0.032778222 -0.04065712 -0.060285196 0.037476383 0.008733447 -0.034630768 -0.06706438 -0.030525578
0.03141935 -0.012623337 0.04790442 0.009330834 0.0036658763 0.036913812 -0.01251529 0.09517383
0.07051642 -0.08244664 0.0036171332 -0.0068057314 0.030610666 -0.06272412 -0.020760378 0.022136666
-0.029268801 0.024510892 -0.023812478 -0.062335968 -0.00795022 -0.0027207797 0.054795712 -0.009873048
0.034945715 -0.07019861 -0.03899753 0.02988613 -0.07695399 -0.027259087 0.056744464 -0.0520617
-0.0032830636 0.066132195 -0.0026441298 -0.015891513 -0.06630059 -0.019881401 -0.03418364 -0.05387065
-0.024609309 -0.07558935 0.08568086 -0.033531617 -0.04627291 0.017524615 -0.016707012 0.07479674
0.019040065 -0.04788779 -0.0010017271 -0.0643826 -0.0002776062 0.05096446 -0.03906107 -0.040858053
0.06076954 -0.036680892 -0.0622052 -0.06608421 -0.045280803 0.011620205 -0.09684739 -0.02944866
-0.08695902 -0.07159723 -0.08736214 0.058191933 0.020474553 -0.060617574 -0.026360864 -0.0039428356
-0.026469404 -0.023488548 0.032674685 0.038146134 0.00044851823 -0.031686995 -0.07491689 -0.023177937
-0.028449062 0.0716811 -0.035335127 -0.030631324 0.008344115 -0.028345684 0.017530331 0.025953447
0.035555307 -0.051781606 0.025895435 0.015428397 -0.024282824 0.081521735 -0.07183034 0.017126665
-0.035070244 0.035172604 -0.01674352 0.035495777 0.06534606 0.0117856115 0.081106916 -0.07478683
-0.011320583 -0.012774886 0.0497418 0.025607891 0.019496633 0.007254254 0.0044617495 -0.055624098
0.045042686 0.025356937 -0.018198306 0.040435523 0.04237149 -0.006519525 -0.085538834 -0.03633537
0.0063848263 -0.06621759 0.08515923 -0.04741858 0.030925093 -0.0227882 0.024058374 0.019356282
-0.016360484 -0.053602446 -0.011171185 -0.079597145 -0.024389863 0.07252861 0.07087333 0.01638253
-0.009516942 -0.010783815 0.08152818 0.012324291 0.025228562 -0.03457295 -0.015212771 0.051002227
-0.0710465 0.051618326 0.061596625 -0.022877477 -0.06795582 -0.06489309 0.07676886 0.08291097
0.023057483 0.028795294 -0.09342189 -0.085912906 -0.030857261 0.028712805 -0.017239008 -0.08898339
-0.03680761 0.084948376 -0.03843263 0.07101969 -0.04573651 -0.023901606 -0.04542103 0.088616356
-0.10833977 0.016598152 -0.05741482 -0.031324036 -0.09667419 -0.06584178 0.035793643 0.00987265
-0.04530981 0.06329106 0.006959071 -0.018860543 0.014925371 -0.031110607 -0.018496845 -0.00792174
0.043847226 -0.047632195 0.014007 0.019702464 0.048164442 0.021665527 0.015122847 -0.030789167
0.030747585 -0.025913035 -0.06501996 -0.046161585 0.04639455 -0.0023707817 -0.07222789 0.045788698
0.052180473 0.06734075 -0.082766905 0.021239858 0.04812689 -0.020724237 0.0143936835 -0.03236707
-0.018146321 0.05082782 0.051466085 -0.042527713 -0.054617833 -0.02267463 -0.04915291 -0.047875196
0.008842182 -0.07265791 -0.0012429683 0.077615574 -0.07844828 0.063825764 0.0074928026 0.024348533
0.006222884 0.008733911 0.025668869 0.017160553 -0.0005917821 -0.07486432 0.016797835 0.028326046
0.045703012 0.035844587 0.04756188 0.0346252 0.07848665 0.08332546 0.015050231 0.014313323
00000000: 20ce bcbd 194a 693d 06fa 953d d75a 37bd
00000010: 67be c5bd 86bc b3bc 30d0 9abb bc90 b0bd
00000020: 7542 063d 1588 26bd 9ced 76bd d680 193d
00000030: bb16 0f3c fed8 0dbd 0d59 89bd c710 fabc
00000040: 94b1 003d 1dd2 4ebc 6d37 443d 5be0 183c
00000050: 333f 703b f032 173d ee0c 4dbc 7fea c23d
00000060: ea6a 903d c9d9 a8bd 6d0d 6d3b 9d02 dfbb
00000070: 38c3 fa3c 8175 80bd ab11 aabc f457 b53c
00000080: 20c5 efbc 11cb c83c 6312 c3bc 0054 7fbd
00000090: a441 02bc 1c4f 32bb 7871 603d 91c2 21bc
000000a0: 3d23 0f3d 4ac4 8fbd e0bb 1fbd c2d3 f43c
000000b0: 0e9a 9dbd 734e dfbc e26c 683d a63e 55bd
000000c0: ab28 57bb 5170 873d 2349 2dbb eb2e 82bc
000000d0: 9bc8 87bd 52de a2bc 2504 0cbd 78a7 5cbd
000000e0: 7699 c9bc 97ce 9abd 7279 af3d 7358 09bd
000000f0: aa88 3dbd c88f 8f3c 25dd 88bc 092f 993d
00000100: e9f9 9b3c fd25 44bd 624c 83ba 06db 83bd
00000110: ac8b 91b9 1cc0 503d 80fe 1fbd c65a 27bd
00000120: 7be9 783d b43e 16bd e1ca 7ebd 2957 87bd
00000130: 5d78 39bd ac62 3e3c ed57 c6bd 513e f1bc
00000140: 9217 b2bd 92a1 92bd ecea b2bd aa5a 6e3d
00000150: 40ba a73c 224a 78bd bdf2 d7bc e732 81bb
00000160: 5dd6 d8bc 0e6b c0bc e4d5 053d 1f3f 1c3d
00000170: 1927 eb39 39ca 01bd 076e 99bd a8df bdbc
00000180: 020e e9bc 8acd 923d 91bb 10bd 8bee fabc
00000190: c1b5 083c 3535 e8bc c59b 8f3c 539c d43c
000001a0: 71a2 113d f318 54bd aa22 d43c 63c7 7c3c
000001b0: c6ec c6bc def4 a63d c91b 93bd 384d 8c3c
000001c0: d1a5 0fbd 2611 103d b529 89bc 0564 113d
000001d0: 28d4 853d 7018 413c 621b a63d d629 99bd
000001e0: f779 39bc c14d 51bc 0fbe 4b3d a4c7 d13c
000001f0: 67b7 9f3c 18b5 ed3b de33 923b 18d6 63bd
00000200: ae7e 383d 5ab9 cf3c 9d14 95bc b89f 253d
00000210: ba8d 2d3d bda1 d5bb fc2e afbd 66d4 14bd
00000220: ce37 d13b 169d 87bd f667 ae3d fc39 42bd
00000230: 9f56 fd3c 52ae babc 1116 c53c 1191 9e3c
00000240: 6c06 86bc 3d8e 5bbd 5907 37bc d403 a3bd
00000250: 40cd c7bc e189 943d 0926 913d a834 863c
00000260: f3ec 1bbc 99ae 30bc 3ff8 a63d d3eb 493c
00000270: 21ac ce3c 5e9c 0dbd fc3e 79bc b6e7 503d
00000280: d480 91bd bd6d 533d be4c 7c3d 8c69 bbbc
00000290: 6c2c 8bbd abe6 84bd fe38 9d3d 3acd a93d
000002a0: 0ce3 bc3c 1ce4 eb3c fa53 bfbd 1bf3 afbd
000002b0: 5ec8 fcbc 1e37 eb3c d238 8dbc ec3c b6bd
000002c0: 94c3 16bd 6af9 ad3d 896b 1dbd c572 913d
000002d0: 3556 3bbd 4dcd c3bc 670b 3abd 7e7c b53d
000002e0: 3ee1 ddbd d9f8 873c cd2b 6bbd a24d 00bd
000002f0: 1efd c5bd 0ed8 86bd 5b9c 123d e5c0 213c
00000300: c896 39bd be9e 813d eb08 e43b 6d81 9abc
00000310: 8b89 743c acdb febc b286 97bc 30ca 01bc
00000320: 2699 333d fa19 43bd 9e7d 653c 1067 a13c
00000330: 1448 453d e77b b13c d1c5 773c 9039 fcbc
00000340: 5ce2 fb3c 9347 d4bc 2f29 85bd ee13 3dbd
00000350: 3608 3e3d 1e5f 1bbb 37ec 93bd ee8c 3b3d
00000360: 31bb 553d f2e9 893d b281 a9bd 36ff ad3c
00000370: b420 453d e0c5 a9bc 7cd3 6b3c 5593 04bd
00000380: 98a7 94bc d530 503d 1ace 523d 8a31 2ebd
00000390: f3b6 5fbd 25c0 b9bc 9054 49bd c818 44bd
000003a0: cdde 103c accd 94bd 18eb a2ba eaf4 9e3d
000003b0: 7ea9 a0bd 15b7 823d 2f86 f53b 9376 c73c
000003c0: 56e9 cb3b ae18 0f3c 8547 d23c 4a94 8c3c
000003d0: d321 1bba 7752 99bd 9d9b 893c 060c e83c
000003e0: 1533 3b3d c6d1 123d 3fd0 423d 27d3 0d3d
000003f0: 9cbd a03d 8aa6 aa3d 3e95 763c 6e82 6a3c

bias f4 [64]
0.0776203 -0.012083576 -0.030553985 0.055122893 -0.001767323 -0.018996041 0.006294676 0.052129164
-0.044478256 -0.025605928 0.05911298 -0.064964175 0.058891397 0.019708209 0.044950694 -0.041560013
0.025999436 -0.006240746 0.07248671 0.010709089 0.03161515 0.010775001 -0.016586535 0.04697437
-0.042586725 0.07026113 -0.010039137 -0.051780853 -0.039812986 -0.057652924 -0.0013819293 0.039119005
0.008449436 0.03805937 0.05170109 -0.03824468 0.027976695 0.026352707 0.057657585 0.07777169
-0.03158509 0.067437254 -0.040015277 0.06784372 -0.055784155 -0.073043175 -0.06539437 0.0004745777
-0.0005701945 -0.024750553 -0.04745649 0.010896187 -0.06958305 0.08029011 -0.04541087 -0.046125073
-0.037531123 -0.04710036 -0.020101618 -0.06965888 0.0429472 0.011615091 0.019570466 -0.08996035
00000000: 64f7 9e3d 31fa 45bc 5a4c fabc 8bc8 613d
00000010: 85a5 e7ba 969d 9bbc 9243 ce3b 6485 553d
00000020: d52e 36bd 86c3 d1bc 7420 723d f00b 85bd
00000030: 1b38 713d 1c73 a13c 381e 383d d53a 2abd
00000040: c5fc d43c 2c7f ccbb ea73 943d 2d75 2f3c
00000050: e37e 013d a189 303c 7ce0 87bc 3268 403d
00000060: 6b6f 2ebd 11e5 8f3d 317b 24bc 2918 54bd
00000070: f112 23bd 7925 6cbd da21 b5ba 403b 203d
00000080: 816f 0a3c 24e4 1b3d 86c4 533d 74a6 1cbd
00000090: 622f e53c a2e1 d73c 5c2a 6c3d c446 9f3d
000000a0: 5e5f 01bd 8b1c 8a3d 0fe7 23bd a6f1 8a3d
000000b0: ed7d 64bd a997 95bd 7ced 85bd bed0 f839
000000c0: 1b79 15ba acc1 cabc bd61 42bd ec85 323c
000000d0: 8f81 8ebd 246f a43d c000 3abd a5ed 3cbd
000000e0: 3cba 19bd 4fec 40bd 26ac a4bc 51a9 8ebd
000000f0: 67e9 2f3d 394d 3e3c 3e52 a03c 223d b8bd

weight f4 [64, 16, 3, 3]
0.035475224 0.06410274 0.041724574 0.010469436 0.050909586 -0.07407116 -0.055867773 -0.0004133886
-0.01529721 -0.05701052 -0.032496247 -0.03298546 0.069105044 -0.009723661 -0.03196332 -0.03138317
-0.0715334 0.033736654 -0.06182817 0.08788706 -0.018707298 0.003941748 -0.021548834 -0.067555815
0.013772632 -0.051127773 -0.05798849 0.006053884 -0.061299514 -0.047732424 0.033738986 0.04508055
-0.0068364274 0.046864633 0.06275548 -0.05523786 0.03890313 0.0016796719 -0.009841017 0.037993554
0.07659267 -0.007267487 -0.025535932 -0.0066107847 0.037954442 0.041219126 -0.078480564 -0.016643232
0.03112363 -0.010836237 -0.04929029 0.05853864 -0.020151831 -0.030257242 -0.012215234 0.07672366
0.016402068 -0.06004089 0.07149432 0.043604046 0.02561413 0.015130076 0.032820825 -0.075053856
0.0046406467 -0.049750965 0.05071719 -0.048771616 0.053602356 0.070819 0.06392432 0.007866088
0.012597188 0.023821013 0.0042693806 0.028304905 -0.005328139 -0.0706233 -0.03866771 0.011714842
0.050091904 -0.06457054 0.05285798 -0.06705848 0.057076804 -0.09271861 -0.035703175 -0.06151812
-0.08951865 -0.0436619 -0.061191678 -0.028084492 0.05967817 0.062859096 0.009632496 -0.07179218
-0.0458246 -0.06986325 0.06675204 -0.027343176 -0.037013 -0.053455718 0.0011059885 0.012963123
-0.06806871 0.006180358 0.0627801 -0.04827659 0.048613492 -0.10408318 -0.09311067 -0.076744825
-0.036056314 0.015926495 -0.007653301 -0.03515207 -0.02027964 0.0062934225 0.049810953 0.06634423
-0.047000073 -0.07500564 0.0060021384 0.05012782 0.034964684 0.0136124985 -0.0009281834 0.048626095
0.03525469 0.06620835 -0.057263896 -0.04509325 -0.018386044 -0.020707613 -0.02801062 0.079783626
0.018786825 -0.031405617 -0.052388128 -0.025828747 0.0046870243 0.0046821176 0.037133683 0.06971171
-0.048322897 0.069771804 -0.07873051 0.040170405 0.039789755 -0.054312076 0.029184986 -0.036481984
0.015882432 -0.03781623 -0.0321974 0.06727855 0.057049792 -0.06374356 -0.072511345 -0.044696804
-0.0723719 -0.04903508 -0.070303746 0.025742192 0.012646587 -0.057899628 0.08615534 -0.028733587
-0.06157472 0.0034461266 -0.07527415 0.031426188 -0.020453209 -0.039159026 -0.07325794 -0.006455861
-0.095966175 0.073659346 0.0062017264 -0.046302814 0.031932533 0.05040998 0.004863745 0.079167105
0.07912142 -0.03686769 0.06810023 -0.0059283264 -0.03902585 -0.07930475 0.031296074 0.073551975
-0.08258882 0.053644642 -0.033293977 -0.016940933 -0.07417522 -0.004957705 0.059696678 0.011162037
-0.07408746 -0.07640364 0.09517879 0.080316626 0.023849266 -0.053087767 0.03732578 -0.073836625
-0.047243025 0.05604006 -0.068424545 -0.0111716 -0.01680026 -0.05686186 -0.050057724 0.016631704
0.06970691 0.02764483 -0.086979285 -0.014390732 0.002716103 -0.09677325 -0.03476544 -0.009880727
-0.022189278 0.04624524 0.03548817 0.018235022 0.0248857 -0.033255517 -0.030480279 0.065851375
0.05120096 -0.0028854844 -0.074225284 -0.013800258 0.063598216 0.004469038 0.08273072 -0.048655413
0.048798095 -0.071181305 0.07315344 -0.049587037 -0.016353318 -0.030070063 -0.06784621 -0.06985371
-0.013288173 0.02835705 0.03461496 -0.03249565 -0.03332415 0.04858104 -0.08456101 -0.028326133
00000000: 784e 113d 4c48 833d 63e7 2a3d ff87 2b3c
00000010: 9286 503d 9fb2 97bd 9bd5 64bd 14bc d8b9
00000020: 26a1 7abc dd83 69bd c91a 05bd c31b 07bd
00000030: f286 8d3d fd4f 1fbc f8eb 02bd a48b 00bd
00000040: 1a80 92bd 722f 0a3d 893f 7dbd 22fe b33d
00000050: 0c40 99bc c729 813b 2e87 b0bc b45a 8abd
00000060: 9ba6 613c 5b6b 51bd 5785 6dbd a95f c63b
00000070: 3315 7bbd 1383 43bd e431 0a3d 62a6 383d
00000080: 1c04 e0bb 21f5 3f3d f285 803d 1841 62bd
00000090: e358 1f3d 7028 dc3a 383c 21bc 219f 1b3d
000000a0: 9edc 9c3d 1924 eebb bb30 d1bc 489f d8bb
000000b0: 1e76 1b3d 63d5 283d 6bba a0bd 6357 88bc
000000c0: fcf6 fe3c 798a 31bc 9de4 49bd 37c6 6f3d
000000d0: 7415 a5bc 09de f7bc 6822 48bc 4b21 9d3d
000000e0: a15d 863c 70ed 75bd 9d6b 923d 289a 323d
000000f0: b9d4 d13c 23e4 773c 216f 063d d6b5 99bd
00000100: 9110 983b abc7 4bbd d4bc 4f3d bfc4 47bd
00000110: 258e 5b3d 8d09 913d c1ea 823d c4e0 003c
00000120: 7064 4e3c 4924 c33c 29e6 8b3b b0df e73c
00000130: ab97 aebb f3a2 90bd 0862 1ebd 9cef 3f3c
00000140: 2b2d 4d3d 8f3d 84bd 9c81 583d f555 89bd
00000150: 5ec9 693d 41e3 bdbd 7e3d 12bd 6dfa 7bbd
00000160: 8e55 b7bd d2d6 32bd 20a4 7abd 7311 e6bc
00000170: 1971 743d 45bc 803d 9ed1 1d3c c707 93bd
00000180: 93b2 3bbd 7714 8fbd 4bb5 883d ccfe dfbc
00000190: f29a 17bd 62f4 5abd d1f6 903a 4763 543c
000001a0: 9c67 8bbd 9a84 ca3b da92 803d acbd 45bd
000001b0: f11e 473d 9029 d5bd cfb0 bebd 642c 9dbd
000001c0: c9af 13bd 4878 823c 8bc8 fabb 9efb 0fbd
000001d0: 7d21 a6bc 0e39 ce3b 9206 4c3d 7cdf 873d
000001e0: 2683 40bd 8f9c 99bd 96ad c43b d452 4d3d
000001f0: 2137 0f3d f506 5f3c 5551 73ba 282c 473d
00000200: 3967 103d 3e98 873d 8c8d 6abd b3b3 38bd
00000210: 549e 96bc 03a3 a9bc 8776 e5bc 9965 a33d
00000220: d4e6 993c 2da3 00bd ef94 56bd cf96 d3bc
00000230: 9c95 993b 736c 993b 7d19 183d 03c5 8e3d
00000240: 3bee 45bd 85e4 8e3d 763d a1bd b989 243d
00000250: 95fa 223d 5776 5ebd 5a15 ef3c 226e 15bd
00000260: e01b 823c 31e5 1abd 6ce1 03bd 56c9 893d
00000270: 0bad 693d fc8b 82bd d480 94bd ff13 37bd
00000280: b837 94bd 02d9 48bd 69fb 8fbd 4ae1 d23c
00000290: a133 4f3c 2928 6dbd 3672 b03d b362 ebbc
000002a0: c635 7cbd 69d8 613b 5529 9abd bfb8 003d
000002b0: 7d8d a7bc 3765 20bd 4208 96bd b08b d3bb
000002c0: ea89 c4bd b6da 963d da37 cb3b 05a8 3dbd
000002d0: b0cb 023d b27a 4e3d 0d60 9f3b 5d22 a23d
000002e0: 690a a23d 9302 17bd 2278 8b3d 6842 c2bb
000002f0: 92d9 1fbd 876a a2bd 5030 003d 6ba2 963d
00000300: 5424 a9bd 7cba 5b3d 445f 08bd b6c7 8abc
00000310: 2ee9 97bd 3e74 a2bb 8184 743d fae0 363c
00000320: 2bbb 97bd 8379 9cbd 19ed c23d 0b7d a43d
00000330: 895f c33c 8f72 59bd ebe2 183d a837 97bd
00000340: e781 41bd 438a 653d 2b22 8cbd 1609 37bc
00000350: b3a0 89bc fbe7 68bd 5409 4dbd 363f 883c
00000360: 7fc2 8e3d 6977 e23c 3222 b2bd 1bc7 6bbc
00000370: a600 323b 0e31 c6bd 3566 0ebd c6e2 21bc
00000380: 4ac6 b5bc a66b 3d3d 0b5c 113d 9d61 953c
00000390: 18dd cb3c f036 08bd c7b1 f9bc 16dd 863d
000003a0: 19b8 513d 651a 3dbb 6d03 98bd 7a1a 62bc
000003b0: c83f 823d 0271 923b b96e a93d e64a 47bd
000003c0: 83e0 473d 81c7 91bd 79d1 953d c71b 4bbd
000003d0: 65f7 85bc 7e55 f6bc f4f2 8abd 760f 8fbd
000003e0: a3b6 59bc 0b4d e83c 6bc8 0d3d 291a 05bd
000003f0: e77e 08bd eafc 463d 532e adbd 350c e8bc

bias f4 [64]
-0.01787453 0.07520209 -0.0858648 -0.06015487 -0.019980362 0.048512287 -0.03349144 -0.05006644
0.030965261 -0.05339414 -0.0009666662 0.011260554 -0.05743935 0.063686095 0.07443068 0.03473158
0.040065244 -0.032263048 -0.027626019 0.02630231 -0.010025803 0.02674521 -0.011057935 0.030988904
-0.060021766 0.046067674 0.06084012 -0.050908186 -0.06973075 0.03755393 -0.032654412 0.030776571
0.06985884 -0.09099609 -0.00750132 -0.091495275 0.0074951453 -0.024923636 0.022309437 -0.061751388
-0.01505887 -0.08507145 -0.03168237 0.0527579 0.036990386 0.06871979 0.0055988426 -0.06843892
-0.0731675 -0.035415106 -0.07292723 -0.028806362 0.06276726 0.07686027 -0.018473785 -0.04296056
-0.042797115 0.0248391 -0.08343246 0.04020568 -0.026327783 0.0096928775 -0.013079887 -0.046538863
00000000: 9b6d 92bc 8e03 9a3d e2d9 afbd f464 76bd
00000010: dbad a3bc d2b4 463d 522e 09bd 7812 4dbd
00000020: dcaa fd3c d0b3 5abd df67 7dba 307e 383c
00000030: 8645 6bbd db6d 823d 1d6f 983d b442 0e3d
00000040: 741b 243d 4226 04bd f64f e2bc f177 d73c
00000050: 4443 24bc c518 db3c 572c 35bc 71dc fd3c
00000060: 62d9 75bd 75b1 3c3d 7d33 793d 1a85 50bd
00000070: ffce 8ebd 26d2 193d a2c0 05bd 261f fc3c
00000080: 2712 8f3d 285c babd a2cd f5bb e061 bbbd
00000090: d699 f53b a72c ccbc 48c2 b63c 06ef 7cbd
000000a0: 7bb9 76bc f139 aebd 5fc5 01bd ab18 583d
000000b0: 3b83 173d f6bc 8c3d 7f76 b73b b429 8cbd
000000c0: d8d8 95bd 6e0f 11bd df5a 95bd 52fb ebbc
000000d0: 1f8c 803d eb68 9d3d 5656 97bc 6af7 2fbd
000000e0: 074c 2fbd 5e7b cb3c a3de aabd b6ae 243d
000000f0: 5dad d7bc e0ce 1e3c 064d 56bc 899f 3ebd
