working/model_pretrained/net_F16B2_epoch_5.pth (torch_old, 135469 bytes, 16 tensors)

weight f4 [16, 3, 3, 3]
00000000: d2ec 173e cc3f 07be d08c 22be e262 10be
00000010: 548c 193e c605 013e 7154 13be c7c1 2b3e
00000020: 999f aabd 60d2 2dbe c2b7 8abd ca12 b4bc
00000030: 7888 ffbd 494b cc3d 4a37 253e 0fb4 be3d
00000040: 0a3a 16be be6f 1e3e 4bad 933c efec d23d
00000050: 7dec 333e 2a94 19bd 739c c9bd 06d4 863d
00000060: 74d9 c7bd 2eea 26be 286c af3d 3481 e53d
00000070: 770c 773d 2143 1ebe 194f 10bd 7cdd 80bd
00000080: 071b bdbd af12 01bd 25a3 133e 5746 21be
00000090: d60d 913a a4d3 c13d bc90 383d 14ca 353e
000000a0: 388f 493c b5cc 18be c5fd 00be 4a81 59bc
000000b0: 142f 163c 5e5d 113d 3058 f1bc 6dd2 a6bd
000000c0: e18e 10be 643d 693d 11c4 053b f39c e0bd
000000d0: 2d07 0fbe 13ed 6abd e54f e3bb 2581 423e
000000e0: 427a 373e 8286 00bd a9ff f73d 591e 3d3e
000000f0: 0186 6f3c 30a9 2dbe afee 1b3e 575f 3dbd
00000100: f4a2 2bbe f0cc bcbc 16c4 ab3d 6075 2ebd
00000110: d4e4 3a3c b84c a3bd c977 0ebe 80b5 0fbe
00000120: 5d61 b73d 4637 253e 5b12 43ba 60bc c6bd
00000130: 4061 9abd 6732 653c bef4 cabd dfe2 0fbe
00000140: 3388 14be c961 26be 9c1f c7bd 16bd 0f3e
00000150: f455 c73d d95d c8bc 7a10 1ebc 6a25 d4bc
00000160: 3e31 dabd d68d e1bc 957b 88bc 408d bfbd
00000170: bb3e 64bd 5774 e0bd 6808 a43c 5351 b3bd
00000180: 0fa9 b6bd 28cc 513d 4d17 4fbb da4d 103d
00000190: baf3 0c3e 84f9 1abe 1ae5 c6bd 3614 303e
000001a0: 0792 fa3d 242e 29be 4387 e33d 235d 953b
000001b0: 0644 5abd 9cb4 1bbe 83fc a73d de2c f3bd
000001c0: aa2a ca3d 8698 d4bd e7e8 1dbe 611a 893d
000001d0: 7cfa 15bc c4df 8a3d fa05 73bd 97e1 023c
000001e0: d191 f5bc 1af7 8a3d c462 02bd df8f 7dbd
000001f0: ed83 d73d f75f 06be 2977 433e 1534 a63d
00000200: e806 393e 72f4 b4bd 2dbd bd3d 116a a1ba
00000210: 3c32 ef3d f638 a2bd 8ff3 233d f269 babd
00000220: 8f6a 003e 6220 37bd a94f 05be e304 133e
00000230: 2e38 26be cebb a93d da98 4a3c 31a8 09bd
00000240: a148 4e3e fcd9 263e df7a fe3d db79 27be
00000250: cd01 383e 84c2 50bb 98af 46bd 6474 803d
00000260: 9de0 30bb 207b c7bd c75c 903c 8d73 3abc
00000270: e6f9 1bbe cbd5 3bbe a31a e43d a51e e13d
00000280: 7742 87bd 4f35 cb3d 6e0a 1d3d 85b2 9cbc
00000290: 80d2 7a3c 563d 2a3e 47ae 0bbe 2ce7 2a3e
000002a0: 1c23 173e 51a5 37be 67b3 3abe 7191 2cbe
000002b0: 6d71 953c 6fda b63c ecbc 27be 871d 47be
000002c0: e9c3 fabd 3734 8abd 8834 f6bd fadd 373e
000002d0: acec d63d 7221 0e3e 065f e43d eaa7 71bd
000002e0: 4bfd 043e 5b6b 133e 81e4 21bd 91d8 c1bd
000002f0: 04bd 1abd 9691 58bb 7b85 1ebe 1908 acbd
00000300: 042d 2c3e 0831 b03d 846d f9bd acb4 c4bd
00000310: 8aef debc 0eaa b03c 6323 223e c8fc 453d
00000320: b53a 253e 2729 1e3e 7abb bc3d 61bd 373d
00000330: 7514 113d c1e1 df3d 7347 a33b 6caf c3bd
00000340: 7781 083e 030a b53d 7106 87bd 48b5 00be
00000350: 2b0d 1d3d 5cc0 cb3d 7215 313e 406e 1bbd
00000360: 9d62 35be 4df4 c13d 8069 133d 458b 1fbe
00000370: 8120 1dbe 803f 203e 1b74 0f3e 13a9 bbbd
00000380: bbce c2bd f09a 1f3e 83be 18bc 125c 353e
00000390: 2706 cdbc d1be 50bd 7a28 26be 7baa 093e
000003a0: 4b40 b33d a3b8 96bd 9de4 cbbb 9994 63bd
000003b0: 9194 2d3e 87be 37bc 2f3b 293e 5cb6 21bd
000003c0: 6415 2f3d 5d0f 983d b9d1 7d3a d561 d1bd
000003d0: b2fa 67bd 01e1 bb3b 0311 a1bd d059 333c
000003e0: dcad 2c3e 1e63 0ebe f8a7 98bc a4df febc
000003f0: 6171 a13d 275f 2ebe 46e1 8f3d 0736 e9bc
0.14836434 -0.1320793 -0.15874028 -0.14100221 0.14994937 0.12599859 -0.1438768 0.16773139
-0.08331222 -0.16974783 -0.0677333 -0.021981616 -0.12477201 0.09975297 0.16134372 0.09311687
-0.14670578 0.15472314 0.018026968 0.10299098 0.17570682 -0.037494816 -0.098442934 0.06583409
-0.09758273 -0.1630027 0.08565551 0.11206284 0.06031462 -0.15455295 -0.035231683 -0.06292245
-0.09233671 -0.03151196 0.14417703 -0.15749489 0.0011066746 0.09464195 0.045059904 0.17752868
0.012302212 -0.1492184 -0.12596805 -0.013275454 0.009166498 0.035489433 -0.029460996 -0.08145604
-0.14117004 0.056943312 0.0020411054 -0.10967436 -0.13967581 -0.057354998 -0.0069370144 0.18994577
0.17917731 -0.031378277 0.1210931 0.18468608 0.014619351 -0.16959071 0.1522777 -0.0462335
-0.1676138 -0.02304694 0.0838701 -0.042592406 0.011407096 -0.07973617 -0.13912882 -0.1403408
0.089541174 0.16134366 -0.0007441395 -0.097038984 -0.0753808 0.013989068 -0.09909962 -0.14051388
-0.14505081 -0.1624824 -0.09722826 0.14036974 0.09733191 -0.024458813 -0.009647483 -0.025896747
-0.106539235 -0.027533453 -0.016660491 -0.09353113 -0.055723887 -0.1095969 0.02002354 -0.08755746
-0.08918964 0.05122009 -0.0031599582 0.035230495 0.1376485 -0.15134245 -0.097116664 0.1719521
0.12234884 -0.16521508 0.111097835 0.004558222 -0.05328753 -0.15205616 0.0820246 -0.11873792
0.09871419 -0.10380654 -0.15420876 0.066944845 -0.009153958 0.06780961 -0.05933187 0.007988355
-0.029976757 0.06785412 -0.03183247 -0.061904784 0.1052321 -0.13122545 0.19088425 0.081154026
0.18069041 -0.08835687 0.09264598 -0.0012314935 0.11679503 -0.07921021 0.040027197 -0.09102239
0.12540649 -0.044708617 -0.13018669 0.14357333 -0.16232368 0.08287774 0.012365544 -0.033607665
0.20144893 0.16294092 0.124257796 -0.16355078 0.17969437 -0.0031854222 -0.048507303 0.062722
-0.0026989349 -0.09740281 0.017622365 -0.0113800885 -0.15232047 -0.18343274 0.11137893 0.10992173
-0.06604474 0.09922277 0.038340025 -0.019128093 0.015308976 0.1662496 -0.136407 0.16689748
0.14759487 -0.17934157 -0.18232499 -0.16852356 0.018242562 0.022320954 -0.16380662 -0.19444858
-0.12244398 -0.067482404 -0.12021738 0.17955771 0.1049436 0.13879946 0.11150937 -0.058998026
0.12987249 0.14396422 -0.03952456 -0.09465135 -0.037777916 -0.003304576 -0.15480606 -0.08399982
0.16814047 0.08603102 -0.121790916 -0.09604773 -0.02721383 0.021565463 0.15833811 0.048336774
0.16135676 0.15445386 0.09215446 0.04485834 0.0354199 0.10931731 0.0049828826 -0.095549434
0.13330637 0.088398 -0.065930255 -0.12569153 0.038342636 0.09948799 0.17293337 -0.03794694
-0.17713399 0.09470425 0.035989285 -0.15580471 -0.1534443 0.15649223 0.14009134 -0.09163108
-0.09512087 0.15586448 -0.009322765 0.17710903 -0.025027348 -0.050963227 -0.16226378 0.1344394
0.08752497 -0.073594354 -0.006222321 -0.055561636 0.16951205 -0.011214859 0.16526483 -0.039480552
0.04274501 0.07424805 0.0009682435 -0.10223738 -0.056635566 0.0057336097 -0.07864573 0.010946706
0.16863197 -0.13904998 -0.018634781 -0.0311125 0.078829534 -0.17028485 0.070253894 -0.028468145

bias f4 [16]
00000000: 501a a83d 05d7 fe3d d659 1e3e 78e8 8b3d
00000010: a86c ddbd c75f 423d a3b4 413e d9f4 1a3e
00000020: 3606 223d 36c5 d63d 957f 063e 5dd9 263e
00000030: e8b8 a03d 8cbd f8bc 5bd3 6cbc 1862 dcbd
0.08208144 0.124433555 0.15463957 0.06831449 -0.1081174 0.04745462 0.18916564 0.15132464
0.039556704 0.10486834 0.13134606 0.16293855 0.07847768 -0.03036382 -0.014454688 -0.107608974

weight f4 [16, 16, 3, 3]
00000000: 9fe7 503c 37c3 323c 466b 51bd ae7a 44bc
00000010: 2bbc ff3d a177 9fbd 18c8 a03d e07c 99bd
00000020: 36d5 413d 143b a3bc 541c 953d 07c3 3bbd
00000030: d2e2 b23a e3ec 6dbc e8c1 6ebd 80eb 693c
00000040: 7882 303d 0d93 163d 635a b23c 9841 3a3d
00000050: a8aa 18bc 4eec 96bd 32a1 453a 5cc3 c9bd
00000060: db5b 69bd 6d1f 54bd 2c56 073d 4f3f 56bd
00000070: b75c 883c 863f 0dbc 8040 2dbd 4202 983d
00000080: dfc3 9f3d 123a b8ba 2466 843d 5ae4 df3c
00000090: d53d 593d 8714 a8bc 1ff1 e13c c575 42bd
000000a0: 2ed9 e53d acfe 25bd 9645 d73c a091 78bd
000000b0: 6bec edbc 9a60 813d 7a7e 7ebd cd43 cc3d
000000c0: 2719 46bd fa9f 9e3c dc9c 82bd 6669 c6bc
000000d0: 0ca9 93bd e81c b33d 2bbb 5e3c 3301 3fbd
000000e0: 3d04 453d dc71 ccbd 24d6 36bd 65bc 14bd
000000f0: 42ec 21bc 7378 d43b 18f5 6fbd f0f2 82bd
00000100: cfb6 54bd ed18 8abd f163 283c a721 bcbc
00000110: 39bf bdbc 6295 ac3d 1f30 e83c 3944 69bd
00000120: 48a1 53bd bf31 123d 0a6f 8dbb 30b4 803d
00000130: fb73 92bc 614b f33c 5729 47bd 1192 3b3c
00000140: a402 9abc 1707 073d c1e0 abbb bfa3 7f3d
00000150: 9202 e33d 272e e6bc 7158 eb3d 7dc3 bf3c
00000160: 2298 30bd c4df ce3c a495 84bd eb4b dfb9
00000170: cdff 933c b12e 483d 5221 c8bc 6068 b43c
00000180: d650 10bc 32c5 fd3a b1c1 913d e93a 91bc
00000190: 74df 393d a3fa a2bd 2c54 85bc b3c2 8c3c
000001a0: 0059 30bd e157 acbd d34c a13d 4f87 8a3d
000001b0: 2c71 f33c aab3 16bd 5972 0dbd 8d72 953b
000001c0: 58be 47bd 05c1 60bd f191 ea3c e30e 9cbd
000001d0: c2c4 72bd 14c8 bcbc a71b 7b3d e6d9 6d3d
000001e0: 105c 9b3c fdb0 7e3d 3855 cb3d db57 1c3d
000001f0: a5ff 60bd 9d8d 0ebd 7f8b d0bb e698 3bbd
00000200: 0344 1c3d 2fd4 b13c e1f1 e3bd bb14 28bc
00000210: 668c 68bd 7ef0 4bbd 2fe5 ab3d 3d13 1c3d
00000220: 9db5 d2bc 814b 4a3c 9b12 99bc 420a 9fbd
00000230: 6ee7 9dbd 482c 8cbb 1dfd 0b3d fabb 6dbd
00000240: 8878 9dbd f384 75bd bf0f 32bd c904 70bd
00000250: fbbd 613d 50d6 3cbd 70a9 bd3d df4f ac3c
00000260: 7e07 543b 5443 4a3d ec44 69bd e1fc 52bd
00000270: 3557 503d b6ea a1bd 4cea 41bc aa8d b8bb
00000280: 7f3f 813b 39a5 cbbb 5fe9 76bc bc03 a239
00000290: 73e4 46bd eb0f b3bd a3ff 12bd 9b87 883c
000002a0: 790d 283d 8831 80bd 32fa 8ebd 1f95 11bd
000002b0: 5623 353d 7959 c83c d8a7 3d3d 4569 9b3c
000002c0: 16fa 5c3d c2ef 603c df3e a7bd 3056 07bd
000002d0: 810e 7dbd fe84 dabd 3163 62bc b12b ab3c
000002e0: 6d06 ac3d 2cad 90bd 9054 443d 1a27 1d3d
000002f0: 8dc1 843c e329 4b3b 9c41 29bc e360 2b3d
00000300: 157f d2bc b3c0 133d ff73 65bd 2bb0 84bd
00000310: 53f1 733d b587 a13d 887e 85bd d13b b3bd
00000320: aed9 693c d7ad 303d 12d9 9c3d b341 3cbc
00000330: 4071 b43c ece8 18bd 3e05 923d 4b8e 8ebd
00000340: 088f 8c3d 69bf cd3b 3b12 fcb9 1062 0abd
00000350: 4b5a cb3c 4809 d93c 7c34 05bd 7ccb 31bd
00000360: 145f 7cbd 1675 08bd ca3f bebc b62f be3d
00000370: bd96 113d 08b0 76bc 9750 9ebc d5fe 96bb
00000380: 03bf 5ebd 2357 b5bc 1587 91bc 731f 7dbd
00000390: 5e1a 353a be24 8d3c d2e4 d23d cba4 973d
000003a0: 3f6d 22bc de02 d73b 9bac ffbc 3aa0 953d
000003b0: f15b 94bd 807e 413d d4d8 6a3d 53c1 80bd
000003c0: acde be3c c6d9 25bd e5c8 86bc 8484 aebc
000003d0: 56fa 8f3d db6c 513d 2870 e13c d5b0 5dbd
000003e0: 254b a33d 06e6 9dbc ec1f 2f3c fd09 983c
000003f0: a059 24bd fddc a0bd a4ff 09bd 37b8 a2bd
0.012750535 0.010910801 -0.051127695 -0.01199214 0.12487062 -0.07786489 0.07850665 -0.07494521
0.047322474 -0.019925632 0.07280794 -0.04584029 0.001364792 -0.01452181 -0.058290392 0.014277339
0.043093175 0.036761332 0.021771615 0.04547271 -0.009318031 -0.0736929 0.00075389736 -0.09851715
-0.056972366 -0.051787782 0.033041164 -0.05230647 0.016645772 -0.008621102 -0.04229784 0.07422306
0.07801031 -0.0014055392 0.06464794 0.027330566 0.053037483 -0.0205176 0.027580796 -0.047475595
0.11223064 -0.040526077 0.026278298 -0.060685754 -0.029043397 0.063172534 -0.062132336 0.099738695
-0.04836383 0.019363392 -0.06377575 -0.02422018 -0.072099775 0.08745748 0.013594429 -0.046632003
0.048099745 -0.099826545 -0.044637814 -0.03631248 -0.009882988 0.006484085 -0.05858335 -0.06393993
-0.051932152 -0.067430355 0.010277734 -0.022965265 -0.023162471 0.0842693 0.028343258 -0.056949828
-0.05166748 0.035691973 -0.0043162154 0.06284368 -0.01787757 0.02969903 -0.04862341 0.011448399
-0.018800087 0.032965746 -0.0052452986 0.06241202 0.110844746 -0.028098179 0.11491478 0.023408646
-0.043113835 0.025253184 -0.06473854 -0.00042590438 0.018066311 0.048872653 -0.02442995 0.022022426
-0.008808335 0.0019361137 0.07117022 -0.017728286 0.045379117 -0.079579614 -0.016275488 0.017182684
-0.043053627 -0.08415199 0.07875981 0.06764089 0.02971705 -0.036792435 -0.03453288 0.0045607747
-0.04876551 -0.054871578 0.028634043 -0.07620027 -0.059269674 -0.023044623 0.06130567 0.058069132
0.018964797 0.062180508 0.099283636 0.038169723 -0.0549313 -0.03480302 -0.0063642855 -0.045800112
0.0381508 0.021707622 -0.11130119 -0.010258849 -0.05677452 -0.049789898 0.08393323 0.038104285
-0.025721366 0.012347103 -0.01868563 -0.077656284 -0.07710157 -0.0042777397 0.034176935 -0.058040597
-0.07689005 -0.059941243 -0.043472048 -0.058598313 0.05511282 -0.04610282 0.09260833 0.02103418
0.0032353099 0.049380615 -0.056950495 -0.051510695 0.050864417 -0.07906096 -0.011835646 -0.005632122
0.003944337 -0.0062147644 -0.015070288 0.0003090183 -0.04855771 -0.087432705 -0.035888325 0.016666224
0.041028474 -0.06259447 -0.06981315 -0.035542604 0.044223152 0.024456726 0.046302646 0.018971095
0.053949438 0.013729038 -0.081662886 -0.03304118 -0.06178141 -0.106698975 -0.013817594 0.020894857
0.08399663 -0.0706428 0.047932208 0.03836737 0.016205573 0.0031000308 -0.010330584 0.041840445
-0.025695363 0.036072444 -0.056018826 -0.06478914 0.059556317 0.07887212 -0.065182745 -0.087516434
0.01427309 0.043134537 0.076585904 -0.011490273 0.022026658 -0.037331507 0.07129906 -0.06960734
0.068632185 0.0062789214 -0.00048078768 -0.033784926 0.024823328 0.026493683 -0.032520756 -0.04340695
-0.06161411 -0.033314787 -0.023223776 0.09286444 0.035544146 -0.015056618 -0.019325538 -0.004608015
-0.05438138 -0.022136277 -0.017764607 -0.06179757 0.0006908531 0.017229434 0.1029755 0.07404479
-0.009913742 0.006561621 -0.031210234 0.073059514 -0.07244099 0.04723978 0.05733569 -0.06286874
0.023299538 -0.040490888 -0.016453216 -0.021303423 0.0703017 0.051129203 0.0275193 -0.05412372
0.07973317 -0.019274723 0.010688763 0.01855945 -0.040124536 -0.0785465 -0.033691064 -0.079452924

bias f4 [16]
00000000: d67b 2dbc 4a30 03bd 1349 873d ea50 033e
00000010: 82b5 5f3d 7f5e 7e3d 1555 89bb a4d0 2f3d
00000020: fce9 633d 0fb1 993c 300a 323d a3df c7bc
00000030: 3fc1 7e3c b7d9 493c 0141 50bd e334 4d3d
-0.010588607 -0.032028474 0.06605735 0.12823835 0.05461646 0.062101837 -0.004191051 0.042923585
0.055643067 0.018761186 0.043466747 -0.02439863 0.015549003 0.012319974 -0.050843243 0.050099265

weight f4 [16, 16, 3, 3]
00000000: 448f 083e 3469 8cbc a39b 2dbd da65 b3bd
00000010: 6ceb 7d3d bc47 443c 3903 883d 85c0 1d3c
00000020: 2091 89bd 9066 873c f5ce 9cbd 1793 45bd
00000030: 04e4 69bd 3c25 923d 5561 82bd c880 d2bc
00000040: 8561 c7bd 2a87 74bd e0f2 d3bd 0d04 db3b
00000050: 07f3 893d f8f2 97bb 084b 9f3b fe87 c33c
00000060: 1f57 60bd f38d 09bd f617 993d f80a 8cbb
00000070: a8c8 28bd c772 31bc b012 d33d d342 0a3b
00000080: c939 e63c 29da 5c3d def8 1b3e f3a5 22bd
00000090: bc56 7abd 5afe b83c ec2f 4fbd 9703 313c
000000a0: e51f fdbc ecf3 3d3d adbd 583b 3fac 92bc
000000b0: c422 64bd 992d babc 2a4d b0bd 3246 2ebc
000000c0: d918 e9bd a9c0 a63c 3ebf 21bd 8577 7fbd
000000d0: f188 eabc 75fa 4fbd 684f 00bd 0796 33bd
000000e0: 0d7b afbd 0a8e 953d a695 933d 9d00 5d3d
000000f0: 9095 7c3b 376e 673d 7335 8d3b b7fa 86bd
00000100: f254 f03c 4ed6 9bbc 867a 803d 1e23 9c3c
00000110: f5bf 77bb 7adc 9c3d 42c3 d2bd 8f1c 1b3b
00000120: f371 973d 194c 8d3c 5d7c 81bd d11e 193d
00000130: d2f0 4c3d 9a2d a1bd a247 493c 6ad1 6fbd
00000140: 2dec a2bd f49d 603c 55f2 873c ee8f 21bd
00000150: 95d7 bcbd ea1d e5bd 70db da3c 2305 17bc
00000160: 5e3a 8a3d 621a 903d 15d5 cf3c 866e 3ebd
00000170: 442b f13c 505d 80bd a059 afbd cced 963d
00000180: 6540 6dbd 0436 173d 9ac6 57bd e6c4 8a3c
00000190: 8a80 b83c 5f51 54bc 6873 903d 2d47 9e3d
000001a0: c431 a8bd ac19 a13d fd67 7cbd 7bd2 d1bc
000001b0: f34f 103b 1a5e 4c3d de25 b0bd fa4d f7bc
000001c0: f5c5 a23a 2a9c a6bd ef6d 6bbd a3a2 b1bc
000001d0: 5569 55bd e4a6 abbd d700 603d fcb0 3bbc
000001e0: eef7 d73a 396e 80bd 1187 6b3d 9b5a 013d
000001f0: 08bd 7bbd e845 06bc 4aad 0d3d febb 353d
00000200: 14e8 f3bb f10f eeba 7684 9a3c 5240 03bd
00000210: 549a 7bbd 3615 4cbc 6333 1a3c dc59 49bd
00000220: a94b 31bd 3d78 27bd 3f3b c43c b092 a33d
00000230: cb0f 93bd c621 7b3d fb92 693d 2dd9 50bd
00000240: 64fc b13d bbef 783d f9fa a03d 2bad 3cbd
00000250: be43 61bd 9d5b ccbc d080 353d bb19 643d
00000260: 8a0c 4e3d ac6b c63c fd17 1ebd cf37 bd3c
00000270: 9546 ae3d 2ef5 84bc 7eff 87bd 7732 4dbb
00000280: f88f 74bd daf7 a03d e2ed 7abc 77e6 f9bd
00000290: e4e0 d23c d234 a83c 65b6 e6bd 2ec9 22bc
000002a0: fef5 b4bc 855d dabd c0dd da3c 9c3e 97bb
000002b0: bf2b 01be 9a28 95bd 1932 5c3c 6477 c7bc
000002c0: 863a 9e3d 651f aebd 5785 58bd 4b42 24bd
000002d0: 0a7e c0bc 0319 233d 323e 62bd eb70 a4bd
000002e0: 986a ef3c 12b3 103d aee2 7ebd 47c7 713d
000002f0: 40b5 9d3d 5e58 643c 5dfa 9f3c d740 8b3d
00000300: f71c 123d 6433 bfbd e1c6 723c ea2f 87bd
00000310: 934f 913c b997 4abd a0ed 163c 7184 b73d
00000320: b78f 923d d825 cd3c b356 183d ec9e de3b
00000330: 69fe 2e3c 6217 19bd 46b6 d73c 1157 d13d
00000340: 3054 463c f5ac 3fb7 f209 a23b 21fe 153d
00000350: fa2b 3cbd 34de 5f3d dba6 573d c9aa f7bc
00000360: b6e5 c83c a011 80bd d191 853d cab7 403c
00000370: f308 7c3d ece5 913d 1242 7bbc 4a17 05bc
00000380: f326 573d 755b 643d b8a8 483d 6422 a33d
00000390: 1e93 b7bc 6fa7 e73b 4fb1 94bd 918a 213c
000003a0: 91c2 0abc f392 29bd cdcc 35bc 0082 07bd
000003b0: 752a 8abd e415 383d b7b0 8fbd 2619 473b
000003c0: 25ae 56bd ccac 02b9 4794 f13b b117 94bd
000003d0: 0169 0a3d fb1e 63bd 58cb 21ba 95b7 683d
000003e0: 1140 6a3c 1b26 aa3d f34d 883d 4f52 353d
000003f0: 6fe7 953d b339 b2bd fa3c 883d 5c3e 91bd
0.13335901 -0.017140009 -0.042384755 -0.08759661 0.061992094 0.011979993 0.0664124 0.00962842
-0.067171335 0.016528398 -0.076566614 -0.04823598 -0.05710222 0.07136008 -0.06366221 -0.025696173
-0.09735397 -0.059699215 -0.10349059 0.0066838325 0.06735807 -0.0046371184 0.0048612393 0.023868557
-0.054770585 -0.03358264 0.07475273 -0.0042737685 -0.041206986 -0.010830588 0.10306299 0.002109696
0.028103726 0.05391899 0.15231654 -0.039709043 -0.061117873 0.022582222 -0.05058281 0.010804079
-0.030898998 0.0463752 0.003307204 -0.017904399 -0.055697218 -0.02272682 -0.08608468 -0.010636853
-0.113816924 0.02035554 -0.039489023 -0.062369842 -0.028629752 -0.050775964 -0.031325728 -0.04384425
-0.08568392 0.073024824 0.072062775 0.053955663 0.0038541295 0.056501593 0.00430935 -0.06590789
0.02933738 -0.019023087 0.062733695 0.019059714 -0.0037803624 0.0765924 -0.10291149 0.0023668145
0.07394781 0.0172482 -0.063225485 0.037382904 0.05003435 -0.07870026 0.012285145 -0.058549322
-0.07955203 0.013709534 0.016595045 -0.039443903 -0.092208065 -0.11187346 0.026715964 -0.009217533
0.06749414 0.07036282 0.02537016 -0.046492122 0.029439576 -0.06267798 -0.085620165 0.07369575
-0.05792274 0.036916748 -0.052679636 0.016939592 0.02252223 -0.0129588535 0.07053262 0.077284195
-0.08212617 0.07866225 -0.06162261 -0.02561306 0.002202031 0.04989443 -0.086009726 -0.03018855
0.0012418615 -0.08135255 -0.057477888 -0.021683997 -0.052102406 -0.08381441 0.0546883 -0.011455771
0.0016477087 -0.06271023 0.057501856 0.03158055 -0.06145957 -0.008195378 0.03458909 0.044368736
-0.0074434374 -0.001816271 0.01886199 -0.032043763 -0.061426476 -0.012456229 0.009411666 -0.049157962
-0.043285046 -0.040886153 0.023954032 0.07986963 -0.07180747 0.061311506 0.057024937 -0.050988365
0.08690718 0.0607755 0.07860369 -0.046063583 -0.054996245 -0.024946028 0.0443123 0.0556886
0.050304927 0.024221264 -0.038597096 0.0230979 0.08509556 -0.016230192 -0.06640528 -0.0031310597
-0.05970761 0.07859774 -0.015315505 -0.12202161 0.025742002 0.020533 -0.11265258 -0.00993566
-0.022089954 -0.10662369 0.026717067 -0.004615618 -0.12614344 -0.07283135 0.013439679 -0.024348922
0.07726006 -0.08502082 -0.052861538 -0.040102284 -0.0234976 0.039818775 -0.055235095 -0.0802935
0.029225633 0.035327025 -0.062227897 0.059027936 0.07700586 0.013937084 0.019528562 0.067994766
0.035672154 -0.09335974 0.014817924 -0.06600936 0.01773814 -0.0494611 0.009211928 0.08960808
0.07156318 0.02504246 0.037192058 0.0067938473 0.010680773 -0.037375815 0.026332032 0.10221685
0.012105033 -1.1424757e-05 0.004945033 0.03661931 -0.045940377 0.05465527 0.05264936 -0.030232804
0.024523597 -0.06253362 0.06521953 0.011762569 0.061531972 0.07123932 -0.015335577 -0.008123228
0.05252738 0.055751283 0.048989028 0.07965544 -0.022409018 0.00706952 -0.072603814 0.009859697
-0.00846924 -0.041399907 -0.011096192 -0.033082962 -0.06746379 0.04494275 -0.070161276 0.003037998
-0.05241217 -0.00012462138 0.0073724124 -0.07231081 0.033791546 -0.055449467 -0.0006171963 0.056815702
0.014297501 0.08308049 0.06655493 0.04426795 0.07319533 -0.087024115 0.06652255 -0.07091972

bias f4 [16]
00000000: b9e7 493d fe1d 513d 20b8 dd3c 2078 8c3d
00000010: 8753 15bd 1abd 06bb 6435 243b d8bd a8bd
00000020: ac5f 0e3c 5c7f 6bbd 0a9d a93d ee73 2d3d
00000030: c9b5 c73c ef95 9f3d ba10 8c3d 5259 473d
0.049293254 0.051053993 0.027065337 0.068588495 -0.03645661 -0.002055949 0.0025056237 -0.08239335
0.008689802 -0.057494506 0.08281906 0.042346887 0.024378674 0.077922694 0.06839128 0.048669167

weight f4 [16, 16, 3, 3]
00000000: 197a 6ebc 12c0 f2bc b69e 59bd 619b b83d
00000010: c076 3dbd 69e2 86bd 4956 823d fd4e 933c
00000020: af11 29bd f03a 2a3d 9e82 5dbd de3b 283c
00000030: 3823 8f3d d4a8 493d 43aa f73c 26ef 9ebd
00000040: 07e1 3ab7 7aab 9abb e8e1 be3a 601e 54bd
00000050: 141d 1a3d 18c2 4c3c 4052 95bc 6ab1 41bd
00000060: bca9 00bc dd23 ec3c 3781 50bd a464 2d3d
00000070: f5b3 4a3d 9dd1 08bd 865a e73c b4bb 84ba
00000080: 0052 8e3d aa9f a7bc de11 783d 3ed0 f13c
00000090: d09b cbbb 5077 85bd 884e 753c ef12 0cbd
000000a0: 8ba5 8abd a242 80bd 962d 693d 7e1b c2b8
000000b0: 6fbf 47bd 635b cbbc 4c1c 32bd 487c 113d
000000c0: ab8e 37bd 9540 2bbc 588b 61bc 2a41 71bb
000000d0: 6000 9fbb 388e 803d bd21 24bd ce1b 873d
000000e0: 46ff 1e3d fc84 b73c a950 28bd c7cb 9d3d
000000f0: 8d90 563d 33b0 2f3d 0d95 eabc 9774 82bd
00000100: ea41 213d b29b 3bbc c7ea 883d 9b0f 923b
00000110: 08bd 20bd 070d d63c ba99 883d 0d62 58bc
00000120: d54e 4a3d 2113 853d 2bfe 993d 7d13 1fbd
00000130: 3231 4b3d c464 003c e940 e83c 797e 97bd
00000140: 745f bcbc e57a a73d de00 093d aa97 5b3d
00000150: 5f02 e33c c463 5abd 35a3 24bd b19a 653d
00000160: cd3e 773d 90e4 7dbd 630d 46bd 6a28 31bc
00000170: 694a 013b 1e59 7abc bd0f 9fbd 9ecf 8bbd
00000180: cfe8 a2bd 588f cdbc 2dd1 93bd 80ee 223d
00000190: 8d4a 983d f210 18bd 2512 423d ad0f 15bc
000001a0: da82 ec3c 3396 393d 4c56 7fbd b717 2dbd
000001b0: 991d ae3d ff57 903d 5afc 993d 92dc 863d
000001c0: da26 873d a020 03bd 6a23 debb 11a9 183d
000001d0: 02dd 633d 1f61 343d d146 763d 31ce 8b3d
000001e0: 7f62 89bd 0bb9 03bd efe9 8f3d 3d99 9b3c
000001f0: df85 063d b574 9ebd de25 703d 204b 453d
00000200: 2eb3 853d 4aa8 a83c 8f23 1f3d b6f2 0bbd
00000210: dc12 aabd 9a8b 87bd be7a f9ba d13f 91bd
00000220: db00 87bc defb 393d a310 29bb a497 853d
00000230: ce24 8ebc f975 483d 82f1 1cbd 4eaa 08bd
00000240: ec98 7abc 45df d5bc b36c 82bc 4259 81bd
00000250: 2f76 7f3d 78ff 84bd a32d d6bc 4ff7 69bd
00000260: dc40 7bbd c35f 2dbd 2b3b 2b3d cd0c 0e3c
00000270: 5b55 8f3d cdc0 693b 02bd 2c3d 3aa8 afbd
00000280: 0a5f 66bd 24cd 92bc ceda babc cb3e 7abd
00000290: 026d e73c 3f20 883c 7368 20bc d59c c8bc
000002a0: 0f45 973b 9d67 89bd 4920 083d 20bb 6cbc
000002b0: afd0 1cbd d9fb 7b3d 45ce 87bd 68e8 a5bd
000002c0: 8b9a d2bc f388 663c 2897 0abd d7bd 953d
000002d0: e6c4 fbbc 5460 58bc 8fb6 9fbd 9796 20bd
000002e0: 8b18 0abd 8bc0 e63c a7fd 3ebd 83df c73c
000002f0: 20f2 963d 33c2 a3bc a0b7 74bd 0964 f03c
00000300: 521e f9bc c956 6d3d 5f9d 1e3d 30a6 563d
00000310: 766b fb3b 0098 6e3d e615 18bd 777f 29bd
00000320: 83bb d63c b037 19bd 6cd7 fe3c 497c 87bd
00000330: 315a d3b9 159f babc 0dd9 873c d44e 753d
00000340: 59dd e13c 5b7e 603d 8b78 5e3b b140 793d
00000350: 59fe 13bd e9f3 393c 80b1 ca3c a777 8bbd
00000360: 0e5a 55bc fdab 8bbc caba 933c cbe6 80bc
00000370: 452d 893d d67f 36bd ceb8 793c 54ec 1d3d
00000380: bd87 9cbd b868 8ebd 42ce b83d b818 863c
00000390: 8466 85bd 9028 38bd 911f 813d fdfb 333d
000003a0: 748c ac3a 7b66 34bd 2b27 653d bd16 183d
000003b0: 2dd5 92bd 60c5 08bd 9ce7 60bc 5c63 39bd
000003c0: e043 a6bc 0967 c4bb 210c aebd 60e5 01bd
000003d0: 1578 973d e506 a0bc 5e78 a7bd 103c 263d
000003e0: 0e35 3a3c 9e5a 983d da0e 743d 8d54 873b
000003f0: bad4 a3bd 0680 4fbd 2c0a 913d fcdf 66bb
-0.014555478 -0.029632602 -0.053129874 0.09014011 -0.046255827 -0.06586153 0.06364114 0.017982
-0.04127663 0.041560113 -0.054079644 0.01026818 0.06989139 0.049233273 0.030232554 -0.07760458
-1.1138857e-05 -0.0047201486 0.0014563175 -0.05178678 0.037625387 0.012497447 -0.018227696 -0.047288336
-0.007852968 0.028825695 -0.05090448 0.042332307 0.049488027 -0.033403028 0.028241407 -0.0010126741
0.06949234 -0.020461876 0.060563914 0.029518243 -0.0062136427 -0.06516898 0.014972337 -0.034197744
-0.06769856 -0.06262709 0.05692824 -9.255762e-05 -0.04876655 -0.02482385 -0.043484017 0.035518914
-0.044813793 -0.010452409 -0.013766132 -0.0036812522 -0.0048523396 0.06277126 -0.040071238 0.065971
0.038817666 0.02240228 -0.04109255 0.07704883 0.052383948 0.042892646 -0.028635526 -0.06369894
0.0393695 -0.011450695 0.06685405 0.0044574267 -0.039242774 0.026129259 0.06669946 -0.013206971
0.049391586 0.06497789 0.07519182 -0.038836945 0.049607463 0.007836524 0.028351264 -0.073971696
-0.022994734 0.08177737 0.033448093 0.053611435 0.027711092 -0.0533178 -0.04019471 0.05605573
0.060362626 -0.061985552 -0.04835261 -0.010812858 0.001972819 -0.015280036 -0.07766674 -0.06826709
-0.07954561 -0.025092766 -0.072176315 0.039778233 0.074360944 -0.037125535 0.047380585 -0.009097976
0.028870989 0.045309257 -0.06233816 -0.042258944 0.08501739 0.07048034 0.07518835 0.06585039
0.06599207 -0.032013535 -0.006779124 0.03727061 0.05563069 0.044037934 0.06012613 0.06826437
-0.0670824 -0.032158893 0.07027041 0.018993968 0.032842513 -0.07737104 0.058629863 0.048167348
0.065283164 0.020588059 0.03885227 -0.034167014 -0.083043784 -0.06618424 -0.0019033772 -0.0709225
-0.0164799 0.045406215 -0.002579727 0.06523064 -0.017351534 0.048940632 -0.038316257 -0.03336554
-0.0152952485 -0.02610744 -0.015920972 -0.06315853 0.062368568 -0.06494039 -0.026144808 -0.057120617
-0.06134115 -0.042327654 0.041804474 0.008670044 0.06998702 0.0035667897 0.04217244 -0.085770085
-0.05624298 -0.017920084 -0.022809412 -0.06109504 0.028250221 0.016616939 -0.009790528 -0.024488846
0.0046163867 -0.06709216 0.033233915 -0.014448911 -0.038284954 0.061519478 -0.0663114 -0.081009686
-0.025708457 0.014070737 -0.03383556 0.073116 -0.030733537 -0.01320656 -0.07798492 -0.039206114
-0.033714812 0.028167984 -0.04662862 0.02439857 0.073704004 -0.019990062 -0.05974543 0.029344575
-0.030409966 0.057944093 0.0387243 0.052404583 0.0076727225 0.058250427 -0.03713026 -0.041381326
0.02621246 -0.037406623 0.03110858 -0.066155024 -0.00040312254 -0.022780934 0.01658299 0.05988963
0.027571367 0.054808002 0.003394636 0.06085271 -0.036131237 0.011349657 0.024742842 -0.06809931
-0.013021959 -0.017049784 0.018033404 -0.01573505 0.066980876 -0.044555508 0.015241815 0.03855546
-0.076430775 -0.06953567 0.090237156 0.016369209 -0.06513694 -0.04496056 0.06304849 0.043941487
0.0013164417 -0.044043045 0.055945557 0.03713106 -0.07169566 -0.033391356 -0.013727095 -0.045260772
-0.020296037 -0.005993728 -0.08498407 -0.03171289 0.07395951 -0.019534538 -0.08177255 0.040584624
0.011365188 0.07439159 0.059584476 0.0041299523 -0.07999559 -0.050659202 0.07082018 -0.003522872

bias f4 [16]
00000000: 87b0 9abd 4a5c 97bd 3040 cbbc e5df a1bd
00000010: c117 93bd d890 243d d3ff 093c 1865 3d3d
00000020: 8f94 483d 0aff 1fbd 8704 3c3d 8199 c7bc
00000030: 4436 703c bb9f 153c db49 993c 0d12 823d
-0.07553201 -0.073906496 -0.02481088 -0.079040326 -0.07182265 0.040177196 0.00842281 0.04623899
0.0489698 -0.039061584 0.045902755 -0.024365189 0.014661375 0.009132321 0.018711975 0.06351099

weight f4 [16, 16, 3, 3]
00000000: 5815 6dbd d642 06bd b711 e83b e88a bf3c
00000010: 593d ab3c c39b 8ebd a70b a7bd 02b5 3b3d
00000020: d637 dc3a 156f fbbc 85e6 a73c 6b5b 3fbd
00000030: 20ab 013d 598f c33c e45a 6ebd 8cce a0bd
00000040: 8d46 06bc c86a 02bd 3f4b 0f3d 40f9 883c
00000050: 41c8 ecbd 15e0 10be ed99 693d 712e 58bd
00000060: 9d40 21bd 43f7 983c 8ac0 b73c ec97 9c3b
00000070: f9f5 d6ba 6571 95b9 2c74 a7bd cdd5 973b
00000080: 58df 3c3d fb0b 0ebd fb36 f4bc 2337 8e3d
00000090: d908 a53c d28b a3bd 9868 af3c f47f 383d
000000a0: b128 ecbc c8e1 06bd 473f 17bd ffb6 9e3c
000000b0: f992 9abd 5253 5dbb fd71 35bd a30a 4ebc
000000c0: 6705 74bc f5cd 4ebb fa2c 5fbd c894 153d
000000d0: 30cb 703d 36f6 ccbb fd4a db3c 4d98 133d
000000e0: f6f3 70bd 44d9 62bd dd70 a3bd 5ecb b9bd
000000f0: 9931 2f3d 8629 16be b7e3 c0bc 9744 b63d
00000100: ed2a adbd 3421 95bd 09b3 f83c 51f4 a4bd
00000110: 00fb 1f3d 61fa a93d 95f3 4dbd 7fc8 1abd
00000120: 5c61 913d 0a79 60bd c364 d73d 6c2f 923d
00000130: 7105 be3d 0f88 babd 4323 843d 373d d43c
00000140: e943 e8bc 196e 12be a9e3 eabc f84f c43c
00000150: 2fea 253e 14f8 1cbd ea15 debc df90 73bd
00000160: 1fc3 5ebd 534b ee3d c0af 993d 98cd acbd
00000170: e1fd 6dbd 6bb8 b9bd ef54 35bd e1bf 86bd
00000180: 1a56 7f3c 9938 a3bd f1bf 6a3d 86c1 85bd
00000190: f3b1 96bb a13e bf3d 24a1 b0bd 6c9f 813d
000001a0: 1989 6dbd 2a35 38bd 9d45 a8bd 5268 deba
000001b0: 2ff8 c73d 7c28 f6bd eb2d aa3c 1be5 c53c
000001c0: 2cac abbd fe90 5fbd a2d3 b5bc aa5f bc3d
000001d0: 3d0c 01be 257a da3c 4cc9 233d 606f 163d
000001e0: f700 be3c 0b8e b8bd c8b1 b13c 8474 c5bc
000001f0: 963d 8f3c 69bf dbbc f25c 903d b807 453d
00000200: 58b2 84bd df54 23bc ffe2 7e3d a6d8 f53c
00000210: 3c90 58bd f1ad 37bc 5f32 a2bd 88f8 5c3d
00000220: 2fed a6bd ab20 cdbc 9db2 91bb 4cc8 64bd
00000230: acd8 6abd ee29 69bd 6ac0 4c3d 9713 1cbc
00000240: c5fc 82bd ffb6 383d 3c97 94bc 0ff1 273c
00000250: a423 973c 048e 15bc b771 93bd fcce 6cbc
00000260: 6c82 8c3d 5385 d7bc a0b4 8e3d 8715 9e3b
00000270: 7605 a6bc c876 c63a 8b55 2bbd f896 c33c
00000280: 1e53 4cbd 890e 2ebd 6f4f 8dbd d704 2b3d
00000290: 8dbf 543d 6963 423d 398d 0abd 1cdb eabc
000002a0: 2459 923a a121 8ebd 0a2b 73bb 253f f33c
000002b0: d05f 873d 3e72 7dbd 3c9d ac3c 3b05 983d
000002c0: 3615 993c a564 26bd eba8 2b3d 7704 573d
000002d0: 0131 9abd c0a8 4ab9 873d 83bd 1e73 2ebd
000002e0: a8f1 ddbc 9519 6c3c 0684 e63c c8b5 96bc
000002f0: c92d 7bbc 6b7b dfbb 1d00 adbd 6577 14bc
00000300: 487a 683b 2eba 8e3d ed0a 7abd a890 453d
00000310: f05a 043d 521a 3fbd 3e74 67bd dcb5 14bd
00000320: 05d6 b93d 97b4 55bb cd83 a0bd c340 6a3d
00000330: 452f 24bd f0c0 9fbd 8a62 bb3d 1198 7bbd
00000340: 00c6 82bd f379 c73c 5622 973d c66b 75bd
00000350: b102 9f3d 070b 813d 517d 113c 4cec 90bd
00000360: 897a 6b3d d1ef 943d f5c5 853d add6 6abd
00000370: 3b42 a33d 031a 983d 44c3 873c fa54 67bd
00000380: e6d6 7a3b e336 ac3d 0e1c ee3c f077 7fb9
00000390: 2454 63bd 1c93 00be f156 ae3c e72a bfbc
000003a0: bf92 933c d627 cbbc 6feb 82bd c2f6 8c3c
000003b0: cedf bd3b 877b 133d 2ff1 42bc 5a08 42ba
000003c0: fd22 6abd 5e1f 7abd f953 223d d1c0 a7bd
000003d0: 9443 253a bceb 43bd bc88 2ebd 1869 d1bd
000003e0: 56fd dd3d 7fc2 c2bc e5b1 12bd 8bee ae3d
000003f0: 0ac2 603d 77c2 aebc 57bb b1bd 48e4 5f3d
-0.057881683 -0.032778583 0.00708219 0.023381665 0.020903276 -0.06963303 -0.081565194 0.04582692
0.0016801308 -0.030692616 0.020495662 -0.046718042 0.03165734 0.023872064 -0.05819215 -0.07851896
-0.008195532 -0.031840116 0.03498387 0.016720414 -0.11561633 -0.1414798 0.05703156 -0.052778665
-0.03936826 0.018672591 0.022430677 0.0047788527 -0.001640021 -0.0002850398 -0.08176455 0.0046336413
0.046111435 -0.034679394 -0.029811373 0.0694411 0.02014582 -0.07985653 0.021412179 0.0450439
-0.028827997 -0.032930166 -0.03692558 0.019374369 -0.07547564 -0.0033771587 -0.04429816 -0.012575778
-0.014893866 -0.0031555865 -0.054486252 0.036518842 0.058787525 -0.0062549366 0.026769156 0.036033917
-0.05882641 -0.055382982 -0.07980511 -0.09071992 0.04277191 -0.14664277 -0.023546083 0.08899801
-0.08455453 -0.072817236 0.030358808 -0.08054412 0.03905773 0.08299709 -0.050281126 -0.037788864
0.07098648 -0.05480293 0.10517266 0.07137951 0.092783816 -0.09107982 0.06452038 0.025908096
-0.028352695 -0.14299811 -0.02867301 0.023963913 0.16202615 -0.038322523 -0.027110059 -0.05946433
-0.0543853 0.11635461 0.07504225 -0.084376514 -0.058103446 -0.09068378 -0.044270452 -0.06579567
0.015584493 -0.079697795 0.057311956 -0.06531052 -0.00459885 0.093381174 -0.08624485 0.063292354
-0.057992075 -0.044972576 -0.08216403 -0.0016968346 0.09764134 -0.120194405 0.020773849 0.024157098
-0.083824486 -0.054581635 -0.022195641 0.09197934 -0.12602325 0.026669571 0.039986894 0.03672731
0.02319382 -0.090114675 0.021691218 -0.02410341 0.017485421 -0.02682467 0.07048978 0.048103064
-0.06479329 -0.009968965 0.0622282 0.030010533 -0.052871928 -0.011210904 -0.07919764 0.053947955
-0.08150708 -0.025039991 -0.004446341 -0.05585508 -0.05733554 -0.056924753 0.049988188 -0.009526155
-0.06395868 0.045096394 -0.01813852 0.010250344 0.018449612 -0.009128097 -0.07199424 -0.014453646
0.068608135 -0.026308691 0.06968045 0.0048243436 -0.020266276 0.0015141601 -0.041829627 0.023875698
-0.049883954 -0.04249433 -0.068999164 0.041752663 0.05194049 0.047458086 -0.033826087 -0.028668933
0.0011165482 -0.06940008 -0.003710451 0.029693196 0.06610072 -0.061876528 0.021071069 0.07422873
0.018686872 -0.040623326 0.04190914 0.052494492 -0.07528878 -0.00019327085 -0.0640822 -0.042590253
-0.02709277 0.014410396 0.028139126 -0.018397227 -0.01533074 -0.0068201325 -0.08447287 -0.009061669
0.0035473276 0.06969105 -0.061045576 0.048233658 0.032313287 -0.04665596 -0.05650734 -0.036306247
0.09074024 -0.003260886 -0.07837639 0.057190668 -0.040084142 -0.07800472 0.09149654 -0.06142432
-0.06385422 0.024350142 0.07379596 -0.059917234 0.07764185 0.063009314 0.008879975 -0.0707632
0.057489906 0.07272304 0.06531898 -0.057333637 0.07971617 0.07426836 0.016572602 -0.056477524
0.0038275062 0.08408906 0.029066112 -0.00024363375 -0.055500165 -0.12556118 0.021281691 -0.023335887
0.01801431 -0.024799269 -0.06392562 0.017207507 0.005794502 0.036006477 -0.011898323 -0.0007401757
-0.057162274 -0.06106507 0.039630864 -0.08191074 0.00063043204 -0.047832236 -0.04261087 -0.10225123
0.108393356 -0.023774384 -0.035814185 0.08541592 0.05487255 -0.021332962 -0.0867831 0.054661065

bias f4 [16]
00000000: ccf3 783c f66e 943d 9755 18bd 7597 73bd
00000010: 3569 07bc f6d7 173d 95d4 84bd 01f3 e03b
00000020: 8423 883d aade be3c 1f46 1ebd 7693 b7bd
00000030: 0784 933d b1e0 e43c 1376 87bc 1607 b93a
0.015194844 0.072477266 -0.037191 -0.059470613 -0.008264829 0.03707119 -0.06485859 0.006864906
0.06647399 0.023299534 -0.03864109 -0.08963673 0.072029166 0.027939172 -0.016535794 0.0014116492

weight f4 [64, 16, 3, 3]
00000000: 0814 b2bd 88ba 7e3d 8daf a13d 9b82 37bd
00000010: 7863 cabd bdbb 92bc fc45 74bc 64c5 bbbd
00000020: 01b4 cd3c bbde 2cbd 94ee 80bd af7c 033d
00000030: 2163 bb3b d4be 0dbd fc4c 8cbd df5b 13bd
00000040: 90c7 dd3c dd34 6ebc 750f 563d e62a 143c
00000050: 9155 8b3b 1f2b 483d a3da bcbb fc3c cc3d
00000060: b6ea 8b3d c1ae b6bd 52cb e5bb 14a8 32bb
00000070: 024a d53c 107b 79bd 7331 aebc fe6c 893c
00000080: 7018 efbc ff86 d93c cbfa dcbc c62c 7fbd
00000090: 5e34 7ebb 9660 d03b 59c5 673d b1dc a6bb
000000a0: 6ca3 c63c 2134 6cbd 8ebd 50bd 87c6 e73c
000000b0: 65c0 aabd 8024 09bd fa00 6b3d 7346 5abd
000000c0: 3676 f43a 823b 923d 6612 db3a 57c0 a7bc
000000d0: 29df 7abd f90e 94bc b519 1dbd f0d5 5ebd
000000e0: 2325 85bc b6c4 a1bd 8781 a63d 366d fdbc
000000f0: 1cac 42bd 1b53 2e3c 8cf5 9cbc 4ec8 943d
00000100: 811a 993c fb62 40bd b456 5ebb 25bc 83bd
00000110: f0af 953a 50f5 483d 2a41 1ebd 4377 21bd
00000120: 511e 4f3d 7adf 2cbd 9a9e 64bd b0b2 8abd
00000130: 8a01 64bd 9b8b 733c 6867 cdbd 20be 08bd
00000140: 90af b7bd 4e05 70bd 66e6 bfbd 828e 6c3d
00000150: 8860 953c a2ec 82bd 1ee0 01bd 27cd a2bb
00000160: f404 dfbc 159f d9bc 33c5 013d 4950 173d
00000170: fbeb 16bb 88dc 0bbd 6a79 99bd 9899 ecbc
00000180: 8b25 e4bc 7af2 8e3d 2b44 21bd 077d a4bc
00000190: c55e da3b ab09 cbbc 25f8 1f3c 9eea e63c
000001a0: 3cef 093d 2b0e 4dbd fe26 cd3c 39a6 c13c
000001b0: 10b8 ecbc e9ec ab3d acc1 95bd 9b02 7c3c
000001c0: 0f8f 06bd aa25 1d3d 3e5a 8dbc 6a7a 1f3d
000001d0: 639e 843d 22de 233c aad2 a73d 7f5b 92bd
000001e0: 829c 5dbc 3db8 5cbc 5e86 513d 2951 cb3c
000001f0: 0b1e a53c 582f f73b 20bd fb3b 20cb 69bd
00000200: f680 2e3d fc9c bb3c 287b a3bc cb3e 143d
00000210: a3d6 213d 5439 b2bb c9e4 afbd 5add 32bd
00000220: 428a c83b 1444 8bbd e8ae a43d aacd 4ebd
00000230: c24d 063d 84d1 edbc fa58 c93c 032f 9e3c
00000240: 3856 94bc b005 42bd 5f99 94bb 50f3 a0bd
00000250: 9540 cdbc 208f 9e3d 5f1d 873d 1ac4 9e3c
00000260: 542b a4bc 307a 45bc b3dd 9d3d e176 1e3c
00000270: 87ec d33c a49f 11bd a0f9 8abc 6f8c 423d
00000280: 1640 a2bd 745b 4b3d 37e5 863d 5671 96bc
00000290: 4a65 93bd 8e17 57bd 82ae b83d c554 af3d
000002a0: 8de6 953c 0134 df3c 9f51 cfbd 5a63 aebd
000002b0: 1e28 13bd 4e47 d93c a0b0 73bc d2ae bdbd
000002c0: c5a5 1fbd 0e9c b93d 1366 20bd 57c1 8d3d
000002d0: 5a49 e1bc f38a a9bc 32c8 16bd a740 c73d
000002e0: d601 f1bd 2463 853c c4c3 89bd f924 dbbc
000002f0: c06b d3bd 545c 95bd 2646 103d af05 493c
00000300: ab1a 4dbd 32d0 623d a952 863c ae55 dbbc
00000310: 1ce3 a83c f55b 07bd bed2 a0bc dbe0 39bb
00000320: 83e9 313d 70fe 3fbd 6e9d 4c3c 12f3 983c
00000330: 42e9 453d b131 9c3c 2d8b 553c 9bfd 02bd
00000340: 3330 e53c 9b26 cbbc a7f5 8cbd 38cf 43bd
00000350: 7b04 433d 243d bcbb 0603 99bd 7562 413d
00000360: efc1 593d 3781 823d 37e0 aabd ba1c 833c
00000370: d8ea 113d 11c9 b0bc 9acc 0a3c f072 09bd
00000380: 918a a6bc 10d6 633d c224 223d c5f5 41bd
00000390: 7d04 60bd 0d6c 8dbc c17d 69bd df08 42bd
000003a0: 9028 353c f290 96bd cfb5 1cbb 41a6 a03d
000003b0: a707 a4bd 812f 7b3d cb52 033c 411d a33c
000003c0: bfad 393c ab57 1d3c f636 b33c a968 b03c
000003d0: 4a0a a5bb 1b62 8ebd 09ac 483c 7e4f c13c
000003e0: 1fd4 493d 823f 203d dd35 183d ebac 3b3d
000003f0: 5e40 903d 4e7a aa3d 4e32 653c 0ab0 4d3c
-0.08695227 0.06218961 0.07894812 -0.04480229 -0.098822534 -0.017911786 -0.014909264 -0.09168509
0.025110247 -0.0422046 -0.06295505 0.03210133 0.005718604 -0.034605816 -0.06850621 -0.035976287
0.027072698 -0.014538971 0.052260835 0.009043431 0.0042521437 0.04886925 -0.005763368 0.09972569
0.06831877 -0.089200504 -0.007012763 -0.0027260827 0.026036266 -0.060908377 -0.021263814 0.016775604
-0.029186457 0.026553629 -0.026975056 -0.06229856 -0.0038788537 0.00635917 0.05658469 -0.0050922264
0.024247847 -0.0576669 -0.050962023 0.028292907 -0.083374776 -0.033482075 0.05737398 -0.05328984
0.0018650952 0.071402565 0.0016713857 -0.020477457 -0.06124798 -0.018073546 -0.038354594 -0.054403245
-0.01625306 -0.07898848 0.08130174 -0.030935865 -0.047527418 0.010639931 -0.019160055 0.072647676
0.018689396 -0.046969395 -0.003392619 -0.0643237 0.0011420231 0.049062073 -0.038636364 -0.039420377
0.05056602 -0.04220531 -0.055815317 -0.06772363 -0.05566553 0.0148648275 -0.10029489 -0.033384442
-0.08969033 -0.05859881 -0.09370117 0.057753094 0.018234506 -0.063927904 -0.031707875 -0.0049683037
-0.027224042 -0.026565114 0.031682204 0.0369418 -0.002302884 -0.034145862 -0.07493861 -0.028881833
-0.027849933 0.069798425 -0.03937165 -0.020079149 0.0066641294 -0.024784883 0.009763752 0.028188046
0.033675417 -0.05006234 0.025043007 0.023638831 -0.028896362 0.083947964 -0.073123306 0.015381481
-0.032851275 0.038365997 -0.017254945 0.038935103 0.06475522 0.010001691 0.08194478 -0.07146358
-0.013526084 -0.01347166 0.051153533 0.024818974 0.020155927 0.0075434856 0.0076824576 -0.05707848
0.042603455 0.022902004 -0.019956186 0.036192697 0.039511334 -0.005438963 -0.08588559 -0.04366813
0.0061199972 -0.06800094 0.08041173 -0.050489105 0.032789 -0.029030569 0.02457856 0.019309526
-0.018107519 -0.047368705 -0.004534885 -0.07858908 -0.02505521 0.07742143 0.06597399 0.019380618
-0.020040192 -0.012053058 0.077083014 0.009671898 0.025869621 -0.035552636 -0.016964734 0.04749721
-0.0792238 0.049647763 0.06586688 -0.01836459 -0.07197054 -0.052512698 0.0901766 0.085610904
0.018298412 0.027246477 -0.1012299 -0.085150436 -0.03592693 0.026523259 -0.014873654 -0.0926186
-0.03897645 0.09062968 -0.039159846 0.06921642 -0.027500797 -0.020696139 -0.036812015 0.09729128
-0.11767928 0.016282625 -0.067267925 -0.026751028 -0.10323286 -0.07293001 0.03522315 0.0122694215
-0.05007426 0.05537433 0.016396837 -0.026774254 0.020616107 -0.03304668 -0.01963174 -0.0028362784
0.043435585 -0.04687351 0.012488706 0.018670592 0.048318155 0.019066663 0.01303367 -0.03198014
0.027977085 -0.024798682 -0.06882792 -0.04780504 0.047611695 -0.005744593 -0.0747128 0.047213037
0.053163465 0.06372302 -0.08343547 0.016004909 0.035624355 -0.021580251 0.008471632 -0.03355688
-0.020329745 0.055624068 0.039585836 -0.047353525 -0.05469178 -0.017263437 -0.057004694 -0.04737174
0.011057034 -0.07351865 -0.0023912077 0.078442104 -0.08009272 0.0613246 0.008015345 0.01991141
0.011332928 0.009603421 0.021876793 0.02153428 -0.005036627 -0.06952306 0.012248048 0.023597475
0.04927456 0.039123066 0.037160743 0.045819204 0.07043527 0.08324109 0.013989044 0.012554178

bias f4 [64]
00000000: 9188 9c3d 11d7 6abc 28fd dbbc 0e35 6c3d
00000010: 3e83 a1bb 7341 a1bc 1f64 863b a8d8 4c3d
00000020: 3850 20bd e779 d1bc 8042 8c3d c777 60bd
00000030: ecd8 503d 8e02 8e3c 9fbc 1f3d 278e 3bbd
00000040: 45c9 043d d6cb 90bb 97f3 a73d 9a66 583c
00000050: f3af f23c 3648 fe3b 70ba 8fbc 975e 323d
00000060: 4364 21bd c6bf 973d c8b9 eebb f594 51bd
00000070: 08d4 32bd 3923 80bd 3f5d 6cbb a9f0 133d
00000080: 4928 e23b 2931 1e3d 699d 383d 4437 31bd
00000090: ce5d c73c 7191 a53c ec21 513d a160 8f3d
000000a0: 39f0 ccbc 7bea 973d 008b 16bd 98e7 973d
000000b0: 95f1 78bd 4faf a3bd 2564 98bd 872f 0dbc
000000c0: 21d1 443c c329 d4bb de50 20bd 9960 9d3c
000000d0: 3508 9fbd e0ce 9c3d aae6 4ebd 19ed 3fbd
000000e0: 6be2 27bd d69d 5ebd 5dc0 cbbc 92c7 9bbd
000000f0: bc82 303d 1000 443c 73ed a13c 02ef b6bd
0.076432355 -0.014333502 -0.026854113 0.057667784 -0.0049289754 -0.019684529 0.004101291 0.050011307
-0.039139003 -0.025570823 0.06848621 -0.05480173 0.050988123 0.017335203 0.038998242 -0.045789864
0.032418508 -0.0044188304 0.08200758 0.013208056 0.029624915 0.007760073 -0.017544955 0.04354724
-0.039402258 0.07409625 -0.0072853304 -0.051167447 -0.04365924 -0.06256718 -0.0036066321 0.036118183
0.006901775 0.0386211 0.045071993 -0.043265596 0.024336722 0.020210953 0.05105774 0.070008524
-0.02501689 0.074177705 -0.036753654 0.0741722 -0.060777266 -0.07992422 -0.07440976 -0.008617288
0.012012751 -0.006474705 -0.03913962 0.0192111 -0.07765237 0.07656646 -0.050512947 -0.046856973
-0.040987413 -0.054349743 -0.024872 -0.076064244 0.043093428 0.0119629055 0.019766545 -0.08932306

weight f4 [64, 16, 3, 3]
00000000: 5d7f 153d 8b3b 883d 2d75 2e3d 6f72 b63b
00000010: 29b9 593d ecfa 9bbd 5526 5bbd fbf1 e53a
00000020: 7d05 4dbc 2adf 6abd 8d52 05bd fddb fbbc
00000030: 00fa 8c3d a08b 52bc 71fe 03bd e7f5 06bd
00000040: 4197 94bd 3990 073d 0f5a 6cbd 2b47 b23d
00000050: 0a42 7cbc 5712 f93b 47ba 98bc 23eb 86bd
00000060: 8853 913c c24c 43bd caa2 60bd 6768 253a
00000070: 4f74 8abd e5d0 56bd 32f5 e23c 8c0c 1f3d
00000080: daae 39bc 71b7 2f3d 66d1 723d df16 5dbd
00000090: 05af 383d cd07 19bb b47b 9bbc fa28 433d
000000a0: b65e a83d 85fd 21bc 6113 81bc 6e51 1dbc
000000b0: cacf 4a3d 34e1 203d 9891 a4bd b1d9 98bc
000000c0: 84a5 003d 184e 57bc e58a 50bd b952 603d
000000d0: 3bee aabc 6634 0ebd 62d5 2bbc 5305 a03d
000000e0: 9cf0 7f3c 8dbd 6dbd 4af8 9f3d de18 3b3d
000000f0: c620 da3c 6714 813c 85af 0f3d fab1 9bbd
00000100: 3471 3f3b b887 4fbd e622 403d d3b3 57bd
00000110: f27a 583d fbed 8c3d 7371 793d 764f a93b
00000120: 7080 1f3c 6e0b 9a3c 53ef 63bb 96e1 c13c
00000130: 592b 87bc 04d8 99bd 0b51 28bd 6b43 063c
00000140: be73 383d 6827 81bd ae82 583d 6223 86bd
00000150: 5dfc 5d3d f891 c0bd a569 1dbd d4f1 7ebd
00000160: 828f bebd 4ff2 3bbd 8125 75bd ebc7 cebc
00000170: a79b 6e3d f50c 833d 3360 213c 04be 90bd
00000180: 9546 31bd bfd6 87bd 7cae 8d3d c1cc f5bc
00000190: 5134 2dbd 261c 57bd cb75 cebb 1ace db3a
000001a0: e782 99bd c8a1 a83b a00d 803d d194 55bd
000001b0: aae2 2c3d 63c1 e1bd 0b17 bebd 50be 95bd
000001c0: 3a5a ddbc 663c 5a3c 9d01 43bc aa79 e6bc
000001d0: 9569 95bc ed64 753b b84a 3c3d 80ce 863d
000001e0: d202 3fbd d070 9ebd ee54 a33b af09 463d
000001f0: 0c46 0c3d aa5e 523c dc07 1cbb a8ae 383d
00000200: 0efa f83c 2252 883d 5070 79bd 407a 3bbd
00000210: 720d b3bc 75b7 bbbc 6f05 06bd 060e a63d
00000220: 44e0 a43c f23f f5bc c84a 4cbd 505a bcbc
00000230: 8d5a af3b b167 de3b 9093 223d 25eb 963d
00000240: bd89 2abd d19f 8e3d 4099 99bd 6777 2c3d
00000250: a074 2b3d 7163 5fbd 41c8 fb3c 7755 16bd
00000260: 3771 6d3c ef4f 1bbd 70ff 04bd 8b64 8f3d
00000270: b4b0 643d 72ea 86bd 35f9 94bd ae66 3abd
00000280: ff70 98bd e218 4abd 70df 87bd 45ea df3c
00000290: afaa 2e3c 5a2c 63bd ce96 b63d e7d5 e9bc
000002a0: 16c7 70bd 9b82 ad3b b84b 99bd 48ab e03c
000002b0: f691 10bd aa74 2bbd 464d 8bbd 79f1 2abc
000002c0: 1005 c2bd af35 983d cd1f 93ba 0e87 2fbd
000002d0: ddfd 033d a7a6 403d a5f5 453a a562 aa3d
000002e0: 9882 ae3d b4bc 0dbd 04ee 973d 60f2 85bb
000002f0: 9e08 f6bc 35d6 a1bd b71f 073d b5e0 9b3d
00000300: dd42 aabd 1b96 563d 96ba ffbc 2ed6 aabc
00000310: 0c08 99bd 6391 aabb b07c 7a3d b550 543c
00000320: a293 9abd 36fe 9bbd ac4e c73d bd47 a23d
00000330: ff5a cd3c 8888 54bd 1fd7 153d 0c9a a1bd
00000340: 8638 40bd 026e 6b3d fa8f 90bd 4906 43bc
00000350: 6e71 73bc 6791 74bd ef53 54bd 8232 993c
00000360: a756 853d 70db b43c 6ff4 b5bd b7bf 7bbc
00000370: 80e9 b5bb 5242 cabd fd4f 27bd ede7 46bc
00000380: 61eb a7bc 47b1 363d 4ad0 173d e1ca a63c
00000390: bec1 b93c 70a5 04bd 6f32 e9bc 2e65 803d
000003a0: 6f57 4b3d adf5 8bbb cb4a 93bd 6a27 55bc
000003b0: be3d 823d 8bf2 893b cdad a93d 909d 4fbd
000003c0: e21b 4f3d 7f4a 8fbd 4bb4 943d 9a80 4cbd
000003d0: 68ae 9bbc fe53 d6bc e6c0 8dbd f63b 90bd
000003e0: 89bb 82bc cb77 f33c 4c49 183d 4208 00bd
000003f0: b3a7 fcbc 88d3 423d dbce afbd 2890 ddbc
0.036498416 0.06651982 0.042592216 0.0055678408 0.053155098 -0.07616219 -0.053503353 0.0017543429
-0.012513516 -0.057341732 -0.03254943 -0.030744547 0.06883621 -0.012850672 -0.032225076 -0.032949354
-0.07255412 0.033096526 -0.057703074 0.087049805 -0.015396604 0.0076010632 -0.018643511 -0.065878175
0.017740026 -0.047680624 -0.054842748 0.00063098076 -0.06760465 -0.05244531 0.027704809 0.038830325
-0.011333192 0.042899553 0.05928173 -0.05397689 0.045088787 -0.0023350597 -0.018979885 0.0476465
0.0822119 -0.009887104 -0.01575631 -0.009601934 0.04951457 0.03927727 -0.08035582 -0.01865849
0.031407848 -0.013141178 -0.05091371 0.05476639 -0.02086555 -0.03471794 -0.010487886 0.078135155
0.015621331 -0.058042098 0.07811029 0.045678012 0.026626956 0.015756799 0.035079498 -0.07602306
0.0029211761 -0.05066654 0.04690828 -0.052661728 0.052851625 0.06881329 0.06089921 0.005166943
0.009735212 0.018804278 -0.00347801 0.023667138 -0.016500162 -0.07511905 -0.041092914 0.008194785
0.045032255 -0.06306344 0.052859 -0.065497175 0.05419575 -0.09402841 -0.03843083 -0.062242344
-0.09304716 -0.04588538 -0.05985022 -0.025241813 0.05825391 0.06398956 0.009849596 -0.070674926
-0.043280203 -0.066327564 0.06918046 -0.03000486 -0.04228622 -0.05251708 -0.006300663 0.0016769797
-0.07495671 0.005146239 0.06252599 -0.052143876 0.04220835 -0.11023214 -0.09281739 -0.0731169
-0.027020562 0.013320064 -0.01190224 -0.028134186 -0.018238822 0.003744419 0.045969695 0.065823555
-0.04663355 -0.07736361 0.0049844896 0.04834908 0.03424649 0.0128399525 -0.0023808395 0.04508844
0.030392673 0.066562906 -0.060898125 -0.045770884 -0.021856997 -0.022914628 -0.032720026 0.081081435
0.02012647 -0.029937718 -0.049876004 -0.022992283 0.0053513707 0.0067872633 0.039691508 0.07369069
-0.041635264 0.06964076 -0.07499933 0.04210606 0.04185927 -0.054538194 0.030735137 -0.0367026
0.014492325 -0.037918027 -0.032470167 0.07001599 0.05583258 -0.06587686 -0.07274095 -0.04550808
-0.07443427 -0.049340136 -0.06634414 0.027333388 0.010660811 -0.05546222 0.089154825 -0.02854438
-0.058783613 0.0052951104 -0.07485145 0.027425423 -0.03529545 -0.041859306 -0.06801848 -0.010433548
-0.09473622 0.07432114 -0.0011224687 -0.042853408 0.032224525 0.047033932 0.00075515575 0.08319596
0.085210025 -0.03460379 0.07418445 -0.0040877312 -0.030033406 -0.07902185 0.03298923 0.07611219
-0.083135344 0.052389245 -0.0312169 -0.020854082 -0.07472238 -0.0052053197 0.061154068 0.012958695
-0.0754769 -0.07616846 0.09731802 0.07923839 0.025067804 -0.05188802 0.03658211 -0.0789071
-0.046928905 0.05747796 -0.07058711 -0.011903354 -0.014858587 -0.05970898 -0.051837858 0.018700842
0.06510668 0.022077292 -0.08884513 -0.015365533 -0.005551517 -0.09875931 -0.040847767 -0.012140256
-0.02049798 0.04460266 0.037063874 0.020360412 0.022675391 -0.032384336 -0.028466431 0.062692985
0.04964393 -0.00427123 -0.07192 -0.013009885 0.06359433 0.0042098216 0.08285103 -0.050687373
0.0505637 -0.06996631 0.07260951 -0.04992733 -0.019004062 -0.026163097 -0.06921558 -0.07042687
-0.015958564 0.029720208 0.037179276 -0.031257875 -0.030841684 0.047565013 -0.085843764 -0.027046278

bias f4 [64]
00000000: 3c9d a0bc 31af 9d3d 38c9 b4bd 5cf5 74bd
00000010: 4c4f 9bbc 1715 503d fc76 04bd d5f0 43bd
00000020: 73a4 043d eb3e 59bd bf85 783b 4a7f 443c
00000030: 142b 74bd 9192 7c3d 3fac 8c3d 4033 103d
00000040: 1483 1b3d d1db 10bd 6ad5 f1bc 06b3 b33c
00000050: c779 6dbc 3f2f eb3c 8195 bdbb 1b0b ea3c
00000060: 8e8d 70bd 1c11 3d3d f9dc 813d 172d 4ebd
00000070: ba1b 88bd 694a 2e3d 522c ffbc a0a1 0a3d
00000080: 092b 983d 6b17 bbbd 36a3 dcbb 5848 bebd
00000090: af71 7a3b 7b25 e1bc 739c ae3c d9b0 82bd
000000a0: e11a c2ba 6c34 a5bd d721 07bd 1370 3e3d
000000b0: cbd7 163d c406 8c3d fe45 303c abc8 80bd
000000c0: a8d8 94bd f9f3 1cbd dcf0 9ebd 3bc8 16bd
000000d0: 3a19 7c3d 5d8a 9b3d da49 a3bc f70d 3ebd
000000e0: ffc7 2fbd 70a0 cc3c b256 a8bd fef9 203d
000000f0: da49 dcbc b4c8 063c 4833 83bc 760a 4bbd
-0.019606225 0.07699431 -0.08827442 -0.059804305 -0.01895871 0.050801363 -0.032340035 -0.047837097
0.032383393 -0.05303852 0.0037921516 0.011993239 -0.059611395 0.061663214 0.06868791 0.035205126
0.037966803 -0.035365883 -0.029520709 0.021935951 -0.014494366 0.028709052 -0.0057856445 0.028569749
-0.058728747 0.046158895 0.06340975 -0.05033597 -0.066459134 0.04255143 -0.031149063 0.033845544
0.07430083 -0.09135326 -0.0067333234 -0.09291142 0.0038214733 -0.027483692 0.021314835 -0.06381387
-0.0014809036 -0.08066639 -0.032991257 0.0464936 0.03682689 0.06837228 0.010758875 -0.062882744
-0.072678864 -0.038318608 -0.07760784 -0.03681205 0.061547495 0.0759475 -0.019932676 -0.046400037
-0.04291534 0.024978846 -0.08219661 0.03930091 -0.026890684 0.008226562 -0.016015664 -0.049570523
