working/model_pretrained/net_F16B2_epoch_12.pth (torch_old, 135256 bytes, 16 tensors)

weight f4 [16, 3, 3, 3]
0	0x3e182832	0.14859083
1	0xbe0e372d	-0.13888235
2	0xbe263d1e	-0.16234252
3	0xbe16c1da	-0.14722386
4	0x3e1c336d	0.15253992
5	0x3e04172a	0.12899461
6	0xbe0c9f1c	-0.1373257
7	0x3e2e73b7	0.17036329
8	0xbdb28fea	-0.08718856
9	0xbe2a2cc0	-0.16618633
10	0xbd937431	-0.07199896
11	0xbcbcb73a	-0.023036588
12	0xbe071adc	-0.1319384
13	0x3dd395f0	0.10331333
14	0x3e294516	0.1653026
15	0x3dc4d6cf	0.09611284
16	0xbe16b47b	-0.14717285
17	0x3e18a5db	0.14907019
18	0x3cc27ece	0.023742106
19	0x3dc73805	0.09727482
20	0x3e2da821	0.16958667
21	0xbd5a8f3b	-0.05335925
22	0xbdc472ca	-0.09592207
23	0x3d93e826	0.07222013
24	0xbdbf08c1	-0.093278416
25	0xbe283955	-0.1642812
26	0x3da4733b	0.08029791
27	0x3ddb6fda	0.10714693
28	0x3d69dad8	0.05709347
29	0xbe1de041	-0.15417577
30	0xbd128b59	-0.035777424
31	0xbd85d7de	-0.06535314
32	0xbdc05540	-0.0939126
33	0xbce4cd59	-0.027929949
34	0x3e131bb4	0.14366037
35	0xbe21674e	-0.15762064
36	0xbae15dfd	-0.0017194148
37	0x3dc15802	0.09440614
38	0x3d461e80	0.04836893
39	0x3e36ac69	0.17839207
40	0x3c3ee318	0.011650823
41	0xbe18b34c	-0.14912146
42	0xbdf97c21	-0.12181879
43	0xbc57620d	-0.013145936
44	0x3c1efe5f	0.0097042015
45	0x3d0cfd1a	0.034421064
46	0xbd02c99b	-0.031930547
47	0xbd9d8c03	-0.07692721
48	0xbe0dbb7b	-0.1384105
49	0x3d568886	0.052376293
50	0x3b2b2de1	0.0026119875
51	0xbdd85282	-0.10562612
52	0xbe130aa2	-0.14359525
53	0xbd5f8c04	-0.05457689
54	0xbc063f79	-0.008193844
55	0x3e44802c	0.19189519
56	0x3e386003	0.18005376
57	0xbd00ba60	-0.03142774
58	0x3dfdc8a7	0.12391787
59	0x3e416178	0.18884838
60	0x3c883791	0.016628059
61	0xbe2db0b3	-0.16961937
62	0x3e1df2cb	0.1542465
63	0xbd3de6ba	-0.046362616
64	0xbe2b31d8	-0.16718233
65	0xbccece5c	-0.025244884
66	0x3da9b04c	0.08285579
67	0xbd314fc4	-0.04328896
68	0x3c3c1f77	0.011482111
69	0xbda01189	-0.078158446
70	0xbe10b29c	-0.14130634
71	0xbe0fb55f	-0.14034031
72	0x3dbfc885	0.09364418
73	0x3e290fba	0.16509905
74	0xb9f95b41	-0.0004756097
75	0xbdc36556	-0.09540813
76	0xbd9bd163	-0.07608297
77	0x3c5ccabe	0.013476072
78	0xbdbf606f	-0.09344565
79	0xbe0d4ca8	-0.13798773
80	0xbe0a8482	-0.1352711
81	0xbe236367	-0.15955888
82	0xbdc48c15	-0.09597031
83	0x3e133889	0.14377035
84	0x3dca987e	0.09892367
85	0xbcdb45c2	-0.026766662
86	0xbc0821c6	-0.008308833
87	0xbcb014f5	-0.021494368
88	0xbddc194a	-0.10747011
89	0xbcd802ec	-0.02636858
90	0xbc7c359f	-0.015393644
91	0xbdbc4738	-0.091932714
92	0xbd508810	-0.05091101
93	0xbde11d9d	-0.109919764
94	0x3c888774	0.016666152
95	0xbdafb50b	-0.08579453
96	0xbdb0f931	-0.086412795
97	0x3d473495	0.04863413
98	0xbb23e2a3	-0.0025006912
99	0x3d118be3	0.035533797
100	0x3e0a7652	0.13521698
101	0xbe1b874b	-0.15188329
102	0xbdc4e2b0	-0.0961355
103	0x3e2c0e6d	0.16802378
104	0x3df76487	0.12079721
105	0xbe29c6f5	-0.16579802
106	0x3dd9f68e	0.1064273
107	0x3b0f3cf7	0.0021856406
108	0xbd6f04c6	-0.05835416
109	0xbe1f7d27	-0.15575086
110	0x3d9b7a48	0.07591683
111	0xbdef1083	-0.11673071
112	0x3de00b79	0.10939688
113	0xbde1ec02	-0.11031343
114	0xbe17b301	-0.14814378
115	0x3d84f044	0.064911395
116	0xbb29b41d	-0.002589471
117	0x3d734d48	0.059399873
118	0xbd775ec1	-0.0603931
119	0x3bc7bf2c	0.0060957875
120	0xbd0340a7	-0.03204408
121	0x3da674e9	0.081277676
122	0xbd0f85fb	-0.035039883
123	0xbd742bf4	-0.05961223
124	0x3dce8918	0.10084742
125	0xbdfc8a78	-0.12331098
126	0x3e3f16d3	0.1866105
127	0x3dadaf3d	0.0848069
128	0x3e39df7d	0.1815166
129	0xbdab4748	-0.08363205
130	0x3de7b860	0.113144636
131	0xbb9047b1	-0.0044030775
132	0x3dee04fb	0.11622044
133	0xbdb0f616	-0.08640687
134	0x3d0a2d96	0.03373488
135	0xbdbed56a	-0.09318049
136	0x3e012160	0.12610388
137	0xbd3eac43	-0.046551
138	0xbe026b1e	-0.12736174
139	0x3e1776fd	0.14791484
140	0xbe25c3bb	-0.16187946
141	0x3da559e8	0.08073789
142	0x3c2ee214	0.010674018
143	0xbd119c83	-0.03554965
144	0x3e4c9eef	0.19982503
145	0x3e2751bd	0.16339774
146	0x3df6e61f	0.12055611
147	0xbe25a09e	-0.16174552
148	0x3e3b782c	0.1830756
149	0xbb3ebb9b	-0.002910352
150	0xbd4e5c87	-0.05038121
151	0x3d776fbd	0.060409296
152	0xbb49ba7e	-0.0030781324
153	0xbdb268de	-0.08711408
154	0x3c6675ba	0.014066154
155	0xbc1a02d5	-0.009400089
156	0xbe1e041e	-0.15431258
157	0xbe444f4b	-0.19170873
158	0x3de9195f	0.11381792
159	0x3de27011	0.11056531
160	0xbd9065af	-0.070506446
161	0x3dd333ae	0.103125915
162	0x3d2125d3	0.039342713
163	0xbca52439	-0.020158874
164	0x3c6de7b8	0.014520578
165	0x3e29a632	0.16567305
166	0xbe12fbb7	-0.14353834
167	0x3e293c61	0.16526939
168	0x3e17bcf2	0.1481817
169	0xbe359058	-0.17730844
170	0xbe39a148	-0.1812793
171	0xbe2b4ed0	-0.16729283
172	0x3c97ae8f	0.018515853
173	0x3cbcd50a	0.023050804
174	0xbe29685e	-0.16543719
175	0xbe4dcabc	-0.20096868
176	0xbdfab362	-0.12241246
177	0xbd8e1a42	-0.06938602
178	0xbdf3de7a	-0.119076684
179	0x3e385f26	0.18005046
180	0x3dd1d2b2	0.10245265
181	0x3e100902	0.14065936
182	0x3dda4e01	0.10659409
183	0xbd6461fa	-0.0557575
184	0x3e053111	0.13006999
185	0x3e1a0e41	0.150445
186	0xbd31ba5b	-0.043390613
187	0xbdc56b15	-0.09639565
188	0xbd1c5e29	-0.038175736
189	0xbba7e80f	-0.005124099
190	0xbe1eec16	-0.15519747
191	0xbdb1bb06	-0.0867825
192	0x3e2b0655	0.16701634
193	0x3db61bdb	0.08892032
194	0xbdfc324e	-0.12314282
195	0xbdc96c6c	-0.09835133
196	0xbd0675b8	-0.03282711
197	0x3c974504	0.018465526
198	0x3e208428	0.15675414
199	0x3d47d416	0.048786245
200	0x3e234dc9	0.15947641
201	0x3e1dd730	0.15414119
202	0x3dc6c6d5	0.09705893
203	0x3d3d0cd5	0.046154816
204	0x3d0b65a5	0.034032483
205	0x3dd8bbed	0.10582719
206	0x3b9bc8b7	0.0047541517
207	0xbdc72d29	-0.097254105
208	0x3e09cb63	0.13456492
209	0x3dba327a	0.09091659
210	0xbd86ef37	-0.06588595
211	0xbdfbc72b	-0.12293848
212	0x3d1f831c	0.038943395
213	0x3dce5cec	0.10076317
214	0x3e2bea70	0.1678865
215	0xbd24b472	-0.04021115
216	0xbe318b97	-0.17338406
217	0x3dbe3d29	0.09289009
218	0x3d09943e	0.03358864
219	0xbe1ee214	-0.1551593
220	0xbe1d7ba9	-0.15379204
221	0x3e1d80f2	0.1538122
222	0x3e0ce293	0.13758306
223	0xbdbf3cce	-0.093377694
224	0xbdbaeeec	-0.09127602
225	0x3e2449c9	0.16043772
226	0xbbfa17de	-0.0076322397
227	0x3e37796e	0.17917415
228	0xbcc6350c	-0.024195217
229	0xbd447e3a	-0.04797194
230	0xbe246b18	-0.16056478
231	0x3e068fdd	0.13140817
232	0x3db1bb37	0.086782865
233	0xbd8a8bb0	-0.067649245
234	0xbbee1606	-0.007265809
235	0xbd6436fd	-0.055716503
236	0x3e291887	0.16513263
237	0xbc3a789f	-0.011381297
238	0x3e3130de	0.17303798
239	0xbd298d8b	-0.04139475
240	0x3d0dd0a6	0.03462281
241	0x3d91b3fe	0.07114409
242	0xbb4d842b	-0.0031359296
243	0xbdd1ac65	-0.1023796
244	0xbd6a31a6	-0.057176255
245	0x3bbc2652	0.005741873
246	0xbda8b099	-0.08236808
247	0x3c575ddd	0.013144937
248	0x3e2b7a3b	0.16745846
249	0xbe0d22ae	-0.1378276
250	0xbca7719f	-0.020439921
251	0xbd066225	-0.03280844
252	0x3da3924d	0.07986889
253	0xbe2d91a1	-0.16950084
254	0x3d925031	0.071442015
255	0xbcf61ced	-0.03004309

bias f4 [16]
0	0x3db6fffa	0.089355424
1	0x3e015ab0	0.12632251
2	0x3e1c9a4a	0.15293232
3	0x3d9b58e7	0.07585316
4	0xbdcc43ad	-0.09973846
5	0x3d18a791	0.03726918
6	0x3e4caf71	0.199888
7	0x3e1067ee	0.14102146
8	0x3d56cdfa	0.05244253
9	0x3dc3d76a	0.09562571
10	0x3e1764b5	0.1478451
11	0x3e1f8a1c	0.15580028
12	0x3da69838	0.08134502
13	0xbd115355	-0.035479862
14	0xbc6fefd5	-0.014644583
15	0xbdcc11d8	-0.09964341

weight f4 [16, 16, 3, 3]
0	0xbc3fed0a	-0.011714229
1	0xbcb692fd	-0.022286886
2	0xbd94d210	-0.07266629
3	0xbb941208	-0.004518751
4	0x3de43e1b	0.11144658
5	0xbddbceb7	-0.10732787
6	0x3dfa6e44	0.12228063
7	0xbd54fc3b	-0.05199836
8	0x3d851791	0.064986356
9	0xbc8c19d6	-0.017102163
10	0x3da4597f	0.080248825
11	0xbcfffc35	-0.031248191
12	0x3c254866	0.010088062
13	0xbc771584	-0.015080813
14	0xbd3c155f	-0.04591882
15	0x3b59e1dd	0.0033246197
16	0x3d4ee4f8	0.05051133
17	0x3d668c54	0.05628617
18	0x3d1e78df	0.03868949
19	0x3d27f1d3	0.041002106
20	0xbd051916	-0.032494627
21	0xbdb6ff12	-0.089353696
22	0xbd031889	-0.03200582
23	0xbdffe32e	-0.12494503
24	0xbda9fc9a	-0.08300133
25	0xbd2e4e79	-0.042555306
26	0x3d842b10	0.06453526
27	0xbd82f749	-0.06394822
28	0x3ca4445d	0.02005213
29	0xba018c71	-0.0004941887
30	0xbd17f258	-0.03709635
31	0x3da966a6	0.08271532
32	0x3d9d2f5f	0.07675051
33	0xbbce31e0	-0.0062925667
34	0x3d92fec8	0.07177502
35	0x3d12daca	0.035853185
36	0x3cd523e9	0.0260181
37	0xbdbb05c8	-0.09131962
38	0x3c1ccedf	0.009570806
39	0xbc76e5d9	-0.015069448
40	0x3e088832	0.13333204
41	0xbd0d7d36	-0.03454324
42	0x3ce31f58	0.027724907
43	0xbd8b6b3a	-0.06807561
44	0xbd575e74	-0.052580312
45	0x3d9b7a29	0.075916596
46	0xbd70dc39	-0.05880377
47	0x3dd5e108	0.10443312
48	0xbc838d45	-0.016058573
49	0x3d09955b	0.033589702
50	0xbd60b4d5	-0.054859955
51	0xbc784a8c	-0.015154492
52	0xbddc3c0b	-0.1075364
53	0x3d7c3e25	0.061582703
54	0x3c63f38b	0.013913046
55	0xbd5731e0	-0.0525378
56	0x3c61f5fc	0.013791557
57	0xbdb7d074	-0.08975306
58	0xbd354f00	-0.044264793
59	0xbd5745f1	-0.052556936
60	0x3bc1ee01	0.005918265
61	0x3c924536	0.017855268
62	0xbd8833fc	-0.0665054
63	0xbd74bf79	-0.059752915
64	0xbd47cf1b	-0.048781496
65	0xbd88affa	-0.0667419
66	0x3bfa95a7	0.0076472345
67	0xbca3f2ad	-0.020013178
68	0xbce9167c	-0.028453104
69	0x3d97fb1c	0.07420942
70	0x3ccd9479	0.025095211
71	0xbd8c7cd6	-0.06859748
72	0xbd6395e9	-0.055562887
73	0x3c84f662	0.016230766
74	0xbd19f7bf	-0.037589785
75	0x3d82be8c	0.06384
76	0x3b0c3a44	0.0021397034
77	0x3d32d0be	0.043656103
78	0xbc8f1784	-0.017467268
79	0x3b4c2054	0.0031147199
80	0xbd493aad	-0.049128223
81	0x3cb8bbde	0.02255052
82	0xbc35dd36	-0.011100104
83	0x3de5ce9a	0.11221047
84	0x3dd1afde	0.10238622
85	0xbc996e4c	-0.018729351
86	0x3e0733ea	0.13203397
87	0x3a6645ab	0.0008784185
88	0xbb3efe67	-0.0029143335
89	0x3d897dcc	0.06713447
90	0xbd8561a5	-0.06512765
91	0xbbddbc19	-0.0067668078
92	0x3c6d380a	0.014478693
93	0x3d6b508e	0.05744987
94	0xbd02c63d	-0.031927336
95	0x3ce47544	0.027887948
96	0x3bb75504	0.0055948514
97	0xbae2952b	-0.0017286887
98	0x3d97baef	0.07408702
99	0xbcc54871	-0.024082394
100	0x3d4654ef	0.048420843
101	0xbdbed754	-0.09318414
102	0xbce24fe0	-0.027625978
103	0x3cb2d507	0.021830095
104	0xbd2d65ba	-0.042333342
105	0xbda03b61	-0.07823826
106	0x3dde84ce	0.10865174
107	0x3d90a4f0	0.07062709
108	0x3cecefb1	0.028922888
109	0xbd156ad0	-0.036478817
110	0xbcea2276	-0.028580885
111	0x3ba8e847	0.0051546427
112	0xbd5e83d8	-0.054324955
113	0xbd70a5e1	-0.058751944
114	0x3d36d4a3	0.04463638
115	0xbda5c1fd	-0.08093641
116	0xbd480fac	-0.04884307
117	0xbc8e61ce	-0.017380621
118	0x3d73b800	0.059501648
119	0x3d5bfd2f	0.05370825
120	0x3c5ea737	0.013589672
121	0x3d8088d9	0.062761016
122	0x3dc7d461	0.09757305
123	0x3d026097	0.031830397
124	0xbd599393	-0.053119253
125	0xbd0cd011	-0.034378115
126	0xbc081f5e	-0.00830826
127	0xbd7c5b26	-0.061610363
128	0x3d8c5cf0	0.06853664
129	0x3d3d4224	0.046205655
130	0xbdf2dfa6	-0.11859064
131	0xbc7d9380	-0.015477061
132	0xbdc95bb4	-0.09831944
133	0xbd4d2d1f	-0.05009186
134	0x3d70dbd7	0.058803406
135	0x3d03754c	0.032094285
136	0xbcc95885	-0.024578342
137	0x3ca9d3b8	0.020730838
138	0xbb71aa98	-0.0036875363
139	0xbda1521b	-0.078769885
140	0xbda3c939	-0.079973646
141	0xbcac4804	-0.021030433
142	0x3c9ff154	0.019524254
143	0xbd757cde	-0.059933536
144	0xbdce3f68	-0.100706875
145	0xbd8c5436	-0.068519995
146	0xbd11be1e	-0.0355817
147	0xbd52e5b1	-0.051488582
148	0x3d7d2e21	0.06181157
149	0xbd2d0c1d	-0.04224788
150	0x3e05e731	0.13076474
151	0x3c03326d	0.008007628
152	0xbcd33755	-0.02578322
153	0x3d4d977a	0.050193287
154	0xbd660f6d	-0.056167055
155	0xbd445db1	-0.047940914
156	0x3d5287ba	0.05139897
157	0xbda603e5	-0.081062116
158	0xbc1f126f	-0.009708985
159	0xbbd1a739	-0.0063981083
160	0x3b854bce	0.0040678745
161	0xbaeb608f	-0.0017957854
162	0xbc31d5d4	-0.010854203
163	0x3c5f7df2	0.013640868
164	0xbd2e5577	-0.042561974
165	0xbdc52420	-0.09626031
166	0xbd0a9e3f	-0.03384232
167	0x3d030c47	0.03199413
168	0x3d32d666	0.043661498
169	0xbd8e54f2	-0.06949796
170	0xbd916a5d	-0.07100365
171	0xbd1f0ae1	-0.038828734
172	0x3d30b8d4	0.043145016
173	0x3ce01c16	0.027357142
174	0x3d486f76	0.048934422
175	0x3cada56a	0.02119704
176	0x3d677aac	0.056513473
177	0x3c3de43d	0.011590061
178	0xbdaa5489	-0.08316905
179	0xbd0c433c	-0.034243807
180	0xbda51f14	-0.08062568
181	0xbe138fdf	-0.14410351
182	0xbb1bb7e4	-0.002376073
183	0x3c08d72f	0.008352085
184	0x3d91fdba	0.071284726
185	0xbd7da6a1	-0.061926488
186	0x3d511fc0	0.05105567
187	0x3d526fae	0.051376037
188	0x3bb2b3f5	0.0054535815
189	0x3c5f2f0c	0.013622057
190	0x398a5a1a	0.00026388542
191	0x3d436eee	0.047713213
192	0xbceeaa97	-0.029134078
193	0x3d011621	0.031515244
194	0xbd69635b	-0.05697952
195	0xbd671ab3	-0.056421947
196	0x3d77589c	0.06038724
197	0x3daa240d	0.083076574
198	0xbd836cb7	-0.0641722
199	0xbda85a8c	-0.082203954
200	0x3c24346d	0.010022265
201	0x3d2b9117	0.041886415
202	0x3da2c518	0.07947749
203	0xbc301a54	-0.010748465
204	0x3cace9bf	0.021107553
205	0xbd320db4	-0.0434701
206	0x3d85bacb	0.065297686
207	0xbd8fa3e9	-0.07013685
208	0x3d8b6dc4	0.068080455
209	0x3bb84035	0.0056228884
210	0xba654e5b	-0.00087473326
211	0xbd0b138d	-0.033954192
212	0x3cb8a0ac	0.022537552
213	0x3cda441f	0.02664381
214	0xbcf24b83	-0.029577022
215	0xbd3419f6	-0.04397007
216	0xbd5207bb	-0.051276904
217	0xbd024046	-0.031799577
218	0xbce423aa	-0.027849037
219	0x3db004b8	0.0859465
220	0x3d24a90c	0.04020028
221	0xbc29d41f	-0.010365515
222	0xbc9e0136	-0.019287687
223	0xba9a1254	-0.001175473
224	0xbd68ec27	-0.056865837
225	0xbcfa8056	-0.030578773
226	0xbd1025f7	-0.035192456
227	0xbd106a86	-0.03525784
228	0x3c252ead	0.010081929
229	0x3d0f765a	0.03502498
230	0x3e05c96b	0.13065116
231	0x3d98a7ad	0.074538566
232	0xbb87885e	-0.0041361293
233	0xbc57ecfe	-0.013179062
234	0xbcf982d6	-0.030457895
235	0x3d90548d	0.07047377
236	0xbd9802e4	-0.07422426
237	0x3d4102fd	0.04712199
238	0x3d6a3802	0.05718232
239	0xbd844077	-0.06457608
240	0x3cbbb478	0.022913203
241	0xbd36d346	-0.04463508
242	0xbc9a2b47	-0.018819464
243	0xbd083816	-0.033256613
244	0x3d8e9c69	0.069634266
245	0x3d4e6e3b	0.050398093
246	0x3d0d1537	0.03444406
247	0xbd3599b9	-0.044336054
248	0x3db24a09	0.08705527
249	0xbc8a2c65	-0.016866872
250	0x3bfea4e1	0.00777112
251	0x3c260fa7	0.010135568
252	0xbd183da4	-0.03716816
253	0xbda01eca	-0.078183725
254	0xbd1066c0	-0.03525424
255	0xbda02560	-0.07819629

bias f4 [16]
0	0xbc6a7ba5	-0.014311706
1	0xbce472e1	-0.02788681
2	0x3d87a072	0.066223994
3	0x3e09626a	0.13416448
4	0x3d4bf196	0.04979094
5	0x3d18b348	0.03728035
6	0xbbc65caf	-0.006053529
7	0x3d1bbc6e	0.038021497
8	0x3d3d2a92	0.046183176
9	0x3c3758b5	0.011190583
10	0x3cead200	0.028664589
11	0xbca3b82d	-0.019985283
12	0x3c95e11c	0.018295817
13	0x3c608807	0.013704306
14	0xbd11b78e	-0.035575442
15	0x3d37bc05	0.044857044

weight f4 [16, 16, 3, 3]
0	0x3e158a2e	0.14603493
1	0xbc3a2bd0	-0.011362985
2	0xbd3335f2	-0.043752618
3	0xbdfd467c	-0.123669595
4	0x3da416db	0.08012172
5	0xbc1726d3	-0.009225565
6	0x3d6210a4	0.05519165
7	0x3aa7e79e	0.0012810116
8	0xbd612be8	-0.054973513
9	0x3d28961f	0.04115879
10	0xbd9b9cd7	-0.07598274
11	0xbd351e24	-0.044218197
12	0xbd78ab50	-0.06071025
13	0x3da34129	0.07971413
14	0xbdaf910f	-0.085725896
15	0xbcdfd709	-0.027324216
16	0xbdca3c6c	-0.09874806
17	0xbd811d1e	-0.06304382
18	0xbde31a4f	-0.11089002
19	0x3c3fb796	0.011701485
20	0x3c29dc2d	0.010367435
21	0xbcb52d63	-0.022116369
22	0x3d483ba4	0.048885003
23	0xbd3aba47	-0.045587804
24	0xbcdcdfb7	-0.026962144
25	0xbcf55cca	-0.029951472
26	0x3dd00ba0	0.10158467
27	0x3c866b51	0.016408594
28	0xbcd87d1c	-0.026426844
29	0xbcc411ec	-0.023934327
30	0x3df3b2fa	0.118993714
31	0x3ca3b945	0.019985804
32	0x3cf5440c	0.029939674
33	0x3d79f088	0.061020404
34	0x3e19c6b6	0.15017208
35	0xbce65843	-0.028118258
36	0xbd83398f	-0.06407463
37	0x3cc1bac4	0.023648627
38	0xbd46c795	-0.04853018
39	0x3c220dda	0.009890998
40	0xbd006c87	-0.0313535
41	0x3d3817cd	0.044944573
42	0x3c2c18c3	0.0105039505
43	0xbc7db2bb	-0.015484507
44	0xbd644c60	-0.0557369
45	0xbc46785a	-0.012113655
46	0xbda0aa3a	-0.07844968
47	0xbca80a7c	-0.020512812
48	0xbdd96248	-0.10614449
49	0x3cc5ca60	0.024144351
50	0xbd7c6ee2	-0.061629184
51	0xbd027bf9	-0.03185651
52	0xbd0cc4fd	-0.03436755
53	0xbd6b1a23	-0.057397973
54	0xbd04e8b3	-0.03244848
55	0xbd37da28	-0.044885784
56	0xbdbfb98d	-0.09361563
57	0x3d7fbb73	0.062434625
58	0x3da156c1	0.07877875
59	0x3d322982	0.043496616
60	0xbbe8b40b	-0.007101541
61	0x3d9deb7c	0.07710931
62	0x3bdd835a	0.006760043
63	0xbd71fb66	-0.059077643
64	0x3d01da50	0.03170234
65	0xbcee1d27	-0.029066635
66	0x3d3af785	0.04564621
67	0x3cba1e61	0.022719564
68	0x3cc2d368	0.023782447
69	0x3d9ce078	0.076600015
70	0xbda98a51	-0.08278335
71	0x3ca1a5aa	0.019732315
72	0x3d93c42e	0.07215153
73	0x3ca82451	0.02052513
74	0xbd7e04d1	-0.062016312
75	0x3d0e5ca2	0.03475631
76	0x3d4c392c	0.04985921
77	0xbd997dd5	-0.07494704
78	0x3c9d75f2	0.01922128
79	0xbd6fce12	-0.058546133
80	0xbd9d2eb0	-0.076749206
81	0xbc985615	-0.018595735
82	0x3da09912	0.07841696
83	0xbd2297da	-0.0396956
84	0xbd9dae4a	-0.076992586
85	0xbdddcfbd	-0.108306386
86	0x3d7e9b0c	0.062159583
87	0x3ad8ce27	0.001654093
88	0x3c959831	0.018261047
89	0x3ddbd6eb	0.10734352
90	0x3cc5cb21	0.024144711
91	0xbd3d78c7	-0.04625776
92	0x3cc7e668	0.024401858
93	0xbd7f7979	-0.062371705
94	0xbdaf7c04	-0.08568576
95	0x3d981a5f	0.07426905
96	0xbd50ec04	-0.051006332
97	0x3d1d6730	0.038428485
98	0xbd4d6fa1	-0.050155286
99	0x3c96cb6e	0.01840755
100	0x3cf7817d	0.030213112
101	0xbca55b77	-0.020185215
102	0x3d89d74e	0.06730519
103	0x3da996d9	0.08280725
104	0xbdac6461	-0.08417583
105	0x3d9363c0	0.0719676
106	0xbd7931e2	-0.060838588
107	0xbce43f51	-0.027862223
108	0x3accae9f	0.0015616006
109	0x3d375df2	0.044767328
110	0xbdc3ee95	-0.0956699
111	0xbd004da9	-0.031324062
112	0xbc146eea	-0.009059647
113	0xbd86b606	-0.06577687
114	0xbd99c80d	-0.0750886
115	0xbc767bc7	-0.015044159
116	0xbd03a17c	-0.032136425
117	0xbd97ad79	-0.07406134
118	0x3d45b828	0.04827133
119	0xbc915d5b	-0.01774471
120	0xbb2aa836	-0.0026040203
121	0xbd7c8429	-0.061649475
122	0x3d75c1b9	0.0599992
123	0x3d014020	0.031555295
124	0xbd6e674e	-0.058203988
125	0x3bc4b99c	0.0060035717
126	0x3c6a7137	0.014309219
127	0x3cfab746	0.03060497
128	0xbd124b9a	-0.03571663
129	0xbce273d9	-0.027643131
130	0xbc43b049	-0.011943885
131	0xbbd576c4	-0.006514402
132	0xbd270a93	-0.04078157
133	0xbc03b64d	-0.008039069
134	0x3cc329e2	0.023823682
135	0xbd2c64c1	-0.042088274
136	0xbd2fbb84	-0.04290344
137	0xbd30e1bb	-0.043184023
138	0x3cd12bad	0.025533522
139	0x3dab59e0	0.08366752
140	0xbd9b1792	-0.07572855
141	0x3d8ef6cf	0.06980669
142	0x3d6ee6c8	0.05832556
143	0xbd6b497f	-0.05744314
144	0x3daca2a0	0.08429456
145	0x3d822e46	0.06356482
146	0x3db8ffaa	0.09033139
147	0xbd3e2543	-0.046422254
148	0xbd5333b4	-0.05156298
149	0xbc8b492a	-0.01700266
150	0x3d2ea6d3	0.042639565
151	0x3d628eb9	0.055311892
152	0x3d5976b1	0.05309171
153	0x3c9ae11a	0.018906165
154	0xbd0fe150	-0.035126984
155	0x3ce36071	0.027755948
156	0x3db7f5d5	0.089824356
157	0xbbbc947f	-0.005755007
158	0xbd76f833	-0.060295295
159	0x39cdc7ca	0.000392495
160	0xbd6aa1e8	-0.057283312
161	0x3d9fc079	0.07800383
162	0x3c959219	0.018258141
163	0xbdee5e3d	-0.11639068
164	0xbc8ddaf8	-0.017316326
165	0x3d3fa03f	0.046783682
166	0xbe186f4b	-0.14886205
167	0xbd9212ba	-0.07132478
168	0x3cac1bec	0.021009408
169	0xbe141610	-0.14461541
170	0x3d3c71d4	0.046006992
171	0xbbd8732c	-0.0066055264
172	0xbe011e3b	-0.12609188
173	0xbd8d94f1	-0.06913174
174	0x3cb6cc2a	0.02231415
175	0xbcad98ba	-0.02119099
176	0x3da6c19c	0.08142397
177	0xbda5de08	-0.0809899
178	0xbd423426	-0.047413014
179	0xbd10088b	-0.035164397
180	0xbcc2d5a6	-0.023783516
181	0x3d20938b	0.039203208
182	0xbd6c3d58	-0.05767569
183	0xbda72d5c	-0.081629485
184	0x3ce9c3e0	0.028535783
185	0x3d0bb7a6	0.034110688
186	0xbd81d052	-0.06338562
187	0x3d75fd7a	0.060056187
188	0x3d9bf975	0.076159395
189	0x3c1f80de	0.009735314
190	0x3ca5a588	0.020220533
191	0x3d86bb38	0.06578678
192	0x3d11d412	0.035602637
193	0xbdb81db9	-0.08990044
194	0x3c655114	0.013996381
195	0xbd8acff3	-0.067779444
196	0x3c854003	0.016265875
197	0xbd53ea79	-0.051737282
198	0x3be208ad	0.006898007
199	0x3dc1057d	0.09424875
200	0x3d9eeb92	0.07759775
201	0x3ce8c65e	0.028414901
202	0x3d32f738	0.043692797
203	0x3c244ed0	0.010028556
204	0x3c289eb3	0.010291743
205	0xbd1a307f	-0.037643906
206	0x3cb52823	0.022113865
207	0x3dd0da47	0.10197883
208	0x3c91eab6	0.017812114
209	0x3c2d56ca	0.010579774
210	0x3bdba450	0.006702937
211	0x3d07830c	0.03308396
212	0xbd258817	-0.04041299
213	0x3d43312a	0.04765431
214	0x3d49b6d6	0.04924663
215	0xbcb35d68	-0.021895126
216	0x3d03017c	0.031983837
217	0xbd6d7d75	-0.057980973
218	0x3d8e9d3f	0.06963586
219	0x3c89b9a8	0.01681216
220	0x3d842d0a	0.06453903
221	0x3d974875	0.07386867
222	0xbc173a2d	-0.009230179
223	0xba62f546	-0.00086577644
224	0x3d6b838b	0.057498496
225	0x3d334e5e	0.04377591
226	0x3d6df59e	0.058095567
227	0x3dc4b376	0.09604542
228	0xbd163ba1	-0.03667796
229	0x3b060e7a	0.0020455406
230	0xbcd5f600	-0.026118279
231	0x3b335658	0.0027364697
232	0xbd07cfcf	-0.033157166
233	0x3b42b985	0.002971263
234	0xbc43aa76	-0.0119424965
235	0xbd042790	-0.032264292
236	0xbd7f2ede	-0.062300555
237	0x3d3bbeb7	0.045836177
238	0xbd8bccd6	-0.06826179
239	0x3bb1bae3	0.00542389
240	0xbd3b1506	-0.045674346
241	0x3bb51333	0.0055259704
242	0x3c1bba2d	0.009504837
243	0xbd97b91e	-0.07408355
244	0x3d1255ac	0.035726234
245	0xbd4a6818	-0.049415678
246	0xbaa8f493	-0.0012890272
247	0x3d778397	0.06042823
248	0x3c975026	0.018470835
249	0x3da7eaa4	0.08199051
250	0x3d8ac443	0.06775715
251	0x3d3ae7d3	0.04563124
252	0x3d97b555	0.07407633
253	0xbd9b46ff	-0.07581901
254	0x3d924302	0.07141687
255	0xbd931813	-0.07182326

bias f4 [16]
0	0x3d69b3c5	0.057056207
1	0x3d535822	0.051597722
2	0x3cdc463a	0.026888955
3	0x3d9ad354	0.07559839
4	0xbcac6162	-0.02104253
5	0xbc184d6b	-0.009295802
6	0x3c705bce	0.014670325
7	0xbdbcb984	-0.09215072
8	0x3cb63d18	0.022245929
9	0xbd86c124	-0.065798074
10	0x3dc72687	0.097241454
11	0x3d10472e	0.035224132
12	0x3ce3ad2f	0.027792541
13	0x3d969929	0.07353432
14	0x3d85ff48	0.06542832
15	0x3d56c4e2	0.052433856

weight f4 [16, 16, 3, 3]
0	0xbc7fc123	-0.015610012
1	0xbd1214cd	-0.03566437
2	0xbd586d92	-0.05283887
3	0x3dbf10c2	0.09329368
4	0xbd295fdd	-0.041351188
5	0xbd80e62b	-0.06293901
6	0x3d9024ac	0.070382446
7	0x3c93b5f4	0.018031098
8	0xbd1bf35d	-0.038073886
9	0x3d1d4441	0.03839517
10	0xbd42861d	-0.04749118
11	0x3c4230d4	0.011852462
12	0x3d870c8a	0.065941885
13	0x3d6bfaab	0.057612102
14	0x3cfa3137	0.030541046
15	0xbdaf731d	-0.08566878
16	0x3b308c95	0.0026939262
17	0x3938886f	0.00017598433
18	0x3cb239f2	0.021756146
19	0xbd2b4ca8	-0.041821152
20	0x3d2c8d6e	0.042127065
21	0x3cbbbb66	0.022916507
22	0xbc8e1007	-0.017341627
23	0xbd3fb62d	-0.046804596
24	0x3b78440e	0.003788236
25	0x3d120828	0.03565231
26	0xbd1cef29	-0.03831402
27	0x3d163bd7	0.03667816
28	0x3d2e82e3	0.042605292
29	0xbd1ba030	-0.037994564
30	0x3cc387c2	0.023868445
31	0xbb9d8cd8	-0.0048080496
32	0x3d8bca30	0.068256736
33	0xbcc26e89	-0.023734348
34	0x3d791c38	0.060817927
35	0x3cf8c109	0.030365484
36	0xbc22e85a	-0.009943092
37	0xbd9a228f	-0.07526123
38	0xbba4a06e	-0.0050240075
39	0xbd30468e	-0.043036036
40	0xbda9600f	-0.08270275
41	0xbda40a38	-0.080097616
42	0x3d53494a	0.051583566
43	0xbbba5562	-0.005686448
44	0xbd45334d	-0.048144627
45	0xbc60cd27	-0.013720787
46	0xbd144fdd	-0.036208976
47	0x3d29add5	0.041425545
48	0xbd26f461	-0.0407604
49	0xbc111fcd	-0.00885768
50	0xbc7eefd8	-0.015560113
51	0xbbce9271	-0.0063040783
52	0xbbbebdf5	-0.0058209845
53	0x3d84346b	0.064553104
54	0xbd28fde9	-0.041257773
55	0x3d819779	0.06327719
56	0x3d0d12d8	0.0344418
57	0x3cb8ffc8	0.022582904
58	0xbd34f9cb	-0.044183534
59	0x3d944ba9	0.072409935
60	0x3d5637a0	0.052299142
61	0x3d26c563	0.040715586
62	0xbcf347d8	-0.029697344
63	0xbd802ac5	-0.06258158
64	0x3d285af0	0.04110235
65	0xbc4106ac	-0.011781376
66	0x3d86c926	0.06581335
67	0x3b65ad60	0.0035045967
68	0xbd26f4f1	-0.040760938
69	0x3cd4b4ed	0.025965178
70	0x3d88f2b3	0.06686916
71	0xbc74a576	-0.014932027
72	0x3d69394e	0.056939416
73	0x3d88484f	0.06654417
74	0x3d91c87b	0.07118317
75	0xbd190c96	-0.03736552
76	0x3d32ca60	0.04365003
77	0x3b0843e5	0.0020792421
78	0x3cf586aa	0.02997144
79	0xbd96ef52	-0.073698655
80	0xbcc8c8ee	-0.024509873
81	0x3d8f2381	0.06989194
82	0x3cb72a17	0.022358937
83	0x3d312293	0.043245863
84	0x3c7b0b44	0.01532251
85	0xbd7cd8ff	-0.06173038
86	0xbd16ffdc	-0.0368651
87	0x3d5251fc	0.051347718
88	0x3d62423c	0.055238947
89	0xbd74de32	-0.059782214
90	0xbd5382c2	-0.051638372
91	0xbc72ca6c	-0.014818769
92	0x3ab1a6b1	0.0013553706
93	0xbc721be1	-0.014777155
94	0xbd9ea26d	-0.07745824
95	0xbd8f0d97	-0.06985014
96	0xbda34e85	-0.07973961
97	0xbce1ed3d	-0.027578944
98	0xbd97c94b	-0.074114405
99	0x3cefa6d6	0.029254358
100	0x3d8ed464	0.06974104
101	0xbd2cd41e	-0.04219448
102	0x3d27bb2b	0.04094998
103	0xbbfd7950	-0.007735409
104	0x3cc9c6b5	0.024630884
105	0x3d1c9219	0.038225267
106	0xbd7a3ad8	-0.061091274
107	0xbd3dc07c	-0.046326146
108	0x3dab0b24	0.08351734
109	0x3d8c65db	0.06855365
110	0x3d97354e	0.07383214
111	0x3d8a1039	0.067413755
112	0x3d8f36d6	0.06992881
113	0xbce916cc	-0.028453253
114	0xbba946ff	-0.005165934
115	0x3d2116aa	0.039328255
116	0x3d68e928	0.05686298
117	0x3d42819f	0.047486898
118	0x3d77a333	0.060458373
119	0x3d8221da	0.06354113
120	0xbd864045	-0.06555227
121	0xbd0618da	-0.032738544
122	0x3d8f70c3	0.070039295
123	0x3cb5e8ba	0.0222057
124	0x3d0c60cc	0.034272
125	0xbd9be010	-0.07611096
126	0x3d7294ca	0.059223928
127	0x3d55520b	0.052080195
128	0x3d935bdd	0.07195256
129	0x3cb5b657	0.022181673
130	0x3d2104b1	0.039311115
131	0xbcedbc68	-0.029020503
132	0xbda5aa88	-0.08089167
133	0xbd870d90	-0.06594384
134	0xbaccedbd	-0.0015634816
135	0xbd97eeca	-0.07418592
136	0xbc56b31f	-0.013104229
137	0x3d35144d	0.044208813
138	0xbbec0963	-0.0072032674
139	0x3d7ce4cc	0.061741635
140	0xbca77f46	-0.02044643
141	0x3d3d0410	0.046146452
142	0xbd279b82	-0.04091979
143	0xbd1186fc	-0.03552912
144	0xbb8ee2ff	-0.004360556
145	0xbca403c6	-0.02002133
146	0xbc18859e	-0.009309201
147	0xbd801209	-0.0625344
148	0x3d84285f	0.06453013
149	0xbd975263	-0.07388761
150	0xbcb99901	-0.022655966
151	0xbd52096a	-0.05127851
152	0xbd6e8b40	-0.058238268
153	0xbd22a83e	-0.03971123
154	0x3d1fe534	0.039036945
155	0x3c0ec080	0.008712888
156	0x3d98bc79	0.07457823
157	0x3b490015	0.0030670215
158	0x3d3e3d5d	0.04644524
159	0xbda0938b	-0.078406416
160	0xbd62e76f	-0.055396494
161	0xbc24c0d7	-0.010055742
162	0xbc74135b	-0.014897193
163	0xbd586b2f	-0.052836593
164	0x3cfda8b7	0.030964239
165	0x3cb4939e	0.022043046
166	0xbbd03fdf	-0.0063552703
167	0xbcc728a6	-0.024311375
168	0x3bf82a13	0.007573375
169	0xbd8c1018	-0.06839007
170	0x3ce23c99	0.027616786
171	0xbc53727d	-0.012905714
172	0xbd23021d	-0.039796937
173	0x3d720888	0.059090167
174	0xbd85f644	-0.06541112
175	0xbdabc7be	-0.08387707
176	0xbce1fb0f	-0.027585534
177	0x3c9b4950	0.018955857
178	0xbd0e51af	-0.03474587
179	0x3d92d5c6	0.0716968
180	0xbccff4a6	-0.025385212
181	0xbc4a947c	-0.012364503
182	0xbda28100	-0.07934761
183	0xbd2611d8	-0.04054436
184	0xbd127a2d	-0.035761047
185	0x3cd0ac22	0.025472704
186	0xbd364ed4	-0.04450877
187	0x3cbf9189	0.023384826
188	0x3d967baa	0.07347806
189	0xbcb19f11	-0.021682294
190	0xbd7781ea	-0.06042663
191	0x3d040896	0.03223475
192	0xbcf5a249	-0.02998461
193	0x3d6fb39a	0.05852089
194	0x3d0db334	0.03459473
195	0x3d50aded	0.05094712
196	0x3b75cbcf	0.0037505513
197	0x3d5aab4f	0.05338603
198	0xbd17239e	-0.0368992
199	0xbd1c5c8f	-0.03817421
200	0x3cd81ce6	0.026380967
201	0xbd1f6661	-0.038915996
202	0x3d141edc	0.036162242
203	0xbd866e54	-0.06564012
204	0x3829d3cc	4.048999e-05
205	0xbc934ef9	-0.017981993
206	0x3c732333	0.014839935
207	0x3d6915e2	0.056905635
208	0x3ce0164c	0.027354382
209	0x3d688da2	0.056775697
210	0x3aa36863	0.0012467023
211	0x3d7887f8	0.060676545
212	0xbd0fac3c	-0.035076365
213	0x3c0a5428	0.008442916
214	0x3cc51465	0.024057576
215	0xbd8d9ca0	-0.069146395
216	0xbc95ba19	-0.018277215
217	0xbc89280e	-0.016742732
218	0x3c9518bc	0.01820027
219	0xbc9e1cc1	-0.01930082
220	0x3d89676b	0.067091785
221	0xbd3d6a35	-0.046243865
222	0x3c4f7598	0.012662314
223	0x3d18c299	0.037294958
224	0xbda6de04	-0.08147815
225	0xbd8d1f8d	-0.068907835
226	0x3dc5dc3c	0.09661147
227	0x3c96c1db	0.018402984
228	0xbd852b5a	-0.06502409
229	0xbd57a90e	-0.052651457
230	0x3d899b32	0.06719054
231	0x3d5004f5	0.050785977
232	0xbc08d90c	-0.008352529
233	0xbd20e344	-0.039279237
234	0x3d592fab	0.053023975
235	0x3d022f5b	0.031783443
236	0xbda0b8ed	-0.07847772
237	0xbd07a8c7	-0.033119943
238	0xbc683a56	-0.014174065
239	0xbd5a287e	-0.053261273
240	0xbca27e88	-0.019835725
241	0xbbc074a2	-0.0058732787
242	0xbdb14faa	-0.08657773
243	0xbced95ef	-0.029002158
244	0x3d90ae83	0.070645355
245	0xbc89a41e	-0.01680189
246	0xbd9e2290	-0.07721436
247	0x3d1e9f0d	0.0387259
248	0x3c5589f3	0.013033378
249	0x3d9f70a1	0.07785154
250	0x3d800e3e	0.062527165
251	0x3b1b9a04	0.0023742924
252	0xbd9e7534	-0.077371985
253	0xbd4e2996	-0.05033263
254	0x3d8dec14	0.06929794
255	0xbb4943b1	-0.0030710513

bias f4 [16]
0	0xbda25ddf	-0.07928061
1	0xbd89cc02	-0.067283645
2	0xbce6c6bc	-0.028170936
3	0xbda6505a	-0.081207946
4	0xbd9c1331	-0.07620848
5	0x3d24d115	0.04023846
6	0x3bc74af8	0.006081935
7	0x3d023436	0.031788073
8	0x3d308d00	0.043103218
9	0xbc94c9d2	-0.018162642
10	0x3d16737f	0.03673124
11	0xbc8a569a	-0.016886998
12	0x3ca02b6a	0.019551951
13	0x3c6e6b0e	0.014551891
14	0x3cad2d5e	0.021139797
15	0x3d744949	0.059640203

weight f4 [16, 16, 3, 3]
0	0xbd6923d6	-0.05691894
1	0xbcbe3cce	-0.023222353
2	0x3c797608	0.015225895
3	0x3cb28864	0.021793552
4	0x3d03c7c2	0.032172926
5	0xbd83c5b9	-0.06434197
6	0xbda55c80	-0.080742836
7	0x3d3a8710	0.045538962
8	0x3c4e3833	0.012586641
9	0xbce411a6	-0.027840447
10	0x3cd55373	0.026040768
11	0xbd3561c1	-0.04428268
12	0x3d1d067d	0.038336266
13	0x3cf4e213	0.029892957
14	0xbd7849cd	-0.060617257
15	0xbd90bd8d	-0.07067404
16	0xbb9e6823	-0.0048341914
17	0xbd01f9ee	-0.031732492
18	0x3d6d9c41	0.058010343
19	0x3bd60bb4	0.006532157
20	0xbe0010e7	-0.12506448
21	0xbe06a61c	-0.13149303
22	0x3d5ccfa2	0.05390895
23	0xbd49edd5	-0.04929908
24	0xbd3837a2	-0.04497493
25	0x3a5899fc	0.00082626916
26	0x3bd0e76f	0.0063752453
27	0x3bb02cd9	0.00537644
28	0xbae7e626	-0.0017692491
29	0x3a11c2c9	0.0005560336
30	0xbda81baf	-0.08208405
31	0x3b9ae6ba	0.004727212
32	0x3d3b56a1	0.045736913
33	0xbd0cdbb9	-0.03438923
34	0xbcf09a46	-0.029370438
35	0x3d8ef88d	0.06981001
36	0x3ca38718	0.019961879
37	0xbdadc4c5	-0.084847964
38	0x3cb07fb8	0.021545276
39	0x3d4aecad	0.049542118
40	0xbd1d2969	-0.03836957
41	0xbd406021	-0.046966676
42	0xbd12b2b0	-0.03581494
43	0x3c754a53	0.014971334
44	0xbdb33cb2	-0.08751811
45	0xbc091512	-0.00836684
46	0xbd1e7db8	-0.038694113
47	0xbc53504a	-0.01289756
48	0xbc89eaa0	-0.01683551
49	0x3b6f1bb3	0.0036485016
50	0xbd513175	-0.051072557
51	0x3d21f359	0.039538715
52	0x3d849d07	0.06475263
53	0xbb397b39	-0.0028302206
54	0x3aac4e67	0.0013145924
55	0x3c359170	0.011082038
56	0xbd008f2c	-0.03138654
57	0xbd84e055	-0.064881004
58	0xbda64b68	-0.08119851
59	0xbddd36f0	-0.10801494
60	0x3d3a31d8	0.04545769
61	0xbe13c108	-0.14429104
62	0xbcd4b4e1	-0.025965156
63	0x3daffe74	0.08593455
64	0xbda0467e	-0.07825945
65	0xbd9bacee	-0.07601343
66	0x3d0d15cd	0.03444462
67	0xbdca64ae	-0.098824844
68	0x3d723ec1	0.059141878
69	0x3da8298f	0.08211052
70	0xbd6098df	-0.05483329
71	0xbcc4e79d	-0.024036223
72	0x3e33a1c6	0.1754218
73	0xbe042261	-0.1290374
74	0x3dd8e6fa	0.1059093
75	0xbcb1e36a	-0.021714885
76	0x3e2bb40f	0.16767906
77	0xbe5c79e2	-0.2153087
78	0x3da019e6	0.0781744
79	0x3cd97e1c	0.026549391
80	0xbc0b30ed	-0.0084955515
81	0xbdc11eb8	-0.09429687
82	0xbc6570b9	-0.014003926
83	0x3d2fe846	0.042946123
84	0x3e246e62	0.16057733
85	0xbd84fa6d	-0.064930774
86	0x3b1c2f02	0.002383173
87	0xbd791232	-0.060808368
88	0xbd81c03e	-0.063354954
89	0x3de1c51c	0.11023924
90	0x3dbe2b04	0.09285548
91	0xbd7ab910	-0.061211646
92	0xbcbb91dc	-0.0228967
93	0xbd94f56c	-0.07273373
94	0xbd476d24	-0.04868807
95	0xbd69ef8f	-0.057113227
96	0x3be1c398	0.0068897717
97	0xbdc69e8f	-0.096982114
98	0x3d2ee458	0.042698234
99	0xbd2a20d8	-0.04153523
100	0xbb4d1322	-0.0031291922
101	0x3db90235	0.09033624
102	0xbd93e0e5	-0.072206296
103	0x3d5a3174	0.05326982
104	0xbdaba001	-0.08380128
105	0xbcfa0b5e	-0.030522998
106	0xbdb3ed80	-0.08785534
107	0xbc27e7df	-0.0102481535
108	0x3dcc1695	0.09965245
109	0xbdd60b29	-0.104513474
110	0x3ce5700a	0.028007526
111	0x3d1af1b4	0.037828162
112	0xbdafa140	-0.08575678
113	0xbd3cf6a0	-0.046133637
114	0x3be6bbcd	0.0070414306
115	0x3dbce1ba	0.092227414
116	0xbe00b547	-0.12569152
117	0x3d54395e	0.051812522
118	0x3d34bd5a	0.044125892
119	0x3cc692f6	0.024239998
120	0x3c6a43b6	0.01429837
121	0xbd9c052f	-0.07618176
122	0x3a910a42	0.0011065679
123	0xbccd79ab	-0.02508243
124	0x3d011e9b	0.03152333
125	0xbce8e9a2	-0.028431717
126	0x3d53653f	0.051610228
127	0x3d5d54bd	0.05403589
128	0xbd6a60a0	-0.057221055
129	0xbc3a9c8b	-0.011389862
130	0x3d71d18f	0.05903774
131	0x3c784963	0.0151542155
132	0xbcd087a7	-0.02545531
133	0xbcf8a74f	-0.030353216
134	0xbde1f661	-0.11033321
135	0x3d3a73a5	0.045520443
136	0xbda86827	-0.082229905
137	0xbd05e915	-0.032692987
138	0xbbf45bf1	-0.0074572493
139	0xbd5b3d30	-0.05352515
140	0xbd457f83	-0.048217308
141	0xbd513761	-0.051078204
142	0x3d35e657	0.044409122
143	0xbc48e420	-0.0122614205
144	0xbd852669	-0.06501467
145	0x3d1890b0	0.03724736
146	0xbc81f4c0	-0.015863776
147	0x3c2b24c7	0.01044578
148	0x3c96a65e	0.018389877
149	0xbbb2693b	-0.0054446734
150	0xbd9ab822	-0.07554652
151	0xbc91147a	-0.01770996
152	0x3d9237be	0.07139538
153	0xbcc6a57d	-0.024248833
154	0x3d920179	0.07129187
155	0x3c024cc9	0.007952877
156	0xbc885314	-0.016641177
157	0x3b8664c7	0.004101369
158	0xbd1cf499	-0.038319204
159	0x3cf8188d	0.030285144
160	0xbd3d75b6	-0.046254836
161	0xbd150a94	-0.03638704
162	0xbd857f9e	-0.06518482
163	0x3d1529c1	0.036416773
164	0x3d43f9f7	0.047845807
165	0x3d46e05c	0.04855381
166	0xbd0da882	-0.03458453
167	0xbcd4ddb8	-0.02598463
168	0x3bf5c9ba	0.0075008543
169	0xbd8055ac	-0.062663406
170	0x3bca42fd	0.0061725364
171	0x3cedecd4	0.029043593
172	0x3d8e288c	0.069413275
173	0xbd7bb90d	-0.061455775
174	0x3cad5d8b	0.021162769
175	0x3d9219f4	0.071338564
176	0x3ca9cfba	0.020728935
177	0xbd283127	-0.0410625
178	0x3d3463bf	0.044040438
179	0x3d50333d	0.050830115
180	0xbda5342f	-0.08066594
181	0xba478d1b	-0.0007612274
182	0xbd7b3a09	-0.061334644
183	0xbd33d5ba	-0.043904997
184	0xbcfdd0cb	-0.03098335
185	0x3c7c1029	0.015384712
186	0x3d00ff8c	0.03149371
187	0xbc6ed69b	-0.014577533
188	0xbc11d43a	-0.008900696
189	0xbbaa612f	-0.0051995735
190	0xbdb09913	-0.086229466
191	0xbbce1ce4	-0.006290065
192	0x3b68c7a6	0.003551939
193	0x3d87c956	0.06630199
194	0xbd74adae	-0.059735946
195	0x3d3cdf53	0.046111416
196	0x3ccd93e1	0.025094928
197	0xbd3deeed	-0.046370436
198	0xbd5c5c70	-0.053799093
199	0xbd035dcb	-0.03207187
200	0x3dbfb8c3	0.093614124
201	0xbb174e29	-0.0023087359
202	0xbd9e5857	-0.07731693
203	0x3d7d44ed	0.06183331
204	0xbd030e2a	-0.03199593
205	0xbd9a8090	-0.075440526
206	0x3dc44120	0.09582734
207	0xbd762bbc	-0.060100302
208	0xbd868e3e	-0.06570099
209	0x3cdfd736	0.0273243
210	0x3d9a3405	0.07529453
211	0xbd83ce95	-0.06435887
212	0x3db33a39	0.087513395
213	0x3d804ae7	0.062642865
214	0x3a8a66a8	0.0010559158
215	0xbd905cd6	-0.07048957
216	0x3d7e2c7a	0.062054135
217	0x3dc630f5	0.096773066
218	0x3d3e04ab	0.04639117
219	0xbd8ce2e8	-0.068792164
220	0x3db281b0	0.08716142
221	0x3cf2e721	0.029651226
222	0x3b68459c	0.003544188
223	0xbd0ab159	-0.03386054
224	0xbd4af459	-0.049549434
225	0x3da94446	0.08264975
226	0x3ce8f55d	0.02843731
227	0xbb9fa653	-0.0048721223
228	0xbd8108ea	-0.06300528
229	0xbdf8739d	-0.121314265
230	0x3cd7b7a8	0.026332691
231	0xbcda7586	-0.026667368
232	0x3c976b88	0.018483892
233	0xbcd6f969	-0.026241975
234	0xbd842fc9	-0.06454427
235	0x3c8478b1	0.016170831
236	0x3c15d4c8	0.009144969
237	0x3d130eec	0.035902902
238	0xbc55453f	-0.013016998
239	0x3af1a80d	0.0018436924
240	0xbd69b479	-0.057056878
241	0xbd7d56f5	-0.061850507
242	0x3d1962b2	0.03744764
243	0xbdb0fa15	-0.08641449
244	0x3b9bef15	0.0047587254
245	0xbd36968f	-0.044577178
246	0xbd3a946e	-0.04555171
247	0xbdcd66b5	-0.100293554
248	0x3de29ede	0.11065458
249	0xbcb5b1a1	-0.022179427
250	0xbd0f87d3	-0.03504164
251	0x3db4e491	0.08832658
252	0x3d6bf500	0.057606697
253	0xbc829065	-0.015937993
254	0xbda50297	-0.080571346
255	0x3d6a4a46	0.05719974

bias f4 [16]
0	0x3cd2c954	0.025730766
1	0x3d9d20e5	0.0767229
2	0xbd3190c9	-0.04335097
3	0xbd5acac3	-0.053416025
4	0x3c5e2ecb	0.013560961
5	0x3cd63313	0.026147401
6	0xbd53d638	-0.051717967
7	0xbaf80d5e	-0.0018924882
8	0x3da6403d	0.08117721
9	0x3c7c2b94	0.015391249
10	0xbccd3c35	-0.025053123
11	0xbdcad432	-0.09903754
12	0x3d9cbd46	0.076532885
13	0x3cb20c7d	0.02173447
14	0xbc98a22f	-0.018632023
15	0x3c3c76e0	0.011502951

weight f4 [64, 16, 3, 3]
0	0xbd9a1a59	-0.07524557
1	0x3d9928a9	0.074784584
2	0x3dadaa91	0.084797986
3	0xbd2ba5b0	-0.04190606
4	0xbdb8e5c5	-0.090282
5	0xbc740979	-0.014894837
6	0xbcd7b4a3	-0.026331251
7	0xbdc6099b	-0.09669801
8	0x3ca83e76	0.020537596
9	0xbd3c363a	-0.045950152
10	0xbd84ac9c	-0.06478235
11	0x3cf01595	0.029307166
12	0x3b10b6c5	0.0022081595
13	0xbd099904	-0.033593193
14	0xbd7f10c5	-0.062271852
15	0xbd30acdf	-0.043133613
16	0x3ca7d3f6	0.020486813
17	0xbc6ac834	-0.014329959
18	0x3d6675fc	0.056264862
19	0x3c13b842	0.009016098
20	0xba898056	-0.0010490518
21	0x3d922a13	0.07136931
22	0x3bb4ab30	0.005513571
23	0x3de0d431	0.10977972
24	0x3d8ae794	0.06782451
25	0xbddd11b6	-0.10794394
26	0xbc835c6b	-0.01603528
27	0x3c62830b	0.013825188
28	0x3c8d2c0f	0.017232923
29	0xbd3fe50a	-0.046849288
30	0xbc8ffd67	-0.017576886
31	0xbab0487c	-0.0013449336
32	0xbca55e31	-0.020186516
33	0x3d22a809	0.039711032
34	0xbd197657	-0.037466373
35	0xbd773309	-0.060351405
36	0x3ccc7f85	0.02496315
37	0x3cff4b87	0.031163944
38	0x3d8903c5	0.06690172
39	0xbc1bb040	-0.0095024705
40	0x3c9729ce	0.018452551
41	0xbd3089e7	-0.043100264
42	0xbd9260b7	-0.07147353
43	0x3d0a80b1	0.033814136
44	0xbd96319a	-0.073336795
45	0xbd4bec86	-0.049786113
46	0x3d7895d1	0.06068975
47	0xbd8b2982	-0.06795026
48	0x3c1eb510	0.009686723
49	0x3db9bce4	0.09069231
50	0xbab08808	-0.0013468275
51	0xbccc4a91	-0.0249379
52	0xbd4c031c	-0.049807653
53	0xbc9eccdf	-0.0193848
54	0xbd3ad97d	-0.04561757
55	0xbd64319e	-0.05571138
56	0xbac10f07	-0.001472921
57	0xbdaaba7d	-0.08336351
58	0x3d8ca8c9	0.06868131
59	0xbcc2daf0	-0.023786038
60	0xbd25e67e	-0.040503018
61	0x3a0c140b	0.0005343563
62	0xbc636549	-0.013879129
63	0x3d8983cd	0.06714592
64	0x3c771787	0.015081293
65	0xbd49e398	-0.049289316
66	0xbc23de67	-0.010001755
67	0xbd83ad56	-0.064295456
68	0x3b7ebf71	0.0038871432
69	0x3d399fff	0.0453186
70	0xbd1cef9f	-0.038314458
71	0xbd19fe0e	-0.0375958
72	0x3d16890f	0.036751803
73	0xbd6bdd6c	-0.05758421
74	0xbd4f0900	-0.050545692
75	0xbd91284d	-0.07087765
76	0xbd97ad2b	-0.07406076
77	0x3c0d135c	0.008610573
78	0xbdcbe0f5	-0.099550165
79	0xbd00e5f0	-0.031469285
80	0xbda89bd0	-0.08232844
81	0xbd0f94a1	-0.035053853
82	0xbde37293	-0.11105838
83	0x3d45fc15	0.048336107
84	0x3c9c208b	0.019058486
85	0xbd9c4479	-0.076302476
86	0xbd234688	-0.039862186
87	0x3a770969	0.00094237045
88	0xbcc39215	-0.023873368
89	0xbcbbbc0a	-0.022916812
90	0x3cce231b	0.025163224
91	0x3d36cf26	0.044631146
92	0xbb9cea32	-0.0047886604
93	0xbd1d4e48	-0.038404733
94	0xbd86dde3	-0.0658529
95	0xbd2c34f5	-0.04204269
96	0xbcc97610	-0.02459243
97	0x3d98a8bb	0.07454058
98	0xbd432f55	-0.04765256
99	0x3a7c3bcf	0.0009621949
100	0x3c299e27	0.010352648
101	0xbc83d0a9	-0.016090708
102	0xbcd7f69a	-0.026362706
103	0x3bcc3692	0.006232091
104	0x3d1c2bea	0.038127817
105	0xbd883ad6	-0.06651847
106	0x3cebb6ee	0.028773751
107	0x3d323f06	0.043517135
108	0xbd0eab85	-0.034831543
109	0x3dbfaf1d	0.09359572
110	0xbd9fb9f6	-0.07799141
111	0x3c1023de	0.008797614
112	0xbc884702	-0.016635422
113	0x3d2c4658	0.042059273
114	0xbca88287	-0.020570053
115	0x3d3a6175	0.0455031
116	0x3d5a29ef	0.053262647
117	0x3be975e0	0.0071246475
118	0x3da53801	0.080673225
119	0xbd9a815c	-0.075442046
120	0xbcb1e081	-0.021713497
121	0xbc9f2dbe	-0.019430991
122	0x3d3aabcc	0.045573995
123	0x3ccf5b82	0.025312189
124	0x3cd4e0bb	0.025986066
125	0x3be49c68	0.006976653
126	0x3c99a255	0.018754164
127	0xbd7a9b9c	-0.061183557
128	0x3d5fc4ee	0.054631166
129	0x3c75113d	0.014957723
130	0xbcdcc374	-0.026948668
131	0x3cee8674	0.029116847
132	0x3ceb1b84	0.028699644
133	0xb928773a	-0.00016066144
134	0xbdac14b1	-0.08402384
135	0xbd4e47f6	-0.050361596
136	0x3bc1b127	0.005911011
137	0xbd922e19	-0.07137699
138	0x3d92c0b0	0.071656585
139	0xbd41c7c6	-0.04730966
140	0x3cfea511	0.03108457
141	0xbce743df	-0.028230606
142	0x3d137009	0.035995517
143	0x3c99c5ff	0.01877117
144	0xbc344b20	-0.011004239
145	0xbd057096	-0.032578073
146	0x3c17ec61	0.009272666
147	0xbd9e7c21	-0.077385195
148	0xbcd52e61	-0.026023092
149	0x3da9986c	0.08281025
150	0x3d60ca27	0.054880287
151	0x3c33c265	0.01097164
152	0xbcadf21f	-0.021233616
153	0xbc9903d6	-0.018678587
154	0x3d94b87c	0.0726175
155	0x3b43d6dd	0.0029882707
156	0x3cb865c8	0.02250947
157	0xbd19edb3	-0.037580203
158	0xbc976a12	-0.018483195
159	0x3d2a92d3	0.04164393
160	0xbdb460c8	-0.08807522
161	0x3d39e41d	0.04538356
162	0x3d8b9942	0.06816341
163	0xbc8a20f5	-0.016861418
164	0xbda3f346	-0.08005385
165	0xbd1135bf	-0.035451647
166	0x3dd69a56	0.10478656
167	0x3db9192b	0.090380035
168	0x3beee395	0.0072903135
169	0x3c4a2814	0.012338657
170	0xbddfe195	-0.10931698
171	0xbda361aa	-0.07977612
172	0xbd24be09	-0.040220294
173	0x3cfca5ec	0.030840836
174	0xbc3123b9	-0.01081174
175	0xbdd0b827	-0.10191374
176	0xbd2c5e8d	-0.04208236
177	0x3dd48677	0.1037721
178	0xbd294471	-0.041325036
179	0x3d85bb00	0.06529808
180	0x3c0d0bbc	0.008608755
181	0x3c8971be	0.01677787
182	0xbb98fa00	-0.004668474
183	0x3dc477c8	0.09593159
184	0xbe01936b	-0.12653892
185	0x3c79cabd	0.0152460905
186	0xbdb3f41d	-0.08786795
187	0xbc979395	-0.01850299
188	0xbdb0116b	-0.08597072
189	0xbdb691c4	-0.08914521
190	0x3d1c6ef6	0.038191758
191	0x3b475c6e	0.0030420083
192	0xbd768a95	-0.060190756
193	0x3d6bebf4	0.05759807
194	0x3c894989	0.016758697
195	0xbce830b6	-0.02834354
196	0x3cfed045	0.03110517
197	0xbd1a146f	-0.037617143
198	0xbc89e564	-0.016833015
199	0xbb92d460	-0.0044808835
200	0x3d6763d3	0.056491684
201	0xbd48b5f6	-0.049001656
202	0xba8a3fc3	-0.0010547567
203	0x3cc04a5d	0.02347296
204	0x3d42dafd	0.047572125
205	0x3c4dc34e	0.012558771
206	0x3cde7222	0.027154032
207	0xbd0c5390	-0.03425938
208	0x3cb79c25	0.022413323
209	0xbcdf208c	-0.0272372
210	0xbd920136	-0.07129137
211	0xbd483697	-0.048880186
212	0x3d5a8ace	0.05335503
213	0xbbaf87c5	-0.005356761
214	0xbd9ced6f	-0.07662474
215	0x3d4805a3	0.0488335
216	0x3d60d8e6	0.05489435
217	0x3d677f7c	0.056518063
218	0xbda8aba1	-0.082358606
219	0x3c5af8e9	0.013365009
220	0x3cad9183	0.02118755
221	0xbd0d0c8a	-0.034435786
222	0x3bd9d933	0.0066482066
223	0xbcd74e99	-0.026282595
224	0xbc44219f	-0.0119709065
225	0x3d82cccb	0.063867174
226	0x3cca524a	0.024697442
227	0xbd8e57c0	-0.06950331
228	0xbd315b6d	-0.04330008
229	0xbc815a1c	-0.015790038
230	0xbd8c4e79	-0.06850905
231	0xbd2a22a5	-0.041536946
232	0x3c4ba61d	0.012429741
233	0xbd8eacf6	-0.069665834
234	0xbbaf9041	-0.0053577726
235	0x3dabcd42	0.08388759
236	0xbd9b0cd6	-0.07570808
237	0x3d50fbc3	0.05102135
238	0x3c367a0b	0.011137496
239	0x3c46ed03	0.012141469
240	0x3c65a308	0.01401592
241	0x3c946325	0.018113682
242	0x3c9eff1d	0.019408757
243	0x3cf8a2fa	0.03035115
244	0xbaa4eae8	-0.0012582215
245	0xbd7867c3	-0.06064583
246	0xbc3b3cd8	-0.0114280805
247	0xbb6f254d	-0.003649074
248	0x3d6f6bcc	0.058452412
249	0x3d00335b	0.031298976
250	0x3d02d276	0.031938992
251	0x3d9428f5	0.072343744
252	0x3d76c41f	0.06024563
253	0x3dadde64	0.08489683
254	0x3c6ab09c	0.0143243335
255	0x3badc9c5	0.005303594

bias f4 [64]
0	0x3d965e90	0.07342255
1	0xbc8c9558	-0.017161056
2	0xbc6bfb56	-0.014403185
3	0x3d69b331	0.057055656
4	0xbc4e482b	-0.012590448
5	0xbcbb04ee	-0.0228295
6	0xba6de018	-0.0009074225
7	0x3d2fb2e4	0.042895213
8	0xbce68afd	-0.028142447
9	0xbc8a2c2f	-0.016866772
10	0x3d9fc1fa	0.0780067
11	0xbd1b9ff8	-0.037994355
12	0x3d380219	0.044923875
13	0x3c0d55e7	0.008626438
14	0x3d05eb2c	0.03269498
15	0xbd6d1863	-0.057884585
16	0x3d3690a7	0.044571545
17	0x3b60c50d	0.003429714
18	0x3dc8d9b5	0.09807149
19	0x3c9ab9eb	0.01888748
20	0x3cb32af4	0.021871068
21	0x3a6119ca	0.0008586912
22	0xbcc2a89f	-0.023762045
23	0x3d17bb15	0.03704365
24	0xbcf5dcaa	-0.030012447
25	0x3da61619	0.081096835
26	0x3bbdf1d6	0.0057966514
27	0xbd4202c8	-0.047365934
28	0xbd56197e	-0.052270405
29	0xbd93b9f9	-0.07213206
30	0xbc315027	-0.010822332
31	0x3cebc0bb	0.028778424
32	0xb9b593a5	-0.00034633014
33	0x3d0898fc	0.033349022
34	0x3d1fe536	0.039036952
35	0xbd53981f	-0.051658746
36	0x3c754c7d	0.0149718495
37	0x3c2295d7	0.00992342
38	0x3d1ae22c	0.03781335
39	0x3d7565aa	0.059911408
40	0xbc628cab	-0.013827483
41	0x3db20b6c	0.08693585
42	0xbce13e0f	-0.027495412
43	0x3dac9223	0.08426311
44	0xbd92af02	-0.07162286
45	0xbdb92120	-0.09039521
46	0xbdb4c179	-0.088259645
47	0xbca33e3d	-0.019927138
48	0x3ce38cdf	0.027777134
49	0x3c8b664e	0.017016556
50	0xbc676bc1	-0.014124812
51	0x3d306ea3	0.04307426
52	0xbdbb53f9	-0.09146876
53	0x3d89cc7e	0.06728457
54	0xbd6cb1d4	-0.057786778
55	0xbd4ac7e2	-0.04950703
56	0xbd49eebe	-0.049299948
57	0xbd8522c8	-0.065007746
58	0xbd0d0b48	-0.034434587
59	0xbdb3466b	-0.087536655
60	0x3d34d18b	0.04414515
61	0x3c7e95a2	0.015538605
62	0x3cbae1a8	0.02281268
63	0xbdaa1b72	-0.08306016
