working/model_pretrained/net_F16B2_epoch_8.pth (torch_old, 135256 bytes, 16 tensors)

weight f4 [16, 3, 3, 3]
0.14890586 -0.13502207 -0.15957317 -0.1437068 0.15063226 0.12708879 -0.14132419 0.16834712
-0.08442807 -0.16772899 -0.069582894 -0.02180093 -0.12723412 0.10132261 0.16332978 0.09507153
-0.14638829 0.15372276 0.020051138 0.10032308 0.17481995 -0.043760255 -0.096933275 0.06941511
-0.09746886 -0.16411744 0.084157266 0.10859675 0.05813802 -0.15492573 -0.036361214 -0.0644626
-0.09346339 -0.029833632 0.14369701 -0.1585312 -0.0008381099 0.0944193 0.0467568 0.17762256
0.012201637 -0.14882131 -0.12340466 -0.012822844 0.009172991 0.033740174 -0.031380165 -0.0790636
-0.1410375 0.053986356 0.0027498286 -0.10797539 -0.14215884 -0.05664149 -0.0070484015 0.19104083
0.17974281 -0.031229943 0.12264366 0.18652649 0.015997756 -0.16909207 0.1535272 -0.046528034
-0.16766998 -0.024110349 0.083117194 -0.042886466 0.011242036 -0.07913951 -0.1401195 -0.14050852
0.0919686 0.1627869 -2.9084847e-05 -0.09589145 -0.07562012 0.014276092 -0.09559623 -0.13938285
-0.14055546 -0.16153114 -0.09665693 0.14235793 0.09802036 -0.025872422 -0.008590684 -0.024254339
-0.107194 -0.026708033 -0.016442437 -0.092949584 -0.053332787 -0.10972788 0.01811419 -0.08645932
-0.088269904 0.049888562 -0.0025885561 0.03495645 0.13635604 -0.15149182 -0.09667607 0.16958696
0.12199517 -0.16582127 0.10877434 0.0039198217 -0.055264667 -0.15369837 0.079948984 -0.117579505
0.102300234 -0.10674252 -0.14979658 0.06636438 -0.0060791513 0.06492884 -0.05965062 0.007768494
-0.030017693 0.07288537 -0.03312891 -0.05858959 0.104380906 -0.12721986 0.18990579 0.083770655
0.18165368 -0.08529259 0.101921454 -0.0020235889 0.117015585 -0.0825532 0.037205912 -0.09157634
0.12480578 -0.0465071 -0.12875082 0.14521769 -0.16283752 0.08280614 0.011424577 -0.03435391
0.20142922 0.16273054 0.122438654 -0.16227433 0.18126963 -0.0033932365 -0.048354864 0.06170462
-0.002702376 -0.09233332 0.016217075 -0.00912107 -0.1532194 -0.18691118 0.11282771 0.11065351
-0.068649724 0.10209619 0.038755156 -0.020095738 0.014548692 0.1655842 -0.13961618 0.16569205
0.14775835 -0.17831811 -0.18157855 -0.16810532 0.017534947 0.021658644 -0.16502242 -0.19769113
-0.12355729 -0.06839146 -0.119786344 0.17971666 0.10439568 0.13970517 0.10940299 -0.05813673
0.13014211 0.14614142 -0.0418628 -0.09501029 -0.03753438 -0.0043906705 -0.15496935 -0.08532713
0.16738176 0.08703914 -0.122506656 -0.09733256 -0.030041292 0.019373026 0.15800098 0.049221337
0.16111788 0.15468036 0.09460546 0.045866687 0.03512136 0.107901074 0.0044889497 -0.09672958
0.1336145 0.08938461 -0.065996155 -0.12455075 0.03900175 0.09966319 0.17013456 -0.039562978
-0.17536055 0.09362887 0.03486226 -0.15562014 -0.1539348 0.1550795 0.13857637 -0.09286971
-0.09308817 0.15877025 -0.008165733 0.17857282 -0.024104549 -0.04938075 -0.1612204 0.1333594
0.08746312 -0.069946624 -0.006575959 -0.055445354 0.16719152 -0.011022031 0.1692117 -0.04075556
0.03832648 0.072541095 -0.00093085703 -0.10271344 -0.0573494 0.004992032 -0.080855004 0.011754506
0.1679199 -0.13847776 -0.0198838 -0.032439772 0.07932974 -0.17008306 0.07028278 -0.029281989
00000000: c77a 183e 3a43 0abe 2667 23be e027 13be
00000010: 583f 1a3e 9023 023e 4ab7 10be 3063 2c3e
00000020: a0e8 acbd 26c1 2bbe 7a81 8ebd dd97 b2bc
00000030: a949 02be 3b82 cf3d ec3f 273e ddb4 c23d
00000040: d0e6 15be 8069 1d3e 4942 a43c 3076 cd3d
00000050: 0004 333e f43d 33bd f484 c6bd 8229 8e3d
00000060: c19d c7bd 670e 28be a55a ac3d f967 de3d
00000070: 2222 6e3d daa4 1ebe 7fef 14bd f804 84bd
00000080: bc69 bfbd a965 f4bc 4f25 133e 0156 22be
00000090: 9ab4 5bba e85e c13d 0f84 3f3d b0e2 353e
000000a0: 60e9 473c 9d64 18be 95bb fcbd e816 52bc
000000b0: 504a 163c 2333 0a3d 7d88 00bd 19ec a1bd
000000c0: 226c 10be cc20 5d3d 7836 343b 3422 ddbd
000000d0: 1692 11be e800 68bd 47f6 e6bb 35a0 433e
000000e0: 800e 383e f0d5 ffbc 992c fb3d cd00 3f3e
000000f0: ba0d 833c 7926 2dbe 3c36 1d3e 2e94 3ebd
00000100: aeb1 2bbe 1183 c5bc 5939 aa3d b8a9 2fbd
00000110: 8430 383c e513 a2bd 7c7b 0fbe 77e1 0fbe
00000120: 095a bc3d 9cb1 263e 3cfb f3b7 bd62 c4bd
00000130: b9de 9abd 45e6 693c f5c7 c3bd 61ba 0ebe
00000140: c5ed 0fbe 6b68 25be 12f4 c5bd 47c6 113e
00000150: e6be c83d 67f2 d3bc f1bf 0cbc 09b1 c6bc
00000160: 8788 dbbd ceca dabc 4ab2 86bc 5a5c bebd
00000170: 7b73 5abd 03b9 e0bd 3664 943c 9511 b1bd
00000180: dac6 b4bd f357 4c3d c4a4 29bb 7f2e 0f3d
00000190: eba0 0b3e ac20 1bbe 1afe c5bd 34a8 2d3e
000001a0: 9bd8 f93d 0dcd 29be 15c5 de3d d971 803b
000001b0: 345d 62bd 1b63 1dbe 4bbc a33d 86cd f0bd
000001c0: c982 d13d d39b dabd 4664 19be 0cea 873d
000001d0: 9e33 c7bb 69f9 843d 3554 74bd da8e fe3b
000001e0: aae7 f5bc ed44 953d 2eb2 07bd a3fb 6fbd
000001f0: a8c5 d53d ec45 02be aa76 423e f38f ab3d
00000200: 6c03 3a3e e2ad aebd 32bc d03d 309e 04bb
00000210: dea5 ef3d a711 a9bd 3a65 183d 608c bbbd
00000220: 2c9a ff3d 3b7e 3ebd 41d7 03be f2b3 143e
00000230: e1be 26be 4496 a93d 262e 3b3c afb6 0cbd
00000240: 7643 4e3e d6a2 263e 1ec1 fa3d 3e2b 26be
00000250: bf9e 393e 1061 5ebb c00f 46bd fcbd 7c3d
00000260: 591a 31bb 4019 bdbd acd9 843c 8a70 15bc
00000270: 8ce5 1cbe a565 3fbe 3712 e73d 4f9e e23d
00000280: 3a98 8cbd cf17 d13d babd 1e3d d19f a4bc
00000290: a35d 6e3c e88e 293e 8bf7 0ebe 2dab 293e
000002a0: f74d 173e 0699 36be baef 39be cd23 2cbe
000002b0: 73a5 8f3c 786d b13c a3fb 28be 8b6f 4abe
000002c0: 9b0b fdbd d210 8cbd 8b52 f5bd a507 383e
000002d0: 67cd d53d df0e 0f3e ad0e e03d c820 6ebd
000002e0: f943 053e 19a6 153e 5478 2bbd c194 c2bd
000002f0: a6bd 19bd 9ddf 8fbb 49b0 1ebe febf aebd
00000300: 2066 2b3e 9441 b23d c5e4 fabd 4b56 c7bd
00000310: 2819 f6bc 2eb4 9e3c 02cb 213e 509c 493d
00000320: 16fc 243e 8764 1e3e 82c0 c13d b5de 3b3d
00000330: 6adb 0f3d 3dfb dc3d 0a18 933b 281a c6bd
00000340: 3dd2 083e 470f b73d fe28 87bd 7714 ffbd
00000350: 4dc0 1f3d 371c cc3d c137 2e3e ca0c 22bd
00000360: b791 33be 7ec0 bf3d bbcb 0e3d e35a 1fbe
00000370: 16a1 1dbe 29cd 1e3e f7e6 0d3e 7932 bebd
00000380: 03a5 bebd ab94 223e 91c9 05bc cbdb 363e
00000390: e776 c5bc 7843 4abd f616 25be 5e8f 083e
000003a0: dd1f b33d 2d40 8fbd 247b d7bb ab1a 63bd
000003b0: 4134 2b3e c095 34bc d545 2d3e 4def 26bd
000003c0: 3afc 1c3d 6d90 943d c204 74ba 6d5b d2bd
000003d0: 34e7 6abd 3394 a33b 4f97 a5bd f995 403c
000003e0: 32f3 2b3e 1dcd 0dbe 5ae3 a2bc 91df 04bd
000003f0: a177 a23d 412a 2ebe 6bf0 8f3d c8e0 efbc

bias f4 [16]
0.08462363 0.12461748 0.15135065 0.07442749 -0.10004483 0.038443096 0.197541 0.14528082
0.05024291 0.098915756 0.14271119 0.15823564 0.07970211 -0.03324014 -0.014678591 -0.1026975
00000000: 274f ad3d 7337 ff3d aafb 1a3e 716d 983d
00000010: 4ee4 ccbd 8276 1d3d 3048 4a3e 7fc4 143e
00000020: 82cb 4d3d 5894 ca3d e222 123e 8608 223e
00000030: dc3a a33d d026 08bd 797e 70bc 1153 d2bd

weight f4 [16, 16, 3, 3]
-0.0009781525 -0.002331633 -0.06587782 -0.00863074 0.1218355 -0.09919676 0.103997305 -0.057777204
0.056625858 -0.01815329 0.07639641 -0.038758773 0.005529016 -0.016390115 -0.053792756 0.010311615
0.047092944 0.044938713 0.02477352 0.042129178 -0.02193084 -0.087287046 -0.020064512 -0.11730434
-0.07024806 -0.050414946 0.04668767 -0.057852633 0.018362965 -0.0039027801 -0.03875849 0.07826794
0.08022726 -0.002438169 0.07000383 0.033532478 0.049324144 -0.049870905 0.026886921 -0.032638796
0.12956347 -0.037899833 0.031482007 -0.062595755 -0.030045731 0.073967665 -0.059263848 0.10277557
-0.0335703 0.027134834 -0.06038088 -0.019313972 -0.09038787 0.0724814 0.014085958 -0.0465457
0.032241043 -0.096228786 -0.042735603 -0.043037415 -0.0018996102 0.014478161 -0.057125717 -0.061114196
-0.05022772 -0.067293055 0.009931299 -0.021184819 -0.024594957 0.08049481 0.027079249 -0.062289763
-0.046901777 0.029064346 -0.018572861 0.06469922 -0.0049687186 0.03712072 -0.03397323 0.0092087835
-0.025846884 0.023970691 -0.0073938663 0.08366634 0.10918089 -0.027391132 0.1246948 0.014273379
-0.020777531 0.04685164 -0.064499974 -0.0009384807 0.016341604 0.05402689 -0.024934279 0.02573839
-0.00087348087 0.004377465 0.07290517 -0.025913488 0.048133764 -0.08719014 -0.020763122 0.01118258
-0.044298295 -0.08069789 0.09682841 0.07001957 0.030786334 -0.036236316 -0.033570185 0.0060508107
-0.049953684 -0.058981035 0.036074277 -0.07843439 -0.057112794 -0.02043933 0.06125568 0.05534586
0.016573869 0.0620291 0.09712772 0.03639661 -0.05280559 -0.033186704 -0.011976997 -0.05878742
0.05648178 0.027820878 -0.11433512 -0.015432643 -0.07439077 -0.049166013 0.07239678 0.037661176
-0.024108099 0.016734557 -0.010958784 -0.07493487 -0.07908067 -0.009179844 0.02892822 -0.059105847
-0.08971319 -0.06855216 -0.04370388 -0.053357355 0.05581358 -0.047717504 0.114945725 0.013665503
-0.014686232 0.04941764 -0.05652711 -0.04935499 0.050661623 -0.08047844 -0.010757068 -0.0058533507
0.0044082697 -0.0038516966 -0.011507056 0.008974798 -0.043798715 -0.091238864 -0.035208743 0.025050962
0.045783952 -0.06543061 -0.07229267 -0.037299458 0.04349121 0.025515107 0.047654025 0.020104127
0.055169817 0.012809524 -0.08210052 -0.033754136 -0.069474556 -0.12573692 -0.002772641 0.012840652
0.08050542 -0.067833744 0.048832476 0.043994106 0.013211036 0.009913591 -0.0036616512 0.045577295
-0.026958147 0.033316493 -0.057494882 -0.060356673 0.059084527 0.079422295 -0.064075984 -0.08354204
0.012962372 0.043265883 0.07824678 -0.009915653 0.022443118 -0.0403149 0.06813138 -0.06941197
0.06873692 0.0059870086 -0.000533975 -0.033483643 0.023729289 0.026568245 -0.031138262 -0.04378895
-0.054710027 -0.031426124 -0.024734808 0.08961137 0.03918354 -0.012366666 -0.020488994 -0.0035876816
-0.055519614 -0.026331164 -0.02766712 -0.054548662 0.005005579 0.024841644 0.11463455 0.07439271
-0.0062381118 -0.0043787216 -0.03187938 0.07100401 -0.073880754 0.046837337 0.05675198 -0.06344553
0.022602826 -0.04266209 -0.017837197 -0.028293153 0.07185448 0.05138915 0.033130057 -0.048254773
0.08638554 -0.015725417 0.01230642 0.014340495 -0.03873282 -0.07939075 -0.035281774 -0.07909983
00000000: 5a35 80ba 4fce 18bb f3ea 86bd f367 0dbc
00000010: e484 f93d ac27 cbbd 8afc d43d caa7 6cbd
00000020: 84f0 673d 35b6 94bc b975 9c3d 85c1 1ebd
00000030: bf2c b53b 9044 86bc cb55 5cbd 0cf2 283c
00000040: 88e4 403d a811 383d d6f1 ca3c a58f 2c3d
00000050: 4ea8 b3bc 8dc3 b2bd 555e a4bc 423d f0bd
00000060: 37de 8fbd e77f 4ebd 923b 3f3d e2f6 6cbd
00000070: ee6d 963c c9c5 7fbb 39c1 1ebd f14a a03d
00000080: 314e a43d b0c9 1fbb 2b5e 8f3d 5a59 093d
00000090: 1d08 4a3d 6f45 4cbd f641 dc3c 42b0 05bd
000000a0: 49ac 043e db3c 1bbd 47f3 003d 3432 80bd
000000b0: 7722 f6bc 5c7c 973d a6be 72bd ff7b d23d
000000c0: 0381 09bd df49 de3c f151 77bd 5638 9ebc
000000d0: 471d b9bd 2171 943d cac8 663c b4a6 3ebd
000000e0: 2f0f 043d 9913 c5bd 870b 2fbd 0048 30bd
000000f0: 57fc f8ba cf35 6d3c a8fc 69bd e152 7abd
00000100: 95bb 4dbd f1d0 89bd e3b6 223c c98b adbc
00000110: 5d7b c9bc 77da a43d 4dd5 dd3c 8d23 7fbd
00000120: 141c 40bd 5a18 ee3c 1d26 98bc 0681 843d
00000130: a2d0 a2bb e50b 183d 8327 0bbd 70e0 163c
00000140: d8bc d3bc 2f5e c43c 3f48 f2bb 4259 ab3d
00000150: 3b9a df3d 5e63 e0bc fd5f ff3d e4da 693c
00000160: a435 aabc 81e7 3f3d 9018 84bd 6004 76ba
00000170: d4de 853c 4d4b 5d3d f942 ccbc 51d9 d23c
00000180: 4ffa 64ba d770 8f3b 4e4f 953d 8648 d4bc
00000190: e927 453d be90 b2bd 6c17 aabc 2437 373c
000001a0: 2172 35bd ef44 a5bd f94d c63d 6c66 8f3d
000001b0: 9f33 fc3c 886c 14bd e480 09bd e145 c63b
000001c0: 3c9c 4cbd 1996 71bd 9fc2 133d 36a2 a0bd
000001d0: 1bef 69bd 6270 a7bc 3ce7 7a3d 57b2 623d
000001e0: ecc5 873c 3a12 7e3d e6ea c63d 9d14 153d
000001f0: ad4a 58bd c8ee 07bd 2b3b 44bc 14cb 70bd
00000200: 7059 673d 9ce8 e33c 8828 eabd 32d9 7cbc
00000210: 305a 98bd 4d62 49bd c344 943d 9b42 1a3d
00000220: 597e c5bc e916 893c 798c 33bc 7477 99bd
00000230: 0cf5 a1bd 0e67 16bc e0fa ec3c f918 72bd
00000240: 8dbb b7bd 1365 8cbd d702 33bd 3e8d 5abd
00000250: c89c 643d 6e73 43bd aa68 eb3d 46e5 5f3c
00000260: 869e 70bc 276a 4a3d f988 67bd 7528 4abd
00000270: 9082 4f3d e1d1 a4bd 6a3e 30bc 77cd bfbb
00000280: 3f73 903b bf6c 7cbb 1788 3cbc 080b 133c
00000290: 4866 33bd 71db babd 0b37 10bd ad37 cd3c
000002a0: f487 3b3d 7c00 86bd 2e0e 94bd 51c7 18bd
000002b0: d723 323d 0f05 d13c de30 433d 69b1 a43c
000002c0: bff9 613d 0adf 513c 5124 a8bd c741 0abd
000002d0: ad48 8ebd 2ec1 00be 32b5 35bb 9961 523c
000002e0: 07e0 a43d 6bec 8abd 9004 483d 2a33 343d
000002f0: 1a73 583c 9d6c 223c 50f8 6fbb 42af 3a3d
00000300: 55d7 dcbc e076 083d c17f 6bbd 8f38 77bd
00000310: 9e02 723d 28a8 a23d 453a 83bd 1718 abbd
00000320: 2160 543c 9137 313d d93f a03d 4375 22bc
00000330: a1da b73c 3d21 25bd 7788 8b3d dd27 8ebd
00000340: f1c5 8c3d ab2e c43b 75fa 0bba 2526 09bd
00000350: ed63 c23c a6a5 d93c ab15 ffbc 0b5c 33bd
00000360: 9f17 60bd aeb8 00bd a7a0 cabc 2a86 b73d
00000370: eb7e 203d 8f9d 4abc 89d8 a7bc 4f1f 6bbb
00000380: 8968 63bd 74b4 d7bc 28a6 e2bc 6b6e 5fbd
00000390: d705 a43b b480 cb3c 85c5 ea3d 355b 983d
000003a0: 1369 ccbb 617b 8fbb f493 02bd 8d6a 913d
000003b0: cb4e 97bd 82d8 3f3d c474 683d bbef 81bd
000003c0: 9029 b93c 72be 2ebd 501f 92bc 0bc7 e7bc
000003d0: 7128 933d 6e7d 523d 62b3 073d cca6 45bd
000003e0: e7ea b03d 97d2 80bc dea0 493c 65f4 6a3c
000003f0: 4ea6 1ebd 9e97 a2bd 9f83 10bd 17ff a1bd

bias f4 [16]
-0.012862874 -0.029673917 0.065513365 0.13113253 0.051752575 0.04341072 -0.0068988455 0.039614692
0.04970625 0.019373605 0.033586632 -0.021452045 0.015554207 0.012706497 -0.041266702 0.046939876
00000000: cebe 52bc b716 f3bc df2b 863d 9b47 063e
00000010: 82fa 533d 70cf 313d b60f e2bb 0443 223d
00000020: c898 4b3d 65b5 9e3c 2392 093d 33bc afbc
00000030: 13d7 7e3c e92e 503c 4607 29bd 0744 403d

weight f4 [16, 16, 3, 3]
0.14377503 -0.011109374 -0.037185784 -0.10427688 0.073138654 0.00148449 0.06701125 0.0020730058
-0.057536714 0.027511502 -0.076557085 -0.043193206 -0.057827163 0.07809674 -0.073788814 -0.022490956
-0.10013631 -0.0583454 -0.11068228 0.011412803 0.051569894 -0.011306244 0.02066108 0.010146404
-0.052357156 -0.019077618 0.07980954 0.009184618 -0.026890662 -0.01698256 0.11352292 0.018208476
0.030944591 0.05733556 0.15282437 -0.031385623 -0.06311581 0.022246651 -0.050627254 0.010617363
-0.030598179 0.04620858 0.0073717744 -0.016045574 -0.05590796 -0.016713016 -0.08561228 -0.012279176
-0.110419095 0.022002535 -0.05251982 -0.044526063 -0.03660303 -0.054451548 -0.034570128 -0.045327887
-0.09276425 0.06934505 0.07493301 0.049142577 0.00024095862 0.06719869 0.0057652146 -0.05771861
0.03164858 -0.029084498 0.048337225 0.023940288 0.015664294 0.078188516 -0.08897724 0.014458095
0.07372184 0.019638278 -0.061205007 0.036313288 0.0501355 -0.07701928 0.015434031 -0.057833195
-0.07728438 0.0014024541 0.030212509 -0.03794191 -0.087941445 -0.112094566 0.038204037 -0.011312824
0.06076808 0.08146205 0.025741901 -0.0453542 0.027866203 -0.061289445 -0.08598336 0.073862374
-0.054369032 0.039101537 -0.051105686 0.018495273 0.0292317 -0.016973315 0.07025915 0.08128054
-0.08398802 0.07633087 -0.060039334 -0.027475955 0.0005266289 0.04701637 -0.088362016 -0.03072787
-0.0028981916 -0.07532818 -0.06247813 -0.021055367 -0.045927867 -0.07862492 0.0529924 -0.013875228
0.00023459295 -0.061464507 0.058356337 0.031468738 -0.058514908 -0.00053155026 0.021736406 0.03486728
-0.018819666 -0.014351601 0.00084561354 -0.015089322 -0.04886204 -0.011566782 0.018466493 -0.045112092
-0.04249482 -0.0406802 0.024939163 0.08318283 -0.07080168 0.06557422 0.058211815 -0.05179319
0.085151844 0.062840074 0.08506089 -0.04702756 -0.05290397 -0.018934548 0.043299392 0.055335417
0.051568557 0.022066226 -0.03522772 0.02704055 0.087345876 -0.009970841 -0.06180293 -0.0013934269
-0.05858067 0.07729763 0.002488214 -0.12619357 0.018588169 0.033254184 -0.13333021 -0.025561716
-0.0003639831 -0.12835768 0.023296403 -0.006737023 -0.12566844 -0.07024351 0.019518849 -0.022458024
0.07998559 -0.08332234 -0.04953166 -0.036035717 -0.023555322 0.039482325 -0.056569267 -0.080926105
0.028812667 0.034606867 -0.06279244 0.059465814 0.07667103 0.009406528 0.019794118 0.0672619
0.033766363 -0.0919586 0.014246949 -0.06966434 0.015173806 -0.05175857 0.008810843 0.093173936
0.07633894 0.026917953 0.041953266 0.009470965 0.010566856 -0.037895154 0.023978705 0.09921793
0.014939399 0.0073194937 0.004004617 0.032267973 -0.04201493 0.045643438 0.048330035 -0.023951182
0.028372379 -0.05994788 0.06842348 0.013637562 0.06281533 0.07296776 -0.012527253 -0.0049505425
0.055109743 0.05554686 0.05306542 0.08244323 -0.023153082 0.0075986264 -0.05999341 0.010946758
-0.01374384 -0.029967062 -0.011638876 -0.03263768 -0.064639784 0.045283694 -0.068611324 0.004290888
-0.048339564 0.0030447252 0.008464704 -0.073793724 0.035502248 -0.050132558 -0.0017988271 0.059841275
0.017286023 0.082200475 0.06741572 0.045131043 0.06971409 -0.08581012 0.06166143 -0.07451752
00000000: c339 133e 1804 36bc 1f50 18bd 1e8f d5bd
00000010: b8c9 953d 3893 c23a 323d 893d 44db 073b
00000020: 9eab 6bbd cd5f e13c f6c9 9cbd 5ceb 30bd
00000030: 2ddc 6cbd 2ff1 9f3d 971e 97bd f43e b8bc
00000040: 4414 cdbd 96fb 6ebd 64ad e2bd c4fc 3a3c
00000050: f43a 533d d33d 39bc 6d41 a93c 1a3d 263c
00000060: 7574 56bd aa48 9cbc 2f73 a33d 147b 163c
00000070: ce49 dcbc 021f 8bbc b47e e83d f129 953c
00000080: 837f fd3c b1d8 6a3d fe7d 1c3e 368e 00bd
00000090: dd42 81bd 9c3e b63c 865e 4fbd 73f4 2d3c
000000a0: 08a9 fabc 3545 3d3d ed8e f13b 0272 83bc
000000b0: bfff 64bd bce9 88bc 7e55 afbd 992e 49bc
000000c0: 6823 e2bd a93e b43c 061f 57bd f660 36bd
000000d0: 0fed 15bd 9608 5fbd 6899 0dbd bca9 39bd
000000e0: 2ffb bdbd c704 8e3d 7a76 993d ba49 493d
000000f0: d6a9 7c39 779f 893d 20ea bc3b 596a 6cbd
00000100: f1a1 013d 9d42 eebc 41fd 453d 6c1e c43c
00000110: 6852 803c 4d21 a03d b339 b6bd a5e1 6c3c
00000120: 7afb 963d 74e0 a03c 1ab2 7abd 3ebd 143d
00000130: e25a 4d3d 49bc 9dbd 05df 7c3c 80e2 6cbd
00000140: 4647 9ebd 8dd2 b73a 3980 f73c fa68 1bbd
00000150: a51a b4bd d691 e5bd d67b 1c3d 6c59 39bc
00000160: f3e7 783d 93d5 a63d aee0 d23c 53c5 39bd
00000170: aa47 e43c a40a 7bbd 0b18 b0bd 2845 973d
00000180: 10b2 5ebd ef28 203d 3254 51bd 6683 973c
00000190: 5177 ef3c 9f0b 8bbc 07e4 8f3d 6976 a63d
000001a0: e901 acbd 5c53 9c3d ceeb 75bd 4115 e1bc
000001b0: 780d 0a3a 3d94 403d 25f7 b4bd 04b9 fbbc
000001c0: 96ef 3dbb a945 9abd 11e9 7fbd 4e7c acbc
000001d0: dc1e 3cbd 1a06 a1bd 8f0e 593d ed54 63bc
000001e0: 11fd 7539 35c2 7bbd 0e07 6f3d 5de5 003d
000001f0: 54ad 6fbd bc57 0bba 8c10 b23c fed0 0e3d
00000200: b32b 9abc fa22 6bbc 2aac 5d3a 3439 77bc
00000210: 9023 48bd 9a82 3dbc 0b47 973c 75c7 38bd
00000220: 0c0f 2ebd 48a0 26bd 374d cc3c c25b aa3d
00000230: 7900 91bd c74b 863d 836f 6e3d 1925 54bd
00000240: 1764 ae3d 4cb2 803d 6734 ae3d f99f 40bd
00000250: d5b1 58bd a01c 9bbc b45a 313d 64a7 623d
00000260: 8d39 533d 3bc4 b43c f14a 10bd 2584 dd3c
00000270: 65e2 b23d bd5c 23bc 1225 7dbd a6a3 b6ba
00000280: 49f2 6fbd 384e 9e3d 4e11 233b e338 01be
00000290: 3746 983c 8a35 083d b787 08be ce66 d1bc
000002a0: fcd4 beb9 3270 03be 19d8 be3c 3fc2 dcbb
000002b0: 3aaf 00be d4db 8fbd fee5 9f3c e4f9 b7bc
000002c0: 7ccf a33d e7a4 aabd b6e1 4abd 309a 13bd
000002d0: 17f7 c0bc 38b8 213d 2db5 67bd 96bc a5bd
000002e0: 8b08 ec3c eebf 0d3d 5399 80bd 6d92 733d
000002f0: b305 9d3d d71d 1a3c 4627 a23c 9bc0 893d
00000300: 994e 0a3d ca54 bcbd 096c 693c 2dac 8ebd
00000310: 8e9b 783c cb00 54bd 5b5b 103c fad1 be3d
00000320: 9757 9c3d 0a83 dc3c 30d7 2b3d 1b2c 1b3c
00000330: 9b20 2d3c f337 1bbd fd6e c43c c532 cb3d
00000340: 62c4 743c 5dd8 ef3b 2a39 833b 6c2b 043d
00000350: d917 2cbd 9df4 3a3d b7f5 453d 4535 c4bc
00000360: 316d e83c e98b 75bd 9c21 8c3d 1570 5f3c
00000370: 53a5 803d 1f70 953d 1b3f 4dbc 2938 a2bb
00000380: c1ba 613d 1b85 633d 205b 593d ffd7 a83d
00000390: 88ab bdbc e6fd f83b a6bb 75bd 085a 333c
000003a0: d82d 61bc 7c7d f5bc fcb0 3ebc 17af 05bd
000003b0: dd61 84bd 657b 393d 1884 8cbd 949a 8c3b
000003c0: b5ff 45bd 038a 473b 8baf 0a3c 2a21 97bd
000003d0: ce6a 113d cc57 4dbd 9fc6 ebba 201c 753d
000003e0: 6b9b 8d3c b958 a83d 4111 8a3d 54db 383d
000003f0: 43c6 8e3d 37bd afbd b290 7c3d a49c 98bd

bias f4 [16]
0.051433183 0.050109018 0.02496016 0.07424751 -0.024058847 -0.008562521 0.011862178 -0.087407
0.02036704 -0.06279047 0.09185107 0.037629552 0.026262043 0.07607402 0.06621026 0.051006354
00000000: 9aab 523d 1d3f 4d3d 4079 cc3c 140f 983d
00000010: 0f17 c5bc d149 0cbc 9559 423c 7102 b3bd
00000020: c7d8 a63c 4a98 80bd 6a1c bc3d 7221 1a3d
00000030: 7f23 d73c b2cc 9b3d 3f99 873d 0aec 503d

weight f4 [16, 16, 3, 3]
-0.015516873 -0.033942297 -0.054782853 0.09077859 -0.04613965 -0.064699054 0.06584348 0.017906928
-0.038539812 0.041778874 -0.04992395 0.013903993 0.07145513 0.05495166 0.033989623 -0.07616636
0.0043602507 -4.7479516e-06 0.008053516 -0.0478621 0.041155387 0.016888535 -0.016977709 -0.04603212
-0.0037053628 0.03175928 -0.046276104 0.040301662 0.047000032 -0.034940295 0.026457885 -0.002699588
0.06934542 -0.021596627 0.060185205 0.030387655 -0.007078473 -0.06901036 0.01023457 -0.037814215
-0.073433034 -0.06754868 0.053948894 -0.0041138735 -0.04964497 -0.020790631 -0.042205267 0.036451183
-0.043266192 -0.012045228 -0.015754964 -0.004695806 -0.007576572 0.062188152 -0.041154526 0.0661167
0.038243774 0.021707967 -0.04095836 0.07605457 0.052125916 0.043649763 -0.02859247 -0.06324609
0.03960207 -0.012180199 0.06641838 0.0033654242 -0.040787842 0.025415912 0.06539195 -0.015120827
0.05146379 0.065950446 0.07313233 -0.03958666 0.045434743 0.0033597809 0.027006878 -0.07658616
-0.026982607 0.0787954 0.028777638 0.050044835 0.024142416 -0.056912363 -0.039310355 0.053404894
0.057141457 -0.06129109 -0.04975937 -0.012497226 0.0020139841 -0.015708687 -0.07759531 -0.06829333
-0.07951199 -0.024873193 -0.071953304 0.03756648 0.07326997 -0.038609616 0.047510467 -0.008258876
0.027566891 0.0442852 -0.062739454 -0.043551445 0.08478622 0.07015922 0.074832045 0.06635938
0.06801405 -0.030347131 -0.005724393 0.039281704 0.056858454 0.045327947 0.06016025 0.066565216
-0.066680536 -0.03284393 0.069009155 0.018976139 0.032076944 -0.078496546 0.058509167 0.04834961
0.06715649 0.020870943 0.038470734 -0.032557458 -0.08238856 -0.066509284 -0.0019013392 -0.07193701
-0.015250023 0.0457179 -0.0037050082 0.06537316 -0.016862102 0.04939986 -0.03684047 -0.032129917
-0.011277879 -0.02785719 -0.016090844 -0.06503463 0.060947407 -0.0716319 -0.026736666 -0.056394115
-0.062594935 -0.040437397 0.04093395 0.008447135 0.07244409 0.0033771375 0.04373898 -0.08241403
-0.056617983 -0.014755038 -0.018209748 -0.05662962 0.029500084 0.019336097 -0.008504861 -0.025350222
0.0049488004 -0.06857572 0.028615706 -0.01311429 -0.0390542 0.060539775 -0.06579395 -0.08252366
-0.026228197 0.016019618 -0.033895798 0.07330322 -0.029175896 -0.014550079 -0.07878719 -0.041803755
-0.034979038 0.028932305 -0.047422074 0.023452824 0.077165164 -0.019726316 -0.060478885 0.03040656
-0.028728526 0.058237657 0.035877135 0.052040517 0.005286825 0.055067807 -0.037918113 -0.039350167
0.026630335 -0.038782593 0.03420631 -0.06592438 -0.00076517253 -0.019307187 0.015766485 0.058220297
0.027572036 0.05566133 0.0024052751 0.060727872 -0.03560057 0.010311983 0.02464419 -0.068526216
-0.016271653 -0.01659945 0.018320052 -0.017108696 0.0672095 -0.04494291 0.014259104 0.038256396
-0.078799576 -0.06744442 0.091855645 0.016506596 -0.06658496 -0.050043166 0.06421345 0.04469258
-0.002980435 -0.042293195 0.053447824 0.033723135 -0.0748598 -0.034408614 -0.0142835695 -0.048890874
-0.021229105 -0.0061397185 -0.085976936 -0.028542986 0.0737854 -0.01613764 -0.07888788 0.04039413
0.013668038 0.07706556 0.062100187 0.006699571 -0.07850874 -0.050253674 0.06943548 -0.0031610536
00000000: 7c3a 7ebc 1407 0bbd fc63 60bd 20ea b93d
00000010: eefc 3cbd f080 84bd f2d8 863d 8db1 923c
00000020: ecdb 1dbd 5320 2b3d 0e7d 4cbd 93cd 633c
00000030: 1157 923d fe14 613d b438 0b3d 1cfd 9bbd
00000040: 6fe0 8e3b 9850 9fb6 e5f2 033c 0d0b 44bd
00000050: 8d92 283d d359 8a3c d614 8bbc 2d8c 3cbd
00000060: acd5 72bb 0516 023d 038c 3dbd 5b13 253d
00000070: 1b83 403d 8e1d 0fbd 35be d83c 92eb 30bb
00000080: f904 8e3d 69eb b0bc c384 763d 88ef f83c
00000090: 89f2 e7bb 4e55 8dbd e6ae 273c 14e3 1abd
000000a0: 0f64 96bd f656 8abd 84f9 5c3d accd 86bb
000000b0: 8658 4bbd 1d51 aabc 6edf 2cbd d64d 153d
000000c0: e437 31bd 5959 45bc 8e10 81bc 47df 99bb
000000d0: e444 f8bb 01b9 7e3d a691 28bd 3168 873d
000000e0: 81a5 1c3d e8d4 b13c f4c3 27bd 80c2 9b3d
000000f0: fc81 553d 18ca 323d c13a eabc 2b87 81bd
00000100: c835 223d 758f 47bc 5c06 883d 738e 5c3b
00000110: 2711 27bd 0835 d03c 37ec 853d 58bd 77bc
00000120: b2cb 523d 0711 873d 67c6 953d 9f25 22bd
00000130: c819 3a3d c52f 5c3b 873d dd3c 34d9 9cbd
00000140: a10a ddbc 7c5f a13d 15bf eb3c d0fb 4c3d
00000150: 51c6 c53c f01c 69bd e503 21bd 17bf 5a3d
00000160: 290d 6a3d 5e0c 7bbd 7bd0 4bbd 2ac1 4cbc
00000170: 0cfd 033b 81af 80bc 4aea 9ebd 60dd 8bbd
00000180: 2fd7 a2bd dec2 cbbc 415c 93bd 4fdf 193d
00000190: 910e 963d 1e25 1ebd 569a 423d 3d50 07bc
000001a0: f6d3 e13c 6664 353d 8b7d 80bd 0063 32bd
000001b0: 66a4 ad3d a3af 8f3d 8b41 993d 6de7 873d
000001c0: f34a 8b3d 8c9a f8bc b093 bbbb dae5 203d
000001d0: 69e4 683d cca9 393d 986a 763d 5853 883d
000001e0: ce8f 88bd 5b87 06bd ac54 8d3d d973 9b3c
000001f0: 1d63 033d ccc2 a0bd 4fa7 6f3d 3e0a 463d
00000200: 5889 893d 8af9 aa3c 7d93 1d3d f85a 05bd
00000210: 55bb a8bd 0536 88bd 5b36 f9ba b653 93bd
00000220: 3cdb 79bc b142 3b3d b9cf 72bb 5de2 853d
00000230: 6422 8abc 8257 4a3d 08e6 16bd a99a 03bd
00000240: dac6 38bc c334 e4bc f2d0 83bc e030 85bd
00000250: fda3 793d bfb3 92bd da06 dbbc 84fd 66bd
00000260: c631 80bd afa1 25bd 5caa 273d da65 0a3c
00000270: 915d 943d f752 5d3b a527 333d b0c8 a8bd
00000280: 42e8 67bd 1dbf 71bc 9c2c 95bc 76f4 67bd
00000290: 29aa f13c bc66 9e3c f957 0bbc 45ab cfbc
000002a0: 8c29 a23b 6d71 8cbd 7c6b ea3c 52dd 56bc
000002b0: 4cf7 1fbd 8ef8 773d fabe 86bd 2a02 a9bd
000002c0: 84dc d6bc 933b 833c 52d6 0abd 0020 963d
000002d0: 4a02 efbc 7463 6ebc 2e5b a1bd 6a3a 2bbd
000002e0: 2e46 0fbd 7103 ed3c a63d 42bd 2320 c03c
000002f0: c508 9e3d 1599 a1bc b5b8 77bd 2e17 f93c
00000300: 1658 ebbc 9c8a 6e3d e7f3 123d 7028 553d
00000310: 1a3d ad3b c88e 613d 0650 1bbd a42d 21bd
00000320: dc27 da3c 7fda 1ebd ea1b 0c3d 5d03 87bd
00000330: dc95 48ba 1b2a 9ebc b728 813c 6878 6e3d
00000340: c0de e13c 23fd 633d d2a1 1d3b cabd 783d
00000350: e7d1 11bd 97f3 283c 9de2 c93c 7957 8cbd
00000360: 214c 85bc 92fb 87bc ef13 963c 8927 8cbc
00000370: 22a5 893d 0f16 38bd 049f 693c bdb2 1c3d
00000380: ac61 a1bd 4d20 8abd d01e bc3d d738 873c
00000390: b25d 88bd 10fa 4cbd 5782 833d 910f 373d
000003a0: 6753 43bb a13b 2dbd 1bec 5a3d 4521 0a3d
000003b0: 1850 99bd 0cf0 0cbd a205 6abc cc41 48bd
000003c0: a9e8 adbc b12f c9bb ad14 b0bd fbd2 e9bc
000003d0: cd1c 973d 1633 84bc f88f a1bd 5174 253d
000003e0: e8ef 5f3c 8cd4 9d3d c45c 7e3d 1388 db3b
000003f0: 31c9 a0bd ccd6 4dbd 3034 8e3d ae29 4fbb

bias f4 [16]
-0.07725996 -0.06903389 -0.027435403 -0.080223426 -0.07497609 0.03973055 0.0077495766 0.041842002
0.043782286 -0.02171748 0.040252198 -0.018759374 0.018201226 0.01375723 0.01732628 0.062338736
00000000: 783a 9ebd a461 8dbd 36c0 e0bc 2e4c a4bd
00000010: 108d 99bd 80bc 223d 29f0 fd3b 8562 2b3d
00000020: 0e55 333d dbe8 b1bc 7ddf 243d 42ad 99bc
00000030: bd1a 953c 0166 613c d8ef 8d3c e756 7f3d

weight f4 [16, 16, 3, 3]
-0.058040734 -0.030957948 0.010608785 0.022967575 0.024661547 -0.06830963 -0.081242725 0.046225615
0.005506834 -0.031777553 0.021633241 -0.045262195 0.03291623 0.02561215 -0.059227113 -0.07776765
-0.0075584077 -0.032611612 0.04679391 0.011620599 -0.11901787 -0.14349386 0.05689387 -0.048950795
-0.057503857 0.005513873 0.008974699 0.0049624788 -0.0014211013 0.00023912663 -0.08175429 0.004481647
0.046346847 -0.034520987 -0.029462386 0.069525234 0.020314507 -0.080503985 0.022414742 0.046768907
-0.030894626 -0.036863722 -0.036662064 0.018355701 -0.08021798 -0.0052068927 -0.04101989 -0.012642722
-0.016114498 -0.00010868305 -0.053824548 0.036949057 0.061354045 -0.004383112 0.013580869 0.02215769
-0.044896122 -0.06225226 -0.08170676 -0.101215385 0.041438133 -0.14722021 -0.02656066 0.08893087
-0.08249388 -0.073971175 0.03005902 -0.08608037 0.044451967 0.08256343 -0.051946577 -0.033249114
0.11587017 -0.078826025 0.09976372 0.033080034 0.114946015 -0.12338922 0.06432415 0.03373431
-0.03404982 -0.12766752 -0.01942126 0.031878777 0.16378352 -0.053399116 -0.0068600494 -0.0657603
-0.06524119 0.10937432 0.0900039 -0.07293761 -0.03859915 -0.080220416 -0.042164966 -0.06389097
0.014432668 -0.08819771 0.05284106 -0.058308914 -0.0046561398 0.0945994 -0.079052456 0.05789845
-0.068344325 -0.041662898 -0.08808792 -0.0049948758 0.09812536 -0.11604631 0.023872223 0.029962707
-0.08947271 -0.0512436 -0.0077580474 0.08796299 -0.12606715 0.037439696 0.040535603 0.030965501
0.018507876 -0.08725314 0.013902597 -0.025178883 0.02460793 -0.030207653 0.061157234 0.05001284
-0.06040852 -0.009259265 0.06405782 0.027134549 -0.038221564 -0.01892235 -0.093847394 0.05322373
-0.080987945 -0.027296137 -0.0066054687 -0.053295963 -0.053114746 -0.05479111 0.049790703 -0.010177098
-0.06458941 0.042611983 -0.017455103 0.01038624 0.019050416 -0.0074386564 -0.07334094 -0.014590699
0.06934416 -0.025099982 0.06977442 0.006143593 -0.018405871 0.0021705378 -0.040664125 0.027340427
-0.048566714 -0.039890666 -0.06829155 0.037217923 0.048460677 0.046223376 -0.035519682 -0.027521359
0.004035898 -0.066152506 0.0021373888 0.030282663 0.067623496 -0.062123362 0.020647198 0.07361424
0.019990826 -0.040398657 0.04205366 0.052174013 -0.079691544 -0.0014078938 -0.06343298 -0.043815766
-0.029295705 0.015079559 0.029697673 -0.016099311 -0.01166632 -0.005887217 -0.08528911 -0.00744159
0.003067635 0.06750376 -0.061158415 0.047304984 0.029097574 -0.046726946 -0.055183195 -0.033461485
0.092875406 -0.003432413 -0.07762168 0.0607801 -0.034083933 -0.075807266 0.09397098 -0.061529227
-0.06346301 0.024398906 0.073989004 -0.060590286 0.077655025 0.062178925 0.007712023 -0.07281767
0.06695828 0.08111306 0.06403849 -0.055503123 0.076427095 0.06340581 0.014453649 -0.055139855
-0.016540827 0.08227206 0.026315447 -0.0058601336 -0.062679246 -0.12075798 0.02410179 -0.026664568
0.017918527 -0.027248783 -0.064662024 0.016510636 0.006965778 0.03514563 -0.012219326 0.00026894998
-0.057002533 -0.060508676 0.037855644 -0.08503612 0.0031793201 -0.046156123 -0.04437073 -0.100456566
0.10987913 -0.022173487 -0.03522738 0.08743292 0.057474215 -0.01676087 -0.08218904 0.056806352
00000000: 1fbc 6dbd 869b fdbc 78d0 2d3c 7f26 bc3c
00000010: 0307 ca3c ebe5 8bbd 9662 a6bd 1257 3d3d
00000020: ac72 b43b 2e29 02bd 3238 b13c da64 39bd
00000030: 2bd3 063d 92d0 d13c 2198 72bd a544 9fbd
00000040: 85ac f7bb c193 05bd f9aa 3f3d 5364 3e3c
00000050: a4bf f3bd 0ef0 12be 8c09 693d a180 48bd
00000060: 2a89 6bbd b8ad b43b 9e0a 133c 4a9c a23b
00000070: 3f44 baba 11be 7a39 cb6e a7bd c8da 923b
00000080: 31d6 3d3d e165 0dbd 1a5b f1bc 3f63 8e3d
00000090: 9c6a a63c 46df a4bd 1f9f b73c c190 3f3d
000000a0: ba16 fdbc 6afe 16bd f62a 16bd b25e 963c
000000b0: 5349 a4bd 959e aabb 7904 28bd 6b23 4fbc
000000c0: 8d02 84bc c5ec e3b8 2177 5cbd e557 173d
000000d0: 614e 7b3d 35a0 8fbb 4b82 5e3c 0b84 b53c
000000e0: ffe4 37bd 3afc 7ebd e055 a7bd 034a cfbd
000000f0: 08bb 293d e5c0 16be be95 d9bc 6321 b63d
00000100: 8df2 a8bd 337e 97bd 553e f63c e84a b0bd
00000110: 4413 363d 0417 a93d efc5 54bd 3930 08bd
00000120: 574d ed3d 8a6f a1bd ec50 cc3d ee7e 073d
00000130: d168 eb3d 7db3 fcbd 61bc 833d fd2c 0a3d
00000140: d377 0bbd 46bb 02be 5619 9fbc 5293 023d
00000150: deb6 273e 08b9 5abd 44ca e0bb 56ad 86bd
00000160: 2c9d 85bd a5ff df3d f753 b83d 5060 95bd
00000170: 241a 1ebd 9a4a a4bd 2cb5 2cbd 45d9 82bd
00000180: ff76 6c3c 00a1 b4bd de6f 583d 54d5 6ebd
00000190: 8892 98bb 55bd c13d 41e6 a1bd ed26 6d3d
000001a0: 1cf8 8bbd b7a6 2abd 7067 b4bd 0eac a3bb
000001b0: f3f5 c83d b0a9 edbd ae8f c33c 5a74 f53c
000001c0: 783d b7bd cfe4 51bd 3837 febb f125 b43d
000001d0: bf17 01be 5e5a 193d a908 263d 5dab fd3c
000001e0: d49d 973c c6b1 b2bd b8c7 633c f243 cebc
000001f0: 9296 c93c 0a76 f7bc 0280 7a3d 44da 4c3d
00000200: ed6e 77bd 2cb4 17bc bf30 833d 4649 de3c
00000210: 378e 1cbd 0b03 9bbc 1033 c0bd 2001 5a3d
00000220: 02dd a5bd 269c dfbc b072 d8bb de4c 5abd
00000230: d98e 59bd a56c 60bd 56f1 4b3d d8bd 26bc
00000240: 7447 84bd e789 2e3d 01fe 8ebc 0c2b 2a3c
00000250: 9e0f 9c3c f9bf f3bb c633 96bd d40d 6fbc
00000260: 5004 8e3d 7a9e cdbc e4e5 8e3d 3250 c93b
00000270: e9c7 96bc 953f 0e3b 6d8f 26bd 08f9 df3c
00000280: e4ed 46bd 6564 23bd 71dc 8bbd d271 183d
00000290: b47e 463d b954 3d3d 167d 11bd 7974 e1bc
000002a0: 913f 843b f77a 87bd 6f13 0c3b 5913 f83c
000002b0: 307e 8a3d 1175 7ebd 5024 a93c 10c3 963d
000002c0: cdc3 a33c 1079 25bd 7540 2c3d 6bb4 553d
000002d0: 5235 a3bd 1489 b8ba 26e9 81bd 2978 33bd
000002e0: 8cfd efbc 4110 773c 8948 f33c b4e2 83bc
000002f0: 1824 3fbc 8ee9 c0bb 0fac aebd 95d8 f3bb
00000300: 600a 493b 693f 8a3d 3f81 7abd dfc2 413d
00000310: 095e ee3c c164 3fbd c607 62bd e90e 09bd
00000320: 7635 be3d 56f2 60bb 1ef8 9ebd 8ef4 783d
00000330: 989b 0bbd d740 9bbd db73 c03d 1206 7cbd
00000340: e5f8 81bd 37e0 c73c 8c87 973d 852d 78bd
00000350: 9909 9f3d 54af 7e3d 23b5 fc3b 6e21 95bd
00000360: 6c21 893d 9b1e a63d 9d26 833d 3e57 63bd
00000370: cf85 9c3d e8da 813d ffce 6c3c 54da 61bd
00000380: a180 87bc 417e a83d 7e93 d73c 5d06 c0bb
00000390: fa5d 80bd f64f f7bd 1e71 c53c a76f dabc
000003a0: e0c9 923c d738 dfbc 866d 84bd 5041 873c
000003b0: 2e41 e43b ddf4 0f3d 9133 48bc db01 8d39
000003c0: 7d7b 69bd f2d7 77bd 850e 1b3d 6b27 aebd
000003d0: 245c 503b 340e 3dbd 15be 35bd 2cbc cdbd
000003e0: 4f08 e13d 2ca5 b5bc 964a 10bd 0810 b33d
000003f0: 156a 6b3d 184e 89bc ba52 a8bd c7ad 683d

bias f4 [16]
0.019961124 0.07445364 -0.04553615 -0.05474236 0.009313815 0.027239589 -0.05383485 0.001243618
0.07993553 0.017791927 -0.027982322 -0.09551314 0.07472991 0.023745162 -0.017730707 0.00884828
00000000: 8385 a33c 267b 983d 1d84 3abd 8639 60bd
00000010: f998 183c 8f25 df3c ef81 5cbd e500 a33a
00000020: 3db5 a33d 60c0 913c 2f3b e5bc 659c c3bd
00000030: ff0b 993d 3785 c23c fd3f 91bc 60f8 103c

weight f4 [64, 16, 3, 3]
-0.078875616 0.07075444 0.08460518 -0.044459894 -0.095241144 -0.016039591 -0.02398334 -0.09668013
0.021034917 -0.044277824 -0.06412441 0.02961932 0.0033193754 -0.034343835 -0.06606465 -0.04131732
0.022650497 -0.015088247 0.057975728 0.010151151 0.0012266447 0.061914533 0.00075380487 0.10256423
0.06862952 -0.09785361 -0.01608317 0.0049598278 0.021691505 -0.05386995 -0.020373547 0.007968283
-0.025415534 0.03199903 -0.031510666 -0.060973287 0.009950184 0.016685104 0.06869956 -0.004358561
0.018910576 -0.045315996 -0.058320545 0.029715063 -0.07751155 -0.04254436 0.057891164 -0.05887536
0.0073751365 0.08105698 0.003291791 -0.024290547 -0.05563451 -0.017105086 -0.04252717 -0.053880576
-0.007774948 -0.081842035 0.076439254 -0.027082602 -0.04547051 0.0057836906 -0.01737862 0.06953681
0.017083695 -0.04725012 -0.007194878 -0.06500101 0.0025282248 0.046498913 -0.038685568 -0.038247216
0.040014535 -0.052252054 -0.053382196 -0.069913045 -0.06633283 0.013153482 -0.10138737 -0.034106776
-0.08630217 -0.045161895 -0.10320087 0.052065816 0.016576657 -0.07250998 -0.03877971 -0.003572886
-0.027997727 -0.027976505 0.028147431 0.038357764 -0.0041330564 -0.036968824 -0.07254049 -0.036008026
-0.027247354 0.06993981 -0.044317797 -0.012603027 0.0075163445 -0.017597973 -0.0071735885 0.020283964
0.035910524 -0.057160184 0.024053883 0.035705503 -0.03297007 0.08832269 -0.075327575 0.011959592
-0.0248322 0.04079232 -0.019526646 0.04271027 0.060288332 0.008424133 0.08175426 -0.07212332
-0.018003372 -0.016275337 0.049049087 0.0244911 0.022088887 0.007007782 0.013710872 -0.059189145
0.045230865 0.020462498 -0.022752305 0.033352353 0.036333423 -0.0029227764 -0.08453734 -0.05004001
0.005717523 -0.06923156 0.07458153 -0.04964178 0.034332734 -0.03159743 0.02935812 0.019869348
-0.012670405 -0.038433876 0.0049007405 -0.07778546 -0.026307963 0.080858365 0.057708405 0.014085442
-0.0221711 -0.015853768 0.074360386 0.006230245 0.023514938 -0.036422007 -0.01798201 0.042074617
-0.08571887 0.04651734 0.07148277 -0.0136597 -0.07561895 -0.040183123 0.10112057 0.087538846
0.01380139 0.022387851 -0.107131734 -0.08289684 -0.039295882 0.027545784 -0.012566676 -0.09782733
-0.041408677 0.0970581 -0.040703498 0.06687536 -0.0030322936 -0.004731085 -0.022148162 0.10202746
-0.12514369 0.014170935 -0.072151184 -0.023456117 -0.097399555 -0.08200143 0.035815492 0.010092268
-0.05533207 0.05555047 0.020099336 -0.030320449 0.026226819 -0.03241892 -0.01812718 -0.0024330423
0.04957114 -0.046390254 0.006737859 0.020713307 0.04856822 0.016585939 0.01769361 -0.033506334
0.024962505 -0.02528502 -0.07148682 -0.04948265 0.049841665 -0.006917676 -0.07665198 0.048276253
0.052696258 0.05833034 -0.08436402 0.013322117 0.025864642 -0.02890538 0.0078007993 -0.03053025
-0.016816402 0.059882186 0.030882474 -0.061564405 -0.05042192 -0.017579941 -0.065966494 -0.04611315
0.008993051 -0.07417168 -0.004214137 0.079296105 -0.0797375 0.05638467 0.0078036813 0.014884025
0.013467059 0.01233829 0.019149544 0.021822827 -0.00844046 -0.06412877 -1.271116e-05 0.01196495
0.05372691 0.033198763 0.028047021 0.058275342 0.06281444 0.08280692 0.014296451 0.00860982
00000000: 8a89 a1bd b4e7 903d 7b45 ad3d 941b 36bd
00000010: ca0d c3bd 7665 83bc b678 c4bc 3b00 c6bd
00000020: 6b51 ac3c aa5c 35bd a953 83bd 37a4 f23c
00000030: e189 593b 1fac 0cbd e74c 87bd 5a3c 29bd
00000040: 898d b93c b234 77bc f577 6d3d 0351 263c
00000050: 5ec7 a03a 189a 7d3d fd9a 453a 320d d23d
00000060: a28d 8c3d 7967 c8bd dac0 83bc 0d86 a23b
00000070: 62b2 b13c bda6 5cbd 6de6 a6bc 678d 023c
00000080: 3d34 d0bc 6a11 033d 5411 01bd 20bf 79bd
00000090: 1906 233c 33af 883c 5bb2 8c3d 42d2 8ebb
000000a0: 5aea 9a3c 449d 39bd 86e1 6ebd 016d f33c
000000b0: 60be 9ebd ff42 2ebd 491f 6d3d 4a27 71bd
000000c0: 21ab f13b 3401 a63d 17bb 573b f8fc c6bc
000000d0: 03e1 63bd f71f 8cbc f830 2ebd e1b1 5cbd
000000e0: fec4 febb cc9c a7bd 2f8c 9c3d 55dc ddbc
000000f0: 493f 3abd 1d85 bd3b 9c5d 8ebc 5169 8e3d
00000100: 1bf3 8b3c 5889 41bd 03c3 ebbb 401f 85bd
00000110: 93b0 253b a575 3e3d c274 1ebd 1da9 1cbd
00000120: 48e6 233d 4006 56bd 4aa7 5abd 922e 8fbd
00000130: 82d9 87bd b481 573c 2ea4 cfbd 8cb3 0bbd
00000140: 31bf b0bd aefb 38bd fa5a d3bd f742 553d
00000150: c5cb 873c 1d80 94bd 79d7 1ebd 1527 6abb
00000160: 7d5b e5bc fc2e e5bc 7195 e63c 081d 1d3d
00000170: 976e 87bb 9f6c 17bd 1c90 94bd 277d 13bd
00000180: d835 dfbc 9a3c 8f3d 9486 35bd ed7c 4ebc
00000190: ab4b f63b a029 90bc 6c10 ebbb 8e2a a63c
000001a0: ea16 133d cc20 6abd a60c c53c ef3f 123d
000001b0: a00b 07bd 87e2 b43d 5845 9abd 2af2 433c
000001c0: e66c cbbc d915 273d 58f6 9fbc f7f0 2e3d
000001d0: e6f0 763d 6005 0a3c c76e a73d 64b5 93bd
000001e0: cf7b 93bc db53 85bc b2e7 483d 8fa1 c83c
000001f0: c1f3 b43c 89a1 e53b 91a3 603c 5170 72bd
00000200: 0044 393d f8a0 a73c 0b63 babc 7a9c 083d
00000210: 5bd2 143d 0d8c 3fbb ea21 adbd c1f6 4cbd
00000220: 0f5a bb3b 47c9 8dbd 34be 983d 2e55 4bbd
00000230: 7ba0 0c3d 4f6c 01bd 7180 f03c 0bc5 a23c
00000240: 8897 4fbc d76c 1dbd 6496 a03b fc4d 9fbd
00000250: cc83 d7bc 1299 a53d a65f 6c3d a0c6 663c
00000260: 2ba0 b5bc c3df 81bc 424a 983d 1527 cc3b
00000270: 66a2 c03c 3e2f 15bd 024f 93bc 6f56 2c3d
00000280: 608d afbd f788 3e3d 8f65 923d efcc 5fbc
00000290: 1cde 9abd 0f97 24bd 4d18 cf3d 9147 b33d
000002a0: 3a1f 623c ba66 b73c e267 dbbd d2c5 a9bd
000002b0: b8f4 20bd b2a7 e13c 76e4 4dbc b259 c8bd
000002c0: 259c 29bd 66c6 c63d b6b8 26bd f3f5 883d
000002d0: 72b9 46bb 3807 9bbb 1070 b5bc c6f3 d03d
000002e0: ab25 00be 362d 683c 00c4 93bd 0b27 c0bc
000002f0: 6b79 c7bd 5ef0 a7bd 44b3 123d 0a5a 253c
00000300: e1a3 62bd e488 633d 5da7 a43c 9762 f8bc
00000310: a0d9 d63c b4c9 04bd 747f 94bc ad73 1fbb
00000320: 1c0b 4b3d b503 3ebd 42c9 dc3b f4ae a93c
00000330: 78ef 463d 3cdf 873c 31f2 903c f03d 09bd
00000340: 2b7e cc3c 8822 cfbc af67 92bd 52ae 4abd
00000350: c626 4c3d acad e2bb b7fb 9cbd 52bd 453d
00000360: 08d8 573d cbeb 6e3d 0bc7 acbd 0245 5a3c
00000370: 16e2 d33c faca ecbc d99d ff3b 931a fabc
00000380: 8dc2 89bc 0647 753d 3efd fc3c f52a 7cbd
00000390: 3787 4ebd cf03 90bc 7119 87bd 24e1 3cbd
000003a0: 9757 133c 52e7 97bd be16 8abb ff65 a23d
000003b0: 6a4d a3bd 9df3 663d 06b6 ff3b 20dc 733c
000003c0: f0a4 5c3c 8a26 4a3c 81df 9c3c c9c5 b23c
000003d0: db49 0abc f255 83bd 0442 55b7 a308 443c
000003e0: c010 5c3d 6dfb 073d dec2 e53c 20b2 6e3d
000003f0: dba4 803d ad96 a93d a93b 6a3c 3410 0d3c

bias f4 [64]
0.07093037 -0.019215666 -0.022183433 0.056643467 -0.009743437 -0.021691285 0.00024397986 0.04526777
-0.031627763 -0.02015827 0.07809169 -0.04211154 0.04648767 0.012505039 0.03420424 -0.05303751
0.042225517 0.0005402519 0.09516268 0.019235708 0.023269692 0.001805177 -0.021193625 0.038784035
-0.033413947 0.07968808 0.00010046571 -0.047941092 -0.04935139 -0.06961925 -0.008390216 0.030389266
0.0030866042 0.035576507 0.041340858 -0.0486285 0.018419823 0.0119670965 0.040456254 0.06069821
-0.016372055 0.08318366 -0.029841477 0.08246848 -0.06819392 -0.08741994 -0.08444698 -0.017387224
0.026877413 0.014257777 -0.019027065 0.039525483 -0.08764193 0.07041475 -0.0549318 -0.047554344
-0.047668144 -0.062255844 -0.03267273 -0.08498195 0.043449935 0.013553475 0.02206614 -0.08545093
00000000: f143 913d 2c6a 9dbc 08ba b5bc fb02 683d
00000010: f0a2 1fbc ecb1 b1bc d8d4 7f39 b26a 393d
00000020: 1d8c 01bd f522 a5bc 89ee 9f3d 267d 2cbd
00000030: db69 3e3d efe1 4c3c bf19 0c3d dc3d 59bd
00000040: aaf4 2c3d b19f 0d3a a7e4 c23d 3494 9d3c
00000050: 15a0 be3c b09b ec3a 419e adbc 02dc 1e3d
00000060: 10dd 08bd 8133 a33d 1eb1 d238 e15d 44bd
00000070: af24 4abd 8a94 8ebd 1e77 09bc e9f2 f83c
00000080: a048 4a3b acb8 113d 0855 293d ae2e 47bd
00000090: 2be5 963c a411 443c 75b5 253d b09e 783d
000000a0: b01e 86bc 325c aa3d 1d76 f4bc 3ce5 a83d
000000b0: 41a9 8bbd 3a09 b3bd 8af2 acbd a76f 8ebc
000000c0: 052e dc3c 7399 693c a6de 9bbc 79e5 213d
000000d0: 9d7d b3bd 9c35 903d 2b00 61bd 58c8 42bd
000000e0: ac3f 43bd fcff 7ebd d7d3 05bd 040b aebd
000000f0: 8ff8 313d 650f 5e3c 0dc4 b43c e600 afbd

weight f4 [64, 16, 3, 3]
0.03654735 0.06775004 0.04372166 0.00019012135 0.050038945 -0.0769963 -0.05562468 -0.0016448121
-0.010486301 -0.05813407 -0.03199323 -0.027989319 0.068426125 -0.014791474 -0.031137837 -0.034041554
-0.07238729 0.033892184 -0.053008292 0.086890824 -0.011485961 0.012320809 -0.014802101 -0.06383351
0.021373095 -0.043520503 -0.050910413 -0.0067172595 -0.07359315 -0.05811505 0.023035934 0.034703463
-0.011324727 0.036766186 0.05804347 -0.050652243 0.054347433 -0.008677485 -0.027209152 0.055849876
0.09125498 -0.0069479896 -0.0053754426 -0.0054985574 0.05597935 0.03760574 -0.08256914 -0.020639341
0.032562174 -0.0146304695 -0.051659614 0.051461253 -0.022704449 -0.039332014 -0.0068599368 0.079544164
0.015239966 -0.0564764 0.08260033 0.04616704 0.027078709 0.01464938 0.035532866 -0.076967195
0.0018939481 -0.054073352 0.04497437 -0.052508064 0.053856656 0.06664928 0.05874636 0.0014918139
0.006485617 0.015328857 -0.009058955 0.0145480195 -0.020023048 -0.07227311 -0.045705073 0.0048131235
0.03795181 -0.059746895 0.052843302 -0.061836164 0.05341439 -0.094947964 -0.039473277 -0.05996726
-0.095563985 -0.044916432 -0.05830055 -0.023734389 0.05816575 0.065547764 0.0082611125 -0.071062684
-0.040679067 -0.06364852 0.07076615 -0.031465054 -0.04768046 -0.05442259 -0.008716983 -0.0069872993
-0.07713513 0.0060595637 0.06204 -0.05489519 0.037397146 -0.111696534 -0.08759603 -0.07158137
-0.01961674 0.012247867 -0.009178103 -0.02808515 -0.017828679 0.0006489008 0.041981325 0.06521571
-0.04643979 -0.07856651 0.0060847905 0.04420722 0.034884542 0.01315002 -0.0024438605 0.03936383
0.024597779 0.06750441 -0.061958328 -0.046008956 -0.021058204 -0.023596073 -0.03740248 0.08218115
0.02228347 -0.02809871 -0.048094038 -0.021291371 0.00360316 0.0074155224 0.039655097 0.0755887
-0.036478624 0.06689393 -0.07104307 0.043317754 0.042029988 -0.05459339 0.026653746 -0.039241828
0.011326769 -0.037639868 -0.031602383 0.072554685 0.054301336 -0.06644241 -0.07243916 -0.04607554
-0.075116724 -0.049493697 -0.061341446 0.02939802 0.009435339 -0.05284724 0.09197937 -0.027312815
-0.055975676 0.007550023 -0.07396996 0.022755707 -0.047330745 -0.046590045 -0.06297204 -0.014458603
-0.091940336 0.07203342 -0.0056132665 -0.03969138 0.03341159 0.046249967 -0.0037830523 0.08533278
0.100532524 -0.03366964 0.07881655 0.0035812068 -0.021017365 -0.07836112 0.03533238 0.07930171
-0.0833053 0.05154721 -0.028213678 -0.023482047 -0.07568319 -0.0047811484 0.061928242 0.015138113
-0.07539384 -0.07700014 0.09809236 0.07800785 0.024616625 -0.051838305 0.034873728 -0.08320329
-0.044585597 0.057082452 -0.072766684 -0.0094898455 -0.012575939 -0.062457234 -0.04964871 0.021219926
0.061552472 0.017024634 -0.087970525 -0.014273704 -0.010348343 -0.096552275 -0.043688197 -0.016184872
-0.019310169 0.04286053 0.039578672 0.022590173 0.021468755 -0.03030356 -0.024993744 0.05946364
0.049341273 -0.003534522 -0.07148908 -0.013135698 0.06401811 0.0031656385 0.08278912 -0.053764887
0.0504776 -0.07025548 0.070740804 -0.046699017 -0.023161557 -0.023151413 -0.06830877 -0.06752178
-0.016044017 0.03240297 0.03910027 -0.027455537 -0.027732315 0.04734561 -0.08514397 -0.024743399
00000000: adb2 153d 88c0 8a3d 7c15 333d 505b 4739
00000010: a3f5 4c3d 3cb0 9dbd b4d6 63bd bc96 d7ba
00000020: bcce 2bbc fe1d 6ebd 550b 03bd db49 e5bc
00000030: ff22 8c3d f057 72bc c714 ffbc 286f 0bbd
00000040: ca3f 94bd 88d2 0a3d 391f 59bd d1f3 b13d
00000050: 9d2f 3cbc 38dd 493c 8384 72bc 25bb 82bd
00000060: a116 af3c 8e42 32bd 7087 50bd 751c dcbb
00000070: 01b8 96bd 0c0a 6ebd dbb5 bc3c 3825 0e3d
00000080: 598b 39bc 2498 163d fdbe 6d3d ba78 4fbd
00000090: 6a9b 5e3d 032c 0ebc bae5 debc d7c2 643d
000000a0: e4e3 ba3d f6ab e3bb 7b24 b0bb 3e2d b4bb
000000b0: 9a4a 653d 7a08 1a3d 021a a9bd d613 a9bc
000000c0: ea5f 053d a3b4 6fbc 0899 53bd 09c9 523d
000000d0: aefe b9bc 9b1a 21bd 52c9 e0bb 0de8 a23d
000000e0: 0db1 793c cc53 67bd 5d2a a93d a619 3d3d
000000f0: 2bd4 dd3c f403 703c e98a 113d faa0 9dbd
00000100: 5a3e f83a 057c 5dbd 0c37 383d b212 57bd
00000110: cc98 5c3d 6b7f 883d 06a0 703d f888 c33a
00000120: 4c85 d43b e325 7b3c 036c 14bc d15a 6e3c
00000130: 6007 a4bc ed03 94bd 3e35 3bbd 68b7 9d3b
00000140: 5b73 1b3d 29b9 74bd 3872 583d eb47 7dbd
00000150: 0cc9 5a3d 1474 c2bd bbae 21bd 3ba0 75bd
00000160: 0db7 c3bd 4bfa 37bd 8fcc 6ebd 9f6e c2bc
00000170: 363f 6e3d e83d 863d 9e59 073c 5089 91bd
00000180: 189f 26bd 285a 82bd d8ed 903d 80e1 00bd
00000190: 964c 43bd 39ea 5ebd add1 0ebc b7f5 e4bb
000001a0: 06f9 9dbd 4e8f c63b a81d 7e3d c7d9 60bd
000001b0: c02d 193d 27c1 e4bd 8c65 b3bd 4199 92bd
000001c0: 49b3 a0bc 47ab 483c c15f 16bc d412 e6bc
000001d0: 730d 92bc ff1a 2a3a 9cf4 2b3d d08f 853d
000001e0: a637 3ebd 7ae7 a0bd ec62 c73b a112 353d
000001f0: 18e3 0e3d 2e73 573c 2d29 20bb f83b 213d
00000200: 4881 c93c c13f 8a3d 04c8 7dbd e373 3cbd
00000210: 4182 acbc 8d4c c1bc 5833 19bd 974e a83d
00000220: d38b b63c 442f e6bc 41fe 44bd 3e6b aebc
00000230: fe22 6c3b e9fd f23b 626d 223d 40ce 9a3d
00000240: 9c6a 15bd afff 883d 077f 91bd f56d 313d
00000250: a327 2c3d 529d 5fbd f558 da3c 0abc 20bd
00000260: ea93 393c 432c 1abd 8071 01bd 8d97 943d
00000270: 146b 5e3d f512 88bd fb5a 94bd b5b9 3cbd
00000280: ccd6 99bd e7b9 4abd 2b41 7bbd 1ed4 f03c
00000290: ae96 1a3c 5976 58bd ae5f bc3d 20bf dfbc
000002a0: c046 65bd 2f66 f73b 907d 97bd 2d6a ba3c
000002b0: e2dd 41bd 34d5 3ebd 7cf7 80bd c7e3 6cbc
000002c0: 374b bcbd 4286 933d 7eef b7bb 6e93 22bd
000002d0: 97da 083d 9b70 3d3d 16ed 77bb f4c2 ae3d
000002e0: ffe3 cd3d 2de9 09bd 926a a13d aeb2 6a3b
000002f0: 9c2c acbc cb7b a0bd b0b8 103d ef68 a23d
00000300: f89b aabd 2b23 533d 5f20 e7bc 6c5d c0bc
00000310: caff 9abd 2eab 9cbb 78a8 7d3d d905 783c
00000320: 1668 9abd 40b2 9dbd a6e4 c83d 94c2 9f3d
00000330: cea8 c93c 6754 54bd c1d7 0e3d 7d66 aabd
00000340: 639f 36bd 4acf 693d b306 95bd 4c7b 1bbc
00000350: 500b 4ebc 28d3 7fbd 725c 4bbd 69d5 ad3c
00000360: 721e 7c3d 3f77 8b3c e429 b4bd 41dc 69bc
00000370: 198c 29bc 33bd c5bd 65f2 32bd 2396 84bc
00000380: 5c30 9ebc 868e 2f3d 3f1d 223d 070f b93c
00000390: 3edf af3c 2c3f f8bc aebf ccbc 2590 733d
000003a0: 131a 4a3d 70a3 67bb de68 92bd 1c37 57bc
000003b0: ed1b 833d 9a76 4f3b 588d a93d 9238 5cbd
000003c0: 9ac1 4e3d 1be2 8fbd 8ee0 903d 7847 3fbd
000003d0: 4ebd bdbc 08a8 bdbc 78e5 8bbd dc48 8abd
000003e0: be6e 83bc fab8 043d 9b27 203d 6fea e0bc
000003f0: e12e e3bc 78ed 413d f65f aebd abb2 cabc

bias f4 [64]
-0.020739766 0.07952193 -0.088044554 -0.056086387 -0.015325109 0.05618633 -0.02805903 -0.043570552
0.0365229 -0.048941094 0.010442731 0.015448245 -0.06640041 0.054329973 0.06185591 0.030583356
0.032653514 -0.04477963 -0.032440156 0.014481085 -0.018165391 0.031605486 0.0013173727 0.027084133
-0.053503696 0.049746856 0.06919833 -0.046910048 -0.06299842 0.052410703 -0.024832176 0.04228714
0.07747817 -0.089059636 -0.0004753807 -0.089640446 -0.0018859437 -0.031759575 0.02061032 -0.0663533
0.01467479 -0.07043784 -0.030034872 0.042518694 0.039171703 0.0714161 0.016644554 -0.055459708
-0.07442972 -0.046017945 -0.08028196 -0.046230953 0.06272873 0.07417076 -0.017078152 -0.044865623
-0.043020077 0.026945112 -0.07941324 0.039824918 -0.032055356 0.0029784983 -0.021074295 -0.054358814
00000000: 71e6 a9bc 65dc a23d b450 b4bd d7ba 65bd
00000010: 2a16 7bbc a323 663d 0ddc e5bc 0977 32bd
00000020: 0999 153d 7576 48bd fd17 2b3c a31a 7d3c
00000030: f0fc 87bd 1b89 5e3d 9f5c 7d3d f289 fa3c
00000040: b1bf 053d d86a 37bd f8df 04bd 1342 6d3c
00000050: 96cf 94bc c174 013d b1ab ac3a 8bdf dd3c
00000060: b126 5bbd 5cc3 4b3d dbb7 8d3d c024 40bd
00000070: 5105 81bd 9bac 563d d96c cbbc 4835 2d3d
00000080: e0ac 9e3d e664 b6bd 843c f9b9 6995 b7bd
00000090: c531 f7ba 5416 02bd f9d6 a83c 3de4 87bd
000000a0: 886e 703c b741 90bd b10b f6bc 1528 2e3d
000000b0: 8272 203d 9b42 923d 295a 883c b829 63bd
000000c0: 9c6e 98bd 507d 3cbd de6a a4bd ab5c 3dbd
000000d0: ec77 803d d7e6 973d 7be7 8bbc 04c5 37bd
000000e0: d235 30bd ffbb dc3c 69a3 a2bd 741f 233d
000000f0: 7a4c 03bd e932 433b 00a4 acbc 59a7 5ebd
