working/model_pretrained/net_F16B2_epoch_4.pth (torch_old, 135469 bytes, 16 tensors)

weight f4 [16, 3, 3, 3]
00000000: eded 163e 8a2b 06be d0f2 22be 99e4 0ebe
00000010: c351 193e 7525 013e 1463 14be 805f 2c3e
00000020: 6b03 aabd 305f 2fbe 953c 89bd 7325 babc
00000030: f827 fdbd 19f1 ca3d 6ef1 243e 8637 bc3d
00000040: 2dcf 15be a466 1e3e f2f9 883c 1e73 d53d
00000050: 1261 333e 92c8 10bd aa74 cbbd 530c 853d
00000060: 0ce7 c9bd da7b 26be ba4a ae3d 2d9c e93d
00000070: 8947 7b3d 9e9c 1dbe 631b 11bd 5b1a 7ebd
00000080: 87de babd e152 05bd 3a8d 133e 4ca5 20be
00000090: 8faa 243b ca57 c23d c6d5 373d cc0d 353e
000000a0: 647b 4e3c 2449 18be 8e87 02be 2915 63bc
000000b0: 4353 183c 9e2a 163d d36d edbc 1c4d a9bd
000000c0: dd23 11be 1d64 6f3d deca 163b 02e1 e2bd
000000d0: ed8b 0ebe 20fa 6bbd 4b52 efbb 910c 423e
000000e0: c037 373e 4669 00bd 1b96 f63d 15d8 3c3e
000000f0: 7640 5d3c b92c 2ebe ad56 1b3e e1e9 3dbd
00000100: ec98 2bbe 397d babc 39c2 ac3d bc8e 2ebd
00000110: 60a8 413c 34c1 a4bd 5d5a 0ebe bfb4 0fbe
00000120: c5f2 b43d 7dcb 243e e863 bbba bbbd c6bd
00000130: f0fb 99bd 3224 673c 7f22 cebd adf9 0fbe
00000140: 53c8 15be 8e69 26be a988 c7bd f952 0f3e
00000150: 43ec c63d e820 c2bc 95d5 20bc 0657 d6bc
00000160: b9fd d9bd 8798 e1bc 6a25 87bc 21e4 bfbd
00000170: 3ffa 65bd db80 e0bd 6277 ab3c 1591 b3bd
00000180: 9dec b6bd e0ab 523d 9ec7 49bb 62c0 113d
00000190: 3f4b 0d3e f3cd 1abe 511c c7bd 5549 313e
000001a0: f0f8 fa3d 56c4 28be eaae e43d 9d8b a13b
000001b0: 7a4b 5bbd c06e 1abe 9742 a73d ef47 f2bd
000001c0: 4d02 c83d 5b18 d1bd f51a 20be bdb2 8c3d
000001d0: d592 21bc 5d39 8a3d d4b1 70bd e4f8 dc3b
000001e0: 3ed0 f1bc 5e23 873d 3185 fdbc 6751 83bd
000001f0: 7f70 da3d 66ce 07be 5963 423e 6bac a43d
00000200: 54ee 363e 798b b6bd 8171 b53d 475a a0ba
00000210: 0e2d ed3d 0d63 9dbd 01d2 253d 84e5 bbbd
00000220: 7eae 003e b26e 34bd 2d77 05be 312f 123e
00000230: 2d34 26be f1c6 a83d 862c 4b3c feac 0dbd
00000240: 247c 4d3e a50f 273e f2c0 ff3d f576 27be
00000250: 9a43 373e a33b 51bb c545 48bd 9de1 803d
00000260: 573e 76bb 5539 ccbd a4c1 933c c871 52bc
00000270: f6f4 1abe a8dc 3abe 6e8a e23d de7c e13d
00000280: fe12 84bd 1332 c73d 74ec 1b3d f853 95bc
00000290: dc9c 843c dbc0 2a3e d88b 0abe 8d89 2b3e
000002a0: 415d 173e 68d1 37be 72d1 3abe 82f5 2cbe
000002b0: 6099 9c3c 3ef9 be3c 6a34 27be abfc 45be
000002c0: b151 f9bd 7f82 89bd b558 f6bd cff6 373e
000002d0: a5c3 d53d 334e 0e3e e413 e73d 13cd 72bd
000002e0: d8f4 043e cf4d 133e 115d 1fbd b7a1 c1bd
000002f0: 827a 19bd c673 4ebb b4bd 1ebe d04b abbd
00000300: 2c7b 2c3e 4a9e af3d 3557 f9bd 3136 c4bd
00000310: 47b0 d8bc eee4 b53c daf3 213e 5f4c 433d
00000320: e11e 253e ff16 1e3e 7020 bb3d 9466 353d
00000330: 1d8d 103d d271 e03d 55d6 a43b b529 c3bd
00000340: 2e53 083e 568d b43d 26da 86bd 5906 01be
00000350: 769c 1a3d 9273 cb3d 83d6 313e e177 1abd
00000360: 2418 36be 6896 c33d 29b8 183d f985 1fbe
00000370: 680e 1dbe 7e16 213e 2375 103e fe38 b9bd
00000380: 1bc4 c3bd 6837 1e3e 844a 1bbc 93b5 353e
00000390: 0187 d1bc 9b4a 54bd 8c4b 26be d620 0a3e
000003a0: 733a b43d c946 99bd 8aca debb ecb8 65bd
000003b0: ddcd 2e3e 111b 41bc 34e9 263e a9bf 20bd
000003c0: 9984 353d 04d1 993d b476 b43a 6f67 cfbd
000003d0: 75f0 68bd c797 ca3b aafd a0bd 339b 373c
000003e0: 2b52 2d3e dc73 0ebe cc58 94bc b367 f1bc
000003f0: 677c a23d 9631 2fbe 2294 8f3d 7943 eebc
0.14739199 -0.13102546 -0.15912938 -0.1395439 0.14972596 0.12611945 -0.1449092 0.16833305
-0.08301433 -0.17126155 -0.06701008 -0.022722935 -0.12361139 0.09909267 0.16107723 0.09190278
-0.14629813 0.15468842 0.016720746 0.104223475 0.17517498 -0.03534753 -0.09934361 0.06496491
-0.09858522 -0.16258183 0.08510347 0.11406741 0.061347518 -0.15391776 -0.03542651 -0.062036853
-0.09124475 -0.032549743 0.14409342 -0.15688056 0.0025126075 0.09489401 0.044881605 0.17681044
0.012602661 -0.14871651 -0.12747023 -0.013860025 0.009297195 0.036661737 -0.028983032 -0.082666606
-0.14173837 0.058445085 0.0023009102 -0.11078073 -0.13920565 -0.057611585 -0.0073035113 0.18950106
0.1789236 -0.031350397 0.12040349 0.18441804 0.013504138 -0.17009248 0.15169783 -0.046365622
-0.16757554 -0.022764789 0.084354825 -0.04261659 0.011819929 -0.08044663 -0.13901658 -0.14033793
0.08835367 0.1609325 -0.0014296742 -0.09704157 -0.075187564 0.014107751 -0.10065173 -0.14060088
-0.14627199 -0.16251203 -0.09742863 0.13996495 0.09713032 -0.023697332 -0.009816547 -0.026164543
-0.10644097 -0.027538551 -0.016497333 -0.09369684 -0.056146856 -0.10962077 0.02093095 -0.087679066
-0.08931849 0.051433444 -0.0030789147 0.03558386 0.13798235 -0.15117626 -0.09722198 0.1731313
0.12254512 -0.16481146 0.11166175 0.0049299733 -0.053538777 -0.1508131 0.08166998 -0.118301265
0.09766064 -0.102097236 -0.15635283 0.06870029 -0.009861668 0.067492224 -0.05876334 0.0067435373
-0.029518243 0.06598543 -0.0309473 -0.06412011 0.10665988 -0.13262329 0.1898321 0.080406986
0.17864352 -0.08913321 0.0885954 -0.0012233936 0.11580859 -0.07684908 0.04048348 -0.09174636
0.12566563 -0.04405088 -0.13033743 0.14275815 -0.16230841 0.0824107 0.012400752 -0.034588806
0.20066887 0.16314562 0.12487973 -0.16353972 0.17896882 -0.0031926415 -0.048894662 0.06293032
-0.0037573779 -0.09971873 0.018036671 -0.01284451 -0.15132508 -0.18248236 0.110615596 0.11010145
-0.06448935 0.09726348 0.038067296 -0.018228516 0.016188078 0.16675131 -0.13529909 0.1675169
0.14781667 -0.17950976 -0.1824396 -0.16890529 0.019116104 0.023312207 -0.16328588 -0.19334666
-0.121737845 -0.06714343 -0.12028638 0.17965244 0.10437707 0.13897018 0.11283091 -0.059277605
0.12984025 0.1438515 -0.038907114 -0.09454673 -0.03747035 -0.0031502112 -0.15502053 -0.083640695
0.16843861 0.08575113 -0.121748365 -0.09580649 -0.026451243 0.022203889 0.15815678 0.047680255
0.1612506 0.1543846 0.09137046 0.04428728 0.035290826 0.109592095 0.005030433 -0.09529439
0.1331298 0.0881602 -0.06584577 -0.12600078 0.03774687 0.09934153 0.17366986 -0.03771198
-0.17782646 0.09550172 0.037285004 -0.1557845 -0.15337527 0.15731236 0.14107184 -0.090440735
-0.095588885 0.15450823 -0.009478215 0.17745046 -0.02557707 -0.05182896 -0.16239756 0.13489088
0.08800211 -0.07484204 -0.006799047 -0.05608456 0.17070718 -0.011786238 0.16299897 -0.03924528
0.044315908 0.0751057 0.0013768286 -0.1012715 -0.056869943 0.006182644 -0.078608826 0.011206436
0.16925876 -0.13911384 -0.018108748 -0.029468393 0.07933884 -0.1710876 0.07010676 -0.029084908

bias f4 [16]
00000000: 8a83 a73d 82da ff3d b490 1f3e 7a5e 883d
00000010: c4dd e4bd 7e98 4b3d 5303 3f3e 717d 1c3e
00000020: edcb 103d da20 de3d 6c26 033e cfb1 293e
00000030: 08b0 9f3d 847c f0bc 2525 68bc 882d dfbd
0.08179386 0.12492849 0.15582544 0.06658645 -0.11175111 0.049705975 0.18653612 0.15282227
0.03535073 0.1084611 0.12807626 0.16571735 0.07797247 -0.029356249 -0.014169012 -0.10897356

weight f4 [16, 16, 3, 3]
00000000: aa25 7b3c c648 863c 1276 5abd 0b7e 09bc
00000010: 175e ff3d 2b43 82bd d111 8d3d 5703 95bd
00000020: 8a50 393d 275d 9abc 0102 913d 56d7 46bd
00000030: 0ce6 1eb9 a547 51bc 489b 74bd 52f3 913c
00000040: 2936 2c3d c78a 143d 409b c03c 5f9f 3e3d
00000050: 960d ecbb 3cb6 85bd 400f 323c 7a46 b6bd
00000060: 5823 4bbd e0b7 3dbd 6013 0f3d b50c 53bd
00000070: 80cc 733c cfec 2bbc 3049 32bd 3405 983d
00000080: 380f 9c3d c230 bcba 0492 7e3d 5df3 d33c
00000090: 0a21 323d 5898 32bc a094 933c 4e05 48bd
000000a0: b03f c83d a326 26bd c603 873c 941a 66bd
000000b0: 3ef1 14bd d4dc 7e3d b0a9 78bd d0a2 c73d
000000c0: afa1 54bd 02f2 473c 9655 7abd 6682 d6bc
000000d0: a3dc 82bd 930f bc3d f22a 523c 3854 44bd
000000e0: 0c8f 483d 3991 cbbd 4632 34bd e9aa 0ebd
000000f0: 8b9e 37bc d896 d43b a424 78bd d471 85bd
00000100: f96b 5abd 109b 88bd de0e 1c3c 1ff5 c0bc
00000110: 7580 c3bc b9ef ad3d 764c df3c 138f 63bd
00000120: d8e6 6bbd 6880 1e3d 927c 20bb 6715 803d
00000130: bbef dbbc bf04 db3c d221 64bd f153 653c
00000140: 3cfb bdbc fe30 113d d675 f3bb b28c 813d
00000150: ee22 e23d 6d14 c0bc cd73 e83d 3f9c de3c
00000160: 84d4 5cbd 8f8a d23c ba89 82bd 49c6 b6ba
00000170: 92a5 873c 745e 373d 834b cdbc 6cfd a53c
00000180: 3560 2dbc 0d7d abb9 dc52 8d3d ed0f d1bb
00000190: 34f7 1b3d 24b2 9dbd a62a acbc 8953 df3c
000001a0: 8b36 34bd 8c4a a2bd cd90 883d 4041 8a3d
000001b0: d206 e33c e272 11bd bd5e 0ebd e0ba da3b
000001c0: 2fc8 4cbd b43f 5abd bba3 d43c 8713 97bd
000001d0: d2e2 75bd a732 c9bc ba92 773d 5db1 753d
000001e0: b1bf aa3c efd4 803d 2730 cd3d 2cc2 1b3d
000001f0: 897e 66bd a5da 0dbd d09f 74bb 236e 14bd
00000200: 621d 0e3d b012 a43c a9f6 e3bd b345 14bc
00000210: a9f3 61bd fb11 52bd 34b3 b03d 62ca 133d
00000220: 1cc6 cdbc 99b5 273c 02eb 98bc e337 a3bd
00000230: 18c3 9ebd 8ef5 89bb 362b 183d 309a 6bbd
00000240: c462 8fbd b369 66bd 6848 41bd 7aaf 62bd
00000250: 17d9 603d 0f67 37bd 905c b23d 003b b83c
00000260: 5edc ec3b bce7 493d 006a 6abd fcba 56bd
00000270: 04ec 4c3d c7b2 a0bd 1526 51bc a2bf e4bb
00000280: 4169 473b c746 e0bb 93ac 7dbc bb30 92bb
00000290: 819a 55bd d268 b0bd 7ae8 1dbd bd00 413c
000002a0: eaa1 183d 292a 7bbd ea5b 89bd 899d 10bd
000002b0: cff0 363d f697 c83c 3a0f 3c3d 206c 9b3c
000002c0: caaa 5a3d b017 613c f319 a8bd 2e08 05bd
000002d0: 993a 71bd 7398 c2bd 5955 91bc f098 dc3c
000002e0: aa0a ab3d c814 8cbd 3d85 493d a4c1 283d
000002f0: 592b 863c 2ce4 363a 3728 4ebc 7d9a 1e3d
00000300: 2301 cdbc 7af7 183d 2d5a 64bd 1203 86bd
00000310: fb39 7b3d 8ce9 9c3d af00 84bd f3a3 b6bd
00000320: 9e69 7b3c d7bd 323d 33cf 993d 1984 43bc
00000330: f3f6 ad3c fa23 11bd 844c 983d 26bd 8ebd
00000340: 9984 8c3d f291 d63b f3e6 e0b9 ae09 0abd
00000350: 295d cd3c 17ab db3c 41a1 06bd 0db7 30bd
00000360: 9d63 84bd befd 09bd 56c0 b5bc 4aeb c03d
00000370: 7198 093d dea7 7dbc c79d 82bc 4947 d6ba
00000380: 0977 60bd f5be b3bc 6daf 84bc 86a4 85bd
00000390: bccd 50b9 407d 7f3c 685e c73d d265 9b3d
000003a0: f92d 63bc ebe8 0f3c 76fa f6bc 4816 973d
000003b0: 8aa0 92bd a277 413d f912 6d3d fff7 7dbd
000003c0: da0a c73c 0157 24bd d2f4 83bc dcf4 8abc
000003d0: eb52 8c3d b9a4 503d 9858 c13c fa8e 5abd
000003e0: 1873 9e3d 0b49 a7bc 7cf0 183c de27 b63c
000003f0: 2f95 2abd 5b95 a0bd df55 09bd ef8c a2bd
0.015328804 0.016392123 -0.053335257 -0.008391867 0.12469118 -0.063604675 0.06888164 -0.07276028
0.045242824 -0.018843247 0.0708046 -0.048545204 -0.00015153753 -0.012773429 -0.0597184 0.01781622
0.04204384 0.03626516 0.023511529 0.046538707 -0.007203768 -0.06528899 0.010867894 -0.08900161
-0.049594253 -0.046317935 0.034930587 -0.05152579 0.0148803 -0.010493471 -0.04352683 0.074228674
0.0762009 -0.0014357793 0.06215097 0.02587288 0.04348854 -0.010900579 0.018015206 -0.048833184
0.097777724 -0.04056419 0.016481292 -0.05617769 -0.03636288 0.062222317 -0.0607087 0.09747851
-0.051912006 0.012203695 -0.061116777 -0.026185226 -0.06389739 0.09182658 0.012827622 -0.04793188
0.048964545 -0.099398084 -0.043993257 -0.03483096 -0.011207233 0.0064877085 -0.06058182 -0.065158516
-0.053325627 -0.06670201 0.009525029 -0.023554383 -0.023864964 0.08492989 0.02725814 -0.055556368
-0.057593197 0.038696676 -0.0024488312 0.06254082 -0.02684771 0.026735662 -0.055696316 0.013997064
-0.023191087 0.035447113 -0.0074298186 0.063256636 0.110418186 -0.02344724 0.11350212 0.027174113
-0.05391361 0.025700836 -0.063739255 -0.0013944592 0.016558442 0.044767812 -0.02506042 0.020262443
-0.01058202 -0.00032708832 0.0690057 -0.0063800723 0.03807755 -0.07699993 -0.02101643 0.027261512
-0.04399733 -0.07924375 0.066682436 0.06750727 0.027713213 -0.03550995 -0.03475832 0.0066751093
-0.049995597 -0.05328341 0.025956979 -0.073767714 -0.060030766 -0.024560286 0.060442664 0.0599836
0.020843359 0.06290614 0.1001895 0.038026974 -0.056273017 -0.034632344 -0.00373267 -0.036237847
0.03469599 0.020028442 -0.11131031 -0.009049821 -0.055164013 -0.05128668 0.0862793 0.03608168
-0.02511888 0.010236167 -0.018666748 -0.07969644 -0.07752055 -0.0042101806 0.037150584 -0.05752009
-0.0700126 -0.056253146 -0.047188193 -0.05534313 0.054894533 -0.04477602 0.08709061 0.02248907
0.0072284183 0.049293265 -0.057229996 -0.052424416 0.05002977 -0.07846599 -0.012765427 -0.006980852
0.0030427726 -0.006844375 -0.015483039 -0.0044613755 -0.0521493 -0.08613743 -0.038551785 0.011779961
0.03726379 -0.061319504 -0.06706984 -0.035306487 0.044663247 0.024486523 0.04591296 0.018972456
0.053385533 0.013738558 -0.082080744 -0.032478504 -0.058893774 -0.09501734 -0.017740892 0.026928395
0.083516434 -0.06839901 0.04919933 0.041200295 0.016378092 0.0006976749 -0.01258283 0.03872155
-0.025024956 0.037345387 -0.05575006 -0.06543554 0.06133459 0.07661733 -0.06445443 -0.089179896
0.015345005 0.043638077 0.07510223 -0.01193335 0.021235919 -0.0354347 0.07436469 -0.06969671
0.068612285 0.0065481598 -0.0004289668 -0.033700638 0.025068836 0.02681498 -0.032868627 -0.04314332
-0.06464312 -0.033689253 -0.02218644 0.09419878 0.033592645 -0.015481917 -0.015944375 -0.0016348149
-0.05480102 -0.021941641 -0.01619693 -0.06525521 -0.00019913068 0.015593827 0.097348034 0.0758778
-0.013865941 0.008783559 -0.030148726 0.07377297 -0.07159527 0.04723323 0.05787942 -0.062004086
0.024297167 -0.040122036 -0.01610795 -0.016962461 0.06851753 0.05093834 0.023601815 -0.05335901
0.07736796 -0.020420572 0.00933468 0.022235807 -0.04164618 -0.07840987 -0.03352916 -0.07937037

bias f4 [16]
00000000: 05be 0dbc 55d9 06bd 6859 873d 6c87 fe3d
00000010: c054 643d ef13 883d 7360 32bb 5e46 3a3d
00000020: c3fb 6b3d d27d 853c 2cfd 3b3d fe60 d1bc
00000030: 8549 823c 8332 403c d9e4 64bd cfb0 4f3d
-0.008651261 -0.032922108 0.0660885 0.124281734 0.055744886 0.06644427 -0.0027218133 0.045477264
0.057613146 0.016295347 0.04589574 -0.025558945 0.015904197 0.011730793 -0.05588231 0.050705727

weight f4 [16, 16, 3, 3]
00000000: b2bf 023e ec69 7dbc 7528 47bd bb70 9bbd
00000010: dbd5 693d 9e3e a43c 02a8 6d3d 434a a83c
00000020: b4eb 8ebd 4bec 1c3c 43a2 9cbd ab13 59bd
00000030: b8d8 52bd 5966 863d 8c8c 80bd 48b5 0dbd
00000040: bb68 bebd 4ab4 81bd acd7 cfbd ce5f f03b
00000050: 17c4 8f3d b147 5dbb 7cd3 013b 2ae0 dc3c
00000060: 4a7f 67bd 4a88 14bd 65ba 973d bacc 74bc
00000070: 47f9 36bd b941 eebb af36 d23d 64c5 baba
00000080: 2ef0 f63c 9860 593d 0e9a 183e 1d8d 2cbd
00000090: b6d3 7abd ec54 b73c 5302 4fbd b450 303c
000000a0: a552 00bd ecb2 3e3d 285c 1e3b e43c 98bc
000000b0: deca 60bd 1dad cfbc d98f adbd f624 47bc
000000c0: 0cbe e7bd e29f ac3c 81fb e4bc 1e2f 90bd
000000d0: 76e8 95bc 9a0d 51bd 251a f4bc 69f7 35bd
000000e0: 6089 a9bd 95b6 973d 7ed6 963d 97c3 623d
000000f0: 61f5 a23b 17c9 653d 6808 b93b 01c5 93bd
00000100: 1e31 b83c 1a60 f7bb ed8d 893d 1a54 c63c
00000110: 14f6 61bc ccc6 b13d c6e2 e4bd d8ae 93bb
00000120: e10a 983d d795 883c 69c9 84bd bfc4 1c3d
00000130: 8688 4b3d ceec a1bd 3849 363c 8057 71bd
00000140: f9d0 a5bd ce33 8b3c 0f64 6a3c 1f80 23bd
00000150: 335a c1bd dca4 dfbd fd53 ce3c 2eae f1bb
00000160: eb49 873d e674 893d 203b ce3c 44f0 41bd
00000170: edc9 f03c c2f1 81bd 3e2e aebd c64e 983d
00000180: 8ee5 6ebd 26fd 113d 031e 58bd 3368 6a3c
00000190: 4112 9e3c ac3c 3fbc 356d 903d 3357 9f3d
000001a0: 8f57 a5bd 1a87 a53d 11f8 78bd 3a4c bcbc
000001b0: 7802 5f3b 37ae 503d 423c b0bd 9b4d fabc
000001c0: 2a76 013b 3575 aabd 777a 65bd 1cef b7bc
000001d0: 4a30 59bd c08a afbd d036 633d df02 46bc
000001e0: 3f86 0c3b d326 81bd 641d 6d3d 0f9b 063d
000001f0: 30f1 7bbd 8b58 2bbc e827 213d f268 3e3d
00000200: 5af5 cebb e03a 793a 203c c03c 6c07 10bd
00000210: 49e7 87bd 24d8 6cbc e8a4 853c bf4d 51bd
00000220: 2804 32bd 9097 28bd 45f1 c23c 4959 a13d
00000230: 3444 92bd e9ab 783d 7c0b 6a3d 0f20 51bd
00000240: f2e7 b63d 202e 763d dcb2 9d3d 409e 38bd
00000250: d260 5fbd c4b3 cebc 2665 3d3d f04a 653d
00000260: e0b9 4f3d 131f c53c a676 27bd 9d71 ab3c
00000270: 71da a73d 1c31 97bc 0968 8abd 3168 a3bb
00000280: 1558 77bd dbfe 9f3d 5552 c4bc 45cd f2bd
00000290: a8bb d73c 2a42 703c f18b d7bd 6ec4 00bc
000002a0: f547 fdbc 547d c6bd f980 db3c 1ac1 afbb
000002b0: 0fee 01be 31ac 98bd 3c83 3c3c d8e3 d2bc
000002c0: 6ed9 9c3d 660a afbd cc59 61bd 172a 26bd
000002d0: 0b62 bfbc 53c6 243d d0cb 5dbd 2828 a4bd
000002e0: 94c8 f03c f3af 123d fc26 7ebd a8cb 6f3d
000002f0: 37c5 9d3d 5485 6e3c 7334 a13c fd51 8e3d
00000300: 4101 0f3d c1c6 bdbd a6e8 843c 6ee8 86bd
00000310: dda6 a33c ca8b 41bd 7ce6 183c b151 b73d
00000320: 8985 923d 89c3 c33c f2d4 153d e05b e13b
00000330: 56cb 323c 6368 14bd 7b10 e73c 1d86 cd3d
00000340: ebe4 333c c6d9 daba acab 763b 0a37 173d
00000350: c649 3abd 27aa 5d3d 24e2 593d 8049 00bd
00000360: a352 b33c e1f2 83bd e9d5 823d b8b5 323c
00000370: cee7 793d dc83 8f3d 7e4a 87bc 7c27 28bc
00000380: ba14 513d bf56 5f3d a98f 443d 54ac 9f3d
00000390: 425a c1bc 7c2b 183c 191d 99bd 6055 c03b
000003a0: 54eb eebb 9372 32bd 4da5 23bc 52f1 07bd
000003b0: ec44 8abd 3925 373d 39ae 91bd ecbf 1a3b
000003c0: 455a 5cbd f191 bfba bbaf e83b 0752 94bd
000003d0: de13 0b3d 16ac 61bd c2af 69ba 09fc 683d
000003e0: 350f 6a3c e92d ab3d e963 893d b744 383d
000003f0: 05c3 943d d457 b2bd 4660 8c3d c8c4 90bd
0.12768438 -0.015467148 -0.048622567 -0.07589861 0.057088714 0.02004939 0.058021553 0.020543223
-0.069785506 0.009577821 -0.076481365 -0.052997272 -0.05147621 0.0656249 -0.06276807 -0.03459671
-0.092973195 -0.063332155 -0.10148558 0.0073356396 0.07019823 -0.0033764655 0.0019809892 0.026962359
-0.056517877 -0.036262788 0.07408599 -0.014941389 -0.044671323 -0.0072710183 0.10264336 -0.0014249501
0.030143823 0.053070635 0.14902517 -0.042126764 -0.06123706 0.022379361 -0.050539326 0.010761429
-0.031328816 0.046557352 0.0024163816 -0.018583722 -0.05488097 -0.025351102 -0.084747024 -0.012154808
-0.113155454 0.021072332 -0.027951958 -0.07040237 -0.018299323 -0.051038362 -0.029797623 -0.0444254
-0.08278155 0.07407872 0.0736513 0.05536231 0.004973099 0.056099977 0.005646754 -0.0721531
0.022484358 -0.007549298 0.06716523 0.024210025 -0.01379158 0.086804956 -0.11176066 -0.004506927
0.0742395 0.016673012 -0.064837284 0.03827357 0.049690746 -0.07906495 0.011125855 -0.058921337
-0.08096499 0.016992476 0.014306082 -0.039917108 -0.09441032 -0.10920116 0.025186533 -0.0073755
0.066058956 0.0671175 0.025174677 -0.047348276 0.02939316 -0.0634494 -0.08504914 0.074369
-0.05832439 0.03564181 -0.052762996 0.01430707 0.019295814 -0.01167218 0.070520796 0.07780304
-0.08073341 0.08082409 -0.06078345 -0.022985566 0.003402857 0.050947394 -0.08605243 -0.030554583
0.001975427 -0.08323137 -0.056024995 -0.022452883 -0.053024568 -0.08571386 0.055472195 -0.012085645
0.0021442322 -0.06306233 0.057889357 0.03286272 -0.06150931 -0.010458122 0.0393447 0.046486802
-0.0063158693 0.0009507369 0.02346617 -0.035163328 -0.06635911 -0.014455829 0.016313985 -0.051099535
-0.043460995 -0.041160166 0.023796687 0.07878358 -0.07141915 0.06071082 0.05713986 -0.051055964
0.08930959 0.060102582 0.0770013 -0.045072794 -0.054535694 -0.025232203 0.04623904 0.05597967
0.050714374 0.024062669 -0.040884636 0.020928198 0.08195961 -0.018456034 -0.067581244 -0.004986786
-0.060386736 0.07812282 -0.02396504 -0.11855558 0.026334599 0.014664212 -0.105247386 -0.0078593325
-0.0309181 -0.09691873 0.026794897 -0.0053635957 -0.12688468 -0.07454718 0.011505898 -0.02574341
0.07658659 -0.08546905 -0.055017278 -0.040567484 -0.02336218 0.0402282 -0.05414945 -0.08015472
0.029392518 0.03581233 -0.062048897 0.05854383 0.07703631 0.014558155 0.01967833 0.06949232
0.034913305 -0.09266425 0.016224217 -0.06587301 0.019977028 -0.047252454 0.0093322955 0.08951128
0.07154376 0.02389695 0.036580034 0.0068774074 0.010912737 -0.036232363 0.0282061 0.10035346
0.010979871 -0.0016696982 0.0037638946 0.036917724 -0.045480512 0.054117348 0.05319418 -0.031320095
0.02188999 -0.0644281 0.063884564 0.010907583 0.06101208 0.07007572 -0.016515013 -0.01026332
0.051045157 0.054526087 0.047988568 0.07796541 -0.023602609 0.009287711 -0.07476253 0.0058695525
-0.007291237 -0.043566298 -0.009988141 -0.033189125 -0.06751427 0.044713233 -0.071133085 0.002361293
-0.053797025 -0.0014615637 0.007101027 -0.07242208 0.033954494 -0.055095755 -0.00089144346 0.056880984
0.014285852 0.08358366 0.067085095 0.044987407 0.072637595 -0.08708158 0.068543 -0.07068783

bias f4 [16]
00000000: 2d9c 4b3d d305 543d 05a0 e63c 6809 893d
00000010: d362 24bd 2bc0 92ba 93f2 e9b9 ef8a a6bd
00000020: 4299 813b 3d25 62bd 81d8 a43d 7f8c 383d
00000030: 8033 c13c 7da1 a03d 89e0 8d3d 2f84 443d
0.049709488 0.051763367 0.028152475 0.06691247 -0.04013331 -0.0011196187 -0.00044621955 -0.08131968
0.0039550373 -0.055211294 0.08049107 0.045055863 0.023584127 0.078433014 0.06927592 0.047977623

weight f4 [16, 16, 3, 3]
00000000: b370 79bc 3f68 f4bc a2b4 58bd 0b25 b83d
00000010: ff79 43bd 6812 85bd 84e7 813d fbc0 7f3c
00000020: 9162 28bd ee4a 2c3d 41f0 5ebd c0b9 303c
00000030: 9cbb 8f3d 9a4b 453d 4268 f33c a241 9cbd
00000040: 2524 273a edaa abbb 03ee d839 d9b1 52bd
00000050: 662d 173d 0645 2e3c f06e 9abc ce7c 41bd
00000060: 03a7 04bc 0791 e03c 7ebf 57bd beb4 2f3d
00000070: 3d69 4c3d 8e3f 08bd 79f8 ed3c 6626 82ba
00000080: 03e6 8e3d 3f2b a1bc 13a2 773d 24b0 ef3c
00000090: e200 46bb ebec 83bd bae6 943c 5b2e 04bd
000000a0: fe4e 87bd 8e24 80bd 8892 733d 5a74 c136
000000b0: cb4c 49bd 6766 d2bc 2380 31bd 8001 123d
000000c0: 7c16 3bbd 9352 38bc 6a91 62bc ca28 5abb
000000d0: 862a b8bb 7f36 7e3d f7bb 21bd b6d5 873d
000000e0: 8c22 213d 262c b43c 3190 27bd 6f63 a03d
000000f0: d823 553d e154 2c3d 4a8c e8bc f2e2 82bd
00000100: 9323 203d d04a 39bc f879 883d 9ac1 923b
00000110: f8f0 20bd a44b d33c d9ec 883d bc46 54bc
00000120: 373b 4d3d 2b13 873d bf34 9b3d ab12 22bd
00000130: 6302 523d 8f50 013c c7aa e33c 433d 9abd
00000140: 7f53 bdbc 37fa a83d f21a 0a3d e3a1 5b3d
00000150: eae6 f03c f678 5abd 7c45 2abd fa95 6c3d
00000160: 4a09 7c3d a4d7 7cbd 520e 45bd d8b5 29bc
00000170: ac36 0a3b 3a1a 7abc 2491 9fbd 0f32 8bbd
00000180: bc22 a4bd 615f d1bc e744 93bd 71c0 203d
00000190: 82e2 993d 3d50 18bd 3feb 463d 5214 1abc
000001a0: 98e7 f73c a386 3c3d be0c 7cbd a50e 2dbd
000001b0: 06cf ac3d 643d 8f3d 0764 9a3d 5cc1 853d
000001c0: 0699 863d 550f 03bd ff1a edbb d784 163d
000001d0: c94f 653d 1e14 333d ca8d 763d df87 8c3d
000001e0: f724 8abd 809d 03bd 4329 903d 6907 993c
000001f0: 2fa0 053d 07bf 9ebd 225f 703d e7f1 423d
00000200: a582 843d e8e5 ac3c 562f 203d ef89 0ebd
00000210: a2cb aabd 4b8f 86bd 1759 edba ffb3 8fbd
00000220: 45a5 8dbc 7181 3d3d 62ed 2cbb 8d74 853d
00000230: d18f 8bbc c912 483d 88d4 1cbd db7b 07bd
00000240: e4c3 88bc fcb5 d3bc a2a1 84bc 94f6 81bd
00000250: 2f74 7a3d fb26 80bd e5b9 dfbc bba8 71bd
00000260: 36b1 78bd 16cc 31bd f7b7 2c3d 2ecc 243c
00000270: cccd 8d3d 1c0c 983b 7c9f 2e3d 583f b0bd
00000280: 01d0 60bd f23b 94bc 01c4 c2bc 8a85 7dbd
00000290: bf48 e13c 434c 7d3c 61fd 27bc f4ad c3bc
000002a0: 268c 933b 3816 8abd cb1e 103d 8869 74bc
000002b0: d015 1bbd f592 7b3d 4f5c 88bd 2273 a5bd
000002c0: 4c9d d3bc 4253 5d3c 55bd 0cbd b96e 943d
000002d0: a035 fcbc 4db1 5bbc f4d3 9bbd 7016 18bd
000002e0: 009d 07bd e0ec d63c e46d 3ebd 1cb6 ca3c
000002f0: da2d 933d 19fb a4bc 7f13 6fbd 47c9 eb3c
00000300: 63ff f9bc d6a0 6a3d 589b 233d 04e3 573d
00000310: 3fee 073c 2f88 6f3d 58e7 16bd 2439 2cbd
00000320: 4906 d53c 9839 19bd 1a02 f83c a067 86bd
00000330: 0802 90ba dbd1 c5bc ae9a 943c 91b0 783d
00000340: c1b5 e13c 23cf 5f3d 97dd 7b3b 7b65 793d
00000350: 5e6d 16bd 4ecc 423c 3a8a c93c 2613 8cbd
00000360: 0ca5 26bc ecbe 86bc 058a 8e3c 8eef 64bc
00000370: e186 8a3d c481 39bd d113 853c efb1 1f3d
00000380: 7271 9abd 34df 8fbd 1e8a b43d 7090 813c
00000390: 66f4 85bd eadd 36bd 15d6 7a3d 766f 333d
000003a0: ac2f 3a3a 2a94 3bbd 59fc 683d e46f 1d3d
000003b0: e708 91bd fa2e 06bd 189d 5bbc 06e4 32bd
000003c0: 6e62 a3bc 7660 b2bb 4985 acbd 7fd9 0abd
000003d0: 5148 983d ca1b b5bc 803b abbd 13eb 223d
000003e0: 2ac1 2d3c ce6b 973d f267 713d 785d e13a
000003f0: f155 a4bd cd51 50bd cbda 923d 4e31 68bb
-0.0152246235 -0.029834865 -0.05290664 0.089914404 -0.047723766 -0.06497651 0.06342986 0.015609975
-0.041109625 0.042063646 -0.054428343 0.010786474 0.070182055 0.048167802 0.0297128 -0.07629706
0.00063759304 -0.005238882 0.00041376063 -0.05143914 0.03690853 0.010636574 -0.018851727 -0.047238164
-0.008096459 0.027412904 -0.052672856 0.04289698 0.04990505 -0.033263735 0.029049145 -0.0009929657
0.06977465 -0.019673942 0.0604573 0.029258795 -0.0030212929 -0.06441673 0.018176425 -0.03227077
-0.066068634 -0.06256972 0.059465915 5.7653933e-06 -0.0491455 -0.025683595 -0.04333509 0.03564596
-0.04567574 -0.011250156 -0.013828615 -0.0033288472 -0.0056203036 0.06206369 -0.039485898 0.06632559
0.039339587 0.021993708 -0.040908996 0.078314655 0.052036136 0.042073134 -0.028387208 -0.06390943
0.039096426 -0.011309341 0.06663889 0.0044786455 -0.039292306 0.025792904 0.066858 -0.0129563175
0.0501053 0.06595453 0.0757842 -0.039568584 0.051271807 0.007892742 0.027791394 -0.07531216
-0.023111103 0.0825085 0.033717103 0.053621184 0.029406983 -0.053338014 -0.04157017 0.057760216
0.061532296 -0.06172909 -0.04810936 -0.010358296 0.0021089716 -0.015265042 -0.07791355 -0.06796657
-0.080144376 -0.025558176 -0.071908765 0.039246026 0.07513906 -0.037185896 0.048564192 -0.009404259
0.0302618 0.046026837 -0.06153559 -0.042250294 0.08437924 0.06994131 0.0753861 0.06531021
0.06572156 -0.031997044 -0.007235884 0.03674778 0.055984292 0.043720357 0.060193814 0.06861853
-0.06745332 -0.032132626 0.0703912 0.018680291 0.032623466 -0.07751279 0.058684476 0.047593977
0.06470231 0.021105722 0.039107643 -0.034799512 -0.08339621 -0.065703 -0.0018108216 -0.070167534
-0.01729072 0.046266023 -0.0026386608 0.06516371 -0.01703635 0.04884604 -0.038288623 -0.033077102
-0.01669497 -0.025843613 -0.016190354 -0.06345859 0.061145958 -0.06257435 -0.027310321 -0.058998805
-0.060715877 -0.043407522 0.04216763 0.010058446 0.06924018 0.0046401154 0.042632565 -0.08605832
-0.054885868 -0.01809499 -0.023775103 -0.06189493 0.027500508 0.015460077 -0.010253281 -0.023886658
0.004502791 -0.06742519 0.035185616 -0.014917739 -0.0378626 0.061419446 -0.066582315 -0.080786005
-0.025831841 0.01350862 -0.03436025 0.07247681 -0.03078729 -0.013408971 -0.07608786 -0.037130773
-0.03310871 0.026235998 -0.04649152 0.02474504 0.0718648 -0.020139264 -0.058368202 0.0287825
-0.030517286 0.05728229 0.03994307 0.052706733 0.008296548 0.058479484 -0.03684172 -0.04204668
0.026003974 -0.03740844 0.03027444 -0.06562734 -0.0010986933 -0.024147918 0.018140163 0.06071526
0.027552487 0.0546409 0.0038431638 0.060887795 -0.036725394 0.01188953 0.024602044 -0.0683959
-0.010171186 -0.01644846 0.017399797 -0.01397313 0.06764007 -0.04528977 0.0162448 0.03898805
-0.07541169 -0.070249945 0.08815406 0.015815943 -0.06540756 -0.044645227 0.06123932 0.04380747
0.00071024406 -0.045795597 0.056881282 0.038436785 -0.07081776 -0.032759644 -0.013404153 -0.04367449
-0.019944396 -0.005443628 -0.084238596 -0.033898827 0.07435668 -0.022107977 -0.08360958 0.039774965
0.010605136 0.07393609 0.05893702 0.0017193994 -0.080242045 -0.05085926 0.07170638 -0.0035429779

bias f4 [16]
00000000: e980 99bd 34b1 9bbd 8e14 c6bc b6a9 a1bd
00000010: 83ee 90bd f6ab 243d 5506 0c3c e49a 423d
00000020: 1975 3e3d 2d93 38bd 896f 463d 1b5f ebbc
00000030: 0d9d 493c dae2 fa3b d3c0 973c 83ff 823d
-0.07495291 -0.07602158 -0.024179723 -0.07893698 -0.070767425 0.040203057 0.008546432 0.047510996
0.04649839 -0.045062233 0.048446212 -0.028731873 0.01230551 0.0076564373 0.018524563 0.06396391

weight f4 [16, 16, 3, 3]
00000000: 7578 6fbd ca0c 06bd 6965 e83b bd1a be3c
00000010: de11 983c f204 90bd 3671 a6bd 6c34 3e3d
00000020: dc1d e739 84c3 f8bc 005a a43c 2154 42bd
00000030: 5aea 023d 5422 c03c 763e 6bbd 7c0c a0bd
00000040: 5eba 08bc 4c44 03bd 39a8 0e3d 870c ad3c
00000050: 49b1 eabd d437 0abe d73d 5a3d 305c 60bd
00000060: 0d00 07bd 7735 cb3c 8b96 e03c 5cbc 9c3b
00000070: 727f d7ba 3f45 93b9 be74 a7bd 890e 983b
00000080: eedd 3c3d d40e 0ebd 4d45 f4bc 1d35 8e3d
00000090: ebac a03c fbc6 a2bd e939 b13c 8d06 373d
000000a0: 45f2 e7bc db01 05bd abdf 16bd ca3d a13c
000000b0: 7199 97bd 4acf 34bb 87c9 39bd 7c49 4ebc
000000c0: 4c82 66bc b824 7ebb 3cf3 5ebd 1309 163d
000000d0: a30e 6d3d 9915 dcbb d5e2 003d 5be6 2f3d
000000e0: 91ca 85bd 48d4 4fbd 0e35 a5bd 0d38 adbd
000000f0: 0f59 283d 9ff4 11be 828b c3bc fa37 b53d
00000100: cad1 aebd ae01 94bd f5e1 f93c 2fb7 a1bd
00000110: 6c24 193d 3cfb aa3d 4dec 4dbd 7382 1dbd
00000120: c0a4 853d b40f 72bd d54a d43d 0633 8f3d
00000130: 7aa2 ab3d 057c b8bd ef57 853d 861b c73c
00000140: 2da3 19bd 6c8a 11be 4dd8 fdbc f5a3 ab3c
00000150: cedc 1e3e fa21 ffbc f20d f2bc 2d21 51bd
00000160: a943 74bd 0b81 e93d 050d 8c3d 2325 b0bd
00000170: 5abf 81bd db4c b7bd 6dcc 37bd 987a 80bd
00000180: 6a28 9f3c 172b 9cbd 0e06 683d 4464 8bbd
00000190: 4744 86bb b9ca ba3d eb7f b2bd f96e 813d
000001a0: 47cf 52bd 2d94 40bd 0317 9dbd 7336 6ebb
000001b0: 9392 c63d 43c6 f6bd 3ec8 903c 2c2a ba3c
000001c0: a47c adbd 53d8 54bd baa1 c8bc b6a9 c33d
000001d0: 12ab 01be 0d23 c43c de50 243d 2fc7 203d
000001e0: e0ff bf3c 24f7 b4bd 5368 c03c 6297 b9bc
000001f0: 8dd2 713c 95db dcbc 54b2 963d c888 423d
00000200: 2964 84bd 8fea 0fbc e60f 7c3d a4e0 f03c
00000210: 94ee 72bd 7503 e3bb 44d0 98bd bcdc 5e3d
00000220: c60d a8bd a806 cbbc ac7d 8ebb ba64 64bd
00000230: 3d33 71bd 1ae6 67bd 1ec9 493d 9e1b 2abc
00000240: 0704 82bd a9b0 3e3d 1b8a 94bc d7ca 263c
00000250: 7ff8 9f3c ae7d 02bc 2843 94bd dcb7 6dbc
00000260: fb13 8d3d 46ac d5bc bf32 903d 7817 c63b
00000270: 38f8 a9bc 86a3 b73a 4c97 29bd bf84 bd3c
00000280: e683 4cbd dded 2fbd 4fe2 8cbd 631a 333d
00000290: eda0 5f3d 6c66 483d b2a5 04bd cbed d7bc
000002a0: 3187 c63a b5ab 92bd 3acb a7bb b863 f33c
000002b0: 2441 873d 9c42 7dbd f9f7 ac3c 5e0f 983d
000002c0: ad2f 993c 7155 26bd 78b1 2b3d 4d23 573d
000002d0: f371 95bd c350 4d3a 0bce 80bd 6076 2cbd
000002e0: d58c d4bc 6718 773c 0e2e e33c 0c58 99bc
000002f0: 7d16 82bc 0e10 e0bb f2f9 aabd 39a4 14bc
00000300: 7d67 833b f550 913d 475e 77bd a81d 463d
00000310: 50bd 083d 0dfc 3ebd 8864 6dbd 07ce 19bd
00000320: b0c7 b93d d232 8abb a363 9fbd 5052 673d
00000330: 5ac3 2fbd af36 9ebd 5aa9 ba3d 1d0a 7dbd
00000340: 16cd 84bd 0a26 c73c ff94 953d 7603 79bd
00000350: 0f3c 9f3d f1f2 803d 56ec 013c 3e93 90bd
00000360: 4cc2 703d 4546 953d 39f5 883d 4f1b 68bd
00000370: d720 a33d 7f38 9c3d e1cd 883c db98 69bd
00000380: 1125 c73b 008b ac3d c6c2 f13c 96fc 4a3b
00000390: f371 63bd a2bc fdbd f16d ae3c 17eb bfbc
000003a0: f512 893c 1bb8 c5bc bff0 7dbd 3713 993c
000003b0: 8004 e83b 8a97 173d f9ad 35bc ab76 793a
000003c0: acd4 61bd 5f0a 7bbd 3c49 2d3d a0e5 a3bd
000003d0: 54f5 0cba e6e6 43bd 88e8 2abd eb82 d2bd
000003e0: bada dc3d 3a65 c4bc 368f 13bd c906 ad3d
000003f0: 9d01 643d d865 adbc a8f8 afbd 41eb 613d
-0.058464486 -0.03272704 0.007092167 0.02320611 0.018563207 -0.07032193 -0.08127062 0.046436712
0.00044082 -0.030366667 0.020062447 -0.047443513 0.031961776 0.023453869 -0.057432614 -0.07814881
-0.008345215 -0.032047555 0.0348284 0.021124138 -0.11459596 -0.13497859 0.05328163 -0.054775417
-0.032959033 0.024805767 0.027415534 0.0047831964 -0.001644118 -0.00028089617 -0.08176564 0.0046404046
0.046110086 -0.03468211 -0.029818201 0.06943724 0.019613704 -0.07948109 0.021634059 0.04468398
-0.028313765 -0.032472473 -0.0368344 0.019682784 -0.074023135 -0.0027589374 -0.045358207 -0.012590762
-0.014069151 -0.003877921 -0.054431185 0.036629748 0.057875287 -0.006716442 0.031466324 0.042944293
-0.06532777 -0.050739557 -0.0806676 -0.084579565 0.041100558 -0.14253472 -0.023870233 0.08848567
-0.08536108 -0.07226883 0.030503253 -0.078962676 0.03738825 0.083487004 -0.050274182 -0.038454484
0.06525564 -0.059097007 0.103658356 0.06992154 0.08380599 -0.0900803 0.065109126 0.024305116
-0.037509132 -0.1421296 -0.03098693 0.020952204 0.15513918 -0.031144131 -0.029547665 -0.05105703
-0.05963484 0.11401566 0.06838421 -0.08600833 -0.063353255 -0.08950206 -0.04487269 -0.06273383
0.01942845 -0.07625406 0.0566464 -0.068062335 -0.0040974948 0.091206975 -0.08715805 0.063199945
-0.051467206 -0.04701631 -0.07670405 -0.0036348372 0.096959256 -0.12049534 0.017673608 0.022725187
-0.08471039 -0.051964115 -0.02449118 0.09553854 -0.12662914 0.023942495 0.040116183 0.039252456
0.02343744 -0.08836201 0.023487246 -0.022655193 0.014759672 -0.026960174 0.07358232 0.047493726
-0.064644165 -0.0087839505 0.0615386 0.029403992 -0.059309557 -0.0069279023 -0.074615985 0.054409727
-0.08205752 -0.024783447 -0.0043484773 -0.055760123 -0.058886755 -0.056615926 0.049264066 -0.010382561
-0.063484244 0.046555195 -0.01813226 0.010180197 0.019527672 -0.007964535 -0.072393715 -0.0145091675
0.068885766 -0.026083123 0.07040929 0.006045278 -0.020748243 0.0014010526 -0.041404054 0.023134587
-0.049930476 -0.042951453 -0.068791024 0.043726336 0.05459683 0.048925802 -0.032384582 -0.026358506
0.0015146491 -0.07161657 -0.005120662 0.029710636 0.066042215 -0.0618311 0.021114336 0.07424806
0.018699491 -0.040608827 0.041917294 0.0525239 -0.07297125 0.0007832164 -0.062892996 -0.04210508
-0.02594606 0.015081502 0.027731922 -0.018718742 -0.015879864 -0.0068378514 -0.083484545 -0.009072357
0.0040101395 0.070955195 -0.060392644 0.048368126 0.033383667 -0.046627093 -0.057957202 -0.03755
0.090712905 -0.004217484 -0.07782676 0.056474984 -0.04291091 -0.07725274 0.091143325 -0.061777223
-0.064844295 0.02431013 0.073038094 -0.060794316 0.07775127 0.062963374 0.007929882 -0.07059334
0.058779046 0.072887935 0.066873975 -0.05666667 0.07965248 0.07627963 0.016699733 -0.05703054
0.0060774167 0.0842495 0.02951182 0.0030973307 -0.055528592 -0.123894945 0.021292659 -0.02342753
0.016732672 -0.02413564 -0.06199717 0.01868592 0.0070806146 0.037009753 -0.011088842 0.0009516279
-0.05513446 -0.061289188 0.04230617 -0.08002782 -0.0005377133 -0.047827624 -0.041725665 -0.10278877
0.10783906 -0.02397405 -0.03602525 0.0844856 0.0556656 -0.021166727 -0.08592349 0.055155996

bias f4 [16]
00000000: 3ae2 573c 87b8 933d 5b57 0ebd 56b0 79bd
00000010: 1fe2 6fbc 8b8d 203d fb57 8dbd fb53 0e3c
00000020: f969 7c3d 9207 db3c cfd2 2dbd 9edc afbd
00000030: 1dc2 913d 0903 f23c a839 7ebc b592 e5ba
0.013176495 0.0721293 -0.034751277 -0.060959183 -0.014641314 0.039197486 -0.069015466 0.008687015
0.0616245 0.026737008 -0.04243737 -0.08587001 0.07117102 0.029542463 -0.015516676 -0.0017515036

weight f4 [64, 16, 3, 3]
00000000: 8b09 b7bd cb33 743d 13b9 9b3d 2420 37bd
00000010: 60b7 c9bd e756 9fbc b957 19bc 9936 b6bd
00000020: 4abf e63c 9a0b 2abd 1e7f 7dbd a67b 0c3d
00000030: 21f7 ed3b 3f3b 0dbd 5c25 8bbd 6d08 09bd
00000040: 10e7 ee3c d23f 5dbc 35ab 493d 297e 093c
00000050: b4b6 7f3b 411d 303d 197f 13bc 82fa c83d
00000060: 6599 8c3d a7b9 b0bd f36b 18bb 1f16 a8bb
00000070: 4662 e63c b02b 7fbd 6a50 acbc 3e1c a13c
00000080: d9e2 f1bc 8190 d13c e271 cebc a008 7fbd
00000090: 20e4 f1bb f998 e43a 9b1e 5e3d 3480 ddbb
000000a0: a40e ec3c 7ab7 81bd 339b 3abd 63ff ed3c
000000b0: db3c a7bd a8de f3bc 0a05 6b3d 2dfe 57bd
000000c0: 6aa3 40ba 5cc3 8c3d d5d8 f038 e2d8 93bc
000000d0: c9b7 82bd 038e 9cbc 8a8d 15bd c42b 60bd
000000e0: b52e a7bc fb60 9ebd 74a4 aa3d 6688 04bd
000000f0: f5dc 40bd e608 5d3c 3dc4 96bc 4b58 973d
00000100: 3024 9c3c db37 41bd 4a70 02bb 3271 83bd
00000110: 8ddc e539 ecf4 4c3d a0a7 1ebd 2f42 24bd
00000120: 7fcc 633d 9330 20bd ddf3 6dbd afa2 88bd
00000130: 692a 4fbd 6768 6b3c 7174 cabd f183 01bd
00000140: 187b b6bd 10db 85bd 7579 b9bd 7ab6 713d
00000150: 1728 a13c f854 7dbd 685f ebbc 0261 98bb
00000160: 6a59 d7bc 1772 d0bc f64c 053d 4408 193d
00000170: cbab 94ba f075 07bd 3e91 99bd c406 d5bc
00000180: 1e23 e4bc 20bc 903d 86ac 18bd a1af c9bc
00000190: 082c e53b 5957 e0bc 28f3 5f3c e8be e33c
000001a0: c066 0a3d 159a 4ebd b1ab cf3c 6626 9d3c
000001b0: da1c d9bc c8da a93d bc16 94bd 1ebe 863c
000001c0: 66dc 0cbd c563 173d 413f 87bc 3340 193d
000001d0: ff09 863d 6b66 2f3c baf3 a63d 0dc5 94bd
000001e0: 3f48 48bc bac6 54bc 2988 4f3d 4222 cd3c
000001f0: 667d a13c b2a2 ef3b ed02 c23b 13f5 65bd
00000200: 9d1c 323d 64ff c43c dee6 9dbc 4798 1b3d
00000210: 1daf 253d fffc c7bb b819 b0bd 75c7 25bd
00000220: 17ca cd3b ae65 89bd 0968 aa3d ee43 4abd
00000230: 3c65 023d b950 d8bc 528b c43c af59 9e3c
00000240: f4a2 91bc 99d6 4cbd a6de 02bc 88ee a0bd
00000250: 73d3 c5bc 4a97 9a3d b114 8f3d b127 a13c
00000260: 7b59 84bc 5aa6 35bc 9e6f a13d 0403 313c
00000270: 3b36 d83c 9a10 0fbd d8b2 83bc 0ef0 4b3d
00000280: 2473 9abd 53e1 4f3d 063b 803d f9d7 afbc
00000290: ba9d 91bd 6df6 6cbd a018 ad3d 92c0 ad3d
000002a0: bf70 a83c a2a6 e63c 0791 c8bd 1137 afbd
000002b0: 3f8b 0abd fda5 e03c 3007 80bc c3a1 b9bd
000002c0: 318b 1abd 7233 b53d 88da 1cbd 222a 903d
000002d0: e1d3 18bd 64d3 c4bc 6030 2bbd 92b6 c03d
000002e0: 99f0 e6bd a48e 8b3c ba36 80bd 03af e7bc
000002f0: 3ec5 cebd 7255 8dbd d0ac 0f3d e07d 413c
00000300: 2077 44bd fa23 6d3d a930 563c a248 c1bc
00000310: 2a0e 913c a272 04bd 701a a1bc 4491 a7bb
00000320: 3986 2d3d 0769 40bd 4c84 633c 4cf9 983c
00000330: 2603 473d ead2 a63c 15e9 5c3c c100 00bd
00000340: d6ce f03c 1f57 ccbc b472 89bd c52b 40bd
00000350: ecb4 403d 6b5f 95bb e1d2 96bd b0de 3e3d
00000360: 6a7e 583d e4b9 853d 3b32 aabd d6d9 913c
00000370: 7b8d 283d d413 a4bc 6419 253c 867a 08bd
00000380: 0284 a0bc da12 5b3d 3e8b 373d f722 31bd
00000390: 8dee 5dbd 45eb 98bc 81ac 57bd f56e 40bd
000003a0: 5fed 3f3c d76e 96bd 3f0d deba 205d a03d
000003b0: 5cf8 a2bd 352f 803d 237e 013c 5f69 b43c
000003c0: 6ea0 1c3c ed95 183c 40a2 c13c f0c6 a63c
000003d0: b528 49bb b8ba 93bd 2c03 783c e015 d63c
000003e0: 425d 433d 7dd7 1c3d 2ab9 2a3d fd12 253d
000003f0: 4033 983d 8371 ab3d 51c5 6b3c 41ae 5d3c
-0.08937367 0.059619706 0.076036595 -0.044708386 -0.09849429 -0.019450618 -0.009359294 -0.088971324
0.028167386 -0.04151497 -0.061888807 0.034297608 0.007262126 -0.03448033 -0.06794235 -0.0334553
0.029162914 -0.0135039855 0.04923554 0.008391895 0.0039018812 0.04299665 -0.00900247 0.098134056
0.06865195 -0.086291604 -0.0023257702 -0.00512959 0.028123032 -0.062297523 -0.021034438 0.019666787
-0.029527115 0.0255816 -0.025200788 -0.062264085 -0.007381931 0.0017440609 0.054228406 -0.006759668
0.028815575 -0.063338235 -0.045558166 0.029052442 -0.08165904 -0.029769257 0.057377852 -0.052732635
-0.00073485693 0.06873199 0.0001148448 -0.018047754 -0.063827105 -0.019110685 -0.036511935 -0.05472924
-0.020408014 -0.07733341 0.08332148 -0.032356642 -0.04708572 0.013490891 -0.01840412 0.073898874
0.019060224 -0.04717241 -0.0019903355 -0.06418075 0.00043842607 0.050038263 -0.03873408 -0.04010218
0.055614945 -0.039108824 -0.058093894 -0.066716544 -0.050577555 0.014368153 -0.09885491 -0.03161997
-0.08910197 -0.065359235 -0.09056369 0.059011914 0.019672437 -0.06184861 -0.028732017 -0.004650236
-0.026287753 -0.025445027 0.0325441 0.0373614 -0.0011342702 -0.03307146 -0.07498406 -0.026004203
-0.027848776 0.07067132 -0.037273906 -0.02461988 0.0069937743 -0.0273854 0.013668813 0.027800992
0.033789396 -0.050439913 0.025350424 0.019183349 -0.026503015 0.08293682 -0.07230899 0.016448077
-0.034389876 0.036960382 -0.016509654 0.03741474 0.06544875 0.010705571 0.08151956 -0.07264147
-0.012224256 -0.012986833 0.05066696 0.02504075 0.019713115 0.007313096 0.005920759 -0.056141924
0.04348432 0.024047561 -0.019275125 0.03798702 0.040450204 -0.0061031575 -0.085986555 -0.04047342
0.0062801945 -0.06708847 0.083206244 -0.04938119 0.031834826 -0.026405679 0.023992214 0.019329874
-0.017777897 -0.050009344 -0.007987654 -0.07857996 -0.024148678 0.07548387 0.069863684 0.019672247
-0.016155949 -0.011087025 0.078826174 0.010803942 0.026393047 -0.03492794 -0.01607649 0.04978948
-0.075414926 0.050751995 0.06261258 -0.021465288 -0.07110162 -0.057852197 0.084519625 0.084839955
0.020561574 0.028155629 -0.09793287 -0.08555425 -0.0338242 0.0274229 -0.015628427 -0.09064057
-0.0377304 0.08847703 -0.038294345 0.07039286 -0.03731144 -0.02402658 -0.04179418 0.094098225
-0.11276359 0.01703579 -0.06260438 -0.028281694 -0.10096215 -0.06901063 0.035076916 0.011809796
-0.04796517 0.057895638 0.013073125 -0.023594204 0.01770695 -0.032335885 -0.019665927 -0.0051137526
0.042364333 -0.046975162 0.0138865225 0.018673562 0.048586987 0.020364244 0.013483305 -0.03125072
0.029395502 -0.024943886 -0.06711331 -0.046916742 0.04704754 -0.004558494 -0.07364441 0.04659909
0.052854933 0.065295964 -0.08310362 0.017804068 0.04115055 -0.020028986 0.010076854 -0.033319972
-0.019594196 0.053484775 0.044810526 -0.043246236 -0.054182578 -0.018666873 -0.052654747 -0.046980817
0.0117143085 -0.0734536 -0.0016941204 0.07830262 -0.07957527 0.06259004 0.0079036085 0.022022901
0.009559734 0.009313089 0.023636937 0.020358533 -0.003069443 -0.07213348 0.015137475 0.026133478
0.04769636 0.038291443 0.041680492 0.04030131 0.0743165 0.0837126 0.014390306 0.013530315

bias f4 [64]
00000000: 25bf 9e3d 78a6 54bc b741 ebbc d9ab 673d
00000010: 4adf 49bb 94f4 9bbc 2b2c b33b 9952 523d
00000020: 1ef0 2bbd 12c9 d9bc ccef 813d ef97 77bd
00000030: b8e5 5f3d 9dec 9c3c 0215 2d3d ac96 2fbd
00000040: 2c51 e63c b714 adbb 7f6d 9b3d ae09 3e3c
00000050: de77 003d 03ca 213c 53a2 89bc 54ae 393d
00000060: 95cd 29bd 9e56 933d a617 17bc 8f00 55bd
00000070: 99e3 29bd 95ae 74bd b0aa 02bb 3063 1c3d
00000080: 1d0a 063c a16d 203d f414 463d 4dfb 25bd
00000090: 0bbb d93c a0f5 c33c e6d9 613d 8513 993d
000000a0: cb4a e9bc cb45 903d 3efc 1ebd 00be 903d
000000b0: 31cf 6bbd 17db 9bbd c361 8ebd b8f0 7dbb
000000c0: 044f c23b 03ca 7fbc 2287 39bd 0c4b 4f3c
000000d0: da55 96bd d011 a13d 5270 45bd 1074 3fbd
000000e0: 9948 1ebd d976 4ebd 20e0 b2bc 1efc 93bd
000000f0: ce04 303d 89bc 3d3c c668 9e3c a9bd b8bd
0.07751302 -0.012979142 -0.028717859 0.05656037 -0.0030803257 -0.019037522 0.0054679117 0.051348303
-0.04197704 -0.026585136 0.06344566 -0.06044763 0.054662436 0.019155795 0.042256363 -0.0428683
0.028114878 -0.0052820104 0.07589244 0.0115989875 0.031364314 0.0098748235 -0.016801035 0.045332268
-0.041455824 0.07194255 -0.009221947 -0.052002486 -0.04147682 -0.059736807 -0.0019938163 0.03818053
0.008181122 0.03916705 0.048359826 -0.040522862 0.026578447 0.023920834 0.055139445 0.07474426
-0.028478047 0.07044562 -0.038814776 0.070674896 -0.05757064 -0.076101474 -0.0695224 -0.0038748216
0.0059298296 -0.015612128 -0.04529489 0.01265217 -0.07340594 0.078647256 -0.04820282 -0.046741545
-0.038643453 -0.05040631 -0.021835387 -0.07225822 0.042973332 0.011580595 0.01933707 -0.0902055

weight f4 [64, 16, 3, 3]
00000000: 9f59 143d fd79 863d d7ac 2c3d dba8 083c
00000010: 1378 593d f85d 99bd 694c 5bbd d425 e63a
00000020: b588 59bc 0ad9 69bd de84 05bd db30 02bd
00000030: e86b 8d3d fc20 3dbc 1ba0 03bd 8a60 04bd
00000040: 08db 93bd c5bf 083d 1366 74bd 0f0f b33d
00000050: 86c0 8abc 924e bd3b e70f a4bc 0a5e 88bd
00000060: 7a6c 833c dab6 49bd 78b9 66bd bc0c 7c3b
00000070: 8abf 84bd d460 4ebd 5aaa f93c 4c3c 283d
00000080: 76b7 22bc 4b77 3a3d 6707 783d 256f 5fbd
00000090: 62b3 2d3d 0d6b 8939 c215 7bbc 6766 333d
000000a0: 507e a03d 9d2e 2dbc ce9b a2bc 8989 1dbc
000000b0: 3fbc 343d 5711 253d c156 a2bd f2f8 8fbc
000000c0: 73e7 ff3c 07a0 46bc 0d19 4dbd ebea 663d
000000d0: c4c6 a6bc e241 05bd 4253 3fbc 177b 9e3d
000000e0: 3e30 823c 2328 71bd 9007 9a3d a1ee 373d
000000f0: 6a51 d73c 6650 803c fd63 0b3d c140 9abd
00000100: e0b7 713b 9849 4cbd ace8 453d 454c 53bd
00000110: ae63 583d 69e7 8e3d 6d82 7e3d d1e2 d83b
00000120: 638a 423c 3256 af3c 7d83 5839 8cce d63c
00000130: 73c0 48bc 60c7 96bd 4449 22bd 9295 203c
00000140: 554b 443d 7d24 83bd 3ed2 583d 3512 88bd
00000150: 1aa8 623d a2a3 bfbd 2be0 18bd e772 7fbd
00000160: 2965 bbbd cf3d 39bd 59df 77bd ced3 d8bc
00000170: d96a 703d 6031 823d 6176 243c 8266 91bd
00000180: 4dc0 35bd 7cfe 8abd 9868 8b3d fe84 ecbc
00000190: e168 22bd 2b44 59bd 1d1f 6bbb f006 d23b
000001a0: 7143 94bd c41b af3b 92ce 803d 81dd 4cbd
000001b0: 1cd4 363d 9536 ddbd 6a5f bfbd a4f6 97bd
000001c0: 0f12 f6bc ca18 7f3c a2d8 2ebc ab75 f6bc
000001d0: e961 9abc 9e7d a43b ec44 443d 0389 873d
000001e0: ac97 3fbd 97bb 9cbd a98a aa3b 48b7 493d
000001f0: ef47 0c3d 347c 563c 56ac e6ba b719 403d
00000200: 2e9e 063d 00d8 873d 6be0 73bd a1aa 3abd
00000210: fdfb a7bc e261 b4bc a81e f8bc 0799 a43d
00000220: bb12 9c3c 758c fdbc e8f9 50bd 38ba c4bc
00000230: f4b5 ae3b 7648 c23b d4a5 1e3d f778 933d
00000240: a44f 37bd 9f2a 8f3d 4e4d 9dbd a64a 293d
00000250: 09ad 283d c1c4 5ebd 210c fa3c 722d 14bd
00000260: 6fd6 7e3c 451d 1bbd 2aa1 04bd 3187 8c3d
00000270: 588e 673d 8410 85bd 35f4 94bd c7d6 38bd
00000280: aa8f 96bd 5285 49bd 76ef 8bbd e040 d93c
00000290: d9ef 3b3c 42f5 67bd 8eee b33d 0820 eabc
000002a0: c4ce 75bd cef0 953b a580 99bd cb97 f13c
000002b0: 0934 e8bc 7846 26bd 8c65 90bd 2f26 0dbc
000002c0: 24be c3bd 6325 983d c52e 0f3b 088f 36bd
000002d0: 1c90 033d 01a2 453d e2dd 1a3b 92d8 a73d
000002e0: e5bd a53d 038c 13bd e4d8 923d 749c ccbb
000002f0: 7801 0ebd 8913 a2bd 69c4 033d 3f29 993d
00000300: 34e6 a9bd 9619 593d 7276 04bd 6c10 9dbc
00000310: 427b 98bd 0676 aebb c6bf 773d d22e 463c
00000320: dc43 99bd 59ef 9bbd b2dc c53d 4576 a33d
00000330: 6cd6 c93c 3438 56bd 09a1 173d 0abb 9cbd
00000340: 0533 41bd 752e 693d 20b5 8ebd 91bb 44bc
00000350: d448 83bc c29a 6ebd 7c87 52bd f84d 913c
00000360: 4d36 8a3d f9f9 cb3c 5bb9 b4bd 34da 75bc
00000370: 64e4 0dbb 1c6f c9bd 4b80 1dbd d76a 37bc
00000380: 284c afbc 9080 393d 3b5b 143d 7d9f 9e3c
00000390: 87d0 c13c c2dd 06bd d03e f2bc 8e50 833d
000003a0: 3056 4d3d 4db3 80bb 771a 95bd 673c 58bc
000003b0: 5f3f 823d 2033 8e3b f3b2 a93d 466e 4bbd
000003c0: 3045 4c3d a1ff 8fbd 7b91 953d e16e 4cbd
000003d0: da73 8fbc e37a e4bc 5423 8dbd 87ef 90bd
000003e0: b9d3 79bc 3c1e ee3c 5b4e 143d f470 02bd
000003f0: e85a 04bd b695 433d 0693 afbd f6e1 e1bc
0.03621828 0.06566236 0.04215702 0.0083410395 0.053093027 -0.07488626 -0.053539667 0.0017558881
-0.013277222 -0.05709175 -0.032597415 -0.031784873 0.06905347 -0.011543509 -0.03213511 -0.03231863
-0.07219511 0.03338601 -0.059667658 0.087431066 -0.016937505 0.0057771886 -0.020027114 -0.066585615
0.016042937 -0.049246646 -0.05632922 0.0038459739 -0.06481846 -0.05038531 0.030476738 0.04107313
-0.009931436 0.045523923 0.060553934 -0.054549355 0.0424074 0.00026210435 -0.015325012 0.04379883
0.07836592 -0.0105701955 -0.019849684 -0.0096153105 0.044124838 0.04029974 -0.07926703 -0.017574761
0.031238293 -0.012123114 -0.05007272 0.05637638 -0.02035845 -0.032533534 -0.011677565 0.07738321
0.015892144 -0.058876168 0.07520974 0.04490531 0.026283938 0.015663337 0.034030903 -0.07531882
0.003688328 -0.049874872 0.048317596 -0.05158641 0.052829437 0.06977732 0.062136102 0.0066188355
0.011873814 0.021403406 0.00020648348 0.026221536 -0.012252915 -0.073622465 -0.039620653 0.009801285
0.047923405 -0.06403444 0.052934878 -0.06644098 0.055336095 -0.09357382 -0.03732316 -0.06236544
-0.09150154 -0.04522496 -0.060515735 -0.026468184 0.058695648 0.06357074 0.010037989 -0.0709963
-0.044372845 -0.0678682 0.06807059 -0.02887201 -0.0396508 -0.053043526 -0.00358767 0.0064095184
-0.07239426 0.005343886 0.062894 -0.05001593 0.044635877 -0.10801426 -0.09344371 -0.0742009
-0.030037908 0.015569875 -0.0106717665 -0.030085405 -0.018845515 0.0050198575 0.04791729 0.0661793
-0.046775505 -0.076529674 0.005204518 0.049247056 0.03424829 0.013091136 -0.0017598968 0.046899524
0.032865696 0.066329956 -0.059540194 -0.04557288 -0.0205059 -0.02201933 -0.030288056 0.08037
0.0190519 -0.030950764 -0.05101958 -0.024014577 0.005331749 0.005929048 0.038732365 0.072008066
-0.044753686 0.06990551 -0.0768076 0.041330956 0.041180644 -0.054386858 0.030523362 -0.036176153
0.015554055 -0.03786971 -0.03238026 0.06861723 0.056532234 -0.06497291 -0.07273141 -0.045126703
-0.073516205 -0.04919941 -0.06832783 0.026520193 0.011470758 -0.05663038 0.08785735 -0.028579727
-0.06001164 0.0045758253 -0.0749524 0.029491326 -0.028345125 -0.040594548 -0.070506185 -0.008615061
-0.09557751 0.07429006 0.0021847945 -0.04457 0.032119855 0.048250202 0.0023630788 0.081956044
0.0809286 -0.036022197 0.07170275 -0.0062442366 -0.03466937 -0.07913882 0.032169733 0.0747857
-0.08295861 0.053002916 -0.03233952 -0.01917287 -0.074453846 -0.005324128 0.060485624 0.012096124
-0.07483646 -0.07614011 0.09661235 0.079815425 0.024638377 -0.052299693 0.03701881 -0.07652862
-0.047167797 0.05692907 -0.069681406 -0.01200761 -0.016025938 -0.058253057 -0.05139874 0.017737374
0.06748638 0.02489947 -0.08824416 -0.015005637 -0.0021651024 -0.098356456 -0.038452428 -0.011194906
-0.021398619 0.045288622 0.036219817 0.01936316 0.023659004 -0.03292633 -0.029570967 0.06411849
0.050131023 -0.0039276243 -0.072804384 -0.013197995 0.06359743 0.0043395907 0.08286085 -0.04966571
0.04987067 -0.07031179 0.07303139 -0.04991043 -0.017511297 -0.027890628 -0.06891504 -0.07076936
-0.0152482325 0.029067151 0.036207538 -0.031846 -0.032313257 0.047750197 -0.08572964 -0.027573567

bias f4 [64]
00000000: 8c30 9cbc 8171 9b3d cd59 b3bd d03e 77bd
00000010: 5126 a3bc 7496 493d 9fa8 08bd b1e6 49bd
00000020: 7e36 003d 23b1 5cbd 3dd9 a83a 262e 343c
00000030: 3139 6cbd d1b9 823d 951e 933d df84 133d
00000040: ac93 213d 58f0 07bd c431 e7bc 7c82 c83c
00000050: 338d 4ebc 11f3 e83c ac27 0cbc c453 f33c
00000060: 3e15 75bd 35a5 3a3d ef87 7c3d 1fb1 51bd
00000070: 3467 8bbd 1369 213d b2d4 04bd 17a5 003d
00000080: c33f 943d 32ca bbbd febf fbbb 89c5 bebd
00000090: ddec be3b f473 d4bc 9f69 b23c 0396 80bd
000000a0: cd67 0ebc 2587 aabd 83a1 05bd 7ede 493d
000000b0: b2ea 153d b162 8b3d f76d 033c fa0d 87bd
000000c0: 27ac 94bd 07ba 14bd 2a54 9abd 4bd8 05bd
000000d0: 2e82 7d3d 7abd 9c3d 0dbe a1bc af07 39bd
000000e0: 2d37 30bd f3ed c83c d1d0 a9bd 3e76 213d
000000f0: 1b8f d5bc 33ec 1a3c 7fd5 69bc 6194 43bd
-0.019066118 0.075900085 -0.087573625 -0.060362637 -0.019915732 0.04921575 -0.033363935 -0.04929227
0.031301968 -0.05387987 0.0012882125 0.010997331 -0.05767173 0.06383098 0.071835674 0.036015388
0.03944747 -0.033188194 -0.028221972 0.024476282 -0.012606907 0.028436216 -0.00855438 0.029703029
-0.05983471 0.04556771 0.061653074 -0.051194306 -0.06806794 0.039406847 -0.032429405 0.031407442
0.07238724 -0.09169425 -0.0076827994 -0.093150206 0.005826576 -0.025934197 0.02177888 -0.062786125
-0.00869174 -0.08326558 -0.032624733 0.04928445 0.036600776 0.06805933 0.008021823 -0.06594463
-0.07259398 -0.036310222 -0.07535584 -0.032676976 0.061891727 0.07653327 -0.019743944 -0.045173343
-0.04302137 0.024527526 -0.08291782 0.039419405 -0.026069215 0.009455728 -0.014272093 -0.047748927
