working/model_pretrained/net_F16B2_epoch_6.pth (torch_old, 135256 bytes, 16 tensors)

weight f4 [16, 3, 3, 3]
00000000: e03a 183e 440a 08be cb69 22be 7ce4 10be
00000010: 1d21 1a3e b48f 013e 1f5f 12be a9e9 2b3e
00000020: cd04 abbd 0107 2dbe 2297 8bbd 7c35 b0bc
00000030: e00b 00be b12a ce3d dc25 263e 6499 c03d
00000040: 2f01 16be 416c 1e3e af15 973c ed96 d03d
00000050: efdd 333e fc68 20bd 1a07 c8bd d772 893d
00000060: ed64 c7bd 0646 27be 7abb ae3d d14d e23d
00000070: cf3d 743d 479a 1ebe 40f1 14bd 2568 81bd
00000080: ee99 bdbd f353 ffbc ad91 133e b449 22be
00000090: f37b 3839 04fa c13d 4bd0 3a3d fc37 353e
000000a0: c7ae 4f3c 404a 18be c625 00be bcbf 52bc
000000b0: fa4c 0f3c a663 0a3d e452 fabc af19 a6bd
000000c0: 1bae 11be 6856 653d 5601 2e3b 9c63 e0bd
000000d0: 25f7 0fbe 6c92 6cbd d1a8 e5bb 35ae 423e
000000e0: ecd0 373e dd11 01bd 7ff1 f83d 8eb1 3d3e
000000f0: 1c89 743c cb77 2dbe 5947 1c3e e85d 3ebd
00000100: 85e2 2bbe c322 bebc 34d0 aa3d d8e3 2ebd
00000110: baf7 3a3c c15e a3bd 84ce 0ebe 17d5 0fbe
00000120: f411 b93d 4a6e 253e c781 95b9 1f06 c6bd
00000130: fc5e 9abd 95e5 683c a084 c8bd 4c73 0fbe
00000140: 3728 13be 0d37 26be c695 c6bd edb4 103e
00000150: 71d4 c73d a45d ccbc b46d 13bc aa2d d1bc
00000160: fa65 dabd bae3 dcbc 9711 89bc c319 bfbd
00000170: 3115 60bd 6e7d e0bd 8a88 9e3c b80b b2bd
00000180: 8b71 b6bd b662 503d 7a2d 31bb 9297 0e3d
00000190: 5288 0c3e 6eb7 1abe a2db c6bd bf19 2f3e
000001a0: 77e7 fa3d 78a4 29be 443c e23d 3fd5 9a3b
000001b0: bee8 5cbd 8c55 1cbe 76f7 a63d 52d8 f1bd
000001c0: 3d84 cc3d 3b5f d6bd dd11 1cbe 36e1 883d
000001d0: c65b 05bc 8430 893d 3f06 74bd a2bc 023c
000001e0: 0056 f2bc b630 8e3d 3423 04bd 5615 77bd
000001f0: 3246 d73d 950b 05be 50e0 423e 6149 a73d
00000200: e564 393e 2d12 b3bd 63ab c33d c839 c8ba
00000210: b4a8 ef3d d173 a4bd 99c1 203d 3b94 babd
00000220: f977 ff3d 528c 39bd 57ea 04be b58d 133e
00000230: 0538 26be cecf a93d 483e 453c fc95 09bd
00000240: 137c 4e3e a369 263e dfa4 fd3d d90a 27be
00000250: f19a 383e 263d 43bb 8af8 45bd 5cc0 7f3d
00000260: 10df 1abb 0a96 c3bd 31f7 893c 707e 2abc
00000270: e89b 1cbe fded 3cbe e497 e53d 5d2b e13d
00000280: 5093 89bd 5878 cd3d 5257 1d3d 3bf6 a0bc
00000290: a49b 773c 6504 2a3e 4b82 0cbe d3aa 2a3e
000002a0: 8d29 173e 7059 37be e84a 3abe 9f85 2cbe
000002b0: d236 913c 5c9e b43c 082c 28be bd07 48be
000002c0: 846c fbbd f4ea 8abd 772b f6bd 37fc 373e
000002d0: dbbd d63d fc27 0e3e 4ae1 e23d daf2 70bd
000002e0: 1b2d 053e 9710 143e a512 25bd 8503 c2bd
000002f0: 83bd 19bd 77fd 75bb 31ba 1ebe 2bfe acbd
00000300: 82c9 2b3e f9ac b03d 32bf f9bd 77fc c5bd
00000310: eea7 e6bc fc63 aa3c 930d 223e 2501 473d
00000320: 143b 253e 3a3a 1e3e 9d5c be3d 52c6 393d
00000330: 5358 103d 3e1b df3d fa7b 9f3b 32d9 c4bd
00000340: 1067 083e 1861 b53d 394f 87bd cd52 00be
00000350: 4e72 1e3d 523b cb3d ea1a 303e 09ad 1dbd
00000360: 0e7f 34be fe20 c13d a0ba 113d 4254 1fbe
00000370: 0359 1dbe b9b7 1f3e 53f2 0e3e 489e bcbd
00000380: 56f7 c0bd 2e0d 213e ebfa 11bc d1db 353e
00000390: d44b c8bc ab9a 4ebd 71da 25be 566f 093e
000003a0: 0644 b33d 42af 93bd 452d ccbb 6576 64bd
000003b0: 65c1 2c3e 3298 38bc a067 2a3e 1b2b 24bd
000003c0: 9a2a 283d 0496 963d 3b8a 1b3a a38e d1bd
000003d0: 4ed8 69bd 2198 a13b 1ca8 a3bd e0cb 343c
000003e0: 1e37 2c3e 653c 0ebe c346 9ebc bafc 01bd
000003f0: 7205 a23d 9789 2ebe 5fa3 8e3d 7d84 efbc
0.14866209 -0.13285166 -0.1586067 -0.1414966 0.15051694 0.12652475 -0.14294098 0.16788353
-0.08350525 -0.16897203 -0.06815936 -0.021509878 -0.1250453 0.100667365 0.1622538 0.09404257
-0.14648889 0.15470983 0.018442957 0.10185037 0.1756513 -0.03916262 -0.097669795 0.06711357
-0.09736047 -0.16335306 0.08531852 0.110499986 0.059629258 -0.1548854 -0.036362886 -0.06318692
-0.092578754 -0.03116796 0.1441104 -0.15848428 0.00017593782 0.09471515 0.0456088 0.17697138
0.0126759475 -0.14872074 -0.1251441 -0.012863096 0.00874638 0.03378644 -0.030557103 -0.081103675
-0.14226572 0.055990607 0.002655109 -0.10956499 -0.14059122 -0.057756826 -0.00700865 0.19011767
0.17950791 -0.031511176 0.12155437 0.18524763 0.014925268 -0.16940229 0.15261592 -0.046476275
-0.16785629 -0.023209935 0.08340493 -0.042697757 0.011411602 -0.07977057 -0.13945967 -0.14046131
0.090366274 0.16155353 -0.00028516186 -0.09669136 -0.07537648 0.014214893 -0.09790921 -0.14008826
-0.1437081 -0.16231938 -0.09696536 0.14131518 0.09757317 -0.024946995 -0.008998323 -0.02553447
-0.10663982 -0.026964057 -0.01673202 -0.093310855 -0.05470771 -0.10961424 0.019352216 -0.086936414
-0.08908375 0.050875388 -0.0027035163 0.034812517 0.13723877 -0.15109035 -0.097098604 0.17099665
0.1225118 -0.16566646 0.11046651 0.004725128 -0.053932898 -0.15267009 0.08152668 -0.11808838
0.0998616 -0.104673825 -0.1524119 0.066835806 -0.008139556 0.06698707 -0.05957627 0.007979544
-0.029582024 0.069428846 -0.032260135 -0.060323082 0.105114356 -0.129927 0.19030881 0.08168293
0.18104894 -0.08743701 0.09554174 -0.0015276009 0.117020994 -0.08029903 0.03924713 -0.09110304
0.12474055 -0.045299836 -0.12980019 0.14409526 -0.16232307 0.08291589 0.012038775 -0.033590302
0.20164518 0.16251235 0.12384962 -0.16312732 0.18027855 -0.0029791086 -0.04833273 0.062439308
-0.002363149 -0.09550102 0.016841503 -0.010406122 -0.15293849 -0.1845016 0.112106115 0.10994599
-0.06717551 0.100327194 0.038413353 -0.019648662 0.015112791 0.16603239 -0.13721578 0.16666727
0.14761944 -0.17905211 -0.18192637 -0.16847847 0.017726336 0.022048168 -0.16423047 -0.19534202
-0.12276557 -0.06783095 -0.12020009 0.17967306 0.10485431 0.1388244 0.11078127 -0.05882535
0.13005488 0.14459454 -0.040300984 -0.094733275 -0.037534248 -0.003753511 -0.15500714 -0.08446916
0.16776088 0.08626742 -0.12194671 -0.096672945 -0.028156247 0.02079963 0.1582549 0.048585076
0.16135818 0.15451899 0.09295008 0.04535515 0.035240483 0.10893868 0.004867074 -0.09611739
0.13320565 0.0885641 -0.066069074 -0.12531586 0.03868323 0.09923424 0.17197767 -0.038495097
-0.17626593 0.09430121 0.03557837 -0.15559486 -0.15365987 0.15597428 0.13959627 -0.09209877
-0.094221756 0.15727684 -0.008909921 0.17759635 -0.02445022 -0.05044047 -0.1619661 0.13421378
0.08753209 -0.07211162 -0.0062309825 -0.055776972 0.16870649 -0.011266755 0.16641092 -0.04008017
0.041056253 0.07352832 0.00059333787 -0.10232284 -0.05709105 0.0049314653 -0.07991049 0.011034936
0.168179 -0.13890226 -0.019320851 -0.03173516 0.07911195 -0.17044674 0.06964754 -0.02923798

bias f4 [16]
00000000: 50eb a83d 4ffc fe3d 27fa 1c3e ede1 903d
00000010: c880 d6bd 63fb 343d f710 453e d5b5 183e
00000020: 50d4 343d 74ff d03d 9e1e 0b3e 96a6 243e
00000030: fcbf a13d 058b 01bd 3c28 73bc 2364 d8bd
0.08248007 0.12450468 0.153298 0.07074342 -0.10473782 0.044185054 0.19244753 0.14913113
0.04414779 0.10204974 0.13585898 0.16079172 0.07897946 -0.03162672 -0.014841136 -0.105659746

weight f4 [16, 16, 3, 3]
00000000: 7705 003c dfb1 d73b 69fd 65bd dfb1 56bc
00000010: b27b fd3d 5cde b0bd c5e1 b33d 7da2 85bd
00000020: 313f 573d d204 a3bc ab3d 963d 3240 35bd
00000030: 9d30 493b 3249 75bc 79e4 67bd 1221 5b3c
00000040: 9834 343d 863b 1e3d 01fe ad3c 4dcf 303d
00000050: f6a4 65bc 7705 a2bd 548c eebb fd1b dcbd
00000060: 7085 7fbd 3232 59bd 8ce8 103d a9de 5fbd
00000070: a976 873c 1d08 e2bb 1645 29bd 0ded 993d
00000080: 90ef a23d c8a3 d8ba f307 893d b7d5 fa3c
00000090: 5625 533d 71b3 ffbc 9705 f73c 67f5 31bd
000000a0: b938 f43d ce3b 1abd 1ea1 f03c ac12 7ebd
000000b0: 6aac cebc dc93 8d3d 6699 7abd ed89 d13d
000000c0: 613a 30bd 528e b53c 8db4 74bd 942a b9bc
000000d0: 90af a1bd d605 aa3d 23a6 4c3c 9f5e 3fbd
000000e0: 426e 2e3d d31d cabd 8fe3 2fbd ec25 1bbd
000000f0: 533d fbbb d572 193c c563 6cbd ad6d 80bd
00000100: 9350 51bd 7517 89bd 0482 2a3c 9114 b7bc
00000110: 4807 c2bc fa6b aa3d 56d3 e33c 0da8 70bd
00000120: e5b1 47bd 1ab2 0c3d c0fc e2bb ffcf 833d
00000130: 250e 53bc 52a1 083d 81bb 36bd 1634 2f3c
00000140: 58c7 9cbc 4e9e f03c 2935 bcbb 1543 903d
00000150: 2898 e13d 8c89 f7bc ec43 f03d 952d a63c
00000160: 7dbc 10bd cdd9 063d 16f7 83bd 2415 aab8
00000170: a30a 893c 3332 4d3d 5737 c2bc 97df c43c
00000180: 1997 b3bb c60c 8e3b a1f7 933d b92d b2bc
00000190: 4799 383d d786 abbd 00ea 9bbc 98a1 4f3c
000001a0: 4e6f 36bd 57b2 a9bd 32c5 ad3d e79b 8b3d
000001b0: 8df9 f93c dad0 12bd 7337 0cbd 19fe b43b
000001c0: 2d04 48bd 3721 68bd 56d9 fe3c cdba 9bbd
000001d0: 7fca 6dbd eb3c b6bc 06d0 7c3d f149 6d3d
000001e0: 382d 993c 726c 7d3d 247c c83d 9d55 193d
000001f0: eea0 5fbd 0bac 0cbd 048e 17bc bbba 4ebd
00000200: 0586 2c3d ff83 b23c 9afc e4bd beac 4ebc
00000210: eee2 7abd 595f 48bd 2dd1 9f3d 268c 193d
00000220: 7deb ccbc 0b3f 653c e939 7fbc 3609 9abd
00000230: 6eee 9dbd 7d6e a1bb dcd7 073d 7b8c 6dbd
00000240: e3a5 a9bd 9acc 86bd aaad 37bd f0c2 65bd
00000250: 3471 5a3d c156 47bd 6c0d cb3d 77b7 803c
00000260: 6a95 46bb f292 493d 9319 69bd 8458 50bd
00000270: 4e12 4f3d 9961 a3bd 050b 40bc 86ed c2bb
00000280: dde9 803b 7bc3 bebb 26b7 6bbc 0cfc 343b
00000290: a5a8 3ebd 0028 b6bd d699 14bd 765c a03c
000002a0: ad03 2b3d 8bb3 83bd 6a1f 92bd 78f7 14bd
000002b0: f8dd 323d 9d18 ca3c 0cf0 3f3d ee4c 9e3c
000002c0: 4ccf 5d3d f19d 573c 2c76 a8bd b13e 09bd
000002d0: de10 81bd e2ea eabd b4ad 10bc a8fb 973c
000002e0: ae3f ad3d 5309 92bd 87ae 4b3d 3686 203d
000002f0: 5f90 843c 0145 d63b a500 f4bb a159 313d
00000300: b2c3 d4bc be1b 0e3d b118 69bd 69e9 7ebd
00000310: 5521 753d c1b1 a03d fd08 84bd 51b8 afbd
00000320: 1c30 6a3c 3e00 323d 8208 9d3d e9b0 2bbc
00000330: 476c b03c e1e2 1dbd 5706 903d 22bb 8dbd
00000340: fefc 8c3d 94b3 c73b 8a8a a9b9 10cb 08bd
00000350: f607 c93c 1c72 dc3c a687 02bd fbfe 31bd
00000360: 2a2b 6dbd d1c8 03bd 0ad8 bdbc 9016 bc3d
00000370: a39a 193d 4177 66bc 61fa 9bbc e2d0 6abb
00000380: bc54 5fbd b139 c8bc 606a b4bc 1057 7bbd
00000390: 1704 243b 0074 9e3c a9e9 d83d debd 973d
000003a0: 0aae 24bc bafa 103b 55ff 01bd 3c57 943d
000003b0: d94d 95bd a427 403d 06c0 683d 64cd 80bd
000003c0: f6d7 ba3c f0d3 28bd 7471 8abc 06d5 c3bc
000003d0: 806e 923d 4db2 503d 195c fb3c 5620 55bd
000003e0: d8c6 a83d 3811 8fbc 6fe2 483c ed76 8b3c
000003f0: cb00 25bd db05 a3bd 0854 0dbd 9612 a3bd
0.007813803 0.006582483 -0.056149874 -0.013103931 0.12377109 -0.08636162 0.087832965 -0.06525133
0.0525505 -0.01989976 0.07335981 -0.044250675 0.0030699142 -0.014971064 -0.056614373 0.013374584
0.04399547 0.038630985 0.021239283 0.043166447 -0.0140163805 -0.079111986 -0.007279912 -0.10747526
-0.062383115 -0.053026386 0.035378024 -0.054655705 0.016536074 -0.00689794 -0.04132565 0.07515917
0.07955849 -0.0016528303 0.06690969 0.030619485 0.05154928 -0.031213494 0.030154033 -0.043446925
0.119248815 -0.03765469 0.029373702 -0.062029526 -0.025228698 0.069129676 -0.06118145 0.102313854
-0.043024424 0.02216259 -0.0597425 -0.02260331 -0.07894814 0.08301894 0.012490782 -0.046721097
0.04258562 -0.0986897 -0.042941626 -0.037877962 -0.0076672225 0.009365757 -0.057712335 -0.06270919
-0.051102232 -0.06693927 0.010406975 -0.022348674 -0.023685113 0.08321376 0.027810734 -0.058754016
-0.048753638 0.03434954 -0.006927103 0.064361565 -0.01288179 0.033356972 -0.04461241 0.010693571
-0.019138023 0.02937236 -0.005743642 0.07044045 0.110153496 -0.030216955 0.11731705 0.020285407
-0.035336006 0.032922555 -0.06443612 -8.1101694e-05 0.016728705 0.0500967 -0.023708029 0.024032397
-0.0054806587 0.004335019 0.07224966 -0.021750318 0.04506805 -0.08375328 -0.019032478 0.012672804
-0.044539742 -0.08285969 0.08484878 0.068168454 0.030514503 -0.035843708 -0.034232568 0.005523455
-0.048832107 -0.0566723 0.031109493 -0.07603989 -0.058054443 -0.022245845 0.061721824 0.057931844
0.01869832 0.061871 0.09789303 0.037435163 -0.054596834 -0.03434376 -0.009250168 -0.05047105
0.04212 0.021791456 -0.111809924 -0.012614427 -0.061251573 -0.048919056 0.07803569 0.03748717
-0.025014633 0.013992081 -0.015577772 -0.07521288 -0.077114925 -0.0049265013 0.033164844 -0.0579953
-0.082835935 -0.065819934 -0.044843353 -0.05609411 0.053330615 -0.04866672 0.099146694 0.015712483
-0.003030146 0.049212404 -0.056909155 -0.050865665 0.050554566 -0.079776 -0.011721377 -0.005948725
0.0039341287 -0.005821643 -0.014386928 0.0027616052 -0.04654755 -0.08894348 -0.036279522 0.019575339
0.041751552 -0.064307295 -0.07134898 -0.036368817 0.043668717 0.02466994 0.046859786 0.019323792
0.05415277 0.013160215 -0.082256645 -0.033507053 -0.06302045 -0.114705816 -0.008830477 0.018552616
0.084594116 -0.07130685 0.04972699 0.039190494 0.016182123 0.0065389876 -0.007446366 0.043298367
-0.025972221 0.034694426 -0.056908313 -0.062234316 0.05984624 0.07846404 -0.06447027 -0.085800774
0.014293697 0.043457262 0.07667638 -0.01047919 0.021536006 -0.038546447 0.07032459 -0.069204584
0.06884192 0.0060944054 -0.00032337412 -0.03339678 0.024539929 0.02690988 -0.031867646 -0.04345606
-0.057902493 -0.032173935 -0.023174305 0.09183991 0.03750099 -0.014066518 -0.019040288 -0.003583007
-0.05452417 -0.024441572 -0.02202338 -0.061362326 0.0025026852 0.019342422 0.10591442 0.07409261
-0.01005126 0.00221221 -0.031737644 0.07243201 -0.07290239 0.046912804 0.056823753 -0.06289175
0.022808056 -0.041217744 -0.016899802 -0.023905288 0.071499825 0.05095129 0.030683564 -0.05203279
0.082410514 -0.017464265 0.012261017 0.017024482 -0.04028396 -0.07960101 -0.034503967 -0.07962529

bias f4 [16]
00000000: d4ef 44bc f62a 00bd 2c33 873d a9c9 013e
00000010: 4d64 5a3d b534 643d 51b7 abbb bb56 2c3d
00000020: b86f 593d c5d7 933c dff5 233d 90b2 b9bc
00000030: 3b6d 773c b417 453c e8f1 3dbd a6de 483d
-0.01202007 -0.03129097 0.06601557 0.12674583 0.05331831 0.055714328 -0.005240359 0.0420749
0.05308506 0.018047223 0.040029403 -0.022668153 0.015101726 0.012029577 -0.046373278 0.04904046

weight f4 [16, 16, 3, 3]
00000000: 7675 0e3e d47d 79bc 30e3 1abd b58a bcbd
00000010: 3591 8f3d 57ed 163c 47fc 923d 4ebd ba3b
00000020: 6bc7 82bd 3485 a73c 56fc 9cbd 5a77 3dbd
00000030: af81 67bd 1370 993d ad80 8cbd 45ee aebc
00000040: d06a ccbd e659 73bd 1344 dcbd 438b 0e3c
00000050: 88e0 803d adf3 f6bb f0e6 fd3b f44a aa3c
00000060: 2515 63bd 56a2 f6bc 7ade 9e3d 9970 873a
00000070: 9672 e9bc 2dac 55bc 536a e23d 9269 833c
00000080: d2af f33c 4a42 613d e386 1c3e 6b1d 18bd
00000090: 4287 7bbd b13b b93c fbfd 4ebd db29 373c
000000a0: bfe8 f7bc 8ac6 3f3d 562b 9e3b 5d07 8bbc
000000b0: 7674 63bd d84e a5bc bd7d b9bd 00c1 18bc
000000c0: e4c0 e7bd be48 b73c 6ac9 2cbd 8637 5abd
000000d0: ab22 08bd 7bcd 50bd a638 06bd de8b 33bd
000000e0: 505f b3bd 73c4 963d 41ee 943d 97e5 543d
000000f0: ab98 6e3b 0e70 753d a447 8d3b bb8b 65bd
00000100: cc57 013d 2034 bbbc 0ec6 683d 1b9b cf3c
00000110: e1be 143c 356f ac3d 971c c5bd 0f56 f53b
00000120: 298e 973d d83d 953c 8082 7ebd 484f 193d
00000130: b0a3 4e3d f7b7 a0bd 7ea1 5a3c b550 6fbd
00000140: 599f a1bd feb8 1c3c fe5c a23c cf61 13bd
00000150: 8c31 b8bd 84b4 e0bd ccd2 003d cf3a 30bc
00000160: b141 8b3d 2d63 963d a9a4 d33c 46c1 3abd
00000170: d2f3 f43c 3e51 7cbd 6ce3 aebd 559e 973d
00000180: 624f 68bd 101d 1b3d de48 56bd d626 9d3c
00000190: b8a2 e63c af28 5cbc 9a6e 943d fab7 a53d
000001a0: 95ac abbd 26ec a23d 2cee 71bd c8a0 d6bc
000001b0: a7e3 da3a 09f9 473d 7f21 b1bd e66b f9bc
000001c0: b681 8ab8 5192 a2bd 0f0f 70bd aa10 b1bc
000001d0: 3cf5 4fbd 62d1 a6bd c418 603d 07c8 39bc
000001e0: c99b eb3a cf74 7ebd 9895 693d 68a6 023d
000001f0: f07d 76bd e64f c9bb 36df fd3c 8484 303d
00000200: e3e5 febb 8a5f 8cbb 01f7 583c 32fa 96bc
00000210: af9b 73bd 668d 4fbc ba16 863c 9479 43bd
00000220: a121 30bd dadf 25bd c78e ca3c 83a9 a73d
00000230: ea1a 91bd 2aec 803d dbd1 6c3d ef3f 50bd
00000240: 18f1 b03d 5e92 7e3d cb2e a53d dc0a 40bd
00000250: af4c 5cbd 4966 adbc 2221 353d 4541 633d
00000260: 07df 4e3d 9de4 ba3c 3b4f 16bd 4f7d c83c
00000270: 94a6 ae3d 7950 58bc 4003 83bd 4a5e 4bbb
00000280: c6de 73bd 727c 9c3d d610 48bc 7591 00be
00000290: b0f2 be3c 5c7e ba3c 88e2 f6bd 0511 83bc
000002a0: 1358 80bc c050 ebbd da44 b03c 4c1c f7bb
000002b0: 6fa6 00be 1016 93bd 41c0 893c 7483 c1bc
000002c0: b656 a13d a248 aebd 2ea2 53bd 2b40 16bd
000002d0: 9d37 c0bc 220a 233d 7773 63bd 2a25 a5bd
000002e0: b8b7 ec3c c5fe 0e3d 1848 80bd d3ce 703d
000002f0: 21e6 9c3d e4bd 113c 235b a23c edd9 8b3d
00000300: 3c93 043d 3502 bebd 7b1a 6b3c 48a3 90bd
00000310: 9608 823c b103 52bd c871 1f3c 8d64 bc3d
00000320: efe4 983d 7887 d13c 095f 253d fb42 0c3c
00000330: a66b 353c ba51 1abd ed3c d13c 7085 c53d
00000340: dfca 423c c74c 733b 7f28 c83a 17da 003d
00000350: bd9c 32bd 2731 353d 0b98 433d 5936 d6bc
00000360: 0756 cd3c 5256 7fbd 703f 873d df2a 3a3c
00000370: 700b 7b3d 0240 923d ca64 7abc d1ab 08bc
00000380: f7a9 573d e3a4 623d c447 483d 3389 a13d
00000390: 922b b4bc a73a fb3b ce7f 8fbd e567 1d3c
000003a0: bc75 1cbc 3f4b 1ebd 1220 39bc 8a48 08bd
000003b0: e652 88bd 7eff 353d a604 8fbd 9cbf 3d3b
000003c0: 5fdc 51bd 4818 033a 0bfd ee3b 5a3e 97bd
000003d0: d6e0 0f3d 8ed8 50bd 54fa 1abb c3f9 723d
000003e0: ab5f 843c aeea a83d d433 8a3d c58b 383d
000003f0: f0ca 8e3d 02b2 b4bd 71ed 803d 80d1 96bd
0.13911995 -0.015227754 -0.03781432 -0.09206144 0.07010118 0.00921186 0.07177024 0.0056988364
-0.06385692 0.020449258 -0.07665317 -0.0462564 -0.05652016 0.074920796 -0.068604805 -0.02135385
-0.0998131 -0.059411906 -0.107551716 0.008700195 0.06292826 -0.0075363726 0.007748477 0.020787694
-0.055440087 -0.030106705 0.07757278 0.0010333239 -0.028497022 -0.013041538 0.11055436 0.01604155
0.029746924 0.05499486 0.1528583 -0.03713743 -0.06140829 0.02261147 -0.050535183 0.011179413
-0.03026235 0.0468202 0.0048269434 -0.016971285 -0.055530988 -0.020179197 -0.09057186 -0.009323359
-0.11316088 0.022373553 -0.04218427 -0.053275608 -0.033236187 -0.05097721 -0.032768868 -0.04383456
-0.08758414 0.073616885 0.07272006 0.051976766 0.0036406915 0.059921317 0.0043115187 -0.05604146
0.03157787 -0.022852004 0.056829505 0.025342515 0.009078712 0.084196486 -0.09624594 0.0074870656
0.07400162 0.018217966 -0.062136173 0.037429124 0.050449073 -0.078475885 0.013344167 -0.058426578
-0.07891721 0.00956559 0.019819733 -0.03598195 -0.08993825 -0.109719306 0.03145103 -0.010756209
0.06799639 0.07343135 0.025835352 -0.045594476 0.029901419 -0.061600916 -0.08539471 0.07403246
-0.05671633 0.037869513 -0.052315585 0.019183557 0.028153762 -0.013437434 0.07247658 0.08091731
-0.08382527 0.07955198 -0.05906503 -0.026199713 0.0016699926 0.048821483 -0.08648967 -0.030446958
-6.604513e-05 -0.07938064 -0.05860811 -0.021614391 -0.050770983 -0.08145405 0.05471112 -0.011339194
0.0017975505 -0.062123116 0.05702743 0.03189698 -0.060178697 -0.006143558 0.030990224 0.043095127
-0.0077788695 -0.00428385 0.013242484 -0.01842985 -0.059474643 -0.012667989 0.016368259 -0.047723368
-0.04300082 -0.040496685 0.024726285 0.08186629 -0.070852116 0.06295045 0.05781732 -0.05084222
0.08639735 0.062151305 0.08065566 -0.046885356 -0.05378407 -0.021166937 0.04422105 0.055482168
0.050505664 0.02281409 -0.036696654 0.024473814 0.08527866 -0.01320278 -0.06397104 -0.0031031542
-0.059538625 0.076409236 -0.012211045 -0.12555487 0.023309082 0.022765331 -0.12054926 -0.015999326
-0.015666997 -0.11490011 0.021517206 -0.007541215 -0.1256349 -0.071819425 0.016815307 -0.023622252
0.07877867 -0.08509947 -0.05166834 -0.03668229 -0.023464018 0.039804585 -0.055530038 -0.08063729
0.028896198 0.034910936 -0.06263751 0.058790993 0.07661081 0.008895371 0.019818848 0.068286754
0.032366976 -0.09277765 0.014349575 -0.070623934 0.015873235 -0.05127305 0.009731717 0.09198866
0.074655406 0.025577292 0.040373836 0.008560891 0.011073029 -0.037675597 0.025541747 0.09644592
0.011889189 0.003712462 0.0015270858 0.031457987 -0.04360651 0.04423633 0.04775242 -0.026148962
0.025065435 -0.06233818 0.066038966 0.01136276 0.061290205 0.07141115 -0.015282819 -0.0083417455
0.052652325 0.05533303 0.048896566 0.07887497 -0.021993432 0.007666904 -0.07006799 0.00960729
-0.009549554 -0.03864598 -0.01129915 -0.033272304 -0.066564366 0.04443311 -0.069833085 0.002895332
-0.051235553 0.00050008716 0.0072933487 -0.073849395 0.03512653 -0.050987773 -0.0023647742 0.059320223
0.0161589 0.082478866 0.06748167 0.04505517 0.06972301 -0.08823015 0.06295288 -0.07364178

bias f4 [16]
00000000: 977b 4c3d 3be0 4d3d 782f d93c 87a5 913d
00000010: 4ac2 fbbc c5fe 95bb da8b d13b 258c acbd
00000020: e849 613c 6688 76bd 48dc b03d 691f 243d
00000030: 3d9a ce3c d8c1 9d3d 3035 893d abcb 4c3d
0.049922552 0.05026267 0.026511893 0.0711165 -0.030732293 -0.00457749 0.0063948454 -0.08425168
0.013750531 -0.060188673 0.08635765 0.040069018 0.02522003 0.077029884 0.06699598 0.04999892

weight f4 [16, 16, 3, 3]
00000000: 003d 76bc acc1 00bd 1cab 5dbd 2e69 b93d
00000010: e0b8 3fbd a3d8 85bd cfa9 833d add2 8b3c
00000020: 234e 23bd 6259 2f3d 748f 53bd 46e6 5e3c
00000030: b1fc 923d 0360 553d e926 083d 1f77 99bd
00000040: 9364 4f3b 620f b0ba 8717 263b 14e4 50bd
00000050: f5c9 1b3d 186c 523c 1749 99bc 0ed4 43bd
00000060: c25a e9bb d3f1 ed3c 261f 4fbd aefa 2b3d
00000070: 9766 483d b124 09bd 583e e63c 5475 c3ba
00000080: 5b7a 8f3d c3f3 a5bc f647 783d 5ecc f83c
00000090: f25e a6bb 3830 87bd 247a 803c 687a 0fbd
000000a0: 6895 8dbd be92 82bd f0c5 683d 7a26 d0ba
000000b0: 8607 48bd 300b c8bc 3328 34bd 18ae 0f3d
000000c0: 5791 39bd 64d4 4fbc 7c4a 80bc a5ee 9bbb
000000d0: 07e6 f1bb 0e3b 7a3d 5238 24bd 0eaa 883d
000000e0: 0278 203d b872 b43c d37f 26bd 7285 9e3d
000000f0: 31ed 553d 2234 323d 7be2 e6bc 33fb 82bd
00000100: 56ee 1e3d 2e75 4abc 5093 873d 5612 623b
00000110: f65c 26bd 104c ce3c 5b0d 863d a951 71bc
00000120: 230b 4a3d 5ff5 843d e7cd 963d 8d16 26bd
00000130: 0118 413d 63da 8f3b 78a6 d93c a052 9dbd
00000140: 5ee7 dbbc 1fc7 a63d e8d5 023d ee8b 563d
00000150: 528b e03c a1db 5ebd ace8 24bd 9474 643d
00000160: a70c 733d cc47 7bbd 6b53 47bd 32ef 36bc
00000170: f316 113b 47d0 7cbc e915 9fbd f34d 8bbd
00000180: a50c a3bd 6313 ccbc 16d6 92bd 6fa8 203d
00000190: 8a15 983d 3e8b 18bd 634b 473d 67fd 0bbc
000001a0: ebf6 f03c 8975 3b3d 3361 7ebd 8ce1 2cbd
000001b0: 11d3 ad3d 3701 903d 1df3 993d 1843 873d
000001c0: 1200 893d 0f3f ffbc cf23 cebb 226f 1c3d
000001d0: e233 673d 094f 343d 7895 743d f36f 893d
000001e0: cf33 8abd b1c8 06bd cd46 8d3d c1cd 943c
000001f0: 09fc 013d 7a5a a1bd 96e2 6e3d 671c 433d
00000200: b01e 863d 2158 a83c dce2 1d3d 4364 0bbd
00000210: 710b aabd 1632 88bd eebc 08bb b968 90bd
00000220: 2f79 82bc 31f5 3d3d 0d2e 26bb 86ef 863d
00000230: e9b4 85bc 524c 4b3d 7f32 17bd e009 02bd
00000240: 8e44 6ebc aa38 e2bc bd3e 8abc 6f60 85bd
00000250: e9a5 7c3d 4f4f 89bd e849 e5bc 7084 6cbd
00000260: be3a 7dbd 9561 2abd f3ce 2b3d 0741 123c
00000270: 0bd2 903d 5d85 693b ff9a 2e3d 7a93 aebd
00000280: 5440 6abd 7095 91bc 7e89 a7bc b5a6 71bd
00000290: cd80 eb3c c735 913c 48e7 16bc b161 cabc
000002a0: bed0 713b 529a 8bbd c9b0 ff3c a294 65bc
000002b0: fc21 1ebd a5f3 7a3d f8f7 87bd 8ba2 a7bd
000002c0: f2e9 d3bc 6a2b 6d3c c760 0bbd b7ce 953d
000002d0: 25f7 fabc a4d6 64bc 9484 9fbd 916c 27bd
000002e0: a82a 0ebd dcf6 e93c cbbc 45bd 3bf2 bb3c
000002f0: 8b35 993d f958 9fbc d595 75bd 4a17 f33c
00000300: 8516 efbc 1519 6e3d a937 1b3d 0acc 563d
00000310: 6ec6 d73b 8e4a 6b3d d9db 19bd 3ace 26bd
00000320: d930 d73c 8b39 1cbd 11bd 033d 6d2c 88bd
00000330: 12f8 9bba 7274 b1bc 2a19 833c 3a5a 733d
00000340: 8545 e23c ec03 623d 9221 563b 6b06 793d
00000350: eec0 12bd 94e6 3a3c a040 cc3c 2a34 8bbd
00000360: 868e 63bc c2fc 88bc 1dc2 943c c6a6 7bbc
00000370: 50ba 893d 851b 37bd 1727 7e3c a69b 1f3d
00000380: 8f4a 9dbd 57dc 8bbd 4979 b93d e6cd 843c
00000390: 2b3f 87bd 9122 41bd 9067 813d 69c4 333d
000003a0: f99f a5b9 ede9 32bd a8e8 5f3d 3f47 123d
000003b0: 2dc8 94bd 323c 0bbd 5674 63bc 5e17 3ebd
000003c0: eaa8 abbc eec5 c6bb 34ca aebd 1594 f6bc
000003d0: e57a 973d 3294 91bc cac7 a5bd a262 243d
000003e0: 7628 4b3c b318 9a3d 2173 753d cf87 af3b
000003f0: 14b1 a2bd cba1 4ebd cac6 8f3d 8987 5dbb
-0.015029192 -0.0314347 -0.05411826 0.090532646 -0.04680717 -0.06535461 0.06428873 0.017068231
-0.03986944 0.04280985 -0.05165048 0.013604706 0.07177103 0.052093517 0.033240233 -0.07493424
0.003164564 -0.0013432319 0.0025343613 -0.050998762 0.038034398 0.012843154 -0.01871161 -0.047809653
-0.007121415 0.029045975 -0.050566815 0.041987114 0.048925962 -0.033482257 0.0281059 -0.0014912286
0.07005759 -0.020257836 0.060615502 0.030370887 -0.0050772363 -0.06600994 0.015683241 -0.035028845
-0.069132626 -0.06375645 0.056829393 -0.0015880608 -0.0488353 -0.024419397 -0.04398365 0.035078138
-0.045304623 -0.012684915 -0.015660517 -0.0047586733 -0.0073821577 0.061091475 -0.040092774 0.0667306
0.03917695 0.022027358 -0.040649246 0.077402964 0.052228156 0.04350675 -0.028184166 -0.06395569
0.038801514 -0.012357039 0.066198945 0.0034495792 -0.040616 0.025182754 0.06545516 -0.014728942
0.049327027 0.06492113 0.073634915 -0.04054885 0.047142033 0.0043900474 0.026568636 -0.07681775
-0.026843723 0.08143448 0.03194228 0.05237954 0.027410183 -0.054408673 -0.040260956 0.05577524
0.059338238 -0.061347768 -0.048663538 -0.011165427 0.0022138923 -0.015430517 -0.07767851 -0.06801977
-0.07961396 -0.024911588 -0.0716974 0.03922313 0.07425983 -0.037242167 0.04865588 -0.008544303
0.029414615 0.045766387 -0.062104415 -0.042207286 0.08487523 0.07031482 0.07517073 0.06604594
0.066894665 -0.031157998 -0.00629089 0.038191922 0.056445964 0.044020686 0.059712857 0.06710806
-0.06748163 -0.032906238 0.0689827 0.018164517 0.0317345 -0.07878585 0.058321558 0.04763451
0.06548822 0.020549836 0.038546428 -0.034031164 -0.083029635 -0.06650178 -0.0020864564 -0.07051224
-0.015926925 0.04637641 -0.0025357038 0.06588654 -0.016321616 0.04963333 -0.03691339 -0.0317477
-0.014542712 -0.02761491 -0.01687562 -0.06512534 0.06168166 -0.0670458 -0.027989343 -0.05774349
-0.0618236 -0.041596968 0.04194541 0.008926637 0.070713125 0.003563247 0.042628285 -0.08524223
-0.057190254 -0.017771453 -0.020451304 -0.058996875 0.02874794 0.017725838 -0.009210415 -0.024704786
0.0036898102 -0.06816544 0.031212227 -0.014012488 -0.03860663 0.061267514 -0.06639093 -0.081852995
-0.02586839 0.014475683 -0.03402784 0.07314818 -0.030635426 -0.01396719 -0.07788959 -0.04087502
-0.03470865 0.028560095 -0.04827575 0.022942653 0.07480916 -0.019451605 -0.059957344 0.029674191
-0.029185543 0.05812939 0.03789488 0.05244068 0.006584934 0.057444148 -0.03756318 -0.040724017
0.02626841 -0.038140815 0.03216273 -0.066490985 -0.0011899492 -0.02166197 0.01600321 0.05941222
0.02762104 0.05517952 0.0032673818 0.060797136 -0.035828523 0.011407513 0.02493316 -0.06797059
-0.013888961 -0.016722087 0.018158967 -0.015359586 0.067249894 -0.04470398 0.015512249 0.038966797
-0.076802365 -0.06829136 0.090563364 0.016211461 -0.06603845 -0.047152106 0.06318581 0.043888483
-0.0003159044 -0.04368012 0.054665238 0.035712477 -0.07264743 -0.033992954 -0.013882717 -0.046409003
-0.020954568 -0.0060660755 -0.08534661 -0.030099908 0.07396487 -0.01777086 -0.08094747 0.040133126
0.012399783 0.07524242 0.05992425 0.005356766 -0.07943931 -0.050447267 0.07020338 -0.003380271

bias f4 [16]
00000000: 268c 9dbd c89e 92bd 6ae7 d8bc 96cf a3bd
00000010: 7caa 95bd b2d4 223d 29b3 063c 3616 393d
00000020: 37d9 2d3d 126a eebc 475f 353d 2c08 bfbc
00000030: f8b6 823c 4370 393c 0c83 963c 3857 813d
-0.07692747 -0.07159191 -0.026477534 -0.07998578 -0.07307908 0.039753623 0.008221426 0.045187198
0.04244348 -0.029103313 0.044280317 -0.023319326 0.015956387 0.011318269 0.018373035 0.06315464

weight f4 [16, 16, 3, 3]
00000000: 4844 6fbd 24e4 05bd a824 0d3c b166 bc3c
00000010: 8ce1 ab3c cc74 8fbd 1496 a6bd ff28 3d3d
00000020: 9977 233b bae7 00bd ac7f aa3c 1a8b 3cbd
00000030: fd71 013d 1f2f c73c f77a 6dbd fe7c a1bd
00000040: 60bf 05bc b0a8 04bd d1d3 223d 135b 7c3c
00000050: ac1e f4bd 41df 13be ad4b 6f3d 5875 54bd
00000060: 00da 59bd c7c5 563c 93a4 803c 568b 9e3b
00000070: 07f6 b2ba 4e52 1939 d440 a7bd 6989 923b
00000080: 5221 3e3d 2880 0dbd 52cf f1bc 8d36 8e3d
00000090: f891 a53c 1d76 a3bd 36f7 b53c 3971 3a3d
000000a0: 13b0 edbc e7df 09bd 2743 16bd 74a8 9f3c
000000b0: e98d 9cbd 7497 83bb fb60 2fbd 8599 4ebc
000000c0: a03a 76bc dc4f 1cbb 496a 5ebd fdbe 143d
000000d0: 5ccf 733d 322f b5bb 1fce 9d3c a4e9 f53c
000000e0: 4108 59bd 38fb 70bd 8879 a7bd bf7d c0bd
000000f0: 7686 293d 8ed5 16be 161e cfbc 4b49 b63d
00000100: 3425 acbd acd9 95bd a4e6 f33c b715 a8bd
00000110: af03 263d abc4 a83d 8f55 50bd 3190 15bd
00000120: f305 c33d 7e0e 8abd c07e cc3d a0d3 4f3d
00000130: 961f bd3d 31a8 c9bd 6d34 873d 1a83 f63c
00000140: e03a 24bd 9853 0fbe 0c0b b1bc 3061 e23c
00000150: 3e56 283e 9c69 3bbd 65a8 a0bc bb08 88bd
00000160: fa27 8ebd 9588 e43d 27d8 a63d bbd2 a1bd
00000170: c3e7 41bd 9eb6 b0bd 7a2c 26bd ea3d 83bd
00000180: 697e 8c3c 1931 a7bd 6adb 6b3d fa9b 84bd
00000190: fcc1 c5bb 426b c13d a6ef adbd 450f 763d
000001a0: fefc 73bd f233 3dbd 091e b1bd e13c e9ba
000001b0: 11ea ca3d b484 f6bd 60d6 ac3c f145 d83c
000001c0: ee05 b8bd 608e 5abd eae9 78bc 6663 b33d
000001d0: 0f6b 02be dba5 f53c 3e1a 233d d167 133d
000001e0: d657 b03c 35c8 b5bd bde4 a73c c033 c7bc
000001f0: 4e2b a23c 2920 e9bc f5d3 873d 3b90 483d
00000200: 87b6 80bd 2f9e 2abc 7c20 823d b323 fe3c
00000210: 80ab 43bd e3c4 62bc 6da4 abbd 6d87 5e3d
00000220: a461 a6bd a451 d3bc 0fd4 b2bb 51a0 5ebd
00000230: 0f6b 64bd 1a8d 63bd 25d3 4d3d fb24 20bc
00000240: d1df 81bd 8d35 3a3d 6adf 8fbc d4b5 333c
00000250: edac a13c 97d1 febb cdc2 93bd d6de 63bc
00000260: e70d 8d3d 90c5 cdbc cbdf 8f3d 06c3 ba3b
00000270: b220 9ebc 0a74 fd3a 4946 2abd 2217 ce3c
00000280: eac5 4abd a796 2bbd cfe8 8dbd f01a 213d
00000290: 5ca4 4e3d ae09 3e3d b209 0ebd 5afa ddbc
000002a0: 0944 353b 133e 8cbd df4f b5b9 6e30 fb3c
000002b0: 7a76 893d dd84 7fbd 1337 a83c 8e3c 983d
000002c0: 5a8c a23c 24c0 23bd ae06 2b3d 29c6 573d
000002d0: b20c 9ebd ae1d 24ba 0aae 82bd 1939 2fbd
000002e0: 1af1 e0bc bc19 743c cf91 ec3c 5fde 8abc
000002f0: d92b 60bc e56e cebb b34c adbd 96f4 07bc
00000300: 770d 513b 3ce9 8c3d 4926 7bbd 4154 443d
00000310: 24da fe3c 58b1 3fbd 3b6d 67bd 1d98 0dbd
00000320: 1e9b bc3d 1315 95bb acbe 9ebd 29f1 753d
00000330: 43a8 16bd 2231 9bbd ca7a be3d 65dd 7bbd
00000340: 5283 82bd 6bc2 c23c 75b9 963d c877 76bd
00000350: 7fc5 9c3d 9e51 803d 0a71 0d3c 6681 93bd
00000360: 9f64 833d 35bc 9b3d c090 863d aa69 62bd
00000370: b19c 993d f202 8f3d 40a5 7a3c c3a0 74bd
00000380: 8178 c7bb 2b13 a93d 7b63 cf3c 5ed6 aabb
00000390: 02b7 7ebd d281 f4bd 88bc bc3c bb5d d3bc
000003a0: c3d7 913c ac63 dfbc f260 81bd 6d11 923c
000003b0: 2e98 df3b 3cc0 113d 9147 3ebc aef2 9e39
000003c0: 1a60 67bd 925c 77bd 1142 213d 5e58 aabd
000003d0: 2234 163b edfd 40bd e6bb 2fbd 98f7 cdbd
000003e0: 2427 df3d 8ff0 b7bc 8360 11bd 197d b03d
000003f0: f510 6d3d b228 8bbc d857 a9bd fbb5 693d
-0.058414727 -0.032688275 0.008614697 0.022998186 0.020981573 -0.07004699 -0.08134094 0.046181675
0.0024943112 -0.03147099 0.020812832 -0.046031095 0.03160285 0.024314461 -0.057978597 -0.078851685
-0.008163303 -0.032387435 0.039752785 0.015402573 -0.11919913 -0.14440633 0.05842178 -0.05186972
-0.053186417 0.013108677 0.015703475 0.0048383875 -0.0013653644 0.00014621878 -0.08166662 0.004471947
0.046418495 -0.034546047 -0.029517803 0.069439985 0.020211205 -0.07981513 0.022212606 0.045518134
-0.029014623 -0.033660796 -0.036685135 0.019489504 -0.07644255 -0.0040158574 -0.042817097 -0.012609844
-0.015028626 -0.002385131 -0.05430058 0.036314953 0.059523925 -0.0055293078 0.019263325 0.030018635
-0.052986387 -0.05883333 -0.08177477 -0.09398984 0.041387998 -0.14729902 -0.0252829 0.08900698
-0.084055334 -0.07316908 0.029773064 -0.08207267 0.040530857 0.082406364 -0.050862845 -0.036514465
0.09522619 -0.067410454 0.09985113 0.05073893 0.0923454 -0.09846533 0.06601796 0.030091811
-0.04009521 -0.13996732 -0.021611713 0.027634233 0.16439149 -0.045755014 -0.019611547 -0.0664229
-0.06941219 0.111588635 0.081466965 -0.07901522 -0.047340166 -0.086285815 -0.04056976 -0.064082935
0.01715012 -0.081636615 0.057582296 -0.06475063 -0.0060350876 0.09444286 -0.08492975 0.060073156
-0.059567444 -0.046192117 -0.08648307 -0.0017794633 0.09907926 -0.1203703 0.021098316 0.026400538
-0.08985506 -0.053358436 -0.015192488 0.08759193 -0.12736152 0.029986313 0.03981995 0.03598768
0.021526258 -0.08876077 0.020494813 -0.024316669 0.01979604 -0.028457718 0.066322245 0.048965674
-0.06284814 -0.0104136905 0.06353852 0.031022882 -0.047770977 -0.013840887 -0.08380971 0.05432837
-0.08124092 -0.025795765 -0.0054574083 -0.05435211 -0.05576616 -0.055554487 0.05025019 -0.009774442
-0.06341518 0.045461226 -0.017562587 0.010968644 0.019735778 -0.00777645 -0.0721489 -0.013908109
0.06887417 -0.02511862 0.07025107 0.005699518 -0.0193027 0.001933695 -0.041570935 0.025157515
-0.04950515 -0.04189172 -0.0692917 0.03933233 0.050449714 0.04639595 -0.034677215 -0.027096916
0.002765896 -0.06847777 -0.0003458252 0.030662742 0.06712051 -0.062382568 0.020534074 0.07433425
0.019842315 -0.03997816 0.041754417 0.052679215 -0.07717265 -0.0006260526 -0.063808516 -0.042779062
-0.027458716 0.014898714 0.02887812 -0.016951738 -0.013682329 -0.0062998408 -0.08461895 -0.00829806
0.0031898895 0.068804234 -0.06131581 0.047931913 0.031109877 -0.046799988 -0.056500655 -0.034568895
0.09209274 -0.0045496314 -0.077512115 0.06004444 -0.03678156 -0.07577731 0.09300764 -0.061490435
-0.063727036 0.023774346 0.07359592 -0.060172826 0.07654857 0.06265567 0.008632908 -0.07202415
0.06415676 0.07604257 0.065705776 -0.05527655 0.0750059 0.06982984 0.015298188 -0.059723627
-0.006087363 0.08255609 0.02531599 -0.005213543 -0.06218625 -0.11938824 0.023039117 -0.02580153
0.017803079 -0.027269207 -0.06317319 0.017830575 0.006823561 0.03558372 -0.011613742 0.0003031692
-0.056488134 -0.060391016 0.039369646 -0.08317636 0.0022919257 -0.047117162 -0.042903803 -0.100569904
0.10896137 -0.022453574 -0.03549243 0.086176105 0.0578775 -0.016987178 -0.08268708 0.057058316

bias f4 [16]
00000000: bd8e 843c 6dab 963d fe49 27bd 7698 6abd
00000010: 1d7f b4ba 0f96 083d abe8 75bd 6fa6 943b
00000020: 9c44 943d 0e64 aa3c 99b7 09bd 25d8 bcbd
00000030: 19e0 963d 9b05 d53c b878 8ebc 6f09 a03b
0.016181344 0.073569156 -0.04084205 -0.057274304 -0.0013770793 0.033346232 -0.060036343 0.004536442
0.07239649 0.020799663 -0.033622358 -0.09220914 0.07366962 0.02600365 -0.017391548 0.004883937

weight f4 [64, 16, 3, 3]
00000000: c667 abbd 00a1 863d e89f a73d 90c8 36bd
00000010: 144f c9bd 9f47 8fbc 142e 9dbc b07e c2bd
00000020: bd39 be3c 10ae 30bd 7f47 82bd 7f7c fa3c
00000030: 740c 953b 499e 0ebd 622d 8bbd 664c 1ebd
00000040: 5ddb ce3c bd04 6fbc 830e 5f3d 9e7a 163c
00000050: 14af 423b 112b 583d ca86 83bb 11d4 cd3d
00000060: c816 8b3d d5e9 bcbd 6f89 32bc 4650 87b9
00000070: 580b c83c d951 70bd 268b adbc 4aad 5f3c
00000080: 89c5 e6bc b838 e63c cdfd eabc dd31 7dbd
00000090: d612 bd3a 28e0 243c 25bc 7c3d 6e6c 4abb
000000a0: 4bb0 b73c 5ff9 55bd 8845 59bd 6bff e93c
000000b0: 50ec a7bd a0d5 18bd 4b38 6a3d e62a 61bd
000000c0: 7391 873b 5d12 983d 3df3 3e3b 5bad b4bc
000000d0: bc23 75bd d727 91bc 170e 22bd c587 5dbd
000000e0: a1e4 54bc 4ec8 a3bd 3f65 a33d e325 efbc
000000f0: 2b9e 41bd 4196 113c b3e6 99bc 30bc 923d
00000100: 8016 943c 1187 40bd ddf5 97bb da8b 84bd
00000110: ef2e bf3a 44ba 453d e8cb 1ebd 5ba2 20bd
00000120: b64f 3d3d 146d 3dbd d5b2 60bd eb70 8bbd
00000130: 9cd6 73bd 2514 803c 84e7 cdbd 5c5b 09bd
00000140: 492e b5bd 636d 5cbd 4aae c7bd 5f9b 643d
00000150: 32bf 8c3c 8494 8abd d793 0fbd 7222 b1bb
00000160: 1546 eabc c60a e7bc fbd4 f93c d8df 163d
00000170: 31c4 49bb d0f5 10bd 2fdf 98bd 8623 01bd
00000180: 5cd5 e4bc a2e6 8d3d 35e5 28bd 785d 8bbc
00000190: d061 d73b ca3f b4bc 97e6 823b 8746 d43c
000001a0: 6702 093d 645a 54bd 9dab c73c 15db e13c
000001b0: cf4f fcbc cd83 ae3d e7d6 96bd 29ed 643c
000001c0: cab7 f8bc 2970 213d b8a5 94bc b922 253d
000001d0: 35c2 823d be65 193c d7a6 a73d a0bc 91bd
000001e0: 8c55 79bc cf9f 6bbc e17a 4f3d 2789 ca3c
000001f0: 69a9 a93c a03d ef3b 8f8f 2c3c f80e 6cbd
00000200: 097d 2e3d 107f b93c b640 acbc ee64 0f3d
00000210: 9629 1f3d d7ae 8fbb fc45 aebd ec5f 3ebd
00000220: 18e5 c03b 0506 8cbd 9649 a03d eb1f 4fbd
00000230: 0056 0a3d bd2e 00bd 5246 d13c e697 a13c
00000240: c501 82bc de3e 32bd db0d 0dba e180 9ebd
00000250: 2e24 d0bc fb1f a13d 8634 813d 8b7f 8c3c
00000260: d25a afbc 44fa 58bc 8d13 9b3d 8f8f 003c
00000270: 670f d03c 1e80 13bd 5a36 92bc 09ae 373d
00000280: e069 a8bd 173d 443d b521 8c3d 10af 83bc
00000290: 9deb 96bd fe01 43bd 5e90 c13d 3593 b03d
000002a0: 29e5 8a3c 7400 d83c 6f11 d4bd d5ae acbd
000002b0: 93f1 19bd 0ccc d93c 0579 63bc 8674 c1bd
000002c0: 8100 24bd 7e3e be3d e640 23bd b1ab 8b3d
000002d0: 2805 97bc c0e2 80bc 1386 05bd 7854 cd3d
000002e0: 4b6e f5bd 90cd 803c 918e 8cbd cb6a d0bc
000002f0: 0b8d d2bd 4767 9dbd 9423 0f3d 56ca 4e3c
00000300: 8780 53bd 7011 623d f31a 9d3c 0c17 e9bc
00000310: 3c87 b93c 7d24 01bd 3eb9 9abc 2f75 0cbb
00000320: 435d 383d 0943 3cbd 5906 373c 4623 9e3c
00000330: 9257 473d 20e8 963c b077 653c aec3 04bd
00000340: 94b3 db3c 7883 cabc aa9b 8fbd 0883 47bd
00000350: 5861 453d 548c d0bb 2eb8 9abd be51 433d
00000360: 3e82 583d c69b 7a3d 4bf7 abbd 1029 6c3c
00000370: 1f39 013d b1dc c2bc 7d65 0b3c dccb 02bd
00000380: 91c2 98bc 5b09 683d fbb4 123d 25dd 58bd
00000390: 64d0 5dbd a817 92bc afbe 7abd f6a4 44bd
000003a0: f6b3 1f3c 7108 9abd fb0b 4bbb f677 a03d
000003b0: ed4c a5bd b9d0 743d a07e fa3b 010e 913c
000003c0: cf66 4b3c 5831 253c be2b a63c 76f5 b63c
000003d0: ca5c f2bb 134c 8abd f8c7 013c 103d 9c3c
000003e0: 4685 4c3d 21b8 173d 096c 053d 5f59 4c3d
000003f0: 801c 893d d8d0 a93d 3bb1 633c c4b4 363c
-0.083694026 0.06573677 0.081847966 -0.044624865 -0.09829536 -0.017490206 -0.01918701 -0.0949682
0.023220891 -0.04313475 -0.06361293 0.030576942 0.0045486037 -0.03481892 -0.067957655 -0.038647078
0.025251085 -0.014588532 0.0544572 0.009184508 0.0029706405 0.052775446 -0.004013871 0.10050214
0.067914546 -0.092242874 -0.010897025 -0.00025809015 0.024419472 -0.058671806 -0.021184515 0.013652155
-0.028170364 0.028103217 -0.028685475 -0.06181513 0.0014425169 0.010063209 0.061702866 -0.0030887383
0.02242293 -0.052239772 -0.053044826 0.028564176 -0.0819937 -0.037313104 0.05718259 -0.05497255
0.004137212 0.074253775 0.002913668 -0.022055319 -0.059848532 -0.017719192 -0.03956422 -0.054084558
-0.0129939625 -0.079971895 0.079782955 -0.02919287 -0.04726998 0.008885921 -0.018786764 0.071648
0.018077135 -0.04700381 -0.0046374635 -0.06471987 0.0014586131 0.04827334 -0.03876868 -0.039217334
0.046218596 -0.046246603 -0.054858048 -0.06808647 -0.05953084 0.015634606 -0.10053924 -0.033534393
-0.08846719 -0.053815257 -0.0975004 0.055812236 0.017181013 -0.06766608 -0.0350531 -0.0054057175
-0.02859787 -0.02820338 0.030497065 0.036834568 -0.0030787105 -0.035390675 -0.07464444 -0.03152802
-0.027933769 0.06928755 -0.041234214 -0.017012343 0.0065729395 -0.022003073 0.0039947736 0.025912536
0.033449557 -0.051844016 0.024373824 0.027570287 -0.030799774 0.08521233 -0.07365208 0.013972559
-0.030361075 0.039413605 -0.018145427 0.040316317 0.06384698 0.009362636 0.08186119 -0.071160555
-0.01521815 -0.014381363 0.050654296 0.024723602 0.020710664 0.0073010474 0.010532274 -0.057631463
0.04259971 0.022643596 -0.02102695 0.035008363 0.03885802 -0.004384856 -0.08509442 -0.046478197
0.005886685 -0.06837086 0.078265354 -0.05056755 0.033773422 -0.031294573 0.025546227 0.019725751
-0.015869984 -0.043516986 -0.0005380788 -0.077394255 -0.025407877 0.07867428 0.06308846 0.017150661
-0.021405611 -0.013243262 0.075720884 0.007846727 0.02539797 -0.036010854 -0.017848182 0.044843707
-0.08223319 0.047909822 0.068423666 -0.016074687 -0.073691584 -0.04760932 0.09451364 0.086218275
0.016954975 0.026367404 -0.10354888 -0.08431784 -0.0375839 0.026586555 -0.013883834 -0.09446053
-0.040039543 0.09289263 -0.039856814 0.06819857 -0.018435076 -0.015733123 -0.032598566 0.10025877
-0.11983927 0.01572302 -0.0686313 -0.025441548 -0.10280808 -0.07685714 0.03494604 0.012621483
-0.051636245 0.05519241 0.01917789 -0.028453372 0.022647493 -0.03152894 -0.018887158 -0.0021432152
0.045010816 -0.045962367 0.011170947 0.019303929 0.048667498 0.018421233 0.0140055865 -0.032413177
0.026819028 -0.024720892 -0.070121124 -0.048708946 0.048188537 -0.0063643847 -0.07554661 0.047685377
0.052858584 0.061183713 -0.08396777 0.014414087 0.031548616 -0.023786874 0.008508083 -0.031932697
-0.018647464 0.056649547 0.035817128 -0.052945275 -0.054153815 -0.017833546 -0.061217006 -0.04800888
0.009747496 -0.07521141 -0.0030982483 0.07835381 -0.08071313 0.059769366 0.0076444894 0.017706873
0.012414648 0.010082565 0.02028453 0.022333842 -0.007396315 -0.06752791 0.007921211 0.019072086
0.049931787 0.037040833 0.032573733 0.04988992 0.06694889 0.08291787 0.0138972355 0.011151496

bias f4 [64]
00000000: 7813 983d b28c 83bc c8df cbbc e8e8 6d3d
00000010: e58a dcbb 5233 a7bc f32e 223b 3930 443d
00000020: af05 13bd e804 c0bc 35d3 963d eca3 48bd
00000030: 39f1 473d 13cb 773c 395e 163d 0001 48bd
00000040: 57b0 143d 70a7 e1ba d18e b23d 210f 8b3c
00000050: 1f1f dc3c f292 a43b 15a5 9abc 0c82 293d
00000060: e8ee 17bd e7fd 9c3d 8008 92bb 2911 4cbd
00000070: 9ec7 3cbd 79d0 86bd 2351 babb 8114 083d
00000080: 6763 b73b 651f 183d ebe9 333d 3f84 3abd
00000090: f859 b43c e421 893c eb99 3c3d 6f1a 873d
000000a0: 6052 aebc d94f 9f3d 4c33 0abd f094 9f3d
000000b0: 4b8e 82bd 725d aabd 1852 a1bd a834 51bc
000000c0: 8960 9a3c a3a1 2e3b a3b9 00bd 3170 dc3c
000000d0: c486 a8bd 8fdd 963d ae41 58bd 8533 43bd
000000e0: 32d4 34bd 8a7f 6dbd 6402 ebbc 20a0 a4bd
000000f0: e516 313d acf2 4e3c e4e4 a93c 9605 b4bd
0.07425588 -0.0160583 -0.02488698 0.058083445 -0.0067304247 -0.020410214 0.0024747222 0.04789755
-0.035894092 -0.02343984 0.07364503 -0.048984453 0.048814032 0.0151241 0.03671095 -0.04882908
0.036300983 -0.0017216038 0.08718646 0.016974987 0.026870308 0.0050224 -0.018877545 0.041383788
-0.037093073 0.076656155 -0.0044565797 -0.049821053 -0.046088807 -0.06582732 -0.005685942 0.03322268
0.0055965665 0.037139315 0.043924253 -0.045536276 0.022015557 0.016739793 0.046045225 0.06596839
-0.021279514 0.077789016 -0.033740327 0.077920794 -0.063747965 -0.083186045 -0.07876986 -0.012768902
0.01884486 0.0026646636 -0.031427037 0.026908966 -0.082288295 0.07366478 -0.052797012 -0.047656555
-0.044147678 -0.05798296 -0.028687663 -0.08038354 0.043234725 0.0126311 0.020739026 -0.08790128

weight f4 [64, 16, 3, 3]
00000000: d9ab 143d cde1 873d 93bf 2f3d 1b15 533b
00000010: a775 533d 2834 9dbd 4bd4 5cbd af2d 283a
00000020: 042c 3fbc 848d 6bbd 5075 04bd 6683 f4bc
00000030: f9d0 8c3d f885 5fbc 2b63 03bd 4f04 08bd
00000040: b293 94bd 6d79 083d 5b1d 64bd 38be b13d
00000050: a3a4 5dbc 3aae 1b3c 5ee3 8bbc 1b3d 85bd
00000060: ef54 9f3c 4e4a 3dbd 4e80 59bd 3e30 35bb
00000070: 5e85 90bd a6f3 60bd f1d4 d13c c188 163d
00000080: af86 43bc a339 263d da90 703d aeb2 59bd
00000090: adc9 473d 32d4 43bb 40f9 b1bc 59a5 593d
000000a0: b00f b53d 4040 04bc 0a6e 29bc db3a dabb
000000b0: 05b1 5c3d 8f3e 1e3d a64f a6bd 752c a0bc
000000c0: ee22 023d 93e6 62bc 151e 52bd da98 5a3d
000000d0: 9847 b2bc f400 16bd a8ad 19bc 5caa a03d
000000e0: b3b1 7f3c f8f9 6abd f86d a33d 9008 3e3d
000000f0: 5fa8 db3c 99f4 793c 45bd 113d 7ded 9bbd
00000100: 7989 293b 44b3 53bd 8919 3e3d 4f7e 58bd
00000110: 9956 593d 87a3 8b3d 68c9 753d d15d 813b
00000120: 1fd3 0f3c 90a3 923c 34d4 a9bb a934 a63c
00000130: d473 93bc 1268 98bd 70df 2dbd 708b de3b
00000140: 1735 303d 842e 7dbd d1a7 583d 931a 83bd
00000150: 1b62 5d3d 0064 c1bd f19d 1ebd 2996 7bbd
00000160: 31bc c0bd 514f 3abd 016c 73bd 34b7 c8bc
00000170: df0d 6e3d e1f4 833d ce76 183c 04b7 90bd
00000180: 7020 2dbd 0f31 85bd 0b39 8f3d 5b69 f3bc
00000190: 6cfd 32bd 84f3 58bd 2c77 ebbb 3455 91ba
000001a0: 79d0 9bbd 6881 c23b ccac 803d c892 57bd
000001b0: d2d7 253d 207f e4bd 89be b9bd 8c8f 93bd
000001c0: da24 b7bc a38b 553c 6d56 26bc 13c6 e3bc
000001d0: 36fd 90bc 65e6 283b 90eb 353d c48a 863d
000001e0: 7ced 3dbd 3620 9fbd 741a a93b 93cb 403d
000001f0: 7734 0c3d 789f 573c 2254 10bb 2b65 313d
00000200: 855e e93c 6040 893d d669 7abd 6f18 3cbd
00000210: 3904 b3bc fde4 bebc 7181 0cbd 8051 a63d
00000220: 8533 a83c 6b7a eebc 88c3 4abd 7fc0 b5bc
00000230: 41ee a63b 832a e03b 5dbd 233d d676 993d
00000240: 7bcf 24bd da32 8d3d 33e4 97bd 3779 2f3d
00000250: decd 2b3d f67d 60bd 29fc ee3c 3931 19bd
00000260: 1ba4 513c 5412 1abd bc8a 03bd a5c1 913d
00000270: bdfc 623d 9e64 87bd 87a4 94bd 40b2 3abd
00000280: 2c25 99bd 017e 49bd aaa1 83bd 88fc e63c
00000290: 9412 233c 79d8 5cbd 2c74 b93d 746d e4bc
000002a0: 059c 6bbd 65cb cd3b e0ca 98bd ad74 cf3c
000002b0: 4d10 26bd 1597 32bd 9016 86bd 52bf 4bbc
000002c0: ed86 bfbd ecdd 973d e751 5dbb e6c1 29bd
000002d0: 203b 093d ae01 433d a906 08b9 592b ae3d
000002e0: 84ed bc3d f53c 07bd 8864 9e3d c12b 32ba
000002f0: 0e55 d5bc 3b36 a1bd 2e8c 0a3d 1dc8 9e3d
00000300: 0dbe aabd 8224 553d 23bd f6bc efe0 b3bc
00000310: 38e8 99bd d905 a3bb 4b7d 7b3d a25b 5d3c
00000320: e210 9bbd f424 9cbd 63c7 c73d 0635 a13d
00000330: 3751 cc3c e07c 54bd 3701 133d 27e8 a4bd
00000340: 9474 3cbd 0806 6c3d e348 92bd ed56 36bc
00000350: 510c 65bc d411 79bd 8856 51bd 702b a23c
00000360: 8469 833d 0809 a73c 8067 b4bd e45d 80bc
00000370: 4c17 ecbb 892e c9bd 1591 2abd e73a 5ebc
00000380: c822 a2bc 6006 353d 70ee 1b3d 5315 ad3c
00000390: c4e6 b73c 4d83 01bd 8c48 e0bc fade 7c3d
000003a0: dae1 4a3d 4fcc 88bb fb92 92bd 174c 58bc
000003b0: 5c84 823d 5a51 803b 1451 a93d 8974 54bd
000003c0: 212b 503d 0d9d 8fbd aad0 933d 7047 47bd
000003d0: d4e9 9ebc d2e9 ccbc 1314 8dbd 7ee4 8dbd
000003e0: 0fc2 82bc 0ed5 fa3c d201 1c3d 3cfd f4bc
000003f0: 3f17 f3bc e559 403d d7e3 afbd c3af d6bc
0.0362967 0.06634865 0.04290731 0.0032208625 0.051625874 -0.07675964 -0.053913396 0.0006415499
-0.011668209 -0.057508007 -0.03233844 -0.029847812 0.06875796 -0.0136427805 -0.032076996 -0.033207234
-0.07254733 0.033318926 -0.055692058 0.086788595 -0.013528022 0.009501988 -0.01707619 -0.065057956
0.01944968 -0.04621344 -0.053100877 -0.0027647163 -0.07056688 -0.05491986 0.025614234 0.036751512
-0.011933967 0.04058231 0.05873189 -0.053148918 0.048776317 -0.0029881117 -0.021725297 0.053136203
0.08840883 -0.008071959 -0.010341177 -0.006659848 0.053879756 0.03863388 -0.081206605 -0.019552449
0.031771593 -0.0138489185 -0.05129822 0.053368427 -0.021762654 -0.036622003 -0.009379782 0.078449935
0.015606332 -0.057367295 0.07979959 0.046394885 0.026813684 0.0152560705 0.035580892 -0.07613657
0.0025869294 -0.051684633 0.04641107 -0.052854832 0.0530611 0.068183 0.06000653 0.0039479514
0.008778363 0.017900258 -0.0051827673 0.020288782 -0.017999567 -0.07441725 -0.042449415 0.0067915246
0.04301938 -0.06181194 0.052894417 -0.06401553 0.05404864 -0.094429016 -0.038724843 -0.0614225
-0.09410895 -0.0454858 -0.059429172 -0.02450142 0.058118697 0.06443191 0.009305669 -0.070661575
-0.042267263 -0.06503498 0.06993302 -0.029713323 -0.043698713 -0.05296661 -0.0071858373 -0.0011088015
-0.076081224 0.0059358366 0.062829584 -0.052630216 0.040489025 -0.1115706 -0.09069545 -0.07205114
-0.02235644 0.01303378 -0.010152441 -0.02780441 -0.017698865 0.0025772091 0.044414103 0.06569436
-0.04636906 -0.077698156 0.005160624 0.047069144 0.034229722 0.013160579 -0.0022022803 0.043309372
0.028487453 0.06701732 -0.06113609 -0.04592174 -0.0218526 -0.02330255 -0.034303132 0.08121014
0.020532379 -0.029111108 -0.04950288 -0.022186516 0.00509432 0.0068410053 0.039975513 0.07493369
-0.04023693 0.06894465 -0.074165724 0.04284021 0.041944377 -0.054807626 0.029172974 -0.037400458
0.012795473 -0.037615135 -0.03211473 0.07117013 0.05541681 -0.06610988 -0.072579436 -0.04558015
-0.07477793 -0.049192432 -0.06427319 0.028196588 0.00995316 -0.053917382 0.09055361 -0.027884223
-0.05752184 0.00628035 -0.0746057 0.02532419 -0.04054289 -0.043601114 -0.06547272 -0.012435751
-0.09351907 0.07415375 -0.0033770741 -0.04144468 0.03350365 0.047609024 -0.00012972452 0.08504362
0.0922499 -0.033017118 0.077340186 -0.0006796681 -0.026041534 -0.07871672 0.033825092 0.07753012
-0.083370306 0.05203677 -0.030119484 -0.021957843 -0.07514995 -0.0049750623 0.061398786 0.0135106165
-0.075715795 -0.07624236 0.09754827 0.078714415 0.02494107 -0.051876903 0.03588983 -0.08052092
-0.046009615 0.05762294 -0.07142808 -0.011129123 -0.013979987 -0.060808018 -0.051107913 0.019796103
0.0641661 0.020390049 -0.088088036 -0.01566977 -0.0072049256 -0.09823329 -0.041642267 -0.013563848
-0.019791976 0.044195533 0.03806919 0.021128332 0.022448905 -0.03161936 -0.027378343 0.061736085
0.049531795 -0.004174746 -0.071569405 -0.013201735 0.06372902 0.003915948 0.082674176 -0.05186895
0.05082238 -0.07012377 0.07217534 -0.048652112 -0.019398607 -0.025013838 -0.068885945 -0.06928347
-0.015961675 0.03061917 0.038087673 -0.029905908 -0.02967417 0.04696073 -0.08588379 -0.026206857

bias f4 [64]
00000000: 2823 a5bc 13ca 9f3d 2579 b5bd b12e 70bd
00000010: cd1b 90bc 08d1 583d 4830 fcbc 1e6e 3cbd
00000020: 80ab 0c3d 6cde 54bd 62d9 e03b 1a45 553c
00000030: d0dc 7fbd 4e86 723d eeb8 863d 3c41 093d
00000040: 92cb 123d 17f3 1ebd 92a7 fcbc 1ec8 9c3c
00000050: 659b 82bc 9a59 f73c cec0 33bb ba94 ee3c
00000060: aa00 69bd f7a6 413d 1a46 863d e518 49bd
00000070: 87d7 83bd 8812 3e3d 7418 eabc 6ea4 163d
00000080: 54ae 9b3d e9d4 b9bd 0942 8cbb d905 bdbd
00000090: b24f ad3a 13bf f0bc 5181 aa3c fb98 84bd
000000a0: cf48 b63b 34c3 9abd 0ddc 02bd a4ea 383d
000000b0: 657c 1a3d 23f1 8d3d 8915 5f3c edc2 74bd
000000c0: d4e4 96bd 0583 27bd 32b8 a2bd 4fc7 25bd
000000d0: 19b9 7c3d 1154 9a3d 1155 9cbc 6646 3cbd
000000e0: ba4b 30bd acd8 cf3c a21f a6bd ef84 213d
000000f0: 9a32 ecbc e802 cc3b e1c8 94bc 5b8f 53bd
-0.020158365 0.078022145 -0.08860997 -0.05863828 -0.017591381 0.052933723 -0.030784741 -0.046003453
0.034343243 -0.05196993 0.0068618516 0.013016963 -0.062466443 0.059210114 0.06578241 0.033509478
0.03583867 -0.038806047 -0.030841623 0.019138392 -0.015943239 0.030194093 -0.0027428153 0.029123653
-0.0568854 0.04727837 0.065563396 -0.049096007 -0.06437593 0.04640439 -0.028576113 0.036777906
0.0760161 -0.090738125 -0.004280333 -0.09229631 0.0013222604 -0.029387986 0.020813616 -0.06474491
0.0055628787 -0.07556763 -0.031948138 0.045145646 0.037716288 0.06930759 0.013615974 -0.05975621
-0.07367864 -0.040896434 -0.07945289 -0.04047328 0.06169996 0.07535566 -0.019083532 -0.045965575
-0.04304097 0.025371872 -0.08111502 0.039433416 -0.028832722 0.0062259324 -0.018162193 -0.051650386
