working/model_pretrained/net_F16B2_epoch_7.pth (torch_old, 135256 bytes, 16 tensors)

weight f4 [16, 3, 3, 3]
000000 af 76 18 3e c0 3d 09 be bb c0 22 be 89 08 12 be
       0.14889024 -0.13402462 -0.15893833 -0.14261068
000010 18 1e 1a 3e e5 e0 01 3e de b2 11 be 2c 14 2c 3e
       0.15050542 0.12683447 -0.14228389 0.1680457
000020 cb d6 ab bd 45 3d 2c be d5 28 8d bd f2 c8 af bc
       -0.08390578 -0.16820247 -0.06892554 -0.021458123
000030 43 16 01 be c4 d1 ce 3d e0 cf 26 3e d7 92 c1 3d
       -0.12606148 0.10098603 0.16290236 0.094518356
000040 b9 e2 15 be 52 19 1e 3e 77 cc 9d 3c d3 cf ce 3d
       -0.14637269 0.15439346 0.019262535 0.10098233
000050 f4 b1 33 3e 75 a5 29 bd 35 31 c7 bd a9 00 8c 3d
       0.17548352 -0.041417558 -0.09726182 0.068360634
000060 a4 f2 c7 bd 70 9c 27 be 8c fe ad 3d 15 1f e0 3d
       -0.09763077 -0.1636827 0.084958166 0.109434284
000070 cf bd 70 3d f3 b7 1e be e2 23 15 bd 23 e2 82 bd
       0.058774766 -0.15499859 -0.036411174 -0.063907884
000080 43 b5 be bd 1e 14 fa bc d9 57 13 3e 05 68 22 be
       -0.09311917 -0.03052717 0.1438898 -0.15859993
000090 c0 c6 b4 b9 a3 ad c1 3d 04 45 3d 3d b2 9a 35 3e
       -0.00034480356 0.09456947 0.046208397 0.17734793
0000a0 9f 24 4c 3c 86 53 18 be 08 5d fe bd 68 cb 50 bc
       0.012459903 -0.14875612 -0.12420088 -0.012743808
0000b0 32 4e 13 3c d2 07 0a 3d df e0 fd bc 6b d9 a3 bd
       0.008990811 0.033698864 -0.030991016 -0.080004536
0000c0 56 1d 11 be 99 f3 60 3d 8f 96 30 3b 0b d5 de bd
       -0.14171347 0.054919813 0.0026945209 -0.108804785
0000d0 f7 c2 10 be 1d 72 6a bd cb 30 e5 bb bc 34 43 3e
       -0.14136873 -0.057237733 -0.006994342 0.19063085
0000e0 c2 f8 37 3e be 51 00 bd 5e 34 fa 3d d6 60 3e 3e
       0.17965987 -0.031327955 0.122170195 0.18591627
0000f0 d2 4e 7f 3c 6c 38 2d be 43 d0 1c 3e 56 dc 3e bd
       0.015582757 -0.16916054 0.1531382 -0.046596847
000100 71 d8 2b be 15 2e c2 bc 19 5c aa 3d e6 67 2f bd
       -0.16781785 -0.023703614 0.083183475 -0.042823695
000110 f6 ba 38 3c 50 b7 a2 bd 9d 2b 0f be 1c e5 0f be
       0.011275044 -0.0794512 -0.13981481 -0.14052242
000120 a8 d5 ba 3d 89 0d 26 3e f9 d6 12 b8 88 27 c5 bd
       0.09122783 0.16216101 -3.500932e-05 -0.096266806
000130 04 9d 9a bd 18 e2 6a 3c f2 e1 c5 bd 78 1a 0f be
       -0.075494796 0.0143361315 -0.09662236 -0.13974941
000140 bc 88 11 be cb d8 25 be 48 34 c6 bd 0a 41 11 3e
       -0.14212316 -0.16195981 -0.096779406 0.14184967
000150 ad 46 c8 3d d6 75 d0 bc 06 7e 0f bc 9e 44 cc bc
       0.09779105 -0.025446814 -0.008758074 -0.024935063
000160 36 10 db bd c0 a5 db bc 5f 24 88 bc c9 b1 be bd
       -0.10696451 -0.026812434 -0.016618906 -0.093112536
000170 ad 55 5d bd 91 99 e0 bd 06 25 99 3c 44 86 b1 bd
       -0.054036785 -0.109667905 0.018694412 -0.08668187
000180 7a ac b5 bd 2e 37 4e 3d 14 29 2c bb 46 d6 0e 3d
       -0.08870788 0.050345592 -0.0026269602 0.034872316
000190 63 1e 0c 3e 9f e7 1a be 6f 68 c6 bd 7c 4f 2e 3e
       0.13683467 -0.15127419 -0.09687888 0.17022508
0001a0 ba 77 fa 3d 76 ba 29 be 30 68 e0 3d fa fc 8e 3b
       0.12229867 -0.16575035 0.10957372 0.0043636533
0001b0 9a 2a 5f bd 39 d9 1c be d9 5a a5 3d 90 66 f1 bd
       -0.054483987 -0.15317239 0.080739684 -0.1178714
0001c0 c5 cb ce 3d b7 bf d8 bd 5b 98 1a be 01 3f 88 3d
       0.1009746 -0.10583442 -0.15097181 0.06652642
0001d0 40 1c eb bb 7e 89 87 3d fe d8 73 bd 46 bb 01 3c
       -0.0071749985 0.066180214 -0.05953311 0.007918185
0001e0 3c 95 f3 bc 76 ac 91 3d 40 3d 06 bd 87 91 72 bd
       -0.029734246 0.071129724 -0.032773256 -0.059220817
0001f0 e6 97 d6 3d e7 a8 03 be 66 e5 42 3e da a4 a9 3d
       0.10478191 -0.128574 0.19032821 0.08283396
000200 c4 bd 39 3e 79 ae b0 bd 14 37 ca 3d 86 7b eb ba
       0.18138796 -0.08627028 0.098737866 -0.001796589
000210 37 d3 ef 3d d7 f9 a6 bd 62 7c 1c 3d 6f d3 ba bd
       0.11710208 -0.08153122 0.03820456 -0.09122359
000220 79 7a ff 3d ea 7b 3c bd ae 57 04 be 2f 1d 14 3e
       0.12474532 -0.04601661 -0.12924072 0.14464258
000230 6b 8c 26 be 76 eb a9 3d b8 16 41 3c ba 8a 0a bd
       -0.16264503 0.08296864 0.011785202 -0.033823706
000240 0e 85 4e 3e b1 8d 26 3e aa 29 fc 3d 7b 8a 26 be
       0.20167944 0.16264988 0.12312634 -0.16263764
000250 8c 25 39 3e 3c 0e 51 bb 87 90 45 bd 66 91 7e 3d
       0.18080729 -0.0031899353 -0.048233535 0.06215038
000260 c8 83 1a bb f0 22 c0 bd c9 27 88 3c af 57 1c bc
       -0.0023577083 -0.09381664 0.016620534 -0.00954239
000270 2d bb 1c be c7 1a 3e be 6c 87 e6 3d ce db e1 3d
       -0.15305777 -0.18564902 0.112562984 0.110282525
000280 95 1d 8b bd aa dc cf 3d 0d fb 1d 3d 3d 7d a3 bc
       -0.06792752 0.1014951 0.0385695 -0.01995718
000290 3c 5a 71 3c 0d bb 29 3e b5 be 0d be 7b 12 2a 3e
       0.014730986 0.1657526 -0.1384228 0.16608612
0002a0 8c 35 17 3e 23 08 37 be 5f 21 3a be 1a 5c 2c be
       0.1476652 -0.17874198 -0.18176793 -0.16832009
0002b0 37 40 8f 3c 85 8a b1 3c 20 a3 28 be 95 48 49 be
       0.017486675 0.021672497 -0.16468477 -0.19656594
0002c0 db 9b fc bd 64 88 8b bd 00 ee f5 bd f2 ee 37 3e
       -0.123344146 -0.06813124 -0.120082855 0.17962244
0002d0 70 85 d6 3d 07 92 0e 3e 67 66 e1 3d 54 a7 6f bd
       0.1047467 0.13922893 0.1100586 -0.058509186
0002e0 fd 2f 05 3e a1 b8 14 3e 49 3a 28 bd c1 6d c2 bd
       0.13006587 0.14523555 -0.04107121 -0.0949359
0002f0 a3 bb 19 bd 0e 47 85 bb e5 ab 1e be 2b e7 ad bd
       -0.03753246 -0.0040673083 -0.1549526 -0.084913574
000300 23 8e 2b 3e ec 6a b1 3d 26 58 fa bd 79 b8 c6 bd
       0.1675344 0.08662972 -0.12223844 -0.09703154
000310 b5 7c ee bc 95 f8 a3 3c 80 08 22 3e 76 eb 48 3d
       -0.0291122 0.020015994 0.15823555 0.049052678
000320 34 35 25 3e 1b 60 1e 3e ca 36 c0 3d e4 2e 3b 3d
       0.16133577 0.15466349 0.0938545 0.045699015
000330 c8 5f 10 3d af 32 de 3d 22 df 99 3b 99 79 c5 bd
       0.035247594 0.10849511 0.004695789 -0.096423335
000340 81 a3 08 3e ec 34 b6 3d 68 42 87 bd fa cf ff bd
       0.13343622 0.08896813 -0.06604463 -0.1249084
000350 e0 68 1f 3d 47 90 cb 3d 13 29 2f 3e 3d ee 1f bd
       0.038918376 0.09939628 0.17105512 -0.03904556
000360 b2 03 34 be 6a 53 c0 3d 4b 1a 10 3d d9 5c 1f be
       -0.17579535 0.0939091 0.035181325 -0.15562762
000370 fb 81 1d be 7d 37 1f 3e 7a 55 0e 3e 96 8b bd bd
       -0.15381615 0.15548511 0.13899794 -0.092551395
000380 29 da bf bd ce fa 21 3e 56 f0 0a bc 43 6b 36 3e
       -0.093677826 0.1581833 -0.008480152 0.17814355
000390 9c f6 c5 bc 5a 02 4c bd 47 69 25 be bc 0c 09 3e
       -0.024165444 -0.04980693 -0.16153441 0.13383764
0003a0 c6 51 b3 3d dd 4e 91 bd 96 32 ce bb 5f 60 63 bd
       0.087558314 -0.0709512 -0.0062926514 -0.05551183
0003b0 71 f5 2b 3e 09 2b 35 bc 45 fd 2b 3e 41 8a 25 bd
       0.16792847 -0.011057624 0.16795833 -0.040415052
0003c0 64 5f 22 3d f2 a0 95 3d 03 d7 20 b9 96 21 d2 bd
       0.039641753 0.073060885 -0.00015338887 -0.10260312
0003d0 22 a1 6a bd a6 bd 9e 3b 8d 9c a4 bd c7 5f 39 3c
       -0.057282574 0.004844385 -0.08037672 0.011314339
0003e0 59 04 2c 3e bf 09 0e be 07 50 a1 bc 31 06 04 bd
       0.16798533 -0.13870905 -0.01969148 -0.032232467
0003f0 28 3c a2 3d 5c 54 2e be 08 35 8f 3d 71 f5 ee bc
       0.0792163 -0.17024368 0.06992537 -0.02916977

bias f4 [16]
000000 e5 0a ab 3d 03 2c ff 3d dd bb 1b 3e c4 7f 95 3d
       0.08351687 0.124595664 0.15208383 0.0729976
000010 f0 99 d0 bd d0 e1 27 3d 12 13 48 3e 55 97 16 3e
       -0.10185611 0.040986836 0.19538525 0.14706166
000020 0a 93 44 3d f7 fd cc 3d 43 2a 0f 3e af ec 22 3e
       0.04799179 0.100093774 0.13980965 0.159106
000030 f8 c5 a2 3d 62 81 05 bd 75 21 74 bc 8c ed d4 bd
       0.07947916 -0.032594092 -0.014900555 -0.10396871

weight f4 [16, 16, 3, 3]
000000 c2 5e 4d 3b c4 73 11 3b 23 75 7b bd 44 fe 32 bc
       0.0031336998 0.0022194246 -0.061391007 -0.010924879
000010 1d c5 fb 3d 65 6c c1 bd 13 9e c6 3d ea f5 7b bd
       0.12293456 -0.09444503 0.09698119 -0.06151382
000020 96 df 5b 3d 46 09 9c bc 7c 4d 99 3d 19 bf 29 bd
       0.053680025 -0.01904739 0.07485482 -0.04144201
000030 68 a5 8f 3b ac 75 81 bc 5c 97 61 bd 98 11 43 3c
       0.0043837316 -0.01580318 -0.05507599 0.01190605
000040 ed 42 3b 3d 8f 99 2b 3d ad 93 b5 3c 5f 97 2d 3d
       0.045718122 0.04189449 0.022165144 0.042380687
000050 65 9f 93 bc 32 45 ac bd c5 d1 70 bc 96 bd e7 bd
       -0.018020341 -0.084116355 -0.01469845 -0.113154575
000060 48 a8 88 bd ee b6 57 bd 0a ad 24 3d 31 76 66 bd
       -0.06672722 -0.05266469 0.040204085 -0.05626506
000070 ba 94 8e 3c 19 87 b0 bb 0f 39 23 bd 54 dd 9c 3d
       0.017404903 -0.0053871986 -0.039849337 0.076594025
000080 45 0d a4 3d 9e 78 e1 ba 83 8d 8c 3d 1b 1a 04 3d
       0.080103435 -0.0017202084 0.06862929 0.03225146
000090 3d a5 55 3d e9 82 21 bd a6 a9 f6 3c 37 f9 1a bd
       0.052159537 -0.039431486 0.030110192 -0.037835326
0000a0 cf 3e 01 3e 31 0d 1a bd 34 37 02 3d a6 c2 7d bd
       0.12621616 -0.037610237 0.031790927 -0.06195321
0000b0 0f 4f d5 bc 06 92 93 3d 3d b9 75 bd 85 02 d3 3d
       -0.026038675 0.07205586 -0.05999111 0.10303215
0000c0 fb da 1c bd 92 10 cf 3c ff e6 76 bd b4 28 a9 bc
       -0.038294774 0.025276456 -0.06027889 -0.020649292
0000d0 e8 48 ad bd b6 70 9e 3d e9 3b 59 3c ac 10 3e bd
       -0.084611714 0.07736342 0.013258913 -0.04640262
0000e0 e6 2b 1a 3d b6 2e c8 bd 97 65 30 bd 59 36 25 bd
       0.03763952 -0.097745344 -0.043065634 -0.040335033
0000f0 c8 21 9f bb 29 b2 40 3c 25 e1 69 bd b5 ab 7c bd
       -0.004856322 0.011761227 -0.05709948 -0.06168719
000100 3c 95 4e bd a9 46 89 bd 35 da 29 3c f7 c2 b0 bc
       -0.05043529 -0.067029305 0.010366966 -0.021577341
000110 54 cc c3 bc b6 dd a7 3d 92 62 e2 3c b7 74 77 bd
       -0.023901142 0.08196585 0.027634893 -0.060414042
000120 a3 a3 3f bd b8 a0 04 3d 19 ff 46 bc 36 3a 84 3d
       -0.046786916 0.032379836 -0.012145781 0.06456415
000130 69 7c 04 bc 67 97 12 3d 35 02 20 bd 1b 61 25 3c
       -0.008086302 0.03578892 -0.039064605 0.0100939525
000140 e2 4b af bc 8e ec d9 3c 47 17 c6 bb 8c bc 9c 3d
       -0.021398488 0.026602056 -0.0060452553 0.0765315
000150 c4 fc e1 3d 62 52 ee bc 36 8b f7 3d 5d f8 93 3c
       0.11034539 -0.029092018 0.12087099 0.018062765
000160 15 0a e1 bc ab c0 21 3d bd 13 84 bd e6 84 5d b9
       -0.027470628 0.039490383 -0.06449077 -0.00021125711
000170 1d c8 87 3c d0 3b 56 3d 5d c2 c4 bc 00 2e cd 3c
       0.016574914 0.052303135 -0.02401846 0.025046349
000180 f4 85 47 bb c3 13 9f 3b 55 fe 94 3d 65 ac cb bc
       -0.0030444833 0.0048546507 0.072750725 -0.024862478
000190 52 4c 3f 3d 09 7b af bd ce f6 a0 bc f2 e8 2c 3c
       0.046703644 -0.08568389 -0.019648936 0.010553585
0001a0 d4 3c 36 bd f9 6d a8 bd 81 57 bb 3d d3 67 8d 3d
       -0.044491604 -0.082241006 0.091475494 0.069045685
0001b0 f3 6b fb 3c 5f 2b 14 bd ea 38 0c bd 1f 53 b9 3b
       0.030691123 -0.036174174 -0.034233965 0.0056556608
0001c0 91 aa 49 bd a8 0d 6e bd 17 b7 09 3d 3f 32 9e bd
       -0.04923493 -0.058118492 0.033621874 -0.077244274
0001d0 8a 65 6c bd 50 ea ad bc dc 0c 7d 3d 3b 40 68 3d
       -0.057714023 -0.021229893 0.06177984 0.05670188
0001e0 af ad 90 3c a1 f6 7d 3d 9f 90 c7 3d b1 c5 17 3d
       0.017660944 0.06200278 0.09744381 0.037053768
0001f0 f9 34 5b bd fa 44 0a bd 27 5d 37 bc f4 a1 63 bd
       -0.053517316 -0.033757187 -0.011191643 -0.055574372
000200 8e 51 47 3d 64 c6 c6 3c b3 f3 e7 bd 44 ef 74 bc
       0.04866176 0.024264522 -0.11325779 -0.0149496235
000210 69 f2 8a bd 35 04 4a bd 64 49 9a 3d 2a 03 1b 3d
       -0.06784517 -0.04932042 0.075335294 0.037844814
000220 97 25 c9 bc 71 90 7c 3c 75 16 59 bc 36 fb 98 bd
       -0.024554057 0.015415297 -0.013249983 -0.0746979
000230 7c dc 9f bd 52 2c db bb 29 40 ff 3c 1c 29 6f bd
       -0.07805726 -0.006688633 0.031158524 -0.058388814
000240 a5 d4 b1 bd 29 03 8b bd 41 32 37 bd b6 22 62 bd
       -0.08683137 -0.06787712 -0.04472566 -0.055208884
000250 e3 13 5e 3d cf 81 46 bd e3 3c db 3d cf f2 6a 3c
       0.054218184 -0.04846364 0.107049726 0.014340117
000260 cb b4 19 bc 26 e0 49 3d 56 57 68 bd b2 ed 4c bd
       -0.009381483 0.04928603 -0.056723915 -0.05003137
000270 ff 5f 4f 3d f3 2e a4 bd 6f 42 37 bc bc c4 bb bb
       0.05062866 -0.08016767 -0.011185273 -0.0057302397
000280 cc 73 8c 3b fc 9b 9b bb f5 8a 53 bc bf c8 cc 3b
       0.004286265 -0.0047488194 -0.012911548 0.0062495167
000290 35 bd 37 bd e0 92 b8 bd 34 a7 11 bd c2 b3 b9 3c
       -0.044858176 -0.09012389 -0.035559848 0.022668723
0002a0 55 70 35 3d b7 58 84 bd 9f dc 92 bd b9 ec 16 bd
       0.04429658 -0.064622335 -0.071709864 -0.03684685
0002b0 90 1e 32 3d 32 bb cc 3c 52 82 41 3d 1d e1 a0 3c
       0.043486178 0.024991605 0.047243424 0.019638592
0002c0 85 ea 5f 3d a8 8b 55 3c de 4b a8 bd 10 eb 09 bd
       0.054667015 0.013033785 -0.082175955 -0.03367144
0002d0 9b 43 87 bd 42 00 f7 bd 56 70 b6 bb 37 42 7a 3c
       -0.066046916 -0.12060596 -0.0055675907 0.015274576
0002e0 eb 29 a9 3d b2 b6 8f bd 04 48 49 3d 26 86 29 3d
       0.08259948 -0.07017268 0.049140945 0.0413877
0002f0 ce 5e 72 3c 3a 71 09 3c e9 62 b1 bb 65 df 36 3d
       0.014793111 0.008388812 -0.0054134023 0.04464664
000300 1a aa d8 bc ee f2 0a 3d 3f dc 6a bd c1 0c 7b bd
       -0.026448298 0.033923082 -0.05733895 -0.06129146
000310 68 f3 72 3d 79 ab a1 3d e6 d1 83 bd 1a 33 ad bd
       0.05931416 0.07894034 -0.06436519 -0.084570125
000320 49 e1 5e 3c 8e 3a 31 3d b3 ad 9e 3d 25 76 26 bc
       0.013603517 0.043268733 0.07747974 -0.010160004
000330 70 a5 b4 3c 45 9f 21 bd 01 9f 8d 3d 29 ce 8d bd
       0.022051543 -0.039458532 0.06915093 -0.069240876
000340 99 fc 8c 3d 29 3d c6 3b 64 a4 c8 b9 d5 d0 08 bd
       0.06884117 0.0060497713 -0.00038269453 -0.033402283
000350 36 b0 c5 3c 98 f5 da 3c 22 0c 01 bd da c2 32 bd
       0.024131875 0.026728436 -0.03150571 -0.043642856
000360 91 9a 65 bd cb 90 01 bd 3a 05 c4 bc 67 c2 b9 3d
       -0.05605561 -0.031632226 -0.023928273 0.090702824
000370 38 5f 1d 3d d7 e9 59 bc 02 6e a4 bc e5 74 76 bb
       0.038420886 -0.013300381 -0.020071987 -0.0037606296
000380 2a 25 61 bd 6a af ce bc 40 2d cd bc 49 93 6f bd
       -0.054967083 -0.025230128 -0.025045991 -0.05849007
000390 88 24 7c 3b 6b 12 b4 3c b9 23 e2 3d d3 23 98 3d
       0.0038473923 0.021981439 0.1104197 0.07428708
0003a0 2e 1d 03 bc 5f d7 9f ba c3 0a 03 bd 4b 9f 92 3d
       -0.008002562 -0.0012194923 -0.031992685 0.07159289
0003b0 6d 8d 96 bd 44 9b 3f 3d 06 62 68 3d 58 6e 81 bd
       -0.073511936 0.046778932 0.056734107 -0.063198745
0003c0 1f e5 b8 3c 8b da 2b bd aa ef 8e bc 18 39 d7 bc
       0.022570191 -0.041956466 -0.017448265 -0.026272342
0003d0 16 12 93 3d 58 d1 51 3d 52 5b 04 3d c6 07 4d bd
       0.07181184 0.051225036 0.032313652 -0.05005624
0003e0 c6 b9 ad 3d b9 da 84 bc 9d f2 4d 3c b7 9a 7e 3c
       0.08482699 -0.016217576 0.012570051 0.015539817
0003f0 69 c6 21 bd 9a 00 a3 bd a1 5f 0f bd ae b8 a2 bd
       -0.03949586 -0.07959099 -0.03500331 -0.07945381

bias f4 [16]
000000 6d 7b 52 bc 56 48 fa bc 77 a6 86 3d f1 9a 04 3e
       -0.01284681 -0.03055207 0.065747194 0.1294973
000010 e1 77 56 3d da aa 47 3d 71 28 cb bb 98 be 25 3d
       0.05236042 0.04874692 -0.0061998894 0.040464967
000020 bb 6e 51 3d bb 81 9c 3c 19 8b 15 3d fd ad b2 bc
       0.05113099 0.019104829 0.036509607 -0.02181148
000030 0b 3f 79 3c 10 95 49 3c a0 26 30 bd a7 ea 44 3d
       0.0152127845 0.012303606 -0.043005586 0.048075344

weight f4 [16, 16, 3, 3]
000000 62 f9 10 3e 26 48 56 bc 6c 5d 15 bd fa 26 c9 bd
       0.14157632 -0.013078725 -0.036466047 -0.09821887
000010 75 d3 92 3d a9 c1 bb 3b c8 c7 8f 3d 8e 87 5f 3b
       0.071692385 0.005729873 0.07020527 0.0034107896
000020 8e c4 76 bd 7e bb c3 3c a2 ab 9c bd d6 ad 34 bd
       -0.060246043 0.023893114 -0.07649924 -0.044111095
000030 32 6c 69 bd d8 d0 9d 3d e9 d1 90 bd 96 4b ae bc
       -0.05698795 0.077058494 -0.07071287 -0.021276277
000040 df a8 cc bd 66 32 6f bd 0e 5e e0 bd 45 f9 1f 3c
       -0.09993147 -0.058397673 -0.109554395 0.00976402
000050 7d 47 6d 3d 2f de 1b bc 12 6c 61 3c 4b fa 83 3c
       0.057929505 -0.009513422 0.013758676 0.01611056
000060 60 cd 5e bd c8 5d c9 bc 1d 9f a0 3d 49 40 bd 3b
       -0.05439508 -0.024580851 0.078428484 0.0057754857
000070 d3 73 e2 bc 03 25 76 bc e5 fb e4 3d 4d 58 8e 3c
       -0.02764312 -0.015023473 0.111808576 0.01737609
000080 a9 0f f9 3c 83 45 64 3d f0 a4 1c 3e 0e 06 0c bd
       0.030402975 0.055730354 0.15297294 -0.03418546
000090 96 a6 7e bd 25 1b b8 3c 99 83 4f bd 79 e4 34 3c
       -0.062170587 0.022473881 -0.05066261 0.0110408
0000a0 0c bb f8 bc cf 96 3e 3d 7c d9 c9 3b ae 08 87 bc
       -0.030362628 0.04653054 0.0061599594 -0.016483631
0000b0 0c 8d 64 bd c6 55 96 bc 2c 7a b5 bd 79 d9 28 bc
       -0.055798575 -0.018351447 -0.08861193 -0.010305756
0000c0 c1 fd e4 bd 28 44 af 3c 53 53 43 bd d9 f9 48 bd
       -0.11181212 0.021394804 -0.047686886 -0.0490664
0000d0 15 a8 12 bd 6c b4 58 bd a0 63 0a bd 9c 3f 37 bd
       -0.035804827 -0.05290644 -0.033786416 -0.044738397
0000e0 5e 64 b9 bd 3f 25 93 3d 94 d8 96 3d e9 dd 4e 3d
       -0.09052347 0.071848385 0.07365528 0.0505046
0000f0 b6 1b 11 3b 30 a4 81 3d 0d 21 99 3b c4 3e 67 bd
       0.002214176 0.063301444 0.0046731294 -0.056456342
000100 ea fc 03 3d b1 7a e0 bc 75 2c 55 3d d9 a7 ce 3c
       0.03222362 -0.027402254 0.05204435 0.02522652
000110 58 de 4c 3c 02 75 a5 3d 7a e9 bc bd 2b eb 3b 3c
       0.012504183 0.08078958 -0.092242196 0.011469643
000120 68 4a 97 3d f4 e4 9b 3c 62 4e 7c bd 10 26 17 3d
       0.07387239 0.019030072 -0.06159819 0.036901534
000130 86 ff 4d 3d 69 14 9f bd 17 c3 6b 3c ca 14 6e bd
       0.050292514 -0.07767565 0.014389775 -0.058125295
000140 0d d9 9f bd 2c e0 bc 3b 47 58 c0 3c 15 9d 17 bd
       -0.07805071 0.005764028 0.023479594 -0.03701504
000150 7e 26 b6 bd 39 59 e5 bd 09 3e 0d 3d f5 18 3e bc
       -0.088940606 -0.111986585 0.03448299 -0.01160263
000160 93 99 86 3d 01 84 9d 3d 4f be d4 3c 69 c0 39 bd
       0.06572261 0.07691193 0.025969652 -0.045349512
000170 24 46 ed 3c 3e 05 7b bd 70 ac af bd d5 7e 97 3d
       0.02896411 -0.061284296 -0.08577812 0.07397238
000180 10 a8 63 bd 53 f8 1d 3d aa 06 54 bd cb 9a 9c 3c
       -0.0555802 0.0385669 -0.051764168 0.01911678
000190 db 71 ec 3c c6 a1 7c bc 60 9a 92 3d 0b 0d a6 3d
       0.028862884 -0.015419429 0.07158351 0.081079565
0001a0 0d f7 ab bd 7e ed 9f 3d d6 d6 73 bd cf c3 dd bc
       -0.083967306 0.0780897 -0.059531055 -0.027070908
0001b0 4b 7d 80 3a d8 38 44 3d d1 83 b2 bd c8 46 fa bc
       0.0009802965 0.047905773 -0.08716548 -0.03055133
0001c0 03 27 b8 ba 44 6a 9e bd f0 34 77 bd 94 a8 ae bc
       -0.0014049712 -0.07735112 -0.06035322 -0.021320619
0001d0 81 05 47 bd ae db a3 bd 49 27 5d 3d 9a df 4c bc
       -0.048589233 -0.08000885 0.053992543 -0.012504483
0001e0 f5 b4 7a 3a 18 70 7c bd de 25 6c 3d 9e 22 01 3d
       0.0009563708 -0.06163034 0.0576533 0.031527154
0001f0 a4 e0 72 bd 66 fd 58 bb 78 da d5 3c 91 ed 1e 3d
       -0.059296265 -0.0033110022 0.02610515 0.03880078
000200 14 27 58 bc ba 45 0a bc 13 f1 de 3b 36 ac 7f bc
       -0.013192911 -0.008439476 0.0068036406 -0.015605023
000210 28 2f 5d bd 12 4c 48 bc 6c 9c 89 3c 0b 7b 3d bd
       -0.05400005 -0.012225168 0.01679822 -0.04625992
000220 90 9a 2e bd 6e f2 25 bd 92 68 cb 3c 5f 35 a9 3d
       -0.04262787 -0.040514402 0.024830136 0.08262133
000230 31 8b 90 bd 0a 75 83 3d 81 90 6d 3d 08 5d 51 bd
       -0.07057799 0.06418808 0.057999138 -0.051114112
000240 ee 89 af 3d 08 3b 80 3d ec f4 a9 3d 1b a3 40 bd
       0.0857123 0.06261259 0.08298668 -0.04703055
000250 3a 7c 5a bd ca 69 a3 bc 65 fd 32 3d d4 09 63 3d
       -0.053341128 -0.019947905 0.043698687 0.055429295
000260 c2 1f 51 3d 26 27 bb 3c fa 38 12 bd 44 b9 d5 3c
       0.051055677 0.022845816 -0.03569887 0.026089318
000270 b0 3f b1 3d 40 6d 3c bc 66 61 80 bd d2 dd 09 bb
       0.086547256 -0.011500657 -0.06268577 -0.0021036756
000280 e3 06 72 bd f2 82 9d 3d e1 d0 95 bb 8f f1 01 be
       -0.0590886 0.076909915 -0.0045720194 -0.12689804
000290 5d e7 ad 3c 8c dc e4 3c da 77 02 be 36 aa a5 bc
       0.021228487 0.027937196 -0.12741032 -0.020222764
0002a0 2d 68 04 bc ce 66 fa bd 61 ae b4 3c f6 90 e6 bb
       -0.008081478 -0.1222664 0.022055807 -0.0070363237
0002b0 02 8c 00 be 27 2e 91 bd cc 24 95 3c db 0a bc bc
       -0.12553409 -0.07088881 0.018206023 -0.022954395
0002c0 c0 ba a2 3d c7 a7 ac bd db d8 4e bd 9e b0 14 bd
       0.07945776 -0.084304385 -0.05049978 -0.036301248
0002d0 55 a7 bf bc d0 98 22 3d 41 a7 65 bd fd 4d a5 bd
       -0.02339522 0.039696515 -0.05606771 -0.08071516
0002e0 5b 93 ec 3c 85 65 0e 3d d6 61 80 bd 17 39 72 3d
       0.028878858 0.034764785 -0.06268661 0.059136476
0002f0 2a fd 9c 3d 1a 53 17 3c be f0 a1 3c ee 9b 8a 3d
       0.07665475 0.009236122 0.019768115 0.067680225
000300 18 85 07 3d ae 6b bd bd 05 5d 68 3c 26 de 8f bd
       0.033085912 -0.09249054 0.014182334 -0.07024793
000310 06 6d 7a 3c fb e9 53 bd 66 aa 1a 3c d3 ba bd 3d
       0.015284782 -0.051736813 0.00944004 0.092641495
000320 ba ba 9a 3d d0 e7 d7 3c 54 b9 28 3d 21 63 14 3c
       0.075551465 0.026355654 0.041192368 0.009056837
000330 2a de 30 3c 6d 1a 1b bd 30 56 ca 3c a7 c6 c8 3d
       0.010795156 -0.037867 0.0246993 0.09803515
000340 6f 66 5e 3c dd 24 bb 3b 65 a2 3b 3b d5 56 02 3d
       0.013574227 0.0057111816 0.002863073 0.03182109
000350 cf 53 2f bd af 23 38 3d 85 85 44 3d 1f 66 cc bc
       -0.042804535 0.044955906 0.047978897 -0.024951039
000360 2c 0a dc 3c 56 f2 79 bd 01 fb 89 3d 08 c5 4c 3c
       0.02686032 -0.061022125 0.06737328 0.012498148
000370 07 18 7e 3d 9a 03 94 3d 58 f4 62 bc 4f 84 d8 bb
       0.062034633 0.072272494 -0.013852201 -0.0066075693
000380 a7 f3 5c 3d e7 42 66 3d 83 4e 4f 3d 1a 98 a4 3d
       0.053943302 0.056216147 0.050611984 0.080368236
000390 4e 4f b1 bc 6b e6 f4 3b cf b5 86 bd 54 de 36 3c
       -0.02164426 0.007473757 -0.06577646 0.011161406
0003a0 4c c3 37 bc 47 e3 0e bd 6c ba 3c bc f3 d2 06 bd
       -0.011215996 -0.034884717 -0.011519056 -0.03291602
0003b0 9d 61 86 bd ca c1 37 3d a9 8b 8d bd a8 34 6c 3b
       -0.06561587 0.044862546 -0.06911404 0.0036042128
0003c0 ac c8 4b bd 93 5a f2 3a ee 4a 01 3c 7c fb 96 bd
       -0.049751922 0.0018490128 0.0078914 -0.073721856
0003d0 f2 e2 10 3d 65 07 4f bd e1 ca 04 bb 38 15 74 3d
       0.035372682 -0.05054416 -0.0020262527 0.05959055
0003e0 d2 eb 88 3c 6d 93 a8 3d 91 0b 8a 3d e5 6c 38 3d
       0.01671401 0.08231244 0.06740487 0.045025725
0003f0 c5 aa 8d 3d b6 e7 b2 bd a4 e7 7d 3d b4 0a 98 bd
       0.06917337 -0.087356016 0.061988488 -0.074239165

bias f4 [16]
000000 fc 0d 4f 3d 38 92 4d 3d a6 82 d1 3c c3 b5 95 3d
       0.050550446 0.050188273 0.025574993 0.07310059
000010 d0 10 db bc 1d 22 dd bb 43 33 1d 3c c6 dd af bd
       -0.026741415 -0.0067484514 0.009594741 -0.08587222
000020 4f fb 92 3c 04 14 7d bd 14 1e b7 3d 8e 77 1d 3d
       0.017942099 -0.061786667 0.08941284 0.038444094
000030 79 7f d4 3c 22 a9 9c 3d c2 ec 87 3d 9d a6 4f 3d
       0.02593969 0.07649447 0.06636955 0.050696004

weight f4 [16, 16, 3, 3]
000000 ee ae 79 bc 72 fa 05 bd ee 67 5f bd a7 9a b9 3d
       -0.01523946 -0.032709546 -0.054542474 0.09062701
000010 b0 9a 3e bd 01 b7 85 bd 73 f1 84 3d 78 06 90 3c
       -0.04653424 -0.06529046 0.06491365 0.01758121
000020 03 15 21 bd df 58 2d 3d 29 6a 50 bd ff 25 62 3c
       -0.03932668 0.042321082 -0.050882492 0.013803004
000030 5e c0 92 3d ef 1a 5b 3d 39 59 0a 3d 63 5f 9a bd
       0.071655974 0.053492483 0.033776496 -0.07537725
000040 35 7b 77 3b b2 05 14 ba 29 29 a4 3b 2a 0e 4b bd
       0.0037762646 -0.00056466006 0.0050097895 -0.049574055
000050 0c 5c 22 3d 20 33 73 3c fd 5d 91 bc f1 fc 3f bd
       0.039638564 0.014843732 -0.017745012 -0.046872083
000060 3a eb b3 bb 84 0a fa 3c 5f 5c 46 bd 66 ba 28 3d
       -0.0054906877 0.030522592 -0.048427936 0.04119339
000070 6c 97 44 3d 6b e6 0b bd c0 bb df 3c aa 12 08 bb
       0.04799597 -0.03415529 0.027311206 -0.0020763078
000080 11 bf 8e 3d 77 40 ab bc b0 6d 77 3d b1 f7 f8 3c
       0.06970037 -0.020904763 0.06040734 0.030391546
000090 25 bf ca bb 3a 28 8a bd 19 80 58 3c 56 94 15 bd
       -0.006187337 -0.06745954 0.013214135 -0.036518417
0000a0 f4 cd 91 bd ac f1 85 bd 8f 83 62 3d 56 1f 36 bb
       -0.071193606 -0.06540236 0.055301245 -0.0027789674
0000b0 18 ba 49 bd 69 8e b9 bc 69 18 31 bd e9 50 12 3d
       -0.04924974 -0.022650914 -0.04323617 0.035721693
0000c0 13 84 35 bd 83 a1 4b bc a1 c2 80 bc b6 68 9b bb
       -0.04431541 -0.012428644 -0.015717806 -0.004742707
0000d0 3a fe f2 bb 10 65 7c 3d c5 90 26 bd 4d 21 88 3d
       -0.00741556 0.06161982 -0.040665407 0.066469766
0000e0 c1 8e 1e 3d c6 d9 b2 3c f7 20 27 bd ed 0d 9d 3d
       0.03871036 0.021832358 -0.040802922 0.07668672
0000f0 31 e1 55 3d fb f1 32 3d d6 88 e8 bc 82 38 82 bd
       0.052216712 0.0436878 -0.028385561 -0.06358434
000100 72 85 20 3d 05 5a 49 bc d6 e7 87 3d 19 70 60 3b
       0.039189763 -0.012289529 0.06636016 0.0034246503
000110 22 a3 26 bd fa 5a cf 3c 3c e4 85 3d f5 20 75 bc
       -0.04068292 0.025311936 0.06537673 -0.014961471
000120 37 e9 4d 3d cb 00 86 3d 09 66 96 3d ea 2c 24 bd
       0.05027124 0.0654312 0.073436804 -0.040081896
000130 6e 53 3d 3d aa 38 7d 3b d2 46 db 3c 7f 03 9d bd
       0.046222143 0.003863851 0.026767168 -0.076666825
000140 da 3d dd bc 50 5e a4 3d 1f ea f9 3c d7 2f 52 3d
       -0.027007032 0.08025801 0.030507145 0.051315155
000150 12 23 d4 3c 66 20 63 bd 18 0d 23 bd 81 0a 5f 3d
       0.02589563 -0.05545082 -0.03980741 0.054453377
000160 7a 6f 6e 3d 5c b3 7b bd 6a 89 49 bd 45 6b 41 bc
       0.05821178 -0.061450347 -0.049203314 -0.01180536
000170 1a 52 0a 3b b9 18 80 bc ef 16 9f bd a9 ab 8b bd
       0.0021106065 -0.015636789 -0.07768046 -0.06819851
000180 f3 e3 a2 bd f3 5e cb bc 7e fe 92 bd f3 34 1e 3d
       -0.07953634 -0.024825549 -0.07177447 0.038624715
000190 1b 1f 97 3d 61 98 1a bd c6 b4 45 3d 8d 3e 09 bc
       0.0737898 -0.037742976 0.048268102 -0.00837673
0001a0 0e 35 ea 3c dc e3 38 3d f7 f3 7f bd b2 ee 2e bd
       0.028589752 0.04513918 -0.062488522 -0.042708106
0001b0 51 db ad 3d ca ef 8f 3d 0a 9f 99 3d 85 9c 87 3d
       0.08489097 0.07028158 0.075010374 0.066216506
0001c0 86 10 8a 3d e3 55 fc bc 62 5d c5 bb fb 8e 1e 3d
       0.06741433 -0.030802673 -0.006023095 0.038710576
0001d0 95 d4 67 3d ca e0 36 3d d9 97 75 3d fd fc 88 3d
       0.05659922 0.04464797 0.059959266 0.06688879
0001e0 bc 50 89 bd c9 77 06 bd c9 44 8d 3d 37 aa 97 3c
       -0.06704852 -0.03282908 0.06897885 0.018513782
0001f0 6e 82 02 3d 9f 35 a1 bd 30 0b 6f 3d e0 54 44 3d
       0.03186267 -0.078715555 0.05836028 0.047932506
000200 d8 a0 87 3d c6 e5 a8 3c 4d 8f 1d 3d 45 a3 08 bd
       0.066224754 0.020617377 0.03846674 -0.03335883
000210 25 66 a9 bd 66 4c 88 bd 0b 8d 02 bb 74 cf 91 bd
       -0.08271436 -0.06655197 -0.0019920494 -0.07119647
000220 ba ed 7f bc 1a 5b 3c 3d 6e 1d 49 bb 37 8b 86 3d
       -0.015620643 0.04598532 -0.0030687707 0.06569522
000230 94 62 87 bc 02 77 4b 3d 1a 91 16 bd bf 70 02 bd
       -0.016526498 0.04967404 -0.036759473 -0.031845804
000240 bf a7 54 bc ca a4 e6 bc 9b 4c 88 bc ff ac 85 bd
       -0.012979447 -0.02815475 -0.01663809 -0.06527137
000250 3b 1a 7a 3d 3a 8f 8e bd ce b8 e2 bc 3d 86 6a bd
       0.06106017 -0.06960912 -0.027676012 -0.057256926
000260 33 19 80 bd 83 e3 27 bd ea 55 29 3d ab c3 0c 3c
       -0.06254806 -0.040988456 0.0413417 0.008591573
000270 53 73 92 3d f4 ff 59 3b ee 7f 30 3d b5 f1 ab bd
       0.071509026 0.0033264132 0.043090753 -0.08395711
000280 4d e5 69 bd 94 00 86 bc 4b 3c 9f bc a9 fe 6c bd
       -0.057103444 -0.016357698 -0.01943793 -0.05786005
000290 83 1f ee 3c cd 44 97 3c 2c 2e 12 bc 57 2a ce bc
       0.02906776 0.018465424 -0.008922141 -0.025166674
0002a0 49 79 89 3b 4b 18 8c bd d4 46 f3 3c 8e 8a 5b bc
       0.0041953665 -0.06840571 0.02969686 -0.013399733
0002b0 73 fc 1e bd fb c6 79 3d 28 2a 87 bd ce 5a a8 bd
       -0.038814973 0.06098078 -0.065998375 -0.082204446
0002c0 96 ba d4 bc 65 ac 79 3c 02 e8 0a bd 17 36 96 3d
       -0.025967877 0.015238856 -0.033912666 0.073345356
0002d0 67 cf f5 bc c0 6b 6e bc 49 79 a0 bd 3f 3a 2a bd
       -0.030006124 -0.014552057 -0.07835633 -0.041559454
0002e0 95 26 0f bd c9 39 ee 3c be eb 44 bd ef 81 bd 3c
       -0.034948904 0.029080288 -0.048076384 0.023133246
0002f0 21 86 9c 3d 21 06 a0 bc 41 4a 77 bd 7d b2 f5 3c
       0.076427706 -0.019534172 -0.06037355 0.029992336
000300 53 0d ec bc 81 15 6e 3d c9 98 16 3d 36 12 56 3d
       -0.028814947 0.058125976 0.0367668 0.05226346
000310 fe d6 bf 3b c9 01 66 3d 70 0c 1b bd eb 6c 23 bd
       0.0058544865 0.056154046 -0.03785366 -0.039898794
000320 3a f4 d8 3c 39 cf 1d bd 97 7a 08 3d f5 a5 87 bd
       0.026483644 -0.0385277 0.033320036 -0.06623451
000330 a4 e5 7f ba 7c 4f a6 bc 11 b3 81 3c 23 a1 70 3d
       -0.0009761697 -0.020301573 0.015832456 0.058747422
000340 ba ff e1 3c 84 e8 62 3d eb 48 39 3b 01 ee 78 3d
       0.02758776 0.055397525 0.0028272222 0.060773853
000350 28 3e 12 bd f9 91 32 3c 3c 72 cb 3c b6 c0 8b bd
       -0.035703808 0.01089906 0.024834745 -0.06823866
000360 c4 d1 7a bc c9 65 88 bc f3 8d 95 3c 39 74 85 bc
       -0.015308801 -0.016650097 0.018256163 -0.01629077
000370 62 b5 89 3d a6 3c 37 bd 36 fe 73 3c 7d 4d 1e 3d
       0.06724049 -0.044735573 0.014892152 0.038648117
000380 60 49 9f bd 50 7d 8a bd 1f b2 ba 3d 52 b5 85 3c
       -0.07777667 -0.06762183 0.09116005 0.016321812
000390 ab f5 87 bd 53 6f 47 bd 65 6c 82 3d d3 32 34 3d
       -0.06638654 -0.04869015 0.06368331 0.043993782
0003a0 c3 62 d1 ba 09 57 30 bd c3 d6 5c 3d 0c b8 0d 3d
       -0.0015974868 -0.043051753 0.05391575 0.03459935
0003b0 13 21 97 bd f5 d6 0c bd 34 54 68 bc 03 6b 43 bd
       -0.07379355 -0.034384686 -0.014180232 -0.047709476
0003c0 fe 27 ae bc 73 9c ca bb ed 9d af bd 5e 19 ee bc
       -0.021259304 -0.006183201 -0.08575044 -0.02906483
0003d0 39 7b 97 3d 5b ab 88 bc 56 34 a3 bd 40 1b 25 3d
       0.0739655 -0.016683271 -0.07968967 0.04030919
0003e0 44 f4 57 3c 15 5e 9c 3d 75 19 7a 3d 97 e9 d0 3b
       0.013180796 0.07635132 0.061059434 0.0063755023
0003f0 8f ac a1 bd b8 20 4e bd b6 c2 8e 3d 09 8f 57 bb
       -0.07894241 -0.05032417 0.06970732 -0.0032891652

bias f4 [16]
000000 fb cc 9d bd 19 35 8f bd 81 77 df bc c9 19 a4 bd
       -0.077051125 -0.069925494 -0.027278664 -0.08012731
000010 8d 07 98 bd 2c 95 22 3d da 03 00 3c db b4 32 3d
       -0.07423315 0.039693043 0.007813418 0.04362951
000020 84 e9 30 3d 60 5a c9 bc eb 2a 2c 3d 8f e1 a6 bc
       0.043191448 -0.024579227 0.042033117 -0.020371227
000030 ab 3a 8f 3c 9c 46 53 3c f0 e6 92 3c d8 86 80 3d
       0.01748403 0.012895253 0.017932385 0.062757194

weight f4 [16, 16, 3, 3]
000000 51 75 6e bd f9 6b 03 bd 31 34 1b 3c 20 f7 bc 3c
       -0.05821735 -0.032085393 0.009472893 0.023067057
000010 16 a2 ba 3c 7c 18 8e bd d3 66 a6 bd 60 24 3d 3d
       0.022782367 -0.06938264 -0.08125081 0.046177268
000020 06 57 80 3b c9 06 02 bd c2 7b ad 3c 6b ad 3a bd
       0.003916624 -0.031744752 0.021177176 -0.04557554
000030 d3 9e 03 3d 68 8a cb 3c 2b d3 6f bd 03 e8 a0 bd
       0.03213389 0.02484627 -0.058550995 -0.07856753
000040 2d 58 01 bc 2c 41 05 bd e5 fa 30 3d 9a 24 52 3c
       -0.007894558 -0.032532856 0.04320802 0.012826109
000050 80 63 f4 bd 8a 86 14 be 1c e9 6b 3d 04 bd 4e bd
       -0.119330406 -0.14504448 0.057595357 -0.050473228
000060 43 68 69 bd fc 50 14 3c a3 ed 3d 3c 7e 76 a0 3b
       -0.056984197 0.009052511 0.011592302 0.004896938
000070 29 dd b3 ba bb d4 26 39 a2 50 a7 bd e9 c8 91 3b
       -0.0013722527 0.00015910242 -0.08169676 0.004448999
000080 85 0b 3e 3d 3f 78 0d bd 79 85 f1 bc f8 46 8e 3d
       0.046397705 -0.034538504 -0.02948259 0.0694713
000090 7f 52 a6 3c 94 f2 a3 bd b4 5d b6 3c f7 13 3d 3d
       0.02030301 -0.080052525 0.022261478 0.046161618
0000a0 29 40 f3 bc 58 75 0f bd 20 38 16 bd 9a ce 9b 3c
       -0.02969368 -0.035024017 -0.03667462 0.019019414
0000b0 03 68 a0 bd 4a 0f 98 bb 1d 90 2b bd ee 2b 4f bc
       -0.07832339 -0.0046404945 -0.041885484 -0.012644751
0000c0 84 57 80 bc 57 2d a0 ba 16 c4 5d bd 76 e2 15 3d
       -0.01566673 -0.0012220544 -0.05414208 0.036592923
0000d0 1d 80 77 3d 52 5f a1 bb b5 9b 85 3c a1 78 d0 3c
       0.060424913 -0.004924693 0.016309598 0.025448145
0000e0 21 7d 46 bd ae 13 79 bd 57 21 a8 bd 01 6d c8 bd
       -0.048459176 -0.060809784 -0.08209484 -0.09786416
0000f0 29 b1 27 3d 07 1a 17 be 3d 88 d7 bc 93 7b b6 3d
       0.040940437 -0.14756022 -0.02631008 0.08910289
000100 6f 8b aa bd 6c c2 96 bd c7 5a f4 3c bf d1 ab bd
       -0.08327376 -0.07361302 0.029828442 -0.08389615
000110 3a b7 2d 3d 15 f0 a8 3d 01 5b 52 bd 23 31 0f bd
       0.042411067 0.08248917 -0.05135632 -0.03495897
000120 15 b8 d5 3d 18 b1 93 bd 6d 7a cc 3d 60 3f 30 3d
       0.104355015 -0.07211512 0.09984288 0.04302919
000130 90 94 d2 3d 64 37 df bd 6d c4 85 3d 52 52 02 3d
       0.10282242 -0.10899237 0.06531606 0.031816788
000140 c7 8b 18 bd 20 0d 09 be 4f 08 a7 bc 5e 4a ef 3c
       -0.037242677 -0.13383913 -0.020389704 0.029210266
000150 39 c5 28 3e 43 64 4b bd bb be 49 bc 9f 01 88 bd
       0.16481484 -0.049656164 -0.01231354 -0.06640934
000160 a7 8a 88 bd 5c 5c e1 3d 0a e5 b0 3d b6 fc 9b bd
       -0.06667071 0.11003944 0.08637436 -0.0761656
000170 07 5b 30 bd 3b e3 aa bd 2c 42 29 bd 75 3a 83 bd
       -0.04305556 -0.08344122 -0.041322872 -0.06407634
000180 a7 74 80 3c ce 0c ae bd 54 09 65 3d 8e d5 7b bd
       0.015680624 -0.08498536 0.0559171 -0.06148296
000190 b5 f0 b2 bb bc e8 c2 3d 31 67 a7 bd f3 ad 71 3d
       -0.0054608234 0.09517047 -0.08173979 0.05900378
0001a0 4f 89 82 bd b9 1b 36 bd b1 c4 b2 bd cd 6b 60 bb
       -0.06373846 -0.044460032 -0.08728922 -0.0034243942
0001b0 a1 3f ca 3d 12 9e f2 bd 3c 84 b8 3c 3c 3f e8 3c
       0.098754175 -0.11846556 0.022523992 0.028350465
0001c0 e3 74 b8 bd f5 96 56 bd f1 33 3f bc 26 e0 b2 3d
       -0.09006669 -0.052390058 -0.011670099 0.08734159
0001d0 06 79 01 be 8d 54 0a 3d 10 6f 23 3d 35 40 09 3d
       -0.12643823 0.03377204 0.03990084 0.0335085
0001e0 5e ca a3 3c 36 b8 b4 bd ab 15 8e 3c f5 19 cc bc
       0.019993957 -0.08824198 0.017344316 -0.024914721
0001f0 2b e8 b5 3c 1e b7 f2 bc ff b6 82 3d 80 e6 4a 3d
       0.022205433 -0.029628333 0.0638256 0.04953623
000200 f3 43 7c bd 61 62 1c bc 55 1a 83 3d 51 2f f1 3c
       -0.06158824 -0.00954494 0.06401507 0.029441508
000210 ff a3 2e bd 21 21 83 bc c5 b8 b5 bd 3e 17 5d 3d
       -0.042636868 -0.016007008 -0.088731326 0.053977244
000220 87 0b a6 bd db e3 d7 bc e7 c9 c8 bb 0c d1 5b bd
       -0.081076674 -0.026353767 -0.0061275843 -0.05366616
000230 39 e0 5e bd 24 61 62 bd 88 4b 4e 3d 0c e1 1f bc
       -0.054413054 -0.05526842 0.050365 -0.009758245
000240 f9 d6 82 bd 36 fc 34 3d c1 b5 8f bc ce 18 31 3c
       -0.06388659 0.04418584 -0.017542722 0.010809137
000250 a7 e0 9f 3c 71 92 fb bb 12 9a 94 bd bb c2 66 bc
       0.019516302 -0.0076773693 -0.07255949 -0.014084513
000260 6a 94 8d 3d 6d 48 ce bc f0 08 8f 3d 69 af bc 3b
       0.06913073 -0.02518102 0.069841266 0.005758215
000270 36 04 9b bc 38 e6 f8 3a 99 fb 28 bd 12 87 d6 3c
       -0.018922906 0.0018989509 -0.041255567 0.026187453
000280 ef 77 49 bd 54 b5 27 bd c7 63 8d bd 46 7b 1b 3d
       -0.049186643 -0.040944412 -0.06903797 0.03795936
000290 73 1b 49 3d d5 1a 3c 3d a3 13 11 bd dc 98 e2 bc
       0.049098443 0.045924027 -0.035419118 -0.02766078
0002a0 05 3f 49 3b 26 23 8a bd 78 89 3a 3a da 9e f9 3c
       0.0030707729 -0.06744985 0.00071158214 0.030471254
0002b0 73 dc 89 3d 85 10 7f bd 88 f9 a8 3c 60 a4 97 3d
       0.067315005 -0.062271614 0.020626798 0.07404399
0002c0 5a 8d a2 3c de 55 24 bd a6 31 2b 3d 70 fc 56 3d
       0.019842792 -0.04012095 0.041795395 0.052486837
0002d0 e3 ee a0 bd 86 87 90 ba e2 a4 82 bd ff 97 31 bd
       -0.07858064 -0.0011026717 -0.06379105 -0.043357845
0002e0 05 09 e9 bc 1c 63 74 3c ea 6b ef 3c db ba 87 bc
       -0.028446684 0.014916208 0.029226262 -0.016568592
0002f0 02 13 50 bc 08 4f c9 bb 7a 1c ae bd f9 93 01 bc
       -0.012699844 -0.0061434545 -0.08501525 -0.007908815
000300 ba a3 46 3b 89 64 8b 3d 99 42 7b bd c6 f6 42 3d
       0.003030999 0.06806285 -0.06134281 0.047598623
000310 87 74 f6 3c bb 94 3f bd 55 51 64 bd f8 66 0b bd
       0.030084861 -0.0467727 -0.055741627 -0.034033746
000320 09 52 bd 3d 03 5c 81 bb 6c 06 9f bd 87 3f 77 3d
       0.092441626 -0.003947736 -0.07764897 0.06036332
000330 77 63 10 bd 2c 48 9b bd 48 37 bf 3d f6 1e 7c bd
       -0.035251107 -0.07582125 0.09336716 -0.061552964
000340 38 e9 81 bd 67 93 c4 3c a5 29 97 3d 44 6f 76 bd
       -0.06343311 0.023996068 0.0738099 -0.060164705
000350 87 92 9d 3d 5b a4 7f 3d 09 39 0a 3c 75 1d 94 bd
       0.076939635 0.0624126 0.00843645 -0.07232181
000360 3f 06 87 3d 0c a1 a0 3d ce 28 85 3d 90 97 60 bd
       0.06592988 0.07843217 0.065019235 -0.05483204
000370 b3 f8 9a 3d ba 29 89 3d 76 07 7c 3c ae 41 6c bd
       0.07566967 0.06697412 0.015382638 -0.057679825
000380 37 b6 32 bc ce e5 a8 3d 2a 48 d3 3c b0 22 bb bb
       -0.010907701 0.08246957 0.025791246 -0.005710922
000390 55 54 7f bd b6 19 f6 bd 68 80 c0 3c e4 84 d7 bc
       -0.062336285 -0.12016623 0.023498729 -0.026308484
0003a0 6e 70 92 3c 72 14 e0 bc 72 62 83 bd a4 6f 8b 3c
       0.017875876 -0.0273535 -0.06415261 0.017021008
0003b0 02 6b db 3b b0 fc 0f 3d 57 89 44 bc 42 13 af 38
       0.006696106 0.03515309 -0.011995635 8.348237e-05
0003c0 da 08 69 bd 2c 5b 77 bd 97 83 1d 3d 11 47 ac bd
       -0.056893207 -0.060389683 0.038455572 -0.08411992
0003d0 4d 55 3a 3b 3a ec 3e bd a6 c1 32 bd 32 ad cd bd
       0.002843219 -0.046612002 -0.04364171 -0.100428
0003e0 1d 27 e0 3d 5b 8a b6 bc e0 7e 10 bd 68 d7 b1 3d
       0.1094496 -0.02228277 -0.035277247 0.086836636
0003f0 9f 27 6c 3d b2 3f 8a bc eb 08 a9 bd 88 f1 68 3d
       0.057654973 -0.016876075 -0.08253654 0.056870967

bias f4 [16]
000000 62 90 95 3c 4a cf 97 3d 18 94 33 bd 25 eb 63 bd
       0.018257324 0.07412584 -0.043842405 -0.055644173
000010 ea f1 a1 3b b0 6c f4 3c 4a 7c 66 bd e7 23 2b 3b
       0.0049421685 0.029836982 -0.056270875 0.0026113929
000020 42 0f 9e 3d 6e a2 9a 3c 6b c6 f6 bc 71 2d c1 bd
       0.07717754 0.01887628 -0.03012391 -0.094324954
000030 a5 65 98 3d 77 4a c9 3c 96 97 91 bc b5 fe f0 3b
       0.07441262 0.02457164 -0.017772477 0.007354582

weight f4 [64, 16, 3, 3]
000000 45 f9 a5 bd 65 ee 8b 3d ea 63 ab 3d c2 e1 36 bd
       -0.08104185 0.068325795 0.083686665 -0.044648893
000010 69 9a c6 bd db c3 86 bc 1c 38 b5 bc e7 b6 c4 bd
       -0.0969742 -0.016450813 -0.022121482 -0.09605198
000020 89 d8 b3 3c 26 6b 33 bd e4 08 83 bd fe c2 f4 3c
       0.021953838 -0.043803357 -0.0639818 0.029878136
000030 40 74 77 3b 63 ed 0d bd 66 a5 89 bd c6 f4 24 bd
       0.00377585 -0.034650218 -0.067210004 -0.040272497
000040 65 5f c2 3c 5a 5f 76 bc 0c 56 68 3d 58 e5 20 3c
       0.023727128 -0.015037382 0.056722686 0.009820305
000050 67 4b 0e 3b 50 59 6d 3d 4d 2a ac ba c8 fb cf 3d
       0.0021712424 0.057946503 -0.0013135165 0.10155445
000060 d1 26 8c 3d be 97 c2 bd 06 f7 64 bc 9b e5 20 3b
       0.06843341 -0.09501599 -0.013974911 0.0024550918
000070 b2 33 bc 3c 03 45 66 bd ed 5e aa bc 99 ce 2f 3c
       0.022973869 -0.05621816 -0.020797217 0.010730409
000080 e4 5c db bc 58 c8 f5 3c 35 b0 f6 bc bc 0c 7b bd
       -0.026777692 0.030002758 -0.030113319 -0.06129144
000090 e0 57 ba 3b 2b 9b 54 3c 77 6e 86 3d dc e0 54 bb
       0.005686745 0.012976448 0.06564038 -0.003248266
0000a0 b4 5f a5 3c ea 1e 44 bd 98 1c 65 bd 2b 36 ed 3c
       0.020187236 -0.047881044 -0.055935472 0.028956493
0000b0 48 3d a3 bd 76 6b 24 bd cb dd 6a 3d 60 4d 68 bd
       -0.07970673 -0.040141545 0.057340425 -0.056714416
0000c0 81 cd c6 3b 92 dc 9e 3d ec 02 64 3b 01 dd bf bc
       0.0060669784 0.07756914 0.003479178 -0.023420813
0000d0 29 c7 6c bd 1e e7 8c bc 60 da 28 bd 7c 34 5c bd
       -0.05780712 -0.017200049 -0.041223884 -0.05376099
0000e0 28 8d 25 bc 83 e0 a5 bd 5b 76 a0 3d d2 f6 e4 bc
       -0.010104455 -0.08099463 0.078350745 -0.027949724
0000f0 9c 62 3e bd 5e d2 f0 3b 76 37 95 bc 13 4f 90 3d
       -0.04648076 0.0073492965 -0.018214922 0.07046332
000100 c9 9d 8f 3c 8c e0 40 bd 87 04 c7 bb 18 0b 85 bd
       0.017531293 -0.047089145 -0.0060735377 -0.064962566
000110 b8 50 01 3b 64 70 41 3d b3 f3 1e bd 4a 8e 1e bd
       0.001973195 0.047226325 -0.03880663 -0.038709916
000120 0f 5f 2e 3d 3b d1 4a bd 40 ca 5d bd 35 85 8d bd
       0.042571124 -0.049515944 -0.05414796 -0.06910173
000130 e6 8d 81 bd 2a 90 6d 3c 7f 44 cf bd e2 f1 0b bd
       -0.06325893 0.014499703 -0.101204865 -0.034166224
000140 1d 12 b3 bd 96 b0 48 bd 83 31 ce bd bd d3 5c 3d
       -0.08743689 -0.04899653 -0.10068037 0.053912867
000150 97 72 87 3c b7 4e 90 bd 32 4e 18 bd ac a1 a0 bb
       0.016534133 -0.07046264 -0.037183948 -0.0049020853
000160 4c d9 ea bc b7 0c e8 bc 97 3f ef 3c a3 b5 18 3d
       -0.028668068 -0.028326375 0.029205127 0.037282597
000170 7b 5a 76 bb 66 ec 14 bd df 34 97 bd 7c ec 0a bd
       -0.0037590552 -0.03635826 -0.07383131 -0.033916935
000180 81 5a e3 bc b6 0e 8e 3d 75 03 30 bd 11 94 6f bc
       -0.027753117 0.069364 -0.042972047 -0.014622704
000190 b8 1a ec 3b b8 33 9e bc 9b 5c bb ba 10 87 c0 3c
       0.0072053336 -0.01931177 -0.0014294566 0.023501903
0001a0 0b f8 0d 3d de 76 5d bd 97 c5 c4 3c 1c 84 02 3d
       0.03466038 -0.05406844 0.02402 0.03186427
0001b0 1f 43 03 bd 18 9b b1 3d 5c 99 98 bd a5 05 53 3c
       -0.032046434 0.0867216 -0.07451126 0.012879764
0001c0 7e be e2 bc 16 7b 24 3d 8b 92 9b bc 3c 26 2a 3d
       -0.027678724 0.040156446 -0.018990776 0.04154037
0001d0 b8 5f 7e 3d dd ff 10 3c bd b3 a7 3d 1d 57 92 bd
       0.062103003 0.008850065 0.08188579 -0.07145522
0001e0 59 c3 88 bc ea f0 7a bc ee ab 4c 3d 22 01 c9 3c
       -0.016694712 -0.015316227 0.049968652 0.024536673
0001f0 28 a6 ae 3c d8 6e eb 3b f3 df 49 3c c6 c3 6f bd
       0.021319464 0.0071848445 0.01232146 -0.058536313
000200 6e cb 32 3d 9d 1c b1 3c 5a 45 b2 bc 81 f6 0b 3d
       0.043651037 0.02162009 -0.021761585 0.03417063
000210 ca 77 1a 3d af f0 66 bb d2 82 ad bd 24 35 47 bd
       0.037711896 -0.0035238673 -0.084722176 -0.048634663
000220 2f aa b9 3b b5 0a 8d bd 45 e0 9b 3d e6 e2 4d bd
       0.0056660394 -0.06886808 0.076111354 -0.050265215
000230 f2 04 0c 3d f8 d0 02 bd 9a ca df 3c 4f 13 a2 3c
       0.034184404 -0.03193757 0.027318288 0.019784598
000240 84 15 67 bc 7a b6 27 bd a3 bb 1a 3b f4 04 9f bd
       -0.014104251 -0.040945508 0.0023610375 -0.077646166
000250 26 72 d5 bc 27 c0 a3 3d 52 7a 75 3d b3 fc 7b 3c
       -0.026055407 0.079956345 0.059931107 0.015380072
000260 61 0b b4 bc 98 5f 71 bc 84 5b 99 3d 87 e0 e0 3b
       -0.021978082 -0.014732264 0.07488158 0.0068627032
000270 06 fc c6 3c 40 b0 14 bd dd fc 93 bc 1d 67 30 3d
       0.024290096 -0.036300898 -0.01806491 0.043067086
000280 55 bc ac bd c3 7f 40 3d 21 83 90 3d 44 53 6c bc
       -0.08434359 0.046996843 0.07056261 -0.014424149
000290 05 bf 98 bd d2 32 31 bd 05 ab c9 3d 10 55 b2 3d
       -0.07458309 -0.043261357 0.098470725 0.08707631
0002a0 cf 83 7c 3c bf cf c9 3c 7f f4 d7 bd 21 3c ab bd
       0.015412285 0.024635194 -0.10544681 -0.08361078
0002b0 39 01 1e bd c1 db db 3c 8f dc 57 bc d1 15 c5 bd
       -0.038575385 0.026838185 -0.013175144 -0.09623302
0002c0 fb 6e 27 bd a9 94 c2 3d 7e 8d 25 bd 14 37 8a 3d
       -0.040877324 0.09501011 -0.04041814 0.067487866
0002d0 97 c0 28 bc aa 94 2a bc 22 47 e4 bc 13 20 d0 3d
       -0.010299823 -0.010411421 -0.02786595 0.10162368
0002e0 4e c0 fb bd 3b e0 75 3c 26 db 8f bd 82 3b ca bc
       -0.122925386 0.015007074 -0.07024221 -0.024686579
0002f0 78 88 cd bd 7f 37 a3 bd 19 fb 10 3d 43 f4 3b 3c
       -0.10035795 -0.079695694 0.035395715 0.011471811
000300 d4 c7 5b bd 53 9d 62 3d 86 4d a3 3c df b4 f3 bc
       -0.053657368 0.055325817 0.019934427 -0.029749332
000310 f0 f2 c7 3c eb 0e 02 bd 12 18 97 bc a4 20 0f bb
       0.024407834 -0.031752508 -0.018444095 -0.0021839524
000320 ee 54 42 3d 6f 8b 3c bd b2 f6 15 3c 09 20 a5 3c
       0.047444277 -0.04603141 0.009153055 0.020156877
000330 f5 c7 46 3d cc 57 90 3c b8 7a 80 3c da a4 07 bd
       0.048530538 0.01761999 0.015683517 -0.0331162
000340 f1 5c d3 3c c3 73 cc bc d6 83 91 bd 36 db 49 bd
       0.025801154 -0.024957543 -0.07105224 -0.04928132
000350 94 7c 48 3d 8d b5 df bb f2 31 9c bd d5 87 44 3d
       0.048946932 -0.0068270625 -0.07626714 0.047981102
000360 97 4f 57 3d eb 22 74 3d 21 92 ac bd 79 f7 60 3c
       0.052566137 0.059603613 -0.084263094 0.013730877
000370 bb 7d e8 3c 06 b5 d8 bc ca d3 05 3c 52 81 00 bd
       0.028380265 -0.026453506 0.00816817 -0.03137333
000380 d6 5e 92 bc 6b 8e 6e 3d 07 42 07 3d 59 b2 6c bd
       -0.017867487 0.05824129 0.033021953 -0.057787273
000390 26 4b 57 bd dc 9a 93 bc 4f 0a 83 bd 7f 40 42 bd
       -0.0525619 -0.018018179 -0.063984506 -0.04742479
0003a0 1b 1d 0f 3c ab 7d 99 bd 38 13 72 bb 5d c7 a0 3d
       0.008734967 -0.074946724 -0.0036937725 0.078505255
0003b0 fa d1 a4 bd 47 c5 6d 3d 52 bf f5 3b db ac 83 3c
       -0.08047862 0.058049466 0.007499614 0.016073635
0003c0 c8 5e 54 3c 9e a3 34 3c 03 57 9f 3c 03 05 b4 3c
       0.012962051 0.0110253375 0.01945067 0.021975046
0003d0 26 32 05 bc 1d 33 86 bd e1 0c 7f 3b 99 81 81 3c
       -0.008129632 -0.06552718 0.0038917589 0.015808867
0003e0 dd 31 54 3d 0b 13 10 3d 81 53 f5 3c 5d 59 5d 3d
       0.051805366 0.03517441 0.029947044 0.0540403
0003f0 7d 58 84 3d 2c 5b a9 3d d2 a5 65 3c 82 e0 20 3c
       0.0646219 0.08269343 0.014016585 0.009819152

bias f4 [64]
000000 e6 fb 93 3d 4f c6 92 bc 39 49 c1 bc fa 5a 6b 3d
       0.0722578 -0.017916827 -0.023594486 0.05745981
000010 8a 73 0b bc 1b e5 ad bc af a7 89 3a ff c8 3d 3d
       -0.008511433 -0.02122741 0.0010502244 0.046334263
000020 99 8b 08 bd 6e 2b b0 bc 5c 1f 9d 3d eb 43 37 bd
       -0.033336256 -0.021505084 0.07671997 -0.044742506
000030 c1 53 41 3d 4e 0d 5d 3c a3 4f 0f 3d ed 5a 52 bd
       0.047199015 0.013491942 0.034988057 -0.051356245
000040 48 59 24 3d 70 78 62 b9 54 00 bd 3d e8 e1 99 3c
       0.040124208 -0.00021597906 0.09228578 0.018784478
000050 cd af c9 3c ef 76 3f 3b c2 bb a5 bc 14 da 22 3d
       0.024619961 0.0029215177 -0.020231131 0.039758757
000060 4d fe 0e bd b3 df a0 3d 77 1a fb ba c6 15 47 bd
       -0.03491049 0.07855167 -0.0019157667 -0.04860475
000070 a1 f4 44 bd ff 9e 8b bd 8d 15 f1 bb d9 a8 00 3d
       -0.04808486 -0.068174355 -0.0073573054 0.031411026
000080 7d f3 86 3b 20 16 14 3d 69 1b 2d 3d e9 41 42 bd
       0.0041183815 0.036153913 0.04226247 -0.047426138
000090 22 87 a2 3c 36 d3 60 3c 88 69 2e 3d e3 0d 80 3d
       0.019839827 0.013722232 0.04258111 0.06252649
0000a0 12 7a 96 bc d2 de a5 3d 28 86 00 bd 8d 7a a5 3d
       -0.018368755 0.0809914 -0.03137794 0.08080015
0000b0 b8 25 88 bd 35 cd af bd 64 62 a8 bd 83 96 80 bc
       -0.06647819 -0.08584062 -0.082218915 -0.01569677
0000c0 d5 7e c4 3c a1 43 21 3c 43 f7 c4 bc 8d 0c 0d 3d
       0.02398626 0.009842784 -0.024043685 0.034435797
0000d0 18 1b af bd 35 01 93 3d 6d ce 5d bd a1 e9 42 bd
       -0.085500896 0.071779646 -0.05415194 -0.047586087
0000e0 3a f6 3d bd 7b 9c 78 bd b5 e5 ff bc d0 94 aa bd
       -0.046377398 -0.060696106 -0.031237463 -0.08329165
0000f0 1c da 31 3d e3 7a 58 3c ce b6 b0 3c db 0d b1 bd
       0.043420896 0.013212892 0.021571543 -0.08645221
