working/model_pretrained/net_F16B2_epoch_1.pth (torch_old, 135469 bytes, 16 tensors)

weight f4 [16, 3, 3, 3]
0	0x3e0d808f	0.13818572
1	0xbe023359	-0.127149
2	0xbe1d855d	-0.15382905
3	0xbe07b5ed	-0.13252993
4	0x3e19302a	0.1495978
5	0x3dfe7a93	0.12425723
6	0xbe1d1b36	-0.15342411
7	0x3e2de5f4	0.16982251
8	0xbd95d9c1	-0.07316924
9	0xbe397d53	-0.18114214
10	0xbd810dc7	-0.06301456
11	0xbc8bd8fe	-0.017071243
12	0xbdeeca1c	-0.11659643
13	0x3dc9c692	0.098523274
14	0x3e22a9c8	0.15885079
15	0x3da9fb21	0.08299852
16	0xbe1482ae	-0.14502975
17	0x3e286e5c	0.16448349
18	0x3c0664c8	0.008202739
19	0x3de48f62	0.111601606
20	0x3e3d1664	0.18465573
21	0xbccfcaca	-0.025365252
22	0xbdcbed8e	-0.09957419
23	0x3d8089c8	0.0627628
24	0xbddd5278	-0.10806745
25	0xbe257e93	-0.16161565
26	0x3dc335f4	0.09531775
27	0x3e00cbe3	0.12577777
28	0x3d8ca272	0.068669215
29	0xbe1ada8e	-0.15122434
30	0xbd15eb4e	-0.036601357
31	0xbd5d1d50	-0.053983033
32	0xbdad36d4	-0.08457723
33	0xbce140ce	-0.027496722
34	0x3e1687d2	0.14700249
35	0xbe243f9b	-0.16039889
36	0x3c44ee55	0.012019713
37	0x3dcb521b	0.0992777
38	0x3d3707c7	0.04468515
39	0x3e31a913	0.17349653
40	0x3c96ef67	0.018424703
41	0xbe13963e	-0.14412782
42	0xbdfd729d	-0.123753764
43	0xbc504626	-0.012712037
44	0x3b8768d2	0.0041323686
45	0x3d4221c2	0.047395475
46	0xbcbd46b1	-0.023104997
47	0xbdab1654	-0.08353868
48	0xbe12c257	-0.14331947
49	0x3d8f59ac	0.069995254
50	0x3c377812	0.011198061
51	0xbdd10484	-0.102059394
52	0xbe06e612	-0.13173702
53	0xbd72458f	-0.059148367
54	0xbba8e73c	-0.0051545184
55	0x3e42eddc	0.19036049
56	0x3e3a1b4c	0.18174475
57	0xbcef3f74	-0.029205061
58	0x3df76ad0	0.1208092
59	0x3e3f9e03	0.1871262
60	0x3c2b8ba1	0.010470302
61	0xbe316d33	-0.17326812
62	0x3e190931	0.14944912
63	0xbd371241	-0.044695143
64	0xbe2ae39d	-0.1668839
65	0xbca37bdd	-0.019956524
66	0x3db0ba44	0.08629277
67	0xbd2cd215	-0.042192537
68	0x3c6f12a1	0.014591844
69	0xbdab2d2b	-0.083582245
70	0xbe116f3d	-0.1420259
71	0xbe11eeff	-0.14251326
72	0x3db8200f	0.0899049
73	0x3e26c918	0.16287649
74	0x3ac14d91	0.0014747848
75	0xbdc04f20	-0.09390092
76	0xbd931c15	-0.071830906
77	0x3c987f54	0.018615402
78	0xbdd4389a	-0.103623584
79	0xbe111ff6	-0.14172348
80	0xbe17ee33	-0.1483696
81	0xbe24498f	-0.16043685
82	0xbdc974cd	-0.09836731
83	0x3e0fa13e	0.14026353
84	0x3dc84b43	0.0977998
85	0xbca6d471	-0.020364972
86	0xbbd822b3	-0.0065959333
87	0xbccb50e2	-0.024818841
88	0xbddc1f6b	-0.1074818
89	0xbce27418	-0.027643248
90	0xbc6d6b23	-0.014490875
91	0xbdc27e8e	-0.09496795
92	0xbd65ce42	-0.056104906
93	0xbddf6865	-0.109085836
94	0x3cc675d4	0.024226107
95	0xbdad102c	-0.0845035
96	0xbdb44223	-0.08801677
97	0x3d4dd90d	0.050255824
98	0xbb549096	-0.0032434813
99	0x3d19c05e	0.03753697
100	0x3e0c3b4f	0.136945
101	0xbe19c4ad	-0.15016432
102	0xbdc74c83	-0.0973139
103	0x3e3522b4	0.1768902
104	0x3e01ba9f	0.12668847
105	0xbe268efc	-0.16265482
106	0x3de2fa70	0.110829234
107	0x3bb31b9e	0.0054659387
108	0xbd69a363	-0.057040583
109	0xbe12e08d	-0.14343472
110	0x3da781e9	0.08179075
111	0xbdde2a97	-0.10847967
112	0x3dc604a8	0.09668857
113	0xbdc279b7	-0.094958715
114	0xbe2607d5	-0.16213925
115	0x3d9378a9	0.072007485
116	0xbbdaa271	-0.0066721966
117	0x3d8325b2	0.06403674
118	0xbd553815	-0.052055437
119	0x3bb639d8	0.0055610947
120	0xbc9e756c	-0.0193431
121	0x3d82266a	0.06354983
122	0xbcce3bf5	-0.025175074
123	0xbd8f3bf6	-0.069938585
124	0x3ddfdc80	0.10930729
125	0xbe059bf7	-0.13047777
126	0x3e37e322	0.17957738
127	0x3da0954c	0.07840976
128	0x3e2c9d68	0.1685692
129	0xbdb0ce48	-0.08633095
130	0x3d964084	0.07336524
131	0xbbcbebf6	-0.006223197
132	0x3dd937b6	0.10606329
133	0xbda3c917	-0.07997339
134	0x3d1a80c3	0.037720453
135	0xbdd066a5	-0.10175828
136	0x3df5f729	0.12010033
137	0xbd1d65f2	-0.0384273
138	0xbdfeffd0	-0.12451136
139	0x3e0d74c6	0.13814077
140	0xbe2a3deb	-0.16625182
141	0x3d9502ea	0.072759464
142	0x3bd817ed	0.006594649
143	0xbd0a9991	-0.03383786
144	0x3e43302d	0.19061346
145	0x3e219110	0.15777993
146	0x3e0636de	0.13106868
147	0xbe20488f	-0.15652679
148	0x3e334da9	0.17510094
149	0xbbddb14d	-0.0067655207
150	0xbd6db296	-0.05803164
151	0x3d6d8834	0.05799122
152	0xbb1e36a3	-0.0024141453
153	0xbde450a9	-0.11148197
154	0x3c6ab7e1	0.014326067
155	0xbbf425e0	-0.007450804
156	0xbe0dca49	-0.13846697
157	0xbe38a165	-0.18030317
158	0x3dde090f	0.108415715
159	0x3dd78a29	0.10524399
160	0xbd7fa751	-0.062415425
161	0x3dd0ada6	0.10189371
162	0x3d1c08f0	0.03809446
163	0xbc78cfa5	-0.015186225
164	0x3ca59640	0.020213246
165	0x3e2bceee	0.16778156
166	0xbe05faa2	-0.1308389
167	0x3e2b1571	0.16707398
168	0x3e142f05	0.14471062
169	0xbe379960	-0.17929602
170	0xbe3f9592	-0.187094
171	0xbe2e1669	-0.17000736
172	0x3cae7d4c	0.02129998
173	0x3cdd2af4	0.02699802
174	0xbe272860	-0.16323996
175	0xbe422a2d	-0.18961401
176	0xbdfb6d54	-0.12276712
177	0xbd91917e	-0.071078286
178	0xbdf6e09a	-0.12054558
179	0x3e32e7f1	0.17471291
180	0x3dce8989	0.100848265
181	0x3e0e55c6	0.13899907
182	0x3df0aece	0.11752091
183	0xbd80ab37	-0.06282657
184	0x3e05e72e	0.1307647
185	0x3e104ef3	0.14092617
186	0xbd389f82	-0.045073994
187	0xbdc38e7e	-0.095486626
188	0xbd2e07b4	-0.042487815
189	0xbadd270b	-0.0016872598
190	0xbe206b9b	-0.15666048
191	0xbdac4cd7	-0.084130935
192	0x3e2e64fd	0.17030711
193	0x3daa29bf	0.08308744
194	0xbdf98990	-0.12184441
195	0xbdc27bfa	-0.09496303
196	0xbcce6da3	-0.025198763
197	0x3cb428a2	0.021992031
198	0x3e23b44a	0.15986744
199	0x3d3ce9ee	0.04612153
200	0x3e247b02	0.16062549
201	0x3e203043	0.1564341
202	0x3db56be3	0.088584684
203	0x3d339079	0.04383895
204	0x3d1427f6	0.036170922
205	0x3de2c694	0.11073032
206	0x3b8ced4e	0.00430075
207	0xbdba4a8e	-0.090962514
208	0x3e093ecf	0.13402866
209	0x3db45d4f	0.0880686
210	0xbd7e123f	-0.06202912
211	0xbe02286b	-0.1271073
212	0x3d19cc88	0.03754857
213	0x3dcf1439	0.10111279
214	0x3e3493e0	0.17634535
215	0xbd1e92c8	-0.0387142
216	0xbe3a3264	-0.18183285
217	0x3dbc1137	0.09182971
218	0x3d1e5c21	0.03866208
219	0xbe20e79c	-0.15713352
220	0xbe22b54b	-0.1588947
221	0x3e2471db	0.16059057
222	0x3e0ecedd	0.139461
223	0xbdb2e869	-0.08735735
224	0xbdc4a76d	-0.096022464
225	0x3e18b4e6	0.14912757
226	0xbc7a55e8	-0.015279271
227	0x3e351288	0.1768285
228	0xbce5871a	-0.028018523
229	0xbd72ef9b	-0.059310537
230	0xbe24b56e	-0.16084835
231	0x3e07402f	0.13208078
232	0x3db7ddab	0.08977827
233	0xbd9d17a6	-0.07670526
234	0xbc73c1aa	-0.014877716
235	0xbd89a033	-0.06720009
236	0x3e2b4a84	0.16727644
237	0xbc90bf29	-0.017669277
238	0x3e1836d6	0.14864668
239	0xbd27517c	-0.040849194
240	0x3d24cf01	0.040236477
241	0x3d98e28a	0.07465084
242	0xba5f5b44	-0.00085203745
243	0xbdcd1abc	-0.10014865
244	0xbd59b8ac	-0.053154632
245	0x3b556325	0.0032560315
246	0xbdb49ec6	-0.08819346
247	0x3bb29ebb	0.005451051
248	0x3e33c8bc	0.17557043
249	0xbe06d346	-0.13166532
250	0xbc85dc37	-0.016340358
251	0xbc60bd58	-0.013717018
252	0x3da7d700	0.08195305
253	0xbe29c968	-0.16580737
254	0x3d8b18f3	0.06791868
255	0xbd1c7bbc	-0.03820394

bias f4 [16]
0	0x3db1b8c2	0.08677818
1	0x3e043a02	0.12912753
2	0x3e1ec543	0.15504937
3	0x3d85bff7	0.06530755
4	0xbde363a1	-0.11102987
5	0x3d4104fa	0.047123887
6	0x3e3bb99f	0.18332528
7	0x3e1ecdb4	0.15508157
8	0x3cd34a3a	0.02579223
9	0x3df31c12	0.11870588
10	0x3e0088f3	0.12552242
11	0x3e38f683	0.18062787
12	0x3d995797	0.074874096
13	0xbcd02d75	-0.0254123
14	0xbc391abf	-0.011297881
15	0xbde24f59	-0.110502906

weight f4 [16, 16, 3, 3]
0	0x3d15280f	0.036415156
1	0x3d1939be	0.037408583
2	0xbd91470f	-0.070936315
3	0xbb03ee16	-0.0020130924
4	0x3dd640ab	0.10461553
5	0xbd0dd3e6	-0.03462591
6	0x3d9d53a8	0.07681972
7	0xbd69df06	-0.057097457
8	0x3c50b79e	0.01273909
9	0xbcb23e68	-0.021758273
10	0x3d6a0480	0.057133198
11	0xbd5647ea	-0.052314676
12	0xbbe76d91	-0.007062622
13	0xbc0fdc25	-0.008780514
14	0xbd70bc09	-0.058773074
15	0x3ca7c8c8	0.020481482
16	0x3d182994	0.037149027
17	0x3d07b986	0.033135913
18	0x3be6c3d9	0.00704239
19	0x3d3a14ba	0.045429923
20	0xbc978247	-0.018494738
21	0xbd759399	-0.059955213
22	0x3c72145c	0.014775362
23	0xbd8dcd87	-0.06923967
24	0xbd3055d0	-0.043050587
25	0xbd35c911	-0.044381205
26	0x3d0cca29	0.034372482
27	0xbd3ec76e	-0.04657691
28	0x3c889e96	0.016677182
29	0xbba350a7	-0.0049839797
30	0xbd266656	-0.04062494
31	0x3d9d197e	0.07670878
32	0x3d92bc26	0.07164793
33	0xbb3dbbd4	-0.0028951066
34	0x3d795daa	0.06088034
35	0x3cba892b	0.022770485
36	0x3d052d4e	0.03251391
37	0xbbd85319	-0.006601703
38	0xbb59446f	-0.0033152362
39	0xbd609cbb	-0.05483697
40	0x3da6cf91	0.08145059
41	0xbd299e2c	-0.04141061
42	0xbc236e65	-0.009975051
43	0xbccf90f4	-0.025337674
44	0xbd4f3d99	-0.050595853
45	0x3d91282f	0.070877425
46	0xbd8ad0af	-0.067780845
47	0x3db7ad13	0.08968558
48	0xbd759d03	-0.05996419
49	0xbc1619a4	-0.009161387
50	0xbd21990f	-0.03945261
51	0xbceb01b9	-0.028687345
52	0xbd577d44	-0.052609697
53	0x3db1fd8a	0.08690937
54	0x3c007fda	0.007842982
55	0xbd2a08aa	-0.04151217
56	0x3d1eca95	0.038767416
57	0xbdbe4149	-0.09289796
58	0xbd1d37c7	-0.03838327
59	0xbcc1d12e	-0.023659315
60	0xbc320fee	-0.010868056
61	0x3b5fdf39	0.003416015
62	0xbd848418	-0.064705074
63	0xbd93ced4	-0.07217184
64	0xbd757d7d	-0.059934128
65	0xbd87f664	-0.06638792
66	0x3bd9922c	0.0066397395
67	0xbcc250bf	-0.023720143
68	0xbd01d406	-0.031696342
69	0x3db0d043	0.08633473
70	0x3cc7ba26	0.024380755
71	0xbd51b056	-0.051193558
72	0xbd5e182b	-0.054222267
73	0x3d549429	0.05189911
74	0xbc926104	-0.017868526
75	0x3d846016	0.064636394
76	0xbcd8eed0	-0.026481062
77	0x3d18286c	0.037147924
78	0xbd90a117	-0.070619754
79	0x3cf1c454	0.029512562
80	0xbcd6408e	-0.026153829
81	0x3d26f0ca	0.040756978
82	0xbc273798	-0.010206126
83	0x3d9686dd	0.07349942
84	0x3dd006ac	0.101575226
85	0xbc773869	-0.015089133
86	0x3db910c5	0.09036402
87	0x3d1d74a0	0.0384413
88	0xbd88505d	-0.06655953
89	0x3c96618f	0.018357066
90	0xbd473853	-0.0486377
91	0x3b6419ef	0.0034805497
92	0x3c171935	0.009222318
93	0x3d12aff9	0.03581235
94	0xbca456cd	-0.020060921
95	0x3ce97be4	0.028501458
96	0xbb97586c	-0.004618695
97	0xbb57afb4	-0.0032911124
98	0x3d7777bd	0.060416926
99	0x3b47a0ed	0.003046091
100	0x3c137c6d	0.009001833
101	0xbd9963e7	-0.07489758
102	0xbd615af6	-0.055018388
103	0x3cf617bc	0.030040614
104	0xbd332780	-0.043738842
105	0xbd63dea9	-0.055632267
106	0x3d091087	0.033463027
107	0x3d4f0af0	0.05054754
108	0x3d085546	0.033284448
109	0xbc9cda4d	-0.019147063
110	0xbd052ccb	-0.03251342
111	0x3ca2c055	0.019867102
112	0xbd69ad8c	-0.057050273
113	0xbd59c995	-0.05317076
114	0x3c9cf426	0.019159388
115	0xbd8937f3	-0.067001246
116	0xbd746d88	-0.05967477
117	0xbd17137c	-0.036883816
118	0x3d6dbc0c	0.058040664
119	0x3d7f0f40	0.062270403
120	0x3cc7fce5	0.024412582
121	0x3d6ffedc	0.058592662
122	0x3dbf4ce6	0.09340839
123	0x3d103fb9	0.03521702
124	0xbd78755d	-0.0606588
125	0xbd0205b0	-0.031743705
126	0xbb08fb63	-0.0020901791
127	0xbd1ad3e0	-0.037799716
128	0x3d0130ee	0.031540804
129	0x3b7295f4	0.0037015649
130	0xbdc8c75b	-0.09803649
131	0xbd27f389	-0.041003738
132	0xbd4ce077	-0.050018754
133	0xbd33c018	-0.043884367
134	0x3db2868b	0.08717068
135	0x3ceb7b0d	0.028745199
136	0xbcb6a3da	-0.022294927
137	0x3c3792aa	0.011204401
138	0xbbd9f689	-0.0066517037
139	0xbd9fcbfd	-0.078025796
140	0xbdaf5438	-0.08560985
141	0xbc2018a5	-0.009771501
142	0x3d2b3163	0.041795146
143	0xbd4ff531	-0.050770942
144	0xbd5c7420	-0.053821683
145	0xbca8d96f	-0.020611493
146	0xbc9f9184	-0.019478567
147	0xbd4c3d88	-0.04986337
148	0x3d4eeac8	0.050516874
149	0xbcb05d13	-0.021528756
150	0x3da43496	0.080178425
151	0x3d4df220	0.050279737
152	0x3d249498	0.040180773
153	0x3d50635e	0.050876014
154	0xbd589977	-0.05288073
155	0xbd3df7a9	-0.046378765
156	0x3d4f9d81	0.050687317
157	0xbd959f33	-0.073057555
158	0xbc522678	-0.0128265545
159	0xbbe79813	-0.007067689
160	0x3b15abca	0.002283799
161	0xbc1973e6	-0.009366011
162	0x3ae7bffa	0.0017681115
163	0x3c6c2338	0.014412694
164	0xbd3ce204	-0.046113983
165	0xbd95e629	-0.0731929
166	0xbd1e8e3f	-0.038709875
167	0x3be53052	0.0069942856
168	0x3cc189f5	0.023625353
169	0xbd8199af	-0.06328141
170	0xbd65d72f	-0.05611342
171	0xbd1b8e74	-0.03797765
172	0x3d41f1f5	0.04734989
173	0x3cfe383a	0.03103267
174	0x3d4620b9	0.04837105
175	0x3cbc1aba	0.022961963
176	0x3d5901d8	0.052980274
177	0x3c5dd9a2	0.013540657
178	0xbda21230	-0.07913625
179	0xbcd040a2	-0.025421444
180	0xbd06c304	-0.032900825
181	0xbd7da8da	-0.061928608
182	0xbc623d51	-0.013808564
183	0x3d05413b	0.03253291
184	0x3db20473	0.08692255
185	0xbd878dfe	-0.0661888
186	0x3d06db5d	0.032924045
187	0x3d329d9a	0.04360733
188	0x3c213ded	0.009841424
189	0x3bdbbed8	0.0067061
190	0xbbad9989	-0.005297844
191	0x3cfdc07e	0.030975576
192	0xbd164885	-0.036690254
193	0x3d27b19c	0.040940866
194	0xbd22b714	-0.03972538
195	0xbd8ef6c9	-0.06980664
196	0x3d8d96f1	0.069135554
197	0x3d8aa2ef	0.06769358
198	0xbd49a6e4	-0.049231425
199	0xbda1936d	-0.07889447
200	0x3c9bd7c8	0.019023791
201	0x3d4cc8f2	0.049996324
202	0x3d983980	0.07432842
203	0xbbfa66e4	-0.00764166
204	0x3c954085	0.018219242
205	0xbd121225	-0.035661835
206	0x3da7378e	0.08164893
207	0xbd937043	-0.071991466
208	0x3d8473ce	0.064674005
209	0x3b6ee6b9	0.003645344
210	0xbb6d538e	-0.0036213133
211	0xbd102c5c	-0.035198554
212	0x3cb8a959	0.022541689
213	0x3cc1670e	0.02360871
214	0xbd1e3470	-0.038624227
215	0xbd3abb34	-0.045588687
216	0xbd4cbd99	-0.049985502
217	0xbcff499f	-0.031163035
218	0xbd31700a	-0.04331974
219	0x3db5246b	0.08844837
220	0x3ce7db42	0.028302792
221	0xbc3c3052	-0.01148613
222	0xbc73ae2d	-0.01487307
223	0x3b36e544	0.002790765
224	0xbd702d49	-0.058636937
225	0xbd0bb65f	-0.03410947
226	0xbc88a9dc	-0.016682558
227	0xbd7af6e6	-0.061270617
228	0xbb8902b4	-0.0041812304
229	0x3c7bf192	0.015377419
230	0x3da1b3fb	0.07895657
231	0x3d9a65b8	0.075389326
232	0xbc74a6ae	-0.014932318
233	0x3ce1d0e9	0.027565436
234	0xbcbdb4ef	-0.023157565
235	0x3d9edc74	0.07756892
236	0xbd8ee3c3	-0.06977036
237	0x3d4204de	0.047367923
238	0x3d7128d0	0.058876812
239	0xbd646529	-0.055760536
240	0x3d117518	0.03551206
241	0xbd085836	-0.03328725
242	0xbc60d322	-0.013722213
243	0xbca328c9	-0.019916909
244	0x3d8ec9b0	0.069720626
245	0x3d802df9	0.062587686
246	0x3b828fb3	0.0039844154
247	0xbd84e61a	-0.06489201
248	0x3d87ee99	0.06637306
249	0xbcc2da97	-0.023785872
250	0x3ac8dfe4	0.0015325514
251	0x3cc58611	0.02411178
252	0xbd3c04d6	-0.04590305
253	0xbda1aaff	-0.07893943
254	0xbd060924	-0.03272356
255	0xbd931bd9	-0.07183046

bias f4 [16]
0	0xbc607b1c	-0.013701227
1	0xbd0c6106	-0.034272216
2	0x3d89d259	0.06729574
3	0x3db69a02	0.089160934
4	0x3d6a3c25	0.057186265
5	0x3d5e7896	0.05431422
6	0xbbe44ae1	-0.006966934
7	0x3d7cc31e	0.061709516
8	0x3d806fc9	0.06271321
9	0x3b8c4512	0.0042806948
10	0x3d48fd0e	0.049069457
11	0xbd286b9b	-0.041118246
12	0x3c995c6f	0.018720834
13	0x3c38bada	0.011275018
14	0xbd8194c4	-0.06327203
15	0x3d52a183	0.05142356

weight f4 [16, 16, 3, 3]
0	0x3d91cc6f	0.07119071
1	0x3ca35506	0.019938003
2	0xbcb28fac	-0.021797024
3	0xbcba6ec6	-0.022757899
4	0x3d14a738	0.036292285
5	0x3d2a5192	0.041581698
6	0x3d009329	0.031390343
7	0x3d60b7ea	0.054862894
8	0xbd07baa5	-0.033136982
9	0xbcba956b	-0.022776326
10	0xbd2d1e7e	-0.042265408
11	0xbd1484af	-0.03625935
12	0xbcbe69ad	-0.02324375
13	0x3d2ebd9a	0.042661287
14	0xbd7ab343	-0.061206114
15	0xbd454219	-0.04815874
16	0xbd93eca4	-0.0722287
17	0xbd1cc509	-0.038273845
18	0xbdc75e77	-0.097348146
19	0x3d0b8bb6	0.034068786
20	0x3d9f84ad	0.07788978
21	0xbaa96739	-0.001292444
22	0x3caad098	0.020851418
23	0x3d31b31f	0.043383714
24	0xbd8a6d93	-0.06759181
25	0xbbb44b90	-0.005502172
26	0x3da95b31	0.082693465
27	0xbd9be755	-0.076124825
28	0xbdb5988b	-0.08866986
29	0x3cd1df72	0.025619242
30	0x3dbe570d	0.09293947
31	0xbcdd59e4	-0.027020402
32	0x3d84e7e9	0.06489546
33	0x3d31516b	0.043290537
34	0x3de28e0d	0.1106225
35	0xbc3e4c75	-0.011614908
36	0xbd89bf13	-0.06725898
37	0x3c9d6402	0.019212727
38	0xbd478838	-0.048713893
39	0x3c02c87a	0.007982368
40	0xbd031210	-0.031999648
41	0x3d47eecb	0.048811715
42	0xba17a649	-0.0005784971
43	0xbcb1e480	-0.021715403
44	0xbd52edf1	-0.05149645
45	0xbd1d77c6	-0.038444303
46	0xbcfae412	-0.03062633
47	0x3ce79e5a	0.02827375
48	0xbdce88bc	-0.10084674
49	0x3ca112f2	0.019662354
50	0x3cf32c25	0.029684136
51	0xbdd4516d	-0.10367093
52	0x3c717207	0.014736659
53	0xbb4b7d1c	-0.0031049913
54	0xbd0c0d3c	-0.03419231
55	0xbcc48da9	-0.02399333
56	0xbd8dab67	-0.06917458
57	0x3d65f01a	0.05613718
58	0x3d893136	0.06698839
59	0x3d8e6a1f	0.06953835
60	0xbb0f2fae	-0.0021848488
61	0x3d8c8b1b	0.0686247
62	0x3c91fc24	0.017820425
63	0xbd84edc2	-0.06490661
64	0xbd0e5d0e	-0.034756713
65	0x3b80e53e	0.003933578
66	0x3d99d0a7	0.075105004
67	0x3d97b9d2	0.07408489
68	0xbc921079	-0.01783012
69	0x3d69d4de	0.05708777
70	0xbd7f3488	-0.062305957
71	0x3c728b53	0.014803725
72	0x3d92b494	0.07163349
73	0x3ca684da	0.02032702
74	0xbd85dddb	-0.06536456
75	0x3d1e1936	0.03859826
76	0x3d4f75cd	0.050649453
77	0xbd930e31	-0.07180441
78	0x3c4aaa66	0.012369728
79	0xbd60d010	-0.054885924
80	0xbda3b841	-0.07994128
81	0x3cc15227	0.023598744
82	0x3cbcefa8	0.023063496
83	0xbceff1d0	-0.02929011
84	0xbdd697a2	-0.104781404
85	0xbdd72551	-0.105051644
86	0x3d5d0204	0.053957
87	0xbcf5120f	-0.029915838
88	0x3d9afe2d	0.075680114
89	0x3dac1fb1	0.08404482
90	0x3cbce0b4	0.023056366
91	0xbd3c7727	-0.04601207
92	0x3ce0040e	0.027345683
93	0xbd886cb0	-0.066613555
94	0xbda7219f	-0.081607096
95	0x3da01b49	0.07817704
96	0xbd74862a	-0.05969826
97	0x3d010b19	0.031504724
98	0xbd47d8ba	-0.04879067
99	0xbb290d20	-0.0025795177
100	0x3c971548	0.018442765
101	0x3b62e5c8	0.0034621824
102	0x3d6274ff	0.055287357
103	0x3da83b51	0.08214439
104	0xbd328cbf	-0.043591257
105	0x3da8ce94	0.08242527
106	0xbcd8afc6	-0.026451003
107	0x3c616433	0.0137567995
108	0x3bac1c0d	0.0052523674
109	0x3d515281	0.051104072
110	0xbdb0c8d2	-0.086320534
111	0xbd065908	-0.03279975
112	0x3af425e4	0.0018627015
113	0xbda68040	-0.081299305
114	0xbd613b8b	-0.054988425
115	0xbcbd3667	-0.02309723
116	0xbd61e338	-0.055148333
117	0xbdb0b699	-0.08628578
118	0x3d711748	0.058860093
119	0xbc71f418	-0.014767669
120	0xbb028942	-0.0019918238
121	0xbd88474f	-0.06654226
122	0x3d876ca9	0.06612522
123	0x3d0d4a4b	0.03449468
124	0xbd78688e	-0.060646586
125	0xbc44157d	-0.011968014
126	0x3d2c9f54	0.042144135
127	0x3d46c9e4	0.04853238
128	0xbccf6601	-0.025317194
129	0x3bb31814	0.005465517
130	0x3d524677	0.05133673
131	0xbd2f487d	-0.04279374
132	0xbd8bbbce	-0.0682293
133	0xbca615c7	-0.020274056
134	0x3d031994	0.032006815
135	0xbd744ead	-0.059645344
136	0xbd3e0299	-0.046389196
137	0xbd2a0d97	-0.041516867
138	0x3cbcb60c	0.023036025
139	0x3d977143	0.0739465
140	0xbd89b242	-0.06723453
141	0x3d57e84d	0.052711774
142	0x3d5a0bbf	0.05323386
143	0xbd2d6627	-0.04233375
144	0x3dd80243	0.105473064
145	0x3d63c068	0.055603415
146	0x3d92c6ef	0.0716685
147	0xbd467d20	-0.048459172
148	0xbd322cd1	-0.04349977
149	0xbc4528b5	-0.012033631
150	0x3d6f1297	0.058367338
151	0x3d5ae49e	0.053440683
152	0x3d621cab	0.05520312
153	0x3cdefa74	0.027219035
154	0xbd5a9ba2	-0.05337108
155	0x3c712943	0.01471931
156	0x3d865a81	0.06560231
157	0xbbe96344	-0.007122429
158	0xbd326d2a	-0.04356114
159	0x3c473c5f	0.01216039
160	0xbd524e8d	-0.051344443
161	0x3db6d3b5	0.08927099
162	0xbd357caa	-0.044308342
163	0xbdd63cc3	-0.10460808
164	0x3cc7eb2e	0.024404135
165	0x3a5682b6	0.00081829296
166	0xbdaf9897	-0.08574026
167	0xbbe92a1e	-0.0071156165
168	0xbd5058cc	-0.050865933
169	0xbd920484	-0.071297675
170	0x3ce33cb7	0.027738912
171	0x3a2bd472	0.0006554789
172	0xbdf8d239	-0.12149472
173	0xbdb0238f	-0.08600532
174	0x3c609a36	0.013708642
175	0xbcce95c8	-0.025217906
176	0x3d9011a6	0.07034616
177	0xbda738e5	-0.08165149
178	0xbd536377	-0.05160853
179	0xbcecf1cd	-0.028923893
180	0xbc545b02	-0.012961151
181	0x3d50f291	0.05101258
182	0xbd36b28d	-0.044603873
183	0xbd978d8f	-0.07400047
184	0x3d0b9f9c	0.034087762
185	0x3d23663f	0.03989243
186	0xbd7329ea	-0.059366144
187	0x3d77691b	0.06040297
188	0x3d9e5af4	0.07732192
189	0x3d0036ac	0.03130214
190	0x3cdb9572	0.02680466
191	0x3d87877e	0.0661764
192	0x3d18a6a6	0.037268303
193	0xbda6d7c7	-0.08146625
194	0x3c1cfb69	0.009581425
195	0xbd6e531c	-0.058184728
196	0x3c988f2e	0.01862296
197	0xbd584e7a	-0.052809216
198	0x3c731c30	0.014838263
199	0x3dc0f930	0.09422529
200	0x3da72948	0.08162171
201	0x3cdb7aed	0.026792014
202	0x3d3342e0	0.04376495
203	0x3c5f6033	0.0136337755
204	0x3c4db220	0.012554675
205	0xbd001b86	-0.03127625
206	0x3d12fd71	0.03588623
207	0x3d9d97b5	0.076949514
208	0x3ca0a9d9	0.01961224
209	0x3c7906e0	0.015199393
210	0x3c43071c	0.0119035505
211	0x3d2b5e8d	0.041838218
212	0xbc81f653	-0.015864527
213	0x3cdc8d21	0.026922764
214	0x3d44626a	0.047945417
215	0xbb893065	-0.0041866773
216	0x3c996182	0.018723253
217	0xbd8866a3	-0.066602014
218	0x3d84e68e	0.06489287
219	0x3bfdc664	0.0077445973
220	0x3d815827	0.06315642
221	0x3d912c46	0.070885226
222	0xbc904d53	-0.017614996
223	0xbc1f2568	-0.009713508
224	0x3d798d01	0.060925487
225	0x3d57e8ce	0.052712254
226	0x3d2c42e0	0.042055964
227	0x3d8e7b49	0.069571085
228	0xbcaf2dcd	-0.021384144
229	0x3c4db641	0.01255566
230	0xbdb128c2	-0.08650352
231	0xbc3d4902	-0.011553051
232	0xbc8d3405	-0.017236719
233	0xbd4a7bfb	-0.049434643
234	0xba94b443	-0.0011345226
235	0xbcf62261	-0.03004569
236	0xbd82afd0	-0.0638119
237	0x3d2f8dbd	0.04285978
238	0xbd926812	-0.07148756
239	0xbb95a1fc	-0.004566429
240	0xbd6396cf	-0.055563744
241	0xbb865cb3	-0.004100406
242	0x3b584d52	0.003300507
243	0xbd8996dd	-0.06718228
244	0x3d26e3b9	0.040744517
245	0xbd3f2d04	-0.04667379
246	0x3ac5b6c9	0.0015084381
247	0x3d7ef220	0.062242627
248	0x3c9ccaa4	0.019139595
249	0x3da73eae	0.08166252
250	0x3d8c9ed6	0.06866233
251	0x3d541512	0.051777907
252	0x3d86d510	0.06583607
253	0xbdb233e9	-0.08701307
254	0x3d80d949	0.06291444
255	0xbd97a0a6	-0.07403688

bias f4 [16]
0	0x3d5cc806	0.053901695
1	0x3d6c9998	0.057763666
2	0x3cd1a585	0.025591621
3	0x3d838529	0.06421883
4	0xbd274695	-0.040838797
5	0xbb847f0c	-0.0040434655
6	0xbb899792	-0.004198977
7	0xbda31f2e	-0.079649314
8	0xbbd3585a	-0.0064497413
9	0xbd41ba38	-0.047296733
10	0x3d9f5ef1	0.077817805
11	0x3d67b48b	0.056568664
12	0x3c919df1	0.017775508
13	0x3da8212d	0.08209453
14	0x3d978097	0.073975734
15	0x3d3a02e3	0.04541291

weight f4 [16, 16, 3, 3]
0	0xbc7a4eed	-0.015277606
1	0xbd09cbfe	-0.033641808
2	0xbd409257	-0.04701456
3	0x3db3c92a	0.087786034
4	0xbd598d08	-0.053113014
5	0xbd8bb83f	-0.068222515
6	0x3d802404	0.062568694
7	0x3bfcc256	0.0077135963
8	0xbd34c8b3	-0.044136714
9	0x3d1fc64d	0.039007474
10	0xbd7090d1	-0.058731858
11	0x3c521e33	0.012824583
12	0x3d8c92e4	0.06863955
13	0x3d4215be	0.047384016
14	0x3ce9af6e	0.028526034
15	0xbd9c3bf7	-0.07628625
16	0x39a77ef2	0.00031947304
17	0xbaa44a3e	-0.0012534333
18	0xbbdc42e5	-0.0067218416
19	0xbd4cfccf	-0.050045785
20	0x3d2296c7	0.039694574
21	0x3bba020d	0.005676514
22	0xbcd12e37	-0.025534732
23	0xbd4ae5eb	-0.049535673
24	0xbbf3471e	-0.0074242493
25	0x3ce0b688	0.027430788
26	0xbd5d1b79	-0.053981278
27	0x3d2f359b	0.04277573
28	0x3d439867	0.047752764
29	0xbd0e7687	-0.034781005
30	0x3ce8fc4d	0.028440619
31	0xbb95ecd8	-0.004575353
32	0x3d891537	0.066934995
33	0xbcaeb88a	-0.02132823
34	0x3d679600	0.056539536
35	0x3cd5413c	0.026032083
36	0x3a9ac9a2	0.0011809359
37	0xbd911b3c	-0.07085273
38	0x3c913daf	0.017729608
39	0xbd1ca42d	-0.038242508
40	0xbd83b94c	-0.06431827
41	0xbd90a4ab	-0.07062658
42	0x3d750886	0.05982258
43	0xbba8f260	-0.0051558465
44	0xbd6015db	-0.054708343
45	0xbcd3764b	-0.025813242
46	0xbd3aa7b0	-0.045570076
47	0x3d30e23e	0.04318451
48	0xbd348276	-0.04406973
49	0xbc450573	-0.012025225
50	0xbc61cd11	-0.013781802
51	0x3a0c3a65	0.00053492776
52	0xbb45a642	-0.0030158912
53	0x3d6dda0e	0.05806928
54	0xbd2d25eb	-0.04227249
55	0x3d89fb44	0.06737378
56	0x3d2203f9	0.03955457
57	0x3c9600c4	0.018310912
58	0xbd3a7b8f	-0.04552799
59	0x3da29473	0.07938471
60	0x3d43304d	0.047653485
61	0x3d1b1ad7	0.037867393
62	0xbcf5f03b	-0.030021777
63	0xbd7f5e09	-0.06234554
64	0x3d26c275	0.040712792
65	0xbc2dc27c	-0.010605451
66	0x3d8cdc64	0.06877974
67	0x3bf634ff	0.007513642
68	0xbd191967	-0.03737774
69	0x3cea6e88	0.028617159
70	0x3d8e0c62	0.069359556
71	0xbc2bcb5a	-0.0104854945
72	0x3d5bb445	0.053638715
73	0x3d984847	0.07435661
74	0x3da07d81	0.07836438
75	0xbd25f340	-0.040515184
76	0x3d6acc45	0.057323713
77	0x3c59b310	0.013287321
78	0x3d06b766	0.032889746
79	0xbd9209e1	-0.071307905
80	0xbce4cf27	-0.02793081
81	0x3dabad16	0.08382623
82	0x3d0eb6cd	0.0348423
83	0x3d4e8d17	0.050427523
84	0x3cfb72c7	0.030694379
85	0xbd4e8031	-0.05041522
86	0xbd3de1ca	-0.046357907
87	0x3d81a478	0.06330198
88	0x3d7b0dc0	0.06129241
89	0xbd7d5d5c	-0.061856613
90	0xbd466616	-0.0484372
91	0xbc337d04	-0.010955099
92	0x3a8d00df	0.0010757706
93	0xbc866e38	-0.016409978
94	0xbda3f5a2	-0.08005835
95	0xbd8d3269	-0.068943806
96	0xbda83019	-0.08212299
97	0xbce6efc9	-0.02819051
98	0xbd9504a2	-0.07276274
99	0x3d159889	0.036522422
100	0x3d964602	0.07337572
101	0xbd092d35	-0.03349038
102	0x3d5a02db	0.05322538
103	0xbc4bc661	-0.012437434
104	0x3d01a653	0.03165276
105	0x3d43af4f	0.04777461
106	0xbd72acca	-0.059246816
107	0xbd26f788	-0.040763408
108	0x3dacd733	0.084394835
109	0x3d8df046	0.06930594
110	0x3d987198	0.07443541
111	0x3d820acf	0.06349718
112	0x3d840385	0.06445984
113	0xbd0372ce	-0.03209191
114	0xbc22ee35	-0.009944488
115	0x3d111b23	0.03542627
116	0x3d6806be	0.056647055
117	0x3d346a79	0.044046853
118	0x3d80e5d6	0.06293838
119	0x3d8faaf0	0.070150256
120	0xbd870f16	-0.06594674
121	0xbcfe54b9	-0.031046258
122	0x3d929878	0.07157987
123	0x3cac9b5b	0.021070173
124	0x3d0de2e2	0.0346402
125	0xbd9e24eb	-0.07721885
126	0x3d76e689	0.06027845
127	0x3d443549	0.04790238
128	0x3d7c764c	0.061636254
129	0x3cb5c5a4	0.022188969
130	0x3d2f7a35	0.042841155
131	0xbd11d4f0	-0.035603464
132	0xbda575a6	-0.0807908
133	0xbd84658c	-0.06464681
134	0x39abd281	0.000327725
135	0xbd909ba8	-0.07060939
136	0xbca1d2ee	-0.0197539
137	0x3d34fff7	0.04418942
138	0xbbd176b7	-0.0063923257
139	0x3d8227de	0.0635526
140	0xbc994cd4	-0.018713392
141	0x3d33aa0b	0.043863337
142	0xbd333343	-0.04375006
143	0xbd00cfc4	-0.03144814
144	0xbd00c40f	-0.031436976
145	0xbd0fd4cc	-0.03511505
146	0xbb674cb9	-0.0035293533
147	0xbd877027	-0.06613188
148	0x3d52dc3d	0.051479567
149	0xbd82faa6	-0.06395464
150	0xbd13819b	-0.036012273
151	0xbd6aeb12	-0.057353087
152	0xbd659190	-0.056047022
153	0xbd37c451	-0.044864956
154	0x3d24a4c5	0.0401962
155	0x3c3daea4	0.011577282
156	0x3d96753d	0.0734658
157	0x3c563fbf	0.013076722
158	0x3d2e62a2	0.042574532
159	0xbda10fd4	-0.07864347
160	0xbd3fe548	-0.04684952
161	0xbc58f43b	-0.013241823
162	0xbd09c23a	-0.033632495
163	0xbd8387c8	-0.064223826
164	0x3ced2b85	0.028951416
165	0x3ca1eb6e	0.019765582
166	0xbc497762	-0.0122965295
167	0xbcd6c4c1	-0.026216866
168	0x3c63ff75	0.013915886
169	0xbd7ab9c6	-0.061212324
170	0x3d1a8c2c	0.037731335
171	0xbc8f535a	-0.0174958
172	0xbd25fbfa	-0.040523507
173	0x3d790a2c	0.060800716
174	0xbd8c1a59	-0.06840963
175	0xbda70acc	-0.08156356
176	0xbcd6bd30	-0.026213259
177	0x3c3353c6	0.010945266
178	0xbd13bee6	-0.036070727
179	0x3d9081f0	0.070560336
180	0xbd00076c	-0.031257078
181	0xbcc72078	-0.024307474
182	0xbd8f1888	-0.06987101
183	0xbd0d2d3f	-0.03446698
184	0xbccbdfac	-0.024886928
185	0x3c7039cf	0.01466222
186	0xbd3bdedd	-0.045866836
187	0x3cfc51e0	0.03080076
188	0x3d9b09b2	0.075702086
189	0xbca9a604	-0.020709045
190	0xbd6b75d3	-0.057485413
191	0x3d03d69a	0.032187082
192	0xbce9b5da	-0.028529096
193	0x3d3fdb61	0.046840075
194	0x3d1d767b	0.03844307
195	0x3d5e921f	0.05433857
196	0x3c8ffca4	0.017576523
197	0x3d61aa14	0.05509384
198	0xbd308f4c	-0.04310541
199	0xbd28d910	-0.041222632
200	0x3ce57c00	0.02801323
201	0xbd20d1db	-0.039262634
202	0x3cd75521	0.02628571
203	0xbd7fc0d1	-0.062439743
204	0x38c63b9a	9.4524774e-05
205	0xbccb2270	-0.024796695
206	0x3ca79bba	0.020459998
207	0x3d855e18	0.065120876
208	0x3ce4e8e3	0.02794308
209	0x3d569869	0.052391443
210	0x3b8cb6a8	0.0042942353
211	0x3d8020cb	0.06256255
212	0xbd1a9640	-0.037740946
213	0x3c429076	0.0118752625
214	0x3caee539	0.021349536
215	0xbd90999f	-0.07060551
216	0xbb1f0be0	-0.0024268553
217	0xbc0a16e6	-0.008428311
218	0x3c581c7f	0.013190388
219	0xbc82ee95	-0.015982905
220	0x3d7722ef	0.06033605
221	0xbd46f5c9	-0.048574243
222	0x3c8e4b09	0.017369764
223	0x3d0daeea	0.03459064
224	0xbd9ff68f	-0.07810699
225	0xbd90ac86	-0.07064156
226	0x3da10a15	0.07863251
227	0x3c30540f	0.010762229
228	0xbd8b536f	-0.06803023
229	0xbd207899	-0.03917751
230	0x3d66b141	0.056321386
231	0x3d1efa4b	0.038812917
232	0xbbb7e433	-0.0056119203
233	0xbd376795	-0.044776518
234	0x3d62897b	0.055306893
235	0x3d2cf2ac	0.042223617
236	0xbd8ca6f3	-0.068677805
237	0xbd0950bb	-0.033524256
238	0xbc82110c	-0.01587727
239	0xbd2b57af	-0.04183167
240	0xbc999f91	-0.018752845
241	0xbb0ccfc7	-0.002148615
242	0xbdaa2d60	-0.08309436
243	0xbd1e23a2	-0.0386082
244	0x3d9a36ff	0.07530021
245	0xbccf8fc0	-0.0253371
246	0xbda1815e	-0.07886003
247	0x3d210b71	0.039317552
248	0x3c2a0886	0.010378009
249	0x3d980390	0.074225545
250	0x3d79eb88	0.061015636
251	0x3a147978	0.0005663852
252	0xbda7a238	-0.08185238
253	0xbd547663	-0.051870715
254	0x3d9807c2	0.07423355
255	0xbba962fc	-0.0051692706

bias f4 [16]
0	0xbd8df322	-0.069311395
1	0xbda6a450	-0.08136809
2	0xbca8d912	-0.02061132
3	0xbd9d7dbe	-0.07689999
4	0xbd8e9f90	-0.06964028
5	0x3d2202b6	0.039553367
6	0x3c26f2bb	0.010189707
7	0x3d4382ab	0.047732037
8	0x3ce8fe71	0.02844164
9	0xbda39a97	-0.0798847
10	0x3d43e8fc	0.047829613
11	0xbd78766d	-0.060659815
12	0xbc90e3e1	-0.017686786
13	0x3b534f6c	0.0032243384
14	0x3c046fd1	0.0080833
15	0x3d87fc5a	0.06639929

weight f4 [16, 16, 3, 3]
0	0xbd852d92	-0.065028325
1	0xbd03b32b	-0.03215329
2	0x3c666b87	0.014063722
3	0x3c9d8193	0.019226825
4	0x3c6e17b3	0.0145320175
5	0xbd8c9246	-0.06863837
6	0xbdaccf24	-0.084379464
7	0x3d3e8a7a	0.04651878
8	0x3bbd37ac	0.005774459
9	0xbd0c8f43	-0.034316313
10	0x3c88b8ab	0.016689619
11	0xbd44ac37	-0.0480158
12	0x3ce3cca7	0.027807547
13	0x3c92fbd1	0.017942341
14	0xbd5f3e06	-0.05450251
15	0xbda123d9	-0.078681655
16	0xbc38b768	-0.011274196
17	0xbcfb7db3	-0.030699586
18	0xbbe8d4c1	-0.0071054404
19	0xbc812d33	-0.015768623
20	0xbd951c04	-0.07280734
21	0xbdc1dc01	-0.094657905
22	0x3d3a3942	0.04546476
23	0xbd7ef3b1	-0.06224412
24	0xbbd48d8c	-0.0064866003
25	0x3d04dd59	0.032437656
26	0x3d77fbef	0.060542997
27	0x3ba70f8c	0.005098289
28	0xbadee77c	-0.0017006244
29	0xba6db558	-0.0009067855
30	0xbda78538	-0.08179706
31	0x3ba9ddfa	0.0051839324
32	0x3d3c470f	0.045966204
33	0xbd0de1eb	-0.03463928
34	0xbcf6b865	-0.030117223
35	0x3d8e982a	0.06962617
36	0x3c8cec54	0.017202534
37	0xbd9d53b7	-0.07681983
38	0x3cd426ab	0.025897345
39	0x3d39f260	0.045397162
40	0xbd003120	-0.03129685
41	0xbcf5335c	-0.029931717
42	0xbd31a838	-0.043373317
43	0x3cc71639	0.024302589
44	0xbd89839b	-0.06714555
45	0xbb815d23	-0.0039478703
46	0xbd4632aa	-0.04838816
47	0xbc37f813	-0.011228579
48	0xbc6c0598	-0.0144056305
49	0xbb0391b0	-0.002007585
50	0xbd51a4c2	-0.051182516
51	0x3d14022c	0.036134884
52	0x3d744209	0.05963329
53	0xbbcdd907	-0.006281975
54	0x3c366e81	0.011134745
55	0x3d8f3e5e	0.069943175
56	0xbd6ae0c3	-0.057343256
57	0xbccd5901	-0.025066854
58	0xbda80500	-0.08204079
59	0xbd779894	-0.060448244
60	0x3c9cc139	0.019135104
61	0xbdb68754	-0.089125305
62	0x3bf43d0e	0.0074535673
63	0x3dacc9e9	0.08436949
64	0xbdb83e40	-0.08996248
65	0xbd950e84	-0.07278159
66	0x3ccf50c3	0.025307065
67	0xbda106ec	-0.07862648
68	0x3d167372	0.03673119
69	0x3da8dead	0.08245597
70	0xbd5933b7	-0.053027835
71	0xbd1cdef1	-0.03829855
72	0x3d1d55a0	0.038411736
73	0xbd98aa8c	-0.07454404
74	0x3d96db3f	0.073660366
75	0x3c8e930e	0.017404106
76	0x3d696bb8	0.056987494
77	0xbd92b56e	-0.07163511
78	0x3d2c8d09	0.04212669
79	0x3d46c115	0.04852398
80	0xbdac1173	-0.08401766
81	0xbd908a4c	-0.07057628
82	0xbd3eb24b	-0.046556752
83	0xbd87b50f	-0.06626331
84	0x3d83dbd1	0.06438411
85	0xbcbf7405	-0.023370752
86	0x3d810330	0.06299436
87	0x3ce703e3	0.028200096
88	0xbda33791	-0.07969583
89	0x3d13296b	0.03592817
90	0x3cc526f7	0.024066431
91	0xbdb26b50	-0.087118745
92	0xbd9f0d47	-0.07766204
93	0xbdb56fb3	-0.088591956
94	0xbd482aab	-0.048868816
95	0xbd998ec2	-0.07497932
96	0x3c4f961a	0.012670064
97	0xbd85bc37	-0.0653004
98	0x3d8b71d9	0.06808824
99	0xbd946386	-0.07245545
100	0x3c061840	0.008184493
101	0x3da9109b	0.0825512
102	0xbd9a46eb	-0.07533058
103	0x3d09a289	0.03360227
104	0xbbfbd581	-0.0076853638
105	0xbda26a10	-0.07930386
106	0xbd199de6	-0.0375041
107	0x3cbfa237	0.02339278
108	0x3d99172f	0.07475125
109	0xbdd1e47c	-0.10248658
110	0xbc0a5972	-0.008444177
111	0xbc34e22a	-0.01104025
112	0xbdc4b6bc	-0.09605166
113	0xbbd6bd8b	-0.006553357
114	0xbd3a6098	-0.045502275
115	0x3d8aa266	0.06769256
116	0xbd99ef72	-0.07516374
117	0x3ccd3dcc	0.025053881
118	0x3d294fca	0.04133586
119	0x3d29c5da	0.04144845
120	0x3ca95f28	0.020675257
121	0xbd99e055	-0.07513491
122	0x3d41bbf3	0.047298383
123	0xbd0ad52e	-0.03389471
124	0x3cacf765	0.02111406
125	0xbce2928e	-0.027657773
126	0x3d8e58c5	0.06950525
127	0x3d2ac258	0.041689247
128	0xbd71f496	-0.059071146
129	0xbc2bfacd	-0.010496807
130	0x3d801b0c	0.06255159
131	0x3d20f31c	0.039294347
132	0xbd9458b8	-0.07243484
133	0x3be57fc6	0.007003757
134	0xbd5273ae	-0.051379852
135	0x3d557311	0.05211169
136	0xbdacadac	-0.08431563
137	0xbca7bf7c	-0.020477049
138	0xbadcbe49	-0.0016841377
139	0xbd4b14cf	-0.04958039
140	0xbd78ae64	-0.060713187
141	0xbd861b15	-0.06548134
142	0x3d516875	0.05112501
143	0xbbaa82ea	-0.0052035945
144	0xbd7d45da	-0.061834194
145	0x3d48a73c	0.048987612
146	0xbc8d9313	-0.017282045
147	0x3c178b53	0.009249526
148	0x3caf9e1d	0.021437699
149	0xbb3e7337	-0.0029060373
150	0xbd9b6f03	-0.07589533
151	0xbc8cee23	-0.017203396
152	0x3d8e2fe1	0.06942726
153	0xbcbfc9cc	-0.023411654
154	0x3d95dbc6	0.07317309
155	0x3bef2b64	0.0072988737
156	0xbcb5fdad	-0.022215689
157	0x3a10c806	0.000552297
158	0xbd2a810f	-0.041626986
159	0x3cad457b	0.021151295
160	0xbd53d6bd	-0.051718462
161	0xbd350ebc	-0.044203505
162	0xbd837615	-0.06419007
163	0x3d39d7fe	0.045372
164	0x3d2d7bec	0.04235451
165	0x3d314236	0.043276034
166	0xbd1a3baf	-0.037654575
167	0xbc837e83	-0.016051536
168	0x3b9b9805	0.0047483467
169	0xbd9dbcdd	-0.077020384
170	0xbb004e32	-0.0019577858
171	0x3ce9a5e9	0.028521495
172	0x3d84bfbc	0.06481883
173	0xbd78785d	-0.060661662
174	0x3cb367c9	0.021900075
175	0x3d98e0b6	0.07464735
176	0x3c922d03	0.017843729
177	0xbd2bbcbe	-0.041928045
178	0x3d2f1f49	0.042754445
179	0x3d56be17	0.052427378
180	0xbd885530	-0.06656873
181	0x3b07cd7a	0.0020721839
182	0xbd7909dd	-0.060800422
183	0xbd25b2c4	-0.040453687
184	0xbcbcb8eb	-0.023037395
185	0x3c9dcd63	0.019262975
186	0x3cd16ca0	0.025564492
187	0xbcc74ed7	-0.024329586
188	0xbc9ec40c	-0.019380592
189	0xbc0878f1	-0.008329616
190	0xbda7fe92	-0.08202852
191	0xbc274fce	-0.010211898
192	0x3bb61cef	0.0055576484
193	0x3d97e6ff	0.07417106
194	0xbd6c0b1d	-0.057627786
195	0x3d4299c1	0.047509912
196	0x3d148483	0.036259186
197	0xbd388144	-0.045045152
198	0xbd823d31	-0.063593276
199	0xbd2cbca6	-0.042172097
200	0x3d97f5d7	0.07419937
201	0xbcbd7dd8	-0.023131296
202	0xbd9ec7d4	-0.07752958
203	0x3d5584cf	0.05212861
204	0xbd3af48b	-0.04564337
205	0xbd9cac9e	-0.076501116
206	0x3daec63c	0.08533904
207	0xbd849e9c	-0.06475565
208	0xbd864ef4	-0.06558028
209	0x3cd6d5ef	0.026225058
210	0x3d9126a5	0.07087449
211	0xbd810e23	-0.063015245
212	0x3da22948	0.0791803
213	0x3d771da8	0.060331017
214	0x3bb1ddde	0.00542806
215	0xbd8c79ca	-0.06859167
216	0x3d6ad225	0.057329316
217	0x3d9b35fc	0.07578656
218	0x3d9cac36	0.07650034
219	0xbd854651	-0.065075524
220	0x3d94bef7	0.07262986
221	0x3d9d78a3	0.07689025
222	0x3b12a7f3	0.0022377938
223	0xbd815995	-0.063159145
224	0x3c8aa869	0.016926007
225	0x3d96b805	0.07359318
226	0x3d8f576e	0.06999098
227	0x3d8eb305	0.06967739
228	0x3bf7f2af	0.007566772
229	0xbdab63ec	-0.08368668
230	0x3b5fcdbb	0.0034149725
231	0xbd0f40a6	-0.034973763
232	0x3ca18c07	0.01972009
233	0x3d281161	0.0410322
234	0xbd8002b0	-0.062505126
235	0x3c5b2f92	0.013378041
236	0x3b0afcb5	0.0021207754
237	0x3ceb0e1e	0.028693255
238	0xbc4cec10	-0.012507454
239	0x3bb6da11	0.0055801948
240	0xbd5539c7	-0.052057054
241	0xbd8bcb1f	-0.06825852
242	0x3d4515c9	0.04811648
243	0xbd8d4252	-0.06897415
244	0xbb40f348	-0.0029441882
245	0xbd63da7a	-0.055628277
246	0xbd206475	-0.039158303
247	0xbdcfd884	-0.10148719
248	0x3dbd3f0a	0.09240539
249	0xbccaf53f	-0.024775146
250	0xbd611c12	-0.05495841
251	0x3d919e3b	0.07110258
252	0x3d898c58	0.067162216
253	0xbc897807	-0.016780866
254	0xbda4309c	-0.08017084
255	0x3d7994af	0.06093281

bias f4 [16]
0	0x3c479fd7	0.012184105
1	0x3d953c22	0.0728686
2	0xbd0b137d	-0.033954132
3	0xbd83c08c	-0.0643321
4	0xbc9b8963	-0.01898641
5	0x3d1e3f50	0.0386346
6	0xbd9ddf33	-0.077085875
7	0x3c5c41cf	0.013443424
8	0x3d5aab62	0.0533861
9	0x3d2b6681	0.041845802
10	0xbd475874	-0.04866834
11	0xbd9266d7	-0.071485214
12	0x3d84615f	0.064638846
13	0x3d157154	0.03648503
14	0xbc1a1126	-0.009403503
15	0xbc40830c	-0.011749994

weight f4 [64, 16, 3, 3]
0	0xbdc2e511	-0.09516347
1	0x3d263312	0.04057605
2	0x3d9c5783	0.07633879
3	0xbd1654c8	-0.036701947
4	0xbda820e6	-0.082094
5	0xbc8d7d4f	-0.017271666
6	0xbc48d9bd	-0.012258944
7	0xbda81cd2	-0.08208622
8	0x3d6eae3c	0.05827163
9	0xbd22ee3f	-0.03977799
10	0xbd66d084	-0.0563512
11	0x3d239eff	0.039946552
12	0x3bb47843	0.0055075004
13	0xbd126b44	-0.035746828
14	0xbd91f317	-0.07126444
15	0xbd03a7eb	-0.03214256
16	0x3d00e547	0.031468656
17	0xbc9ebddb	-0.01937764
18	0x3d390609	0.04517177
19	0x3b80e558	0.00393359
20	0x39812e93	0.00024639498
21	0x3cf2c481	0.029634716
22	0xbcc26ece	-0.023734476
23	0x3da68641	0.08131076
24	0x3d8c59f2	0.06853093
25	0xbda7b8a4	-0.08189514
26	0x3c011c8c	0.007880341
27	0xbb797d03	-0.0038068898
28	0x3d1bc894	0.038033083
29	0xbd65dc5c	-0.056118354
30	0xbc96b4c4	-0.018396743
31	0x3cfc41df	0.030793129
32	0xbcbcf6c3	-0.023066884
33	0x3cb19785	0.021678695
34	0xbca71cb8	-0.020399436
35	0xbd780e40	-0.060560465
36	0x3c1a7df4	0.009429444
37	0x3beff764	0.0073231924
38	0x3d8d49f4	0.06898871
39	0xbc5a5519	-0.013325953
40	0x3d72ff5f	0.059325572
41	0xbd9fd112	-0.07803549
42	0xbca00910	-0.019535571
43	0x3d2fb97b	0.042901497
44	0xbd4d3dda	-0.050107814
45	0xbcea430a	-0.02859642
46	0x3d2dff2b	0.042479675
47	0xbd6ff744	-0.05858542
48	0xbc5adb53	-0.013357955
49	0x3d5955ba	0.05306027
50	0xbcbb83d7	-0.022890015
51	0xbcbe8785	-0.02325798
52	0xbd710aee	-0.058848314
53	0xbc7e5ffe	-0.015525816
54	0xbcda6e01	-0.026663782
55	0xbd4fa350	-0.050692856
56	0xbcab552a	-0.020914633
57	0xbd8662df	-0.06561827
58	0x3db23ded	0.08703218
59	0xbcf1e447	-0.029527796
60	0xbd1f95ea	-0.03896133
61	0x3d0400fd	0.032227505
62	0xbbde405f	-0.006782576
63	0x3d9728e2	0.07380845
64	0x3c90dfbe	0.017684814
65	0xbd616b0b	-0.055033725
66	0xbb109e22	-0.002206691
67	0xbd861803	-0.065475486
68	0xbacede70	-0.0015782844
69	0x3d603258	0.05473551
70	0xbd22f03c	-0.039779887
71	0xbd2a9092	-0.04164178
72	0x3d8842dc	0.066533774
73	0xbd04c704	-0.03241636
74	0xbd885846	-0.06657462
75	0xbd88d3f5	-0.066810526
76	0xbd42e837	-0.04758474
77	0xbbe4a084	-0.0069771428
78	0xbda9037e	-0.08252619
79	0xbcb19552	-0.021677647
80	0xbda56a65	-0.08076934
81	0xbda1808b	-0.07885846
82	0xbd9ecc2d	-0.07753787
83	0x3d3d704f	0.046249684
84	0x3cbabf50	0.022796303
85	0xbd478d82	-0.048718937
86	0xbc1967cf	-0.009363129
87	0xbbae95ae	-0.005327902
88	0xbd371e2e	-0.044706516
89	0xbbe1beba	-0.0068891915
90	0x3d03c75a	0.03217254
91	0x3d347bdd	0.044063438
92	0x3c283eaa	0.0102688465
93	0xbcd68d06	-0.026190292
94	0xbd98f66c	-0.07468876
95	0xbc884019	-0.016632127
96	0xbced24bd	-0.028948182
97	0x3d9a5c67	0.075371556
98	0xbce926f8	-0.028460965
99	0xbd22fb9f	-0.039790746
100	0x3c682c2e	0.0141706895
101	0xbd03d382	-0.03218413
102	0x3d028865	0.031868357
103	0x3d01fbab	0.03173415
104	0x3d393c58	0.045223564
105	0xbd709eca	-0.058745183
106	0x3cdadf82	0.026717905
107	0x3c148fdc	0.009067502
108	0xbcc528d3	-0.024067318
109	0x3d99d773	0.07511797
110	0xbd8d28ae	-0.06892525
111	0x3c97bbd7	0.018522186
112	0xbd13deb7	-0.03610107
113	0x3d0db9e5	0.03460111
114	0xbcb4cccf	-0.022070317
115	0x3ced1694	0.02894143
116	0x3d7b15e3	0.06130017
117	0x3c439800	0.011938095
118	0x3d9c318e	0.07626639
119	0xbdabde1c	-0.083919734
120	0xbc21bce8	-0.009871699
121	0xbc49ef41	-0.012325109
122	0x3d495c86	0.049160503
123	0x3ce2d243	0.027688151
124	0x3c8e8e41	0.017401816
125	0x3be966df	0.007122859
126	0x3ac13beb	0.0014742588
127	0xbd524785	-0.051337738
128	0x3d28ebb4	0.04124041
129	0x3cb2928f	0.0217984
130	0xbc55e771	-0.013055668
131	0x3d2fdb6d	0.04293387
132	0x3d4656ba	0.048422553
133	0xbc3096ac	-0.0107781105
134	0xbda4f14a	-0.08053835
135	0xbcd4089b	-0.02588301
136	0x3bf50c6e	0.0074782884
137	0xbd8586fa	-0.06519885
138	0x3da50034	0.08056679
139	0xbd3d39c5	-0.04619767
140	0x3cf4d523	0.029886788
141	0xbc697d8b	-0.014251123
142	0x3cc440c2	0.02395666
143	0x3c97c28c	0.018525384
144	0xbc2da4f3	-0.010598409
145	0xbd8c5d4e	-0.06853734
146	0xbc832892	-0.016010556
147	0xbda19ad4	-0.07890859
148	0xbca99ae4	-0.02070374
149	0x3d908506	0.07056622
150	0x3d77c9e0	0.060495257
151	0x3b166c01	0.002295256
152	0x3c30f779	0.01080119
153	0xbc20f855	-0.009824832
154	0x3db6e4fe	0.089303955
155	0x3c8d3541	0.017237308
156	0x3c8ff935	0.017574886
157	0xbd12631f	-0.03573906
158	0xbc755206	-0.014973169
159	0x3d483c2f	0.04888552
160	0xbd88bc9a	-0.06676598
161	0x3d52cdd8	0.05146584
162	0x3d8b0568	0.067881405
163	0xbcd692c6	-0.026193034
164	0xbd7b06c7	-0.06128576
165	0xbda6d85a	-0.081467345
166	0x3d71a904	0.058999076
167	0x3d8fe1af	0.070254676
168	0x3ccd579a	0.025066186
169	0x3cec00a1	0.028808894
170	0xbdb48689	-0.08814723
171	0xbda88d62	-0.08230092
172	0xbcb73433	-0.022363758
173	0x3d0f6d29	0.035016213
174	0xbca8e0fd	-0.020615095
175	0xbdabedb1	-0.083949454
176	0xbd020c5a	-0.03175006
177	0x3d9ccc44	0.07656148
178	0xbd2387a0	-0.039924264
179	0x3d92f7e0	0.07176185
180	0xbd357fe4	-0.04431142
181	0xbc3264f3	-0.010888326
182	0xbd156c96	-0.03648051
183	0x3d8e6508	0.06952864
184	0xbdcac552	-0.09900917
185	0x3c79c413	0.015244502
186	0xbd3d2880	-0.046181202
187	0xbcf55e88	-0.029952303
188	0xbdacef47	-0.08444076
189	0xbd82c673	-0.063855074
190	0x3cff3714	0.031154193
191	0xba82240b	-0.0009928955
192	0xbd3ddc34	-0.04635258
193	0x3d8f39d7	0.06993454
194	0xbc8a0582	-0.01684833
195	0xbcbb9172	-0.022896502
196	0x3c9862ce	0.018601801
197	0xbccd553e	-0.02506506
198	0xbc3cf1da	-0.011532271
199	0xbc4192ad	-0.011814755
200	0x3d5fa306	0.05459883
201	0xbd3e5dc5	-0.046476144
202	0x3c11654e	0.008874251
203	0x3cb64041	0.022247436
204	0x3d43b957	0.047784176
205	0x3cdc5d4b	0.026899954
206	0x3cbf52fb	0.023354998
207	0xbd07fb31	-0.03319854
208	0x3d00bb22	0.031428464
209	0xbd05c984	-0.032662883
210	0xbd80df26	-0.06292562
211	0xbd3d1021	-0.04615796
212	0x3d3663a9	0.044528637
213	0x3b9d9e6f	0.0048101465
214	0xbd8bb1d5	-0.06821028
215	0x3d358166	0.044312857
216	0x3d4c2497	0.049839582
217	0x3d8e8723	0.06959369
218	0xbd9e139b	-0.07718583
219	0x3ceaaf20	0.02864796
220	0x3d581ed4	0.052763775
221	0xbd0e8b83	-0.034801017
222	0x3ce2f17d	0.027703041
223	0xbcce3059	-0.025169538
224	0xbcbd2c5a	-0.023092438
225	0x3d3876de	0.045035236
226	0x3d83cd96	0.06435697
227	0xbd504485	-0.050846595
228	0xbd72993e	-0.059228174
229	0xbcbee924	-0.02330453
230	0xbd2a9d3b	-0.041653853
231	0xbd3daa45	-0.04630496
232	0xbc25440a	-0.010087023
233	0xbd9980e1	-0.07495285
234	0xbac5f64b	-0.0015103308
235	0x3d9eb077	0.07748502
236	0xbd91a2a2	-0.07111098
237	0x3d8b6975	0.06807224
238	0x3bedf20e	0.007261521
239	0x3ceb4bdc	0.028722696
240	0xbab87dbf	-0.0014075561
241	0x3bd365d9	0.00645135
242	0x3d04fcf2	0.03246779
243	0x3c13fef0	0.00903295
244	0x3bc81575	0.0061060735
245	0xbda8e5dc	-0.08246967
246	0x3cbb7d98	0.022887036
247	0x3d202f27	0.039107468
248	0x3d40dff2	0.04708857
249	0x3cfc363a	0.030787576
250	0x3d669a49	0.05629948
251	0x3ced6526	0.028978895
252	0x3dad10f2	0.08450498
253	0x3da15d3d	0.07879112
254	0x3c854dab	0.016272387
255	0x3c8a3198	0.016869351

bias f4 [64]
0	0x3d978e6a	0.0740021
1	0xbc65426c	-0.013992887
2	0xbd0c247f	-0.034214493
3	0x3d52771a	0.051383115
4	0x3957d4ab	0.00020583223
5	0xbca0bbd5	-0.019620815
6	0x3c091c58	0.008368574
7	0x3d5cfcd7	0.053952064
8	0xbd588439	-0.052860472
9	0xbcaa4c6a	-0.02078839
10	0x3d55100a	0.05201725
11	0xbd9143a2	-0.07092978
12	0x3d926a37	0.07149165
13	0x3ca3386a	0.019924361
14	0x3d54eb45	0.051982183
15	0xbd306b59	-0.043071125
16	0x3d035fc1	0.03207374
17	0xbca5e158	-0.020249054
18	0x3d9582e2	0.073003545
19	0xb961b72f	-0.00021525913
20	0x3cf85b55	0.030316988
21	0x3c179946	0.009252852
22	0xbc59f12c	-0.013302129
23	0x3d5613a3	0.05226482
24	0xbd32d3ff	-0.043659206
25	0x3d8b5493	0.068032406
26	0xbc284c10	-0.010272041
27	0xbd4949fa	-0.049142815
28	0xbd1496c3	-0.03627659
29	0xbd5e3b17	-0.05425557
30	0xbb25b964	-0.0025287503
31	0x3d1ee1f8	0.03878972
32	0x3c5a82e8	0.013336875
33	0x3d13158d	0.035909224
34	0x3d86d0f8	0.065828264
35	0xbcedd80b	-0.029033681
36	0x3cfbb20d	0.03072455
37	0x3ce4c357	0.027925177
38	0x3d6ffbd7	0.058589783
39	0x3da0111d	0.07815764
40	0xbd18b8db	-0.037285667
41	0x3d82aa4e	0.06380139
42	0xbd2c9434	-0.042133525
43	0x3d82e0b2	0.063905135
44	0xbd65af76	-0.056075536
45	0xbd88db75	-0.06682483
46	0xbd7ceeda	-0.061751224
47	0x3c1bc2b8	0.009506874
48	0xbc230e98	-0.00995221
49	0xbd211eb0	-0.039335907
50	0xbd156870	-0.036476552
51	0x3ccf2588	0.025286451
52	0xbd8323e0	-0.06403327
53	0x3dab2072	0.08355798
54	0xbd1236d9	-0.035696838
55	0xbd24afc3	-0.040206682
56	0xbd0f3497	-0.034962263
57	0xbd295f6a	-0.04135076
58	0xbc845f18	-0.016158625
59	0xbd86ac7e	-0.06575869
60	0x3d26b8d2	0.040703602
61	0x3c4e598f	0.012594595
62	0x3c9908d5	0.01868097
63	0xbdb3557c	-0.08756539
