working/model_pretrained/net_F16B2_epoch_14.pth (torch_old, 135256 bytes, 16 tensors)

weight f4 [16, 3, 3, 3]
0.14782086 -0.14091024 -0.16340394 -0.14878175 0.15397102 0.130459 -0.13605395 0.17125286
-0.08875707 -0.16565725 -0.0730762 -0.022764495 -0.13433987 0.10462374 0.1665685 0.09534635
-0.1483533 0.14608823 0.025653487 0.095366225 0.1658491 -0.05810605 -0.09568068 0.07282586
-0.08966208 -0.16413099 0.07837975 0.107075244 0.056974012 -0.15376437 -0.035473064 -0.06543194
-0.09401838 -0.027190631 0.14392115 -0.15711997 -0.0016122784 0.09467875 0.04908474 0.17870587
0.011659042 -0.1492876 -0.12132364 -0.013071593 0.009907113 0.03511582 -0.0318262 -0.07624024
-0.13722165 0.05233054 0.0025099008 -0.104661055 -0.14369509 -0.053713217 -0.009163071 0.19198944
0.18017434 -0.031863663 0.1244021 0.19000389 0.016784225 -0.17001955 0.15437835 -0.046561323
-0.16721267 -0.0256329 0.08233839 -0.043709416 0.011735078 -0.077729404 -0.14184892 -0.14014086
0.09393747 0.16602394 -0.00072598446 -0.09572993 -0.07633593 0.0130450325 -0.09291739 -0.13724397
-0.13299611 -0.15850069 -0.09558456 0.144039 0.099291675 -0.026760599 -0.008190162 -0.020309642
-0.10735245 -0.026240772 -0.014761198 -0.09135457 -0.050130498 -0.11002391 0.016383825 -0.08543331
-0.08556198 0.048222452 -0.0024680952 0.03570533 0.13500561 -0.15209115 -0.09622755 0.16778082
0.120395645 -0.16593932 0.10561897 0.0015234714 -0.059794806 -0.15655038 0.073456384 -0.11646766
0.11371194 -0.11214272 -0.14837617 0.06373459 -0.0009473278 0.056652553 -0.060590558 0.004654283
-0.033285927 0.08594541 -0.036304682 -0.06115785 0.0979545 -0.121554755 0.18482742 0.084801175
0.18165053 -0.08323463 0.11826253 -0.0052853907 0.11600803 -0.08820338 0.033769947 -0.09411852
0.12713353 -0.046151258 -0.12683871 0.14903215 -0.16132584 0.079355225 0.010581166 -0.0359866
0.19886456 0.16405204 0.11989075 -0.16164811 0.18374164 -0.0024885652 -0.05162185 0.060086597
-0.0028345385 -0.08462245 0.013192651 -0.009492012 -0.15494573 -0.19430615 0.11476371 0.11001466
-0.07126039 0.10338213 0.03951273 -0.019894265 0.014555609 0.16566294 -0.14505169 0.16546935
0.14830911 -0.1771058 -0.18126936 -0.16705112 0.019271087 0.023883618 -0.16568257 -0.20214176
-0.12116612 -0.06995757 -0.119001545 0.18025324 0.10155615 0.14101163 0.10485576 -0.054606766
0.12987076 0.15256634 -0.04337065 -0.097207844 -0.038795028 -0.005335669 -0.15544707 -0.087572016
0.16674188 0.089754015 -0.123675086 -0.09876893 -0.033887625 0.018370222 0.15614595 0.048223797
0.15838006 0.153641 0.09806691 0.045937683 0.03345453 0.10508505 0.0051805885 -0.09732214
0.13505296 0.09153071 -0.06604288 -0.12217402 0.038529657 0.101245336 0.1673968 -0.040151566
-0.17260683 0.0926049 0.033155296 -0.15490578 -0.1535738 0.15353735 0.13725302 -0.09354431
-0.090305895 0.16092546 -0.00747476 0.17928953 -0.024249224 -0.047227595 -0.16016352 0.13054863
0.08634248 -0.06672748 -0.007828313 -0.05584661 0.16454795 -0.011675718 0.17479128 -0.04125141
0.033200916 0.070647806 -0.0035479646 -0.10219934 -0.057131577 0.006047328 -0.083114155 0.01363379
0.1672161 -0.13763759 -0.020814206 -0.032899603 0.08005554 -0.16933285 0.07189481 -0.030496934
00000000: 5a5e 173e c64a 10be 5d53 27be 3e5a 18be
00000010: 94aa 1d3e 0b97 053e ba51 0bbe e95c 2f3e
00000020: 44c6 b5bd 0ea2 29be faa8 95bd 9b7c babc
00000030: 6490 09be f944 d63d ef90 2a3e f244 c33d
00000040: ede9 17be 2798 153e 4327 d23c 5e4f c33d
00000050: 59d4 293e 9c00 6ebd 3bf4 c3bd b925 953d
00000060: c1a0 b7bd f411 28be 9085 a03d 444a db3d
00000070: 955d 693d 6874 1dbe 344c 11bd 2e01 86bd
00000080: b58c c0bd e3be debc 1160 133e 0fe4 20be
00000090: 1653 d3ba efe6 c13d 150d 493d acfe 363e
000000a0: 9105 3f3c d9de 18be 8778 f8bd 3c2a 56bc
000000b0: 7251 223c 9bd5 0f3d 315c 02bd d823 9cbd
000000c0: d583 0cbe 8c58 563d 267d 243b 8958 d6bd
000000d0: ce24 13be 6402 5cbd b520 16bc e198 443e
000000e0: 9f7f 383e 7983 02bd 87c6 fe3d 6190 423e
000000f0: 127f 893c 9b19 2ebe 5c15 1e3e 16b7 3ebd
00000100: cc39 2bbe 16fc d1bc 08a1 a83d a508 33bd
00000110: 7c44 403c 9830 9fbd d840 11be 1681 0fbe
00000120: 4a62 c03d 2e02 2a3e fe4f 3eba 0e0e c4bd
00000130: 0356 9cbd d5ba 553c 794b bebd af89 0cbe
00000140: 2230 08be 014e 22be d6c1 c3bd f67e 133e
00000150: 6f59 cb3d 0b39 dbbc 0730 06bc 6860 a6bc
00000160: 9adb dbbd e3f6 d6bc f4d8 71bc 1b18 bbbd
00000170: a355 4dbd 3754 e1bd 5f37 863c a9f7 aebd
00000180: 1f3b afbd e884 453d c4bf 21bb c13f 123d
00000190: e93e 0a3e c8bd 1bbe f312 c5bd bcce 2b3e
000001a0: fe91 f63d ffeb 29be c24e d83d 38af c73a
000001b0: 66eb 74bd be4e 20be 4d70 963d 9986 eebd
000001c0: cee1 e83d 15ab e5bd ecef 17be 4887 823d
000001d0: 1856 78ba 820c 683d ce2d 78bd f582 983b
000001e0: d356 08bd 2604 b03d 38b4 14bd a780 7abd
000001f0: 5e9c c83d b3f1 f8bd 6643 3d3e 3dac ad3d
00000200: 9902 3a3e eb76 aabd a033 f23d 1231 adbb
00000210: 9e95 ed3d f9a3 b4bd 5b52 0a3d 36c1 c0bd
00000220: 4b2f 023e 1a09 3dbd 02e2 01be e29b 183e
00000230: 9a32 25be fe84 a23d a05c 2d3c af66 13bd
00000240: 27a3 4b3e 42fd 273e 4889 f53d 1587 25be
00000250: c526 3c3e 3217 23bb 6f71 53bd 5d1d 763d
00000260: aac3 39bb 894e adbd fd25 583c 6284 1bbc
00000270: 18aa 1ebe 31f8 46be 3c09 eb3d 5e4f e13d
00000280: f8f0 91bd 03ba d33d 1ad8 213d 4cf9 a2bc
00000290: a67a 6e3c 8ca3 293e 6e88 14be cc70 293e
000002a0: 58de 173e 395b 35be ad9e 39be 730f 2bbe
000002b0: 66de 9d3c 94a7 c33c b1a8 29be 40fe 4ebe
000002c0: f125 f8bd ea45 8fbd 15b7 f3bd 4e94 383e
000002d0: acfc cf3d 5a65 103e 9ebe d63d 58ab 5fbd
000002e0: d7fc 043e 5a3a 1c3e 6ca5 31bd e814 c7bd
000002f0: 89e7 1ebd d6d6 aebb 842d 1fbe f558 b3bd
00000300: 62be 2a3e f4d0 b73d 5d49 fdbd 5d47 cabd
00000310: c0cd 0abd 267d 963c b9e4 1f3e 5186 453d
00000320: 622e 223e 1154 1d3e 4ed7 c83d 2729 3c3d
00000330: 9e07 093d d536 d73d edc1 a93b d550 c7bd
00000340: 534b 0a3e 7474 bb3d 7d41 87bd 5f36 fabd
00000350: 46d1 1d3d b759 cf3d 116a 2b3e f875 24bd
00000360: d8bf 30be a3a7 bd3d d9cd 073d 9f9f 1ebe
00000370: 7342 1dbe e538 1d3e 0e8c 0c3e 2994 bfbd
00000380: 4cf2 b8bd a5c9 243e d5ee f4bb ad97 373e
00000390: 4fa6 c6bc b971 41bd e801 24be 8aae 053e
000003a0: 53d4 b03d 6ba8 88bd 5342 00bc 6abf 64bd
000003b0: 427f 283e 834b 3fbc 7cfc 323e 3df7 28bd
000003c0: affd 073d ccaf 903d f884 68bb e34d d1bd
000003d0: cd02 6abd aa28 c63b c137 aabd 4360 5f3c
000003e0: b33a 2b3e def0 0cbe 8e82 aabc bcc1 06bd
000003f0: 29f4 a33d 9765 2dbe 963d 933d b5d4 f9bc

bias f4 [16]
0.09334956 0.1270475 0.1534877 0.07535229 -0.09974835 0.03866508 0.19944094 0.14084485
0.05283242 0.094959244 0.14930017 0.1550482 0.08195313 -0.035922308 -0.014349489 -0.098393
00000000: 0e2e bf3d bd18 023e e12b 1d3e 4d52 9a3d
00000010: dd48 ccbd 465f 1e3d 3f3a 4c3e a239 103e
00000020: cf66 583d fe79 c23d 25e2 183e f5c4 1e3e
00000030: 0bd7 a73d 4523 13bd 1e1a 6bbc 4582 c9bd

weight f4 [16, 16, 3, 3]
-0.009527481 -0.030861354 -0.07406659 -0.0027676828 0.10595456 -0.10843795 0.1278874 -0.052119486
0.06722654 -0.018340461 0.0805177 -0.028637115 0.011924085 -0.013655795 -0.04104427 0.0004722766
0.05058785 0.060282912 0.044012498 0.038653165 -0.03673154 -0.08791343 -0.034487065 -0.12742515
-0.08922816 -0.04041528 0.06895249 -0.06615411 0.020714108 0.00036200904 -0.036329746 0.08447811
0.07383726 -0.0066054775 0.07081656 0.03621964 0.016465064 -0.10566774 0.0032662703 -0.0039261985
0.1333052 -0.028747791 0.029307755 -0.070283964 -0.06174249 0.07461727 -0.058642708 0.10593475
-0.0070000705 0.03736279 -0.04990535 -0.0137223685 -0.11300413 0.06125322 0.013292995 -0.05730686
0.0059100515 -0.086555585 -0.04565383 -0.05832947 0.008107301 0.018182006 -0.07348095 -0.05920564
-0.047508765 -0.06569571 0.006349305 -0.019537162 -0.030544886 0.07103288 0.024374336 -0.07102915
-0.061305135 0.011787046 -0.044413343 0.06473512 0.004100568 0.04725498 -0.009746282 0.0019185237
-0.05943422 0.027982468 -0.011206362 0.123457216 0.10059514 -0.014297763 0.1335489 -0.0007134763
0.0011610389 0.07213668 -0.06448762 -0.010424023 0.013837957 0.05878927 -0.036392204 0.029153371
0.008062102 -0.0049967743 0.07531634 -0.023901125 0.04510667 -0.096535675 -0.034771282 0.028161729
-0.0408129 -0.077791736 0.11032899 0.07000226 0.027351467 -0.037245378 -0.026127229 0.0043536415
-0.05656901 -0.057334803 0.04799043 -0.08165551 -0.042892665 -0.015983263 0.058827348 0.05391048
0.01236393 0.06349982 0.09815728 0.029306818 -0.054352846 -0.036036234 -0.0036759176 -0.06330467
0.06553901 0.052514896 -0.12705858 -0.014482443 -0.10677616 -0.051895726 0.05062046 0.028369913
-0.02586843 0.021965409 -7.18423e-05 -0.081303224 -0.07869181 -0.026259948 0.014760914 -0.05935898
-0.1049004 -0.068635315 -0.033226777 -0.05407604 0.0647567 -0.040998753 0.13127534 0.00565275
-0.028799755 0.050473634 -0.05631481 -0.047421142 0.05187853 -0.08130573 -0.00905496 -0.0060220887
0.0036091267 -0.00093527563 -0.013148468 0.012490868 -0.044388104 -0.09870716 -0.032213137 0.03363543
0.041157775 -0.069798976 -0.06958217 -0.03936295 0.04281396 0.028069083 0.049472075 0.021491533
0.05706432 0.011429824 -0.08380256 -0.034236748 -0.08390144 -0.15242292 -0.0055824537 0.009287764
0.06749637 -0.05864489 0.05489638 0.05458831 0.0025152392 0.014723332 0.0010136823 0.048047304
-0.030246515 0.030731415 -0.05658359 -0.055338994 0.061171327 0.08527976 -0.064640634 -0.082799375
0.007817395 0.041204333 0.079847306 -0.012339804 0.020223677 -0.044031825 0.064012736 -0.070399344
0.06776508 0.0054439027 -0.0007768731 -0.034224875 0.02210114 0.026882008 -0.028970713 -0.04409146
-0.049696144 -0.032334585 -0.02931146 0.08522794 0.040029343 -0.010264045 -0.018169481 0.00027560806
-0.05781931 -0.031715684 -0.036968876 -0.025860917 0.011967923 0.03921236 0.13812836 0.07512203
-0.0043425313 -0.01578441 -0.02954682 0.070686445 -0.07409234 0.04711828 0.05745259 -0.06524069
0.023017202 -0.04518681 -0.01913561 -0.03432984 0.06820536 0.049867544 0.034759596 -0.043261062
0.08659033 -0.01685786 0.0047124145 0.009026503 -0.03690127 -0.07761644 -0.0349792 -0.07807773
00000000: 2719 1cbc f3d0 fcbc 39b0 97bd 0362 35bb
00000010: b4fe d83d b714 debd eaf4 023e 3e7b 55bd
00000020: 11ae 893d bc3e 96bc 77e6 a43d 6298 eabc
00000030: 3d5d 433c 8ebc 5fbc 091e 28bd e49b f739
00000040: 3535 4f3d 37eb 763d 7346 343d c852 1e3d
00000050: d073 16bd f50b b4bd 4f42 0dbd bd7b 02be
00000060: 41bd b6bd 7e8a 25bd f736 8d3d ce7b 87bd
00000070: a2b0 a93c 08cc bd39 80ce 14bd dc02 ad3d
00000080: fd37 973d c372 d8bb 4608 913d 0c5b 143d
00000090: bee1 863c 5468 d8bd ec0e 563b 57a7 80bb
000000a0: 2981 083e 7d80 ebbc d116 f03c 0af1 8fbd
000000b0: b1e5 7cbd f0d0 983d 5633 70bd 51f4 d83d
000000c0: d960 e5bb ba09 193d 8d69 4cbd c9d3 60bc
000000d0: b66e e7bd a8e4 7a3d ddca 593c 99ba 6abd
000000e0: 1ba9 c13b 0e44 b1bd 83ff 3abd e2ea 6ebd
000000f0: 7cd4 043c 6ef2 943c 2e7d 96bd 9d81 72bd
00000100: 8d98 42bd 798b 86bd d50d d03b 660c a0bc
00000110: 4539 fabc b079 913d b0ac c73c bb77 91bd
00000120: 181b 7bbd 741e 413c c4ea 35bd d993 843d
00000130: 0f5e 863b 708e 413d dfae 1fbc f976 fb3a
00000140: 4c71 73bd 7d3b e53c e49a 37bc 23d7 fc3d
00000150: d304 ce3d 2a41 6abc 0bc1 083e 9508 3bba
00000160: 002e 983a 65bc 933d 1612 84bd 85c9 2abc
00000170: 99b8 623c 05cd 703d fe0f 15bd 0dd3 ee3c
00000180: e816 043c fbbb a3bb 743f 9a3d 4bcc c3bc
00000190: c6c1 383d 7fb4 c5bd 556c 0ebd 6db3 e63c
000001a0: 6d2b 27bd 4651 9fbd 2af4 e13d 585d 8f3d
000001b0: 2f10 e03c 9c8e 18bd c508 d6bc fea8 8e3b
000001c0: e8b4 67bd e6d7 6abd 9d91 443d 013b a7bd
000001d0: 38b0 2fbd 55ef 82bc f2f4 703d 3cd1 5c3d
000001e0: 1592 4a3c 320c 823d af06 c93d da14 f03c
000001f0: 17a1 5ebd bb9a 13bd aae7 70bb e1a5 81bd
00000200: 5139 863d dc19 573d a51b 02be c547 6dbc
00000210: 76ad dabd 9d90 54bd 6657 4f3d 0568 e83c
00000220: 08ea d3bc cdf0 b33c 0baa 96b8 4e82 a6bd
00000230: 2c29 a1bd 1a1f d7bc c3d7 713c 6722 73bd
00000240: 05d6 d6bd ac90 8cbd cd18 08bd d67e 5dbd
00000250: 299f 843d 4fee 27bd 0b6d 063e b43a b93b
00000260: 77ed ebbc 71bd 4e3d 5caa 66bd ac3c 42bd
00000270: 957e 543d 9e83 a6bd 415b 14bc f154 c5bb
00000280: 1987 6c3b 492d 75ba ac6c 57bc 7fa6 4c3c
00000290: 4dd0 35bd fb26 cabd ecf1 03bd 4ec5 093d
000002a0: 0e95 283d c4f2 8ebd 1981 8ebd 0b3b 21bd
000002b0: b15d 2f3d 22f1 e53c 3ba3 4a3d 030f b03c
000002c0: 47bc 693d 2844 3b3c ada0 abbd d53b 0cbd
000002d0: 85d4 abbd c114 1cbe 04ed b6bb b52b 183c
000002e0: 893b 8a3d a035 70bd 07db 603d fe97 5f3d
000002f0: b6d6 243b 213a 713c 89dd 843a 40cd 443d
00000300: 8ac7 f7bc 73c0 fb3c 32c4 67bd 24ab 62bd
00000310: c98e 7a3d 28a7 ae3d 4f62 84bd b892 a9bd
00000320: 8814 003c e0c5 283d fc86 a33d e42c 4abc
00000330: 20ac a53c b75a 34bd 1c19 833d 882d 90bd
00000340: 6bc8 8a3d c462 b23b 12a7 4bba 622f 0cbd
00000350: 730d b53c a837 dc3c fd53 edbc 3f99 34bd
00000360: 2f8e 4bbd 4571 04bd 961e f0bc fc8b ae3d
00000370: cff5 233d 862a 28bc 2ad8 94bc 7d7f 9039
00000380: f1d3 6cbd 4ee8 01bd ad6c 17bd 46da d3bc
00000390: 1b15 443c 249d 203d 8571 0d3e 94d9 993d
000003a0: cb4b 8ebb 4f4e 81bc 2c0c f2bc 0ec4 903d
000003b0: babd 97bd 19ff 403d 6853 6b3d e99c 85bd
000003c0: 928e bc3c ce15 39bd 48c2 9cbc 729d 0cbd
000003d0: 40af 8b3d e941 4c3d 1460 0e3d 8332 31bd
000003e0: 4556 b13d 7f19 8abc 996a 9a3b e6e3 133c
000003f0: c925 17bd 5ef5 9ebd 5a46 0fbd 38e7 9fbd

bias f4 [16]
-0.015033794 -0.02734332 0.07201342 0.1348079 0.049243603 0.0344914 -0.0059424737 0.03807044
0.045125395 -0.0033289236 0.027761023 -0.019765643 0.020890385 0.014201268 -0.029015345 0.044463657
00000000: 4d50 76bc 19ff dfbc c67b 933d 150b 0a3e
00000010: a9b3 493d db46 0d3d 15b9 c2bb c0ef 1b3d
00000020: 68d5 383d 122a 5abb 166b e33c 8feb a1bc
00000030: 5022 ab3c 6fac 683c 97b1 edbc 861f 363d

weight f4 [16, 16, 3, 3]
0.14503042 -0.014454013 -0.044559997 -0.1308888 0.085398175 -0.011784735 0.04973303 0.0017596364
-0.055199306 0.044457473 -0.07562048 -0.046356555 -0.061791003 0.08070205 -0.08930628 -0.028447295
-0.09783793 -0.06398357 -0.10742852 0.008628521 -0.017336233 -0.036196828 0.08011293 -0.09908819
-0.000691324 -0.054286793 0.13159874 0.01795992 -0.027090875 -0.026394995 0.12046427 0.02001922
0.028218217 0.06196453 0.14900011 -0.028266726 -0.063209735 0.025210295 -0.04681844 0.010043056
-0.031885628 0.044532996 0.011383209 -0.015704012 -0.05555818 -0.0105712805 -0.07665737 -0.025346853
-0.104623824 0.023892816 -0.06453799 -0.02840015 -0.033303004 -0.058796447 -0.0308734 -0.04505313
-0.092295095 0.060478374 0.07928917 0.040987644 -0.009458826 0.07923459 0.0059762425 -0.058056463
0.032015633 -0.028875897 0.04777532 0.022705477 0.025686486 0.07793791 -0.08161575 0.020586329
0.07126908 0.019871091 -0.064456426 0.03467727 0.050420392 -0.074169114 0.020742383 -0.059153672
-0.07796486 -0.03778522 0.10696891 -0.040032223 -0.06816191 -0.12087826 0.081936605 0.02777574
-0.017339233 0.12424102 0.022983314 -0.046740886 0.024440093 -0.06347676 -0.08554884 0.074659295
-0.05044959 0.036631633 -0.050592914 0.018878948 0.02989011 -0.02070737 0.06649192 0.08314467
-0.08419785 0.07080877 -0.06050966 -0.027791785 0.0040852185 0.042845167 -0.10072955 -0.03201194
-0.009228332 -0.060572494 -0.08332983 -0.0030289579 -0.024973348 -0.07324502 0.045888703 -0.01850662
-0.0032287866 -0.062087227 0.060380504 0.03227871 -0.058543414 0.008438177 0.016369238 0.035217296
-0.039529365 -0.030006286 -0.0119252205 0.0034388774 -0.034232926 -0.008856885 0.022846932 -0.04058801
-0.042413615 -0.045718454 0.026786258 0.08242781 -0.0796148 0.07173839 0.058677256 -0.06184859
0.08408387 0.063775614 0.092267886 -0.046223424 -0.05077248 -0.016577132 0.04252317 0.055526443
0.053685404 0.01766777 -0.03576325 0.027716314 0.09088322 -0.0045721726 -0.059762865 0.0011274619
-0.057398733 0.07822168 0.023581225 -0.1120125 -0.043745883 0.05486941 -0.15238973 -0.10151539
0.027567916 -0.15112263 0.07886677 -0.007013746 -0.12604927 -0.06896783 0.022720989 -0.020717245
0.08191681 -0.080455326 -0.046852298 -0.034678366 -0.023875931 0.039348196 -0.0577237 -0.082031965
0.028350586 0.03408619 -0.06391417 0.060185622 0.07586074 0.010021784 0.020307688 0.06540917
0.03631036 -0.08911557 0.013662621 -0.06687012 0.017036475 -0.05181208 0.00602399 0.09443841
0.077764876 0.028667266 0.04419851 0.010098493 0.009961608 -0.03749899 0.021612035 0.102496535
0.018724289 0.011708358 0.007479003 0.033292927 -0.039758693 0.048276838 0.04961924 -0.021152303
0.03327796 -0.05737208 0.06990096 0.01805356 0.06505052 0.07417052 -0.008000368 0.000673163
0.058380004 0.034307793 0.06137504 0.1005579 -0.04097621 -0.0057076947 -0.0068667866 0.005194106
-0.050816845 0.025661802 -0.012017565 -0.031903006 -0.061288197 0.045631737 -0.06819137 0.005821328
-0.045331825 0.006361788 0.009906688 -0.07418882 0.035878338 -0.04920612 -0.001137875 0.060716815
0.018829238 0.08183704 0.06807504 0.046001155 0.07382489 -0.07192663 0.07804178 -0.06865853
00000000: db82 143e 86d0 6cbc 8b84 36bd b707 06be
00000010: 3de5 ae3d c314 41bc ddb4 4b3d 9aa3 e63a
00000020: ab18 62bd 0a19 363d e9de 9abd 5fe0 3dbd
00000030: 9018 7dbd 1e47 a53d 36e6 b6bd 4d0a e9bc
00000040: 415f c8bd d109 83bd 7c03 dcbd a45e 0d3c
00000050: b704 8ebc 2043 14bd 3f12 a43d c0ee cabd
00000060: f839 35ba d45b 5ebd d2c1 063e af20 933c
00000070: afed ddbc 513a d8bc f9b5 f63d 59ff a33c
00000080: e429 e73c 85ce 7d3d 7c93 183e 9f8f e7bc
00000090: 1b74 81bd d285 ce3c b1c4 3fbd a18b 243c
000000a0: 819a 02bd 3b68 363d a480 3a3c b3a5 80bc
000000b0: f990 63bd 2a33 2dbc 8afe 9cbd 34a4 cfbc
000000c0: 0445 d6bd deba c33c 7e2c 84bd 6ea7 e8bc
000000d0: bb68 08bd 8bd4 70bd 36ea fcbc a189 38bd
000000e0: 3605 bdbd 2cb8 773d 5c62 a23d a9e2 273d
000000f0: 31f9 1abc bf45 a23d 5bd4 c33b 9dcc 6dbd
00000100: d322 033d 258d ecbc 0eb0 433d d600 ba3c
00000110: 776c d23c e99d 9f3d 2926 a7bd a9a4 a83c
00000120: 86f5 913d b3c8 a23c bb01 84bd c109 0e3d
00000130: 9d85 4e3d fae5 97bd eeeb a93c 1f4b 72bd
00000140: 0aac 9fbd adc4 1abd 8412 db3d d4f8 23bd
00000150: 7998 8bbd 058f f7bd 61ce a73d f389 e33c
00000160: 020b 8ebc 1372 fe3d 8147 bc3c 5f73 3fbd
00000170: 9736 c83c 1b00 82bd 3b34 afbd f9e6 983d
00000180: 3ba4 4ebd 0d0b 163d 843a 4fbd 06a8 9a3c
00000190: 1bdc f43c 81a2 a9bc ea2c 883d c147 aa3d
000001a0: ec6f acbd 3004 913d fad8 77bd 99ab e3bc
000001b0: 4cdd 853b 6a7e 2f3d 4b4b cebd f41e 03bd
000001c0: 6e32 17bc dd1a 78bd d4a8 aabd 7b81 46bb
000001d0: e894 ccbc 7c01 96bd cbf5 3b3d 329b 97bc
000001e0: 0d9a 53bb 2d4f 7ebd 8c51 773d ae36 043d
000001f0: 38cb 6fbd 4840 0a3c c818 863c 0340 103d
00000200: 8be9 21bd becf f5bc 0062 43bc ca5e 613b
00000210: d337 0cbd 781c 11bc 7d29 bb3c 9d3f 26bd
00000220: e6b9 2dbd 4643 3bbd db6e db3c e9cf a83d
00000230: 160d a3bd 94eb 923d 9057 703d f254 7dbd
00000240: 2a34 ac3d ca9c 823d f2f6 bc3d c654 3dbd
00000250: cef6 4fbd c4cc 87bc c72c 2e3d b26f 633d
00000260: 3ae5 5b3d 00bc 903c 7c7c 12bd 530d e33c
00000270: fb20 ba3d 2ad2 95bb e8c9 74bd 58c7 933a
00000280: ef1a 6bbd b032 a03d 6a2d c13c cf66 e5bd
00000290: e22e 33bd bfbe 603d 0e0c 1cbe 4de7 cfbd
000002a0: 1cd6 e13c e4bf 1abe e784 a13d 91d3 e5bb
000002b0: 0f13 01be 013f 8dbd 5e21 ba3c 36b7 a9bc
000002c0: 00c4 a73d c3c5 a4bd 32e8 3fbd e70a 0ebd
000002d0: 7597 c3bc 932b 213d b06f 6cbd 6000 a8bd
000002e0: 7d3f e83c f69d 0b3d 6fe5 82bd 3385 763d
000002f0: e05c 9b3d 6932 243c 4f5c a63c 3ef5 853d
00000300: 2cba 143d 3982 b6bd 30d9 5f3c 34f3 88bd
00000310: 1490 8b3c e738 54bd e464 c53b ed68 c13d
00000320: 3143 9f3d 9dd7 ea3c 7f09 353d 2674 253c
00000330: 0336 233c 8a98 19bd b90b b13c b4e9 d13d
00000340: ae63 993c 6ad4 3f3c 6d12 f53b 2a5e 083d
00000350: 03da 22bd efbd 453d 8b3d 4b3d 9847 adbc
00000360: 784e 083d fcfe 6abd 3c28 8f3d 0fe5 933c
00000370: 3539 853d b7e6 973d fa13 03bc 3477 303a
00000380: df1f 6f3d 5486 0c3d 6564 7b3d 4df1 cd3d
00000390: acd6 27bd 9d07 bbbb c802 e1bb 5233 aa3b
000003a0: 5325 50bd b338 d23c 52e5 44bc baac 02bd
000003b0: 5509 7bbd 58e8 3a3d eba7 8bbd d7c0 be3b
000003c0: ddad 39bd 8c76 d03b a94f 223c 4ff0 97bd
000003d0: 2af5 123d 5b8c 49bd c024 95ba 32b2 783d
000003e0: c63f 9a3c 2e9a a73d ed6a 8b3d b56b 3c3d
000003f0: 8131 973d 454e 93bd 5ed4 9f3d d89c 8cbd

bias f4 [16]
0.06085194 0.0520657 0.027551051 0.07516301 -0.019725312 -0.007662999 0.014550707 -0.092583075
0.022226933 -0.066331886 0.09910087 0.03437612 0.028233653 0.07296124 0.0652977 0.053349603
00000000: e23f 793d d842 553d beb2 e13c 10ef 993d
00000010: fa96 a1bc e519 fbbb 1766 6e3c 329c bdbd
00000020: 4215 b63c 03d9 87bd 66f5 ca3d f9cd 0c3d
00000030: 434a e73c b46c 953d cdba 853d 1d85 5a3d

weight f4 [16, 16, 3, 3]
-0.01598607 -0.03576055 -0.04955801 0.09536755 -0.038545344 -0.06517 0.074829206 0.018087603
-0.039844606 0.038178977 -0.045511235 0.011977089 0.06222779 0.0607396 0.02853859 -0.09361562
0.0007156083 -0.00019790408 0.028406544 -0.039252426 0.041352477 0.02519432 -0.019933134 -0.048114922
0.0066028237 0.034489725 -0.036924228 0.034813352 0.039784312 -0.03852638 0.023746293 -0.005417601
0.06891508 -0.024269538 0.06290933 0.030682528 -0.012335352 -0.078728266 -0.011859624 -0.046043985
-0.0876021 -0.08747291 0.0501444 -0.005784057 -0.04692798 -0.01001633 -0.032821663 0.046349287
-0.04096613 -0.0072170165 -0.015043487 -0.008441733 -0.0031234103 0.06368508 -0.04063972 0.061098263
0.030753339 0.02530938 -0.048149332 0.0716146 0.05391859 0.03721277 -0.03046913 -0.062738866
0.041413665 -0.011921286 0.06432558 0.003499746 -0.041217387 0.025163062 0.0675501 -0.015186121
0.059398238 0.06537047 0.06964968 -0.038175963 0.043116324 0.00082294754 0.03018452 -0.07183478
-0.024546102 0.064375035 0.022089079 0.04005949 0.010173049 -0.06028053 -0.037093177 0.05138995
0.05592511 -0.059670404 -0.05313148 -0.015026957 -0.00021315388 -0.0136912055 -0.077396154 -0.07103842
-0.078391396 -0.030356722 -0.074394 0.023710879 0.06770734 -0.042405844 0.035323855 -0.0067467866
0.024851497 0.03259439 -0.058111053 -0.047310483 0.08310239 0.06834251 0.07416044 0.06931638
0.0707982 -0.026649535 -0.0038805574 0.03874101 0.05718389 0.047999367 0.060713332 0.060692266
-0.06588985 -0.033441372 0.06998307 0.022989687 0.03433636 -0.07579602 0.05891132 0.054650635
0.073417656 0.022234926 0.04068371 -0.028601201 -0.0802586 -0.06555734 -0.0008302327 -0.074326925
-0.010964193 0.04338039 -0.0070091398 0.06094497 -0.02192261 0.045400295 -0.044365037 -0.03688798
-0.0029194672 -0.013966616 -0.004679006 -0.062946945 0.066857085 -0.07330533 -0.022998383 -0.04938975
-0.054381 -0.03977647 0.037796464 0.009721991 0.075217694 0.002782731 0.048291 -0.076524846
-0.054762863 -0.008011161 -0.013829311 -0.05095204 0.031435654 0.022837438 -0.005261579 -0.023492012
0.008344037 -0.06824947 0.027733602 -0.012730663 -0.04009001 0.058638915 -0.0651948 -0.084442444
-0.027975125 0.020435045 -0.03520179 0.07061568 -0.023657795 -0.010533257 -0.07891727 -0.03972621
-0.035909653 0.02349962 -0.04340724 0.023031592 0.070187025 -0.023026567 -0.060171884 0.033234883
-0.031107288 0.058621455 0.03434909 0.050038934 0.0029786397 0.053013492 -0.03576336 -0.03763694
0.02583645 -0.03853357 0.036915313 -0.06542613 0.00037927608 -0.017788243 0.014748163 0.05633157
0.027218523 0.05746797 0.0006269547 0.060672153 -0.03486868 0.007572853 0.023696713 -0.06941987
-0.018904246 -0.016822115 0.017959248 -0.02017766 0.06720577 -0.047204792 0.011981214 0.036969725
-0.08251913 -0.06990331 0.10056378 0.018632978 -0.062678844 -0.052124966 0.067479394 0.05613243
-0.0113174375 -0.03900076 0.052886803 0.031052914 -0.080379464 -0.032102503 -0.0144087095 -0.05516159
-0.019008055 -0.006041169 -0.08641544 -0.031078188 0.06823393 -0.016818905 -0.07642873 0.037054636
0.012745869 0.078320086 0.061332796 -0.001988992 -0.07696451 -0.050709154 0.06919377 -0.003340422
00000000: 38f5 82bc a879 12bd 57fd 4abd 1050 c33d
00000010: b9e1 1dbd d977 85bd 0e40 993d 742c 943c
00000020: 1934 23bd 8f61 1c3d fd69 3abd 8d3b 443c
00000030: 91e2 7e3d 16ca 783d c3c9 e93c 8cb9 bfbd
00000040: a997 3b3a 7984 4fb9 d7b4 e83c 27c7 20bd
00000050: 3761 293d 5264 ce3c d04a a3bc 2714 45bd
00000060: 805c d83b 1945 0d3d dc3d 17bd 7298 0e3d
00000070: e0f4 223d d6cd 1dbd 9687 c23c 2286 b1bb
00000080: 5923 8d3d e9d0 c6bc 9bd6 803d ed59 fb3c
00000090: 371a 4abc 493c a1bd de4e 42bc 9e98 3cbd
000000a0: bb68 b3bd ff24 b3bd 3764 4d3d 3088 bdbb
000000b0: 8e37 40bd 881b 24bc 0270 06bd c0d8 3d3d
000000c0: 1acc 27bd b97c ecbb f578 76bc 324f 0abc
000000d0: 21b2 4cbb 536d 823d d675 26bd 2c42 7a3d
000000e0: 6dee fb3c 9e55 cf3c 3c38 45bd adaa 923d
000000f0: bdd9 5c3d 6b6c 183d 669a f9bc 3c7d 80bd
00000100: 60a1 293d 7f51 43bc 21bd 833d ff5b 653b
00000110: 90d3 28bd c422 ce3c b557 8a3d 35cf 78bc
00000120: 914b 733d f4e0 853d 7ea4 8e3d 665e 1cbd
00000130: be9a 303d 13bb 573a 8745 f73c 1d1e 93bd
00000140: e814 c9bc 0fd7 833d 28f4 b43c 6b15 243d
00000150: dcac 263c b8e8 76bd 04ef 17bd 457e 523d
00000160: ba11 653d f468 74bd 65a0 59bd a033 76bc
00000170: 0f82 5fb9 1451 60bc e081 9ebd 977c 91bd
00000180: ab8b a0bd a9ae f8bc e25b 98bd 513d c23c
00000190: 25aa 8a3d c0b1 2dbd bfaf 103d 2614 ddbb
000001a0: 5e95 cb3c b281 053d db05 6ebd a3c8 41bd
000001b0: 9631 aa3d 28f7 8b3d 6ee1 973d bff5 8d3d
000001c0: a6fe 903d 2050 dabc f350 7ebb e5ae 1e3d
000001d0: a839 6a3d fc9a 443d 8bae 783d 7498 783d
000001e0: 42f1 86bd d2f9 08bd 4953 8f3d de54 bc3c
000001f0: 48a4 0c3d f23a 9bbd ff4c 713d 58d9 5f3d
00000200: ff5b 963d 0526 b63c f6a3 263d 114d eabc
00000210: 9f5e a4bd ed42 86bd f9a3 59ba b738 98bd
00000220: 29a3 33bc a3af 313d edac e5bb 6fa1 793d
00000230: 0c97 b3bc a9f5 393d 1db8 35bd da17 17bd
00000240: 8854 3fbb 3cd4 64bc 5952 99bb 54ea 80bd
00000250: 5eec 883d 1b21 96bd 1b67 bcbc e84c 4abd
00000260: 9dbe 5ebd a7ec 22bd 77d0 1a3d fc48 1f3c
00000270: bc0b 9a3d 7b5e 363b c9cc 453d 0fb9 9cbd
00000280: 064f 60bd 3f41 03bc 5694 62bc 16b3 50bd
00000290: acc2 003d 9415 bb3c 5369 acbb 5272 c0bc
000002a0: 6eb5 083c 61c6 8bbd 9431 e33c 4594 50bc
000002b0: 6c35 24bd 5c2f 703d da84 85bd 29f0 acbd
000002c0: 172c e5bc 6567 a73c c12f 10bd f49e 903d
000002d0: fecd c1bc af93 2cbc 619f a1bd f3b7 22bd
000002e0: 0016 13bd 4682 c03c cacb 31bd c0ac bc3c
000002f0: 37be 8f3d 36a2 bcbc cb76 76bd 4d21 083d
00000300: b6d4 febc 0d1d 703d a2b1 0c3d a0f5 4c3d
00000310: 4835 433b ad24 593d 9a7c 12bd 3129 1abd
00000320: f6a6 d33c 60d5 1dbd 8334 173d 23fe 85bd
00000330: 93d9 c639 a6b8 91bc 47a2 713c efbb 663d
00000340: 61f9 de3c 8963 6b3d 385a 243a 5d83 783d
00000350: 76d2 0ebd b225 f83b 9c1f c23c 012c 8ebd
00000360: 14dd 9abc 88ce 89bc 461f 933c 9f4b a5bc
00000370: 2ea3 893d d059 41bd db4c 443c 916d 173d
00000380: caff a8bd 7729 8fbd 62f4 cd3d 30a4 983c
00000390: c45d 80bd fd80 55bd a332 8a3d 1eeb 653d
000003a0: c66c 39bc 43bf 1fbd d59f 583d ae62 fe3c
000003b0: fd9d a4bd ea7d 03bd 8212 6cbc 1ff1 61bd
000003c0: c8b6 9bbc 00f5 c5bb 94fa b0bd af97 febc
000003d0: 3bbe 8b3d cdc7 89bc aa86 9cbd 9ac6 173d
000003e0: 0dd4 503c 4866 a03d 1938 7b3d c059 02bb
000003f0: 929f 9dbd 67b4 4fbd 77b5 8d3d fbea 5abb

bias f4 [16]
-0.0805425 -0.06703239 -0.028237639 -0.08077271 -0.07579859 0.040926617 0.0054986496 0.022195794
0.043220785 -0.017832074 0.03464772 -0.016669774 0.01953273 0.014779947 0.024086684 0.05842963
00000000: 77f3 a4bd 4748 89bd 9f52 e7bc 2a6c a5bd
00000010: 4b3c 9bbd aba2 273d 042e b43b f4d3 b53c
00000020: 4708 313d 9214 92bc c5ea 0d3d 0d8f 88bc
00000030: 1b03 a03c 9727 723c 7051 c53c e853 6f3d

weight f4 [16, 16, 3, 3]
-0.05736126 -0.017293379 0.017287202 0.021688098 0.03500023 -0.06342794 -0.0793284 0.042732667
0.018046407 -0.023727883 0.030298 -0.043794136 0.042157527 0.032972906 -0.060075156 -0.06539014
-0.0027587644 -0.029904397 0.060272228 0.0044683665 -0.12821583 -0.12399716 0.05252765 -0.053204566
-0.032448795 0.002717072 0.0065269275 0.005721059 -0.0019182662 0.000532494 -0.08227388 0.005075836
0.04498627 -0.03401922 -0.029673362 0.07025002 0.019470097 -0.088956006 0.020478379 0.05122515
-0.04412186 -0.05154548 -0.035941 0.012496367 -0.091970794 -0.010433904 -0.038142018 -0.01348168
-0.016610924 0.0051011774 -0.048841976 0.042048104 0.06654872 -0.0022742501 -0.002249217 0.009745914
-0.02577249 -0.064785294 -0.07962269 -0.10853527 0.048253737 -0.14213616 -0.024351753 0.08120602
-0.07435904 -0.07704913 0.03958698 -0.11009678 0.077757455 0.08273552 -0.058735304 -0.014687337
0.21612857 -0.16524771 0.12656511 -0.05956374 0.20192303 -0.27004185 0.09001011 0.021786802
0.014235028 -0.07659252 -0.013128409 0.048564825 0.15917282 -0.06722392 0.0050991224 -0.05608021
-0.060549017 0.11000071 0.088454545 -0.05367866 -0.016299548 -0.06970112 -0.053629328 -0.05110262
0.0008838548 -0.09951285 0.040840447 -0.032057468 -0.0022127829 0.087414935 -0.06977105 0.052257184
-0.08878101 -0.028639004 -0.08554292 -0.011221606 0.100856945 -0.09854339 0.029256694 0.043042373
-0.083827846 -0.04446511 0.013379975 0.093767285 -0.124996595 0.059635688 0.046831124 0.023880424
0.011663203 -0.067371815 -0.004347762 -0.024196317 0.03299759 -0.026757812 0.04794213 0.05693351
-0.058420047 -0.013222027 0.057670772 0.008164483 -0.020930959 -0.034724697 -0.11663626 0.03932488
-0.08318634 -0.03559841 -0.0057706754 -0.05375276 -0.047799 -0.04621886 0.03916099 -0.011834249
-0.06560812 0.035344563 -0.016435795 0.010350982 0.018703448 -0.005388399 -0.07731939 -0.019479126
0.07254017 -0.024097875 0.07248812 0.008424152 -0.016208619 0.0052141333 -0.037476134 0.030922046
-0.045490123 -0.035142712 -0.06402344 0.036494758 0.047812246 0.049448643 -0.034150634 -0.025056668
0.008682018 -0.061624624 0.007863194 0.027643899 0.07170196 -0.06222404 0.021634534 0.07002631
0.020957204 -0.040675096 0.0466544 0.050164197 -0.08031633 0.0004147088 -0.0601153 -0.043763265
-0.03115186 0.015494464 0.032138325 -0.013757254 -0.007883673 -0.0052193766 -0.086965054 -0.0062548765
0.0035587614 0.06581567 -0.05893761 0.045488514 0.022939693 -0.04597185 -0.053191762 -0.031574946
0.09382214 -0.0021367406 -0.077307716 0.062277406 -0.031547625 -0.07528678 0.096489705 -0.058247022
-0.06994694 0.028570287 0.077203766 -0.07096069 0.10022549 0.065726504 -0.009190017 -0.064079076
0.060209032 0.10765057 0.030074192 -0.07262431 0.10167251 0.0009888425 -0.003544153 -0.012442841
-0.06893637 0.082951374 0.029343126 -0.0041158455 -0.06294152 -0.12107945 0.027401425 -0.026810661
0.018638495 -0.025611151 -0.06415303 0.016280215 0.010233084 0.036345948 -0.013539825 0.0028281307
-0.056955207 -0.06296177 0.03761836 -0.086495206 0.0054286434 -0.04368821 -0.04565076 -0.100104816
0.111058995 -0.022367122 -0.03495382 0.08860878 0.057803854 -0.015423599 -0.07982006 0.05739889
00000000: a4f3 6abd d8aa 8dbc e49d 8d3c 3dab b13c
00000010: 675c 0f3d 82e6 81bd ee76 a2bd 7308 2f3d
00000020: 0fd6 933c fa60 c2bc 8333 f83c 7b61 33bd
00000030: 5fad 2c3d 990e 073d 5e11 76bd 44eb 85bd
00000040: 63cc 34bb 11fa f4bc 03e0 763d 606b 923b
00000050: 034b 03be 39f2 fdbd 3c27 573d 08ed 59bd
00000060: 07e9 04bd e710 323b d6df d53b b977 bb3b
00000070: 556e fbba 1197 0b3a 357f a8bd 3353 a63b
00000080: 8643 383d bd57 0bbd 8d15 f3bc 3edf 8f3d
00000090: c17f 9f3c 912e b6bd 46c2 a73c 76d1 513d
000000a0: 20b9 34bd 5a21 53bd df36 13bd 90bd 4c3c
000000b0: 2f5b bcbd f7f2 2abc ce3a 1cbd 44e2 5cbc
000000c0: a213 88bc c727 a73b 860e 48bd a23a 2c3d
000000d0: b24a 883d 960b 15bb 9967 13bb 53ad 1f3c
000000e0: d420 d3bc 27ae 84bd 3911 a3bd bd47 debd
000000f0: b6a5 453d 248c 11be 547d c7bc 584f a63d
00000100: 8d49 98bd efcb 9dbd f525 223d 6c7a e1bd
00000110: 4d3f 9f3d 3e71 a93d 6e94 70bd 28a3 70bc
00000120: cf50 5d3e b236 29be 499a 013e 1cf9 73bd
00000130: e9c4 4e3e ed42 8abe 3857 b83d 3c7a b23c
00000140: 093a 693c 8adc 9cbd 8a18 57bc e9eb 463d
00000150: 33fe 223e b2ac 89bd 8a16 a73b 5db4 65bd
00000160: 3f02 78bd 0d48 e13d a827 b53d 28de 5bbd
00000170: a186 85bc 76bf 8ebd 6daa 5bbd fb50 51bd
00000180: 7eb2 673a 65cd cbbd 5048 273d b14e 03bd
00000190: 5604 11bb 9a06 b33d 20e4 8ebd a10b 563d
000001a0: d1d2 b5bd 589c eabc 2031 afbd d4da 37bc
000001b0: 168e ce3d 1ed1 c9bd bcab ef3c 334d 303d
000001c0: efad abbd 0c21 36bd af37 5b3c 1009 c03d
000001d0: 37fe ffbd 8d44 743d fed1 3f3d e1a0 c33c
000001e0: 0517 3f3c 3cfa 89bd ac77 8ebb 5b37 c6bc
000001f0: 7b28 073d 3333 dbbc f85e 443d 1d33 693d
00000200: dc49 6fbd 33a1 58bc 3038 6c3d 53c4 053c
00000210: 6777 abbc 7c3b 0ebd fede eebd 2013 213d
00000220: 9a5d aabd a3cf 11bd ef17 bdbb db2b 5cbd
00000230: e2c8 43bd fd4f 3dbd 4667 203d 70e4 41bc
00000240: 8d5d 86bd 76c5 103d 5ca4 86bc 2a97 293c
00000250: f937 993c 2b91 b0bb a159 9ebd b092 9fbc
00000260: f18f 943d e868 c5bc a774 943d 7405 0a3c
00000270: f0c7 84bc 52db aa3b 9380 19bd 3b50 fd3c
00000280: da53 3abd cef1 0fbd b91e 83bd 877b 153d
00000290: c6d6 433d a98a 4a3d 89e1 0bbd a443 cdbc
000002a0: 063f 0e3c 1a6a 7cbd a0d4 003c 7575 e23c
000002b0: 7ad8 923d a3de 7ebd e83a b13c f469 8f3d
000002c0: 71ae ab3c ee9a 26bd af18 3f3d f978 4d3d
000002d0: e37c a4bd 466d d939 763b 76bd 1c41 33bd
000002e0: 2f32 ffbc 7edc 7d3c 7aa3 033d 1b66 61bc
000002f0: 852a 01bc 4e07 abbb bc1a b2bd b5f5 ccbb
00000300: 1c3a 693b 5eca 863d 9068 71bd 2a52 3a3d
00000310: 06ec bb3c fb4c 3cbd 9bdf 59bd bb54 01bd
00000320: d225 c03d 8f08 0cbb 8253 9ebd 9816 7f3d
00000330: 1538 01bd f52f 9abd 659c c53d 6e94 6ebd
00000340: 5740 8fbd 3c0c ea3c 021d 9e3d d753 91bd
00000350: 0643 cd3d 9e9b 863d ba91 16bc e43b 83bd
00000360: bf9d 763d e777 dc3d 275e f63c 0ebc 94bd
00000370: ad39 d03d 0c9c 813a 0545 68bb 0fdd 4bbc
00000380: 832e 8dbd 69e2 a93d ff60 f03c 37de 86bb
00000390: 7ce7 80bd 81f8 f7bd f478 e03c 08a2 dbbc
000003a0: c2af 983c 7ace d1bc aa62 83bd 165e 853c
000003b0: aaa8 273c 7ddf 143d 24d6 5dbc 2958 393b
000003c0: dd49 69bd 1af2 80bd b615 1a3d 6624 b1bd
000003d0: c3e2 b13b 69f2 32bd 4bfc 3abd c103 cdbd
000003e0: e672 e33d 413b b7bc bd2b 0fbd 8578 b53d
000003f0: bcc3 6c3d 43b3 7cbc b378 a3bd 191b 6b3d

bias f4 [16]
0.029284349 0.07751872 -0.042776696 -0.053672407 0.014200268 0.028347557 -0.05234765 -0.0021205992
0.080805436 0.015139261 -0.024705164 -0.10022352 0.07709642 0.021456458 -0.019019227 0.012031612
00000000: bbe5 ef3c 22c2 9e3d 9e36 2fbd 99d7 5bbd
00000010: 3ea8 683c 2339 e83c 7d6a 56bd c0f9 0abb
00000020: 527d a53d aa0a 783c 7c62 cabc fd41 cdbd
00000030: bae4 9d3d 74c5 af3c 36ce 9bbc 3d20 453c

weight f4 [64, 16, 3, 3]
-0.074252784 0.07472632 0.08385673 -0.039663106 -0.08863386 -0.014888089 -0.026366832 -0.0962923
0.020990334 -0.04709305 -0.06514788 0.029652832 0.0015247749 -0.033533324 -0.060323965 -0.04345777
0.019952493 -0.013589697 0.054008912 0.008061025 -0.0018557296 0.07388112 0.0068387035 0.11274118
0.067315996 -0.11096984 -0.014322349 0.017838325 0.015616797 -0.044358063 -0.01604403 -0.0050899237
-0.017621923 0.043176513 -0.040618997 -0.060427476 0.03245242 0.039914206 0.061693564 -0.012117527
0.021256149 -0.042874094 -0.07860068 0.037059493 -0.07397313 -0.053428594 0.06290549 -0.072167106
0.009599443 0.094816886 -0.005003366 -0.0249106 -0.04782257 -0.0208611 -0.045804612 -0.05695265
0.0010271783 -0.08281086 0.06511408 -0.022056414 -0.03755883 -0.001046746 -0.013009403 0.06635205
0.013999683 -0.050383944 -0.010916506 -0.064020105 0.004433226 0.045579646 -0.038525216 -0.037465323
0.0368342 -0.058988802 -0.04853363 -0.070777416 -0.07702722 0.0067535117 -0.09813528 -0.030021323
-0.08092712 -0.03133502 -0.11392566 0.04776126 0.020009095 -0.07696708 -0.03987589 0.002150876
-0.02165003 -0.020106422 0.02396639 0.047563218 -0.00547222 -0.03887134 -0.062412433 -0.0443504
-0.023746647 0.076974966 -0.048802324 0.010262779 0.011667631 -0.01604854 -0.033232685 -0.0016412617
0.039503403 -0.06784225 0.031662725 0.044335816 -0.03543892 0.09552519 -0.079599366 0.0068209195
-0.014144082 0.042086225 -0.021217983 0.045822218 0.049814936 0.006557114 0.08006908 -0.076911345
-0.02318302 -0.020761376 0.043791246 0.025923975 0.028289894 0.007034049 0.02195156 -0.061705336
0.060376182 0.012889543 -0.027928336 0.028004846 0.02461697 0.0015310232 -0.08316463 -0.048568036
0.0057916455 -0.07233691 0.07101848 -0.04682434 0.028225552 -0.026266845 0.03851039 0.017768195
-0.011035951 -0.030591898 0.009517133 -0.076185875 -0.02603772 0.083771124 0.05547158 0.009718664
-0.020499846 -0.020237299 0.07166337 0.0011141029 0.022381172 -0.038779177 -0.018873395 0.0421176
-0.08853879 0.04490701 0.06543913 -0.0199526 -0.081600524 -0.035081483 0.10442307 0.09193984
0.0047143884 0.00859991 -0.108387604 -0.07804928 -0.040178493 0.032772556 -0.010283886 -0.10281217
-0.041668408 0.10600363 -0.041623864 0.065064564 0.010709037 0.026661878 0.0033221028 0.09046196
-0.12284975 0.018932333 -0.09797812 -0.014885895 -0.081739865 -0.09229136 0.040007386 0.00014561285
-0.062381487 0.05879288 0.014346421 -0.025886523 0.032476313 -0.04061494 -0.015315018 -0.00514197
0.059425294 -0.05042584 -0.0028959587 0.025249867 0.046725407 0.011127874 0.0325736 -0.034475155
0.021354027 -0.028142288 -0.070836835 -0.048403352 0.05494733 -0.0039313952 -0.07616046 0.04883477
0.056581296 0.056610752 -0.08018425 0.013629322 0.020068916 -0.03577432 0.006321404 -0.02463962
-0.009578048 0.06478448 0.021935588 -0.07075367 -0.04083102 -0.015756281 -0.06802379 -0.04092492
0.014511751 -0.067337245 -0.005478035 0.086000316 -0.07433544 0.048917133 0.0132360915 0.011041259
0.013427556 0.020839723 0.019369192 0.03632446 0.004886016 -0.059750993 -0.014743273 -0.01208462
0.05916848 0.032983724 0.03948928 0.07569487 0.060134765 0.0861806 0.013306188 0.0037407295
00000000: d811 98bd 1d0a 993d 14bd ab3d c875 22bd
00000010: ab85 b5bd 2ced 73bc 41ff d7bc e634 c5bd
00000020: ecf3 ab3c a4e4 40bd 406c 85bd 7fea f23c
00000030: f5da c73a 3d5a 09bd 4316 77bd c600 32bd
00000040: 6973 a33c 52a7 5ebc 7338 5d3d 6412 043c
00000050: f43b f3ba fc4e 973d 3417 e03b d9e4 e63d
00000060: f8dc 893d 2844 e3bd 49a8 6abc ae21 923c
00000070: 98dd 7f3c cdb0 35bd c56e 83bc 60c9 a6bb
00000080: da5b 90bc dbd9 303d 1b60 26bd cd82 77bd
00000090: d4ec 043d 147d 233d 64b2 7c3d 9888 46bc
000000a0: 6021 ae3c bf9c 2fbd 65f9 a0bd b2cb 173d
000000b0: 397f 97bd f1d7 5abd 98d4 803d 59cc 93bd
000000c0: fb46 1d3c 5b2f c23d 47f3 a3bb 5111 ccbc
000000d0: 99e1 43bd e6e4 aabc 9e9d 3bbd 2f47 69bd
000000e0: 62a2 863a bd98 a9bd 885a 853d a7af b4bc
000000f0: 4ad7 19bd f832 89ba 6425 55bc 95e3 873d
00000100: ed5e 653c 655f 4ebd 25db 32bc f91c 83bd
00000110: 9844 913b b9b1 3a3d 9ecc 1dbd 3d75 19bd
00000120: 75df 163d 3e9e 71bd 33cb 46bd c0f3 90bd
00000130: 72c0 9dbd 904c dd3b 26fb c8bd 47ef f5bc
00000140: 1ebd a5bd 2659 00bd db51 e9bd 50a1 433d
00000150: 1dea a33c eba0 9dbd e754 23bd b6f5 0c3b
00000160: 675b b1bc 39b6 a4bc 2a55 c43c a6d1 423d
00000170: 4f50 b3bb 8e37 1fbd 2ea4 7fbd c4a8 35bd
00000180: 5488 c2bc 0da5 9d3d f2e4 47bd 3725 283c
00000190: 9729 3f3c 3a78 83bc ff1e 08bd 9b1f d7ba
000001a0: 52ce 213d e1f0 8abd c6b0 013d 7999 353d
000001b0: 6728 11bd b6a2 c33d fe04 a3bd 0582 df3b
000001c0: 94bc 67bc 9b62 2c3d 56d1 adbc 14b0 3b3d
000001d0: bf0a 4c3d 0fdd d63b 42fb a33d b283 9dbd
000001e0: 51ea bdbc c313 aabc 735e 333d 845e d43c
000001f0: 35c0 e73c e17d e63b c2d3 b33c bcbe 7cbd
00000200: 044d 773d a92e 533c f7c9 e4bc 6b6a e53c
00000210: 87a9 c93c 9dac c83a 3852 aabd 47ef 46bd
00000220: d8c7 bd3b 6025 94bd 2372 913d e1ca 3fbd
00000230: 4639 e73c 912d d7bc 12bd 1d3d 9b8e 913c
00000240: 22d0 34bc dc9b fabc c0ed 1b3c 5707 9cbd
00000250: 0e4d d5bc 3290 ab3d 2b36 633d 083b 1f3c
00000260: 4bef a7bc b1c8 a5bc 3fc4 923d 1707 923a
00000270: b858 b73c ead6 1ebd 619c 9abc 8183 2c3d
00000280: d353 b5bd 6af0 373d f304 863d a373 a3bc
00000290: 2d1e a7bd 9ab1 0fbd c3db d53d f44a bc3d
000002a0: 287b 9a3b a3e6 0c3c 52fa ddbd 4dd8 9fbd
000002b0: 3492 24bd 843c 063d bf7d 28bc 308f d2bd
000002c0: 7eac 2abd 6e18 d93d c97d 2abd 9240 853d
000002d0: f574 2f3c 036a da3c a3b7 593b 1f44 b93d
000002e0: a698 fbbd fb17 9b3c c1a8 c8bd f8e3 73bc
000002f0: 3b67 a7bd 4103 bdbd c9de 233d a7af 1839
00000300: bb83 7fbd ced0 703d 400d 6b3c f90f d4bc
00000310: e205 053d da5b 26bd d7eb 7abc f87d a8bb
00000320: f067 733d 538b 4ebd 20ca 3dbb cfd8 ce3c
00000330: 2463 3f3d b051 363c e56b 053d d235 0dbd
00000340: a4ee ae3c a88a e6bc e712 91bd 9842 46bd
00000350: 7410 613d efd2 80bb 04fa 9bbd f806 483d
00000360: cac1 673d ade0 673d a437 a4bd 854d 5f3c
00000370: 9167 a43c 1888 12bd c823 cf3b 07d9 c9bc
00000380: 3fed 1cbc baad 843d 43b2 b33c 4de7 90bd
00000390: 6d3e 27bd 5113 81bc 0f50 8bbd e4a0 27bd
000003a0: b2c2 6d3c 1ce8 89bd 1781 b3bb ef20 b03d
000003b0: 2e3d 98bd 555d 483d 31dc 583c 66e6 343c
000003c0: 40ff 5b3c 11b8 aa3c 24ac 9e3c f5c8 143d
000003d0: df1a a03b 75bd 74bd c58d 71bc 92fe 45bc
000003e0: a65a 723d f119 073d 83bf 213d e905 9b3d
000003f0: df4f 763d 747f b03d 3302 5a3c 0727 753b

bias f4 [64]
0.075195216 -0.016008724 -0.011767799 0.05704197 -0.013071633 -0.022909446 -0.0006874105 0.04268398
-0.027659904 -0.016095642 0.07664172 -0.037422985 0.04488585 0.0072547975 0.032820247 -0.059354685
0.045317356 0.0059932326 0.09836487 0.01958454 0.022301717 0.0011233471 -0.024589613 0.036773074
-0.029325686 0.08057807 0.007557969 -0.047982663 -0.05277279 -0.07221603 -0.011117144 0.029034607
-0.0011166949 0.032965142 0.038851503 -0.052020825 0.014143593 0.010342047 0.037970006 0.06089536
-0.014254052 0.087548174 -0.027630713 0.08403394 -0.0722627 -0.0908567 -0.08866681 -0.020005738
0.026641907 0.015738945 -0.014381353 0.041583683 -0.09167796 0.067093104 -0.05842777 -0.049883958
-0.04897965 -0.065426454 -0.034036834 -0.08762774 0.0441837 0.016553074 0.02239879 -0.082625985
00000000: f3ff 993d ba24 83bc bacd 40bc d7a4 693d
00000010: 672a 56bc 97ac bbbc 5633 34ba 66d5 2e3d
00000020: 0697 e2bc 02db 83bc 56f6 9c3d d848 19bd
00000030: 3ada 373d a7b9 ed3b 866e 063d e61d 73bd
00000040: b19e 393d e162 c43b 8573 c93d c26f a03c
00000050: 17b2 b63c 463d 933a 2870 c9bc 5d9f 163d
00000060: 6c3c f0bc 1d06 a53d d7a8 f73b 7889 44bd
00000070: 4828 58bd ffe5 93bd ae24 36bc fcd9 ed3c
00000080: 105e 92ba 7506 073d c122 1f3d ca13 55bd
00000090: 87ba 673c b071 293c 7086 1b3d 6a6d 793d
000000a0: d489 69bc 754c b33d ce59 e2bc fd19 ac3d
000000b0: 77fe 93bd 1413 babd f296 b5bd 13e3 a3bc
000000c0: 2140 da3c f6ee 803c c49f 6bbc a753 2a3d
000000d0: a7c1 bbbd 1c68 893d f551 6fbd 1f53 4cbd
000000e0: e39e 48bd 4efe 85bd 356a 0bbd 2c76 b3bd
000000f0: f8f9 343d 509a 873c ab7d b73c d037 a9bd

weight f4 [64, 16, 3, 3]
0.040477116 0.07605775 0.044880643 0.0010050205 0.05064152 -0.07541647 -0.056615617 -0.002564834
-0.0054882476 -0.059916172 -0.030410286 -0.024451906 0.067798555 -0.015912108 -0.027998863 -0.037064478
-0.07234083 0.034102738 -0.04651828 0.08968669 -0.007406645 0.01640816 -0.007734349 -0.0591466
0.02647714 -0.033886235 -0.042832904 -0.0068847486 -0.074766874 -0.06328843 0.019935166 0.029849598
-0.012376167 0.03090813 0.05738192 -0.04698841 0.07079537 -0.02052049 -0.04331701 0.06445042
0.09242179 -0.010946299 0.0059867506 -0.0040158094 0.052045926 0.03769617 -0.0838409 -0.022783514
0.03416826 -0.01625205 -0.052951764 0.04775421 -0.024368314 -0.04454282 -0.0019413483 0.082072884
0.012328226 -0.054586574 0.08847885 0.043826442 0.027904915 0.015187103 0.034056917 -0.075761855
0.00074824726 -0.058088087 0.041454878 -0.052893367 0.055437487 0.0648297 0.05620556 -0.0014410112
0.004834071 0.012428349 -0.012814672 0.0053154663 -0.0219066 -0.0659595 -0.052542828 0.0017712557
0.028575394 -0.056150235 0.05214683 -0.059448723 0.05137831 -0.09515612 -0.04202964 -0.05967716
-0.0989457 -0.046033185 -0.05496153 -0.022808976 0.057970833 0.06871489 0.006622911 -0.070752114
-0.036625654 -0.061292358 0.0724768 -0.036095615 -0.054278232 -0.06205454 -0.0102906255 -0.016404886
-0.07949901 0.0038850505 0.058824867 -0.06215457 0.03304461 -0.109928645 -0.08257685 -0.06980405
-0.016662195 0.014105285 -0.0050531197 -0.029202787 -0.018402644 -0.00062641874 0.037253782 0.064828806
-0.047640804 -0.08251739 0.007857322 0.037731666 0.036583375 0.011720075 -0.0036798955 0.031486493
0.018044947 0.06963934 -0.062359553 -0.04583055 -0.014907811 -0.026331468 -0.044213686 0.08365687
0.024109004 -0.02748281 -0.046331495 -0.020687137 2.8275907e-05 0.008910521 0.03955451 0.076898366
-0.029481206 0.06291253 -0.06622299 0.043345604 0.04186534 -0.053448386 0.020046461 -0.03808035
0.014489982 -0.038103595 -0.030088332 0.07451438 0.052310187 -0.06608592 -0.07224932 -0.046660565
-0.0744308 -0.050868586 -0.054817967 0.032932337 0.008407148 -0.053881057 0.09355046 -0.026059723
-0.052529283 0.013158827 -0.06794355 0.02080703 -0.050334048 -0.04987927 -0.0639708 -0.016827112
-0.09140503 0.058581233 -0.009043173 -0.04301307 0.044336256 0.046001125 -0.015605354 0.088108286
0.11390085 -0.043580066 0.08231536 0.010873313 -0.015687263 -0.07605478 0.03825417 0.08121252
-0.082594834 0.051244363 -0.027370872 -0.025483072 -0.077515356 -0.006525827 0.062033508 0.019109543
-0.074735045 -0.08019898 0.10079095 0.077038094 0.022402998 -0.05026157 0.03478594 -0.083541386
-0.03899028 0.057045795 -0.07585555 -0.006783546 -0.010833363 -0.06313686 -0.047090296 0.025100859
0.05630072 0.014533627 -0.08478462 -0.0076575032 -0.0150429215 -0.091585994 -0.047051623 -0.024178987
-0.019554447 0.038378477 0.041968983 0.025725396 0.019365247 -0.028547665 -0.019313313 0.05274594
0.046770383 -0.0018248613 -0.071053 -0.012859019 0.06543733 0.001825135 0.08509097 -0.05722067
0.05063462 -0.069976665 0.06850978 -0.039516274 -0.028832141 -0.019373365 -0.067393586 -0.06481775
-0.016974606 0.03528428 0.0395254 -0.025401805 -0.024695259 0.04756057 -0.084354 -0.022482019
00000000: 55cb 253d 2ac4 9b3d c4d4 373d e4ba 833a
00000010: 7c6d 4f3d f373 9abd c7e5 67bd c616 28bb
00000020: c2d6 b3bb a96a 75bd fe1e f9bc 5d4f c8bc
00000030: f8d9 8a3d 1c5a 82bc df5d e5bc ecd0 17bd
00000040: 6e27 94bd 50af 0b3d f489 3ebd a8ad b73d
00000050: 71b3 f2bb 686a 863c 6c70 fdbb b543 72bd
00000060: 96e6 d83c 4bcc 0abd 8e71 2fbd 7599 e1bb
00000070: 601f 99bd 5d9d 81bd 134f a33c 2587 f43c
00000080: 68c5 4abc 0c33 fd3c 4e09 6b3d eb76 40bd
00000090: 2afd 903d 961a a8bc 2d6d 31bd 95fe 833d
000000a0: a347 bd3d 1b58 33bc 812c c43b 0d97 83bb
000000b0: 1c2e 553d 4d67 1a3d c7b4 abbd 7ea4 babc
000000c0: 04f4 0b3d 0523 85bc f3e3 58bd eb99 433d
000000d0: 0fa0 c7bc 8872 36bd d774 feba d415 a83d
000000e0: 54fc 493c 2c96 5fbd 6634 b53d 5b83 333d
000000f0: d998 e43c 54d3 783c 447f 0b3d 0829 9bbd
00000100: 0626 443a c6ed 6dbd 97cc 293d b7a6 58bd
00000110: 6b12 633d 6fc5 843d cd37 663d 50e0 bcba
00000120: 2067 9e3b 46a0 4b3c a1f4 51bc 5d2d ae3b
00000130: 7875 b3bc c615 87bd 2637 57bd 7b29 e83a
00000140: f216 ea3c cafd 65bd ea97 553d 8180 73bd
00000150: 1072 523d 36e1 c2bd 4627 2cbd 0a70 74bd
00000160: 0ba4 cabd 4b8d 3cbd 571f 61bd e4d9 babc
00000170: d372 6d3d 64ba 8c3d 0105 d93b 7ce6 90bd
00000180: c804 16bd b20d 7bbd b76e 943d ffd8 13bd
00000190: da52 5ebd e72c 7ebd 039a 28bc 8a63 86bc
000001a0: 61d0 a2bd 559c 7e3b 58f2 703d ca95 7ebd
000001b0: c959 073d 4522 e1bd 0d1e a9bd 6df5 8ebd
000001c0: 287f 88bc da19 673c a494 a5bb af3a efbc
000001d0: 24c1 96bc 4036 24ba 6c97 183d f7c4 843d
000001e0: 0123 43bd e1fe a8bd ffbb 003c 858c 1a3d
000001f0: 73d8 153d 8f05 403c 672a 71bb fbf7 003d
00000200: ffd2 933c 129f 8e3d bb6c 7fbd d1b8 3bbd
00000210: e43f 74bc 17b5 d7bc 6919 35bd 4b54 ab3d
00000220: 3f80 c53c a123 e1bc 18c6 3dbd 1278 a9bc
00000230: 0c32 ed37 6ffd 113c e903 223d e47c 9d3d
00000240: 9282 f1bc 49d8 803d eb9f 87bd 298b 313d
00000250: fe7a 2b3d b2ec 5abd 7a38 a43c 24fa 1bbd
00000260: 6467 6d3c 8412 1cbd ce7b f6bc ff9a 983d
00000270: 3543 563d 0e58 87bd 74f7 93bd 261f 3fbd
00000280: 2d6f 98bd 945b 50bd ce88 60bd 0fe4 063d
00000290: 22be 093c 62b2 5cbd 6297 bf3d 337b d5bc
000002a0: f228 57bd 1f98 573c fd25 8bbd 8173 aa3c
000002b0: 132b 4ebd 354e 4cbd 1f03 83bd 03d9 89bc
000002c0: 8f32 bbbd e0f2 6f3d d129 14bc 792e 30bd
000002d0: ef99 353d ad6b 3c3d 99ad 7fbc 1e72 b43d
000002e0: d944 e93d 0381 32bd f594 a83d fb25 323c
000002f0: 9382 80bc 9cc2 9bbd 68b0 1c3d c052 a63d
00000300: 7b27 a9bd 9ce5 513d e138 e0bc e0c1 d0bc
00000310: 5fc0 9ebd 9bd6 d5bb d916 7e3d 9e8b 9c3c
00000320: b00e 99bd 5d3f a4bd 7c6b ce3d 26c6 9d3d
00000330: 7e86 b73c 13df 4dbd b47b 0e3d bf17 abbd
00000340: 46b4 1fbd daa8 693d 285a 9bbd 8248 debb
00000350: 6b7e 31bc e64d 81bd c1e1 40bd 51a0 cd3c
00000360: 959b 663d 731e 6e3c 8fa3 adbd cbeb fabb
00000370: 9676 76bc 7091 bbbd 34b9 40bd 0313 c6bc
00000380: a630 a0bc c032 1d3d abe7 2b3d 11be d23c
00000390: dea3 9e3c cbdc e9bc f436 9ebc 200c 583d
000003a0: 4d92 3f3d 2f30 efba 3c84 91bd a3ae 52bc
000003b0: 0204 863d 5e39 ef3a 2d44 ae3d 3960 6abd
000003c0: 3f66 4f3d ed4f 8fbd db4e 8c3d d1db 21bd
000003d0: 6231 ecbc e4b4 9ebc a605 8abd 2bbf 84bd
000003e0: 540e 8bbc 4086 103d 63e5 213d 7217 d0bc
000003f0: b64d cabc dfce 423d cac1 acbd 362c b8bc

bias f4 [64]
-0.02326676 0.080185995 -0.08620369 -0.050878692 -0.012110059 0.05922382 -0.024200115 -0.042397227
0.037363227 -0.046414454 0.012050588 0.01670125 -0.06949595 0.04916643 0.06039604 0.029135006
0.031044833 -0.051336613 -0.030345503 0.011246197 -0.028068263 0.029715797 0.00032021906 0.014496306
-0.050689153 0.05115945 0.071425445 -0.047566283 -0.06531398 0.05795856 -0.022367224 0.048535198
0.07455732 -0.08912839 0.0033818586 -0.08502936 -0.0072663506 -0.034802638 0.019781748 -0.0696323
0.022564266 -0.06754852 -0.028478831 0.03584174 0.041163012 0.075252354 0.018117955 -0.050414592
-0.075407185 -0.05537012 -0.0779489 -0.05414693 0.05693472 0.06345783 -0.022010991 -0.05023213
-0.041131005 0.03245079 -0.0760011 0.041793957 -0.035316948 0.00082134915 -0.021720663 -0.05384542
00000000: ef99 bebc 8e38 a43d 8f8b b0bd 2d66 50bd
00000010: 4569 46bc ad94 723d 523f c6bc b7a8 2dbd
00000020: 2f0a 193d 151d 3ebd d46f 453c 0fd1 883c
00000030: e553 8ebd bd62 493d d761 773d 89ac ee3c
00000040: bc51 fe3c 5746 52bd 2297 f8bc f841 383c
00000050: 6aef e5bc 8b6e f33c 13e3 a739 ea81 6d3c
00000060: 6e9f 4fbd 928c 513d 8147 923d ddd4 42bd
00000070: 56c3 85bd f465 6d3d 783b b7bc d8cc 463d
00000080: 82b1 983d f288 b6bd 2ca2 5d3b e023 aebd
00000090: 911a eebb 368d 0ebd 550d a23c 619b 8ebd
000000a0: b2d8 b83c e156 8abd 704c e9bc cace 123d
000000b0: 8c9a 283d e81d 9a3d 1b6c 943c 887f 4ebd
000000c0: 156f 9abd c7cb 62bd aca3 9fbd 2cc9 5dbd
000000d0: 6234 693d 2ef6 813d 6550 b4bc 35c0 4dbd
000000e0: fc78 28bd 1feb 043d 77a6 9bbd 2430 2b3d
000000f0: 81a8 10bd cf4f 573a 88ef b1bc 048d 5cbd
