working/model_pretrained/net_F16B2_epoch_11.pth (torch_old, 135256 bytes, 16 tensors)

weight f4 [16, 3, 3, 3]
000000 5f 7a 18 3e 43 1c 0d be d3 67 25 be ee d9 15 be
       0.14890431 -0.13780312 -0.16152887 -0.14633915
000010 45 82 1b 3e f2 9a 03 3e bd 94 0d be 15 df 2d 3e
       0.15186413 0.12852076 -0.1382627 0.1697963
000020 6a 01 b1 bd f5 6a 2a be 5a 18 92 bd c7 0c ba bc
       -0.08642848 -0.16642363 -0.07133551 -0.02271117
000030 d3 d3 05 be 4c 48 d2 3d ea d2 28 3e e2 bf c4 3d
       -0.13069086 0.10267696 0.16486707 0.09606911
000040 72 58 16 be 14 0a 1a 3e 37 8d bb 3c 83 16 c9 3d
       -0.14682177 0.15042907 0.022894485 0.09818747
000050 84 76 2f 3e a0 7a 50 bd 79 21 c5 bd 46 fe 92 3d
       0.17135054 -0.050898194 -0.09625525 0.07177405
000060 85 42 c2 bd 55 6e 28 be 20 54 a6 3d dc d3 db 3d
       -0.09485344 -0.16448338 0.08121514 0.10733768
000070 76 96 6a 3d df 14 1e be 72 61 13 bd 7d ac 85 bd
       0.057272397 -0.15437649 -0.035981603 -0.0652704
000080 3b 34 c0 bd 26 fd e7 bc 2a 0e 13 3e 63 a7 21 be
       -0.09384962 -0.028318953 0.14360872 -0.15786509
000090 c4 e9 d4 ba 3c 4e c1 3d 3b a0 44 3d 4d 72 36 3e
       -0.0016243984 0.0943875 0.04800437 0.1781704
0000a0 c2 86 3f 3c 5c a2 18 be 81 10 fa bd 72 9a 56 bc
       0.011689844 -0.14905685 -0.12210179 -0.013098346
0000b0 4b 07 1d 3c 4c 3d 0c 3d a5 4e 02 bd cd 57 9e bd
       0.009584258 0.034238145 -0.031813283 -0.077315904
0000c0 c5 62 0e be cc 3c 57 3d ad bf 2e 3b 50 45 d9 bd
       -0.13904865 0.052548215 0.002666454 -0.106089234
0000d0 40 d4 12 be a5 66 61 bd 62 6e fe bb 49 6c 44 3e
       -0.1433878 -0.05502953 -0.0077646235 0.19181933
0000e0 b1 4a 38 3e cc 25 00 bd 3a 4b fd 3d e6 d3 40 3e
       0.17997243 -0.031286046 0.12367864 0.18830833
0000f0 a6 82 87 3c 9f 89 2d be 1b c1 1d 3e b9 8f 3d bd
       0.01654179 -0.1694703 0.15405695 -0.046279643
000100 7f 36 2b be bc d7 cc bc 6f 07 aa 3d 2e 9f 30 bd
       -0.16720007 -0.025005214 0.08302199 -0.043120556
000110 47 5b 3b 3c 17 78 a0 bd d8 6d 10 be 35 d9 0f be
       0.011435336 -0.07835405 -0.14104402 -0.14047702
000120 d1 54 bf 3d e2 8d 28 3e 6c 77 b6 b9 58 52 c3 bd
       0.09342349 0.16460374 -0.0003480272 -0.0953719
000130 01 94 9b bd 27 12 61 3c 36 16 c0 bd f1 b3 0d be
       -0.07596589 0.013737238 -0.093792364 -0.13838173
000140 b5 d3 0b be 84 db 23 be 85 f2 c4 bd 1c f1 12 3e
       -0.13654979 -0.16001707 -0.096165694 0.14349788
000150 f7 32 ca 3d 99 6f da bc 21 29 09 bc 73 85 b5 bc
       0.09873002 -0.026664542 -0.008371622 -0.02215836
000160 ce 2d dc bd 13 d6 d8 bc d8 0f 80 bc 8a da bc bd
       -0.10750924 -0.026469266 -0.015632555 -0.092213705
000170 1f a9 52 bd c3 fc e0 bd e6 7f 8a 3c b2 07 b0 bd
       -0.051430818 -0.109857105 0.01690669 -0.08595218
000180 1c e9 b1 bd 81 10 48 3d db 02 26 bb 6c 4a 11 3d
       -0.0868704 0.048843864 -0.0025331292 0.035471365
000190 a3 a3 0a 3e 64 82 1b be fa e7 c4 bd 05 51 2c 3e
       0.13538985 -0.15186459 -0.096145585 0.16827781
0001a0 cb e0 f7 3d c5 c6 29 be bf d7 da 3d d4 ab 26 3b
       0.12103423 -0.16579731 0.106856816 0.0025432007
0001b0 b2 92 6b bd 54 08 1f be 30 99 9d 3d 61 5e ef bd
       -0.057512946 -0.1553052 0.07695234 -0.11687923
0001c0 e8 20 dc 3d fa 00 e0 bd 55 bd 17 be 8f 01 86 3d
       0.10748464 -0.10937686 -0.14818318 0.06543266
0001d0 66 fd 57 bb ac 4b 79 3d a4 d4 76 bd 20 16 d8 3b
       -0.0032957434 0.060863182 -0.060261384 0.0065944344
0001e0 5e e2 00 bd 36 f7 a1 3d 07 08 0d bd f3 85 71 bd
       -0.03146588 0.0790848 -0.034431484 -0.058965635
0001f0 ac ec d0 3d 29 16 fe bd 4a 35 40 3e 45 94 ad 3d
       0.102013916 -0.124065705 0.18770328 0.08475546
000200 fe e5 39 3e a9 a3 ab bd 63 67 e2 3d 6d 75 73 bb
       0.18154141 -0.08380825 0.11054876 -0.0037148849
000210 19 90 ee 3d 4d 10 af bd c1 12 0d 3d 6f 08 be bd
       0.11648578 -0.08548031 0.034441713 -0.09278952
000220 e3 ad 00 3e 68 94 3f bd c5 c3 02 be 66 bf 16 3e
       0.12566333 -0.04677239 -0.12769993 0.1472145
000230 53 1d 26 be 09 9a a6 3d c4 25 30 3c 09 ba 10 bd
       -0.16222124 0.081348486 0.0107511915 -0.035333667
000240 3d 08 4d 3e fe 0e 27 3e 0e 89 f7 3d a2 be 25 be
       0.20022674 0.16314313 0.12086688 -0.16186002
000250 62 fc 3a 3e 80 94 4d bb 78 fe 4b bd 8b 45 78 3d
       0.18260339 -0.003136903 -0.049803227 0.060613196
000260 3f f6 4c bb 33 e1 b4 bd 72 37 70 3c e4 22 18 bc
       -0.0031274704 -0.08832016 0.014661657 -0.009285662
000270 f6 bf 1d be 1f 1b 43 be 2e 80 e8 3d af d6 e2 3d
       -0.15405259 -0.19053315 0.11352573 0.11076104
000280 c8 93 8f bd 1b f8 d2 3d 48 c4 20 3d da 4b a6 bc
       -0.07010609 0.103012286 0.03924969 -0.02029984
000290 ee a8 6d 3c 0c 9b 29 3e 92 29 12 be 06 34 29 3e
       0.014505608 0.16563052 -0.1427367 0.16523752
0002a0 a5 b3 17 3e 33 bd 35 be a5 b6 39 be 13 72 2b be
       0.14814623 -0.17747955 -0.1813608 -0.16742735
0002b0 62 82 94 3c 8d a4 b9 3c 92 53 29 be 64 27 4d be
       0.018128578 0.022661472 -0.16535786 -0.20034558
0002c0 45 a6 fb bd ca 73 8d bd 59 1c f4 bd 75 46 38 3e
       -0.12287573 -0.06906851 -0.119194694 0.17995627
0002d0 3f d9 d2 3d a5 bb 0f 3e b4 fe db 3d 82 02 67 bd
       0.10295343 0.14036424 0.1074194 -0.056398876
0002e0 6f 2e 05 3e 0a 00 19 3e a9 00 31 bd e0 ab c4 bd
       0.13005994 0.14941421 -0.04321352 -0.09603095
0002f0 75 76 1b bd 6d e8 a4 bb ee df 1e be 5a 11 b1 bd
       -0.037954766 -0.00503259 -0.1551511 -0.08645888
000300 f3 0d 2b 3e 97 27 b5 3d f3 f6 fb bd 25 ea c8 bd
       0.1670454 0.08845442 -0.12302961 -0.098102845
000310 f6 f4 03 bd 74 b3 97 3c 30 ca 20 3e 3a 76 48 3d
       -0.032216035 0.018518187 0.15702128 0.048940875
000320 76 bf 23 3e 9f f6 1d 3e d8 9b c5 3d 48 c2 3c 3d
       0.15991005 0.1542611 0.096488655 0.04608372
000330 7a aa 0c 3d e3 a8 d9 3d 2e 99 94 3b dd 20 c7 bd
       0.034342267 0.10627916 0.004534862 -0.09723065
000340 50 7b 09 3e 25 70 b9 3d 9e 0e 87 bd 2f 9f fc bd
       0.13425946 0.09054593 -0.06594585 -0.12335049
000350 58 b5 1f 3d fc ee cd 3d af 59 2c 3e 0e ab 24 bd
       0.038991302 0.10055348 0.16831087 -0.040202193
000360 45 0f 32 be 8a 74 be 3d d3 86 0a 3d a6 01 1f be
       -0.17388637 0.09299572 0.033819985 -0.15527973
000370 0c 8e 1d be 14 bd 1d 3e 9f 09 0d 3e 22 2f bf bd
       -0.15386218 0.15404159 0.13773201 -0.09335162
000380 ad db bb bd 03 e7 23 3e 20 e8 fd bb 11 5b 37 3e
       -0.09172759 0.16006093 -0.0077486187 0.17905833
000390 5d f7 c5 bc d5 c0 45 bd 04 94 24 be 17 f9 06 3e
       -0.024165804 -0.048279602 -0.16072088 0.13180958
0003a0 66 05 b2 3d 5f 87 8b bd fd 4c e9 bb 49 eb 63 bd
       0.08692436 -0.06812929 -0.0071197734 -0.055644307
0003b0 65 72 29 3e 49 0d 38 bc eb 5b 30 3e 64 69 29 bd
       0.16547544 -0.011233636 0.17222564 -0.041360274
0003c0 48 c2 10 3d 3e 2a 92 3d 84 eb 36 bb 9f d3 d1 bd
       0.03534153 0.07136963 -0.0027911374 -0.10245442
0003d0 b4 31 6a bd fc de b6 3b df f6 a7 bd b1 2e 53 3c
       -0.057176307 0.005580781 -0.08201384 0.01288955
0003e0 19 9f 2b 3e c8 42 0d be 67 13 a6 bc b6 fd 05 bd
       0.1675991 -0.13795006 -0.020272924 -0.03271266
0003f0 21 65 a3 3d a6 a6 2d be 6a d0 91 3d e4 67 f4 bc
       0.07978273 -0.16958103 0.0711983 -0.029834695

bias f4 [16]
000000 f2 42 b4 3d 28 0a 01 3e 64 34 1c 3e fd 6b 9b 3d
       0.08801831 0.1260153 0.1525436 0.075889565
000010 bd 2c cc bd 73 76 17 3d 8c bb 4c 3e ac ef 10 3e
       -0.09969471 0.036978196 0.19993418 0.14153928
000020 b3 e4 55 3d bf d0 c4 3d c2 a8 16 3e b4 e7 1f 3e
       0.052220058 0.09610128 0.14712813 0.15615731
000030 91 fc a5 3d b6 16 10 bd db b6 71 bc a7 1c cd bd
       0.08104814 -0.03517791 -0.014753069 -0.100152306

weight f4 [16, 16, 3, 3]
000000 c5 dc 27 bc bc e3 8d bc e0 f5 93 bd 76 02 9b bb
       -0.010245507 -0.017320506 -0.07224631 -0.004730518
000010 07 53 ea 3d 2e b7 db bd 20 43 f3 3d 8f 41 55 bd
       0.114416175 -0.10728298 0.118780375 -0.052064475
000020 df d2 82 3d a5 32 8a bc 5e 14 a3 3d e4 0c 05 bd
       0.06387877 -0.016869852 0.07962869 -0.032482997
000030 41 95 14 3c 48 f1 80 bc cc a1 44 bd 24 34 a3 3b
       0.009068788 -0.015740052 -0.048005864 0.004980581
000040 64 d5 4c 3d 69 6b 5d 3d ee e9 11 3d fb 17 2b 3d
       0.050008193 0.054057512 0.035623483 0.041770916
000050 82 c8 f8 bc 01 db b6 bd 5c d5 f5 bc ee 39 fe bd
       -0.030369047 -0.089284904 -0.030008964 -0.12413393
000060 63 ee a3 bd 12 24 33 bd fc ae 7e 3d 74 f4 7f bd
       -0.08004453 -0.04373557 0.062178597 -0.062488988
000070 f3 55 a1 3c 3f 2c 62 ba 42 6f 18 bd 75 7f a7 3d
       0.019694304 -0.0008627809 -0.03721548 0.081786074
000080 72 f7 9f 3d de f0 b2 bb 15 c2 92 3d 91 a4 12 3d
       0.07810868 -0.0054608425 0.071659245 0.035801474
000090 b4 7f 04 3d 64 24 a8 bd 86 1b 5c 3c 4b 8d 9d bc
       0.03234835 -0.08210066 0.0134342965 -0.019232413
0000a0 fb 6b 08 3e 62 4e 14 bd 57 d4 e5 3c 44 f9 87 bd
       0.13322441 -0.036207564 0.028055353 -0.066393405
0000b0 80 3e 40 bd 2d 01 9c 3d 0b 95 71 bd b7 11 d4 3d
       -0.046934605 0.07617412 -0.05898003 0.10354941
0000c0 5f 39 a4 bc e7 19 02 3d 92 da 68 bd 56 9a 81 bc
       -0.020046888 0.031762984 -0.05684907 -0.015820663
0000d0 3d 21 d5 bd 79 5b 80 3d bc ef 68 3c 0b 06 4e bd
       -0.1040673 0.06267447 0.014217313 -0.05029873
0000e0 de e3 91 3c 54 ca ba bd e4 ae 31 bd ef 29 4e bd
       0.01780885 -0.09120622 -0.04337968 -0.05033296
0000f0 24 32 90 3b 49 5b 95 3c e2 4a 80 bd 32 ba 75 bd
       0.0044005085 0.018232005 -0.06264283 -0.059992023
000100 e3 ac 49 bd 81 8a 89 bd 61 1e 06 3c 8b 04 a6 bc
       -0.049237143 -0.06715871 0.008185954 -0.020265838
000110 ae 94 e0 bc 52 43 9b 3d 16 bb d0 3c ea 0b 8a bd
       -0.027414646 0.075812 0.025479835 -0.06740554
000120 5c ff 58 bd fe 89 9b 3c fb aa 0b bd 00 ee 82 3d
       -0.052977905 0.018986698 -0.034098607 0.06393051
000130 f2 78 43 3a a3 ba 2b 3d 44 69 ad bc a7 9a a0 3b
       0.0007456682 0.041926038 -0.021168359 0.0049012485
000140 fe b1 32 bd a8 d3 b2 3c e8 b4 2f bc a9 8a d8 3d
       -0.043626778 0.021829441 -0.010724284 0.10573322
000150 91 17 d5 3d 58 f3 ad bc 02 b5 05 3e a3 d4 5b 3b
       0.104048856 -0.0212342 0.1305733 0.003354349
000160 df 20 d6 bb da d3 81 3d 9e 95 85 bd 88 56 a4 bb
       -0.0065346803 0.063392356 -0.06522678 -0.005015198
000170 31 8f 74 3c f9 20 68 3d c5 0d f5 bc e2 1e df 3c
       0.014926718 0.05667207 -0.029913792 0.027236406
000180 fb 7f 89 3b c4 f7 8a 39 0a cf 96 3d 86 fb c5 bc
       0.0041961647 0.0002650601 0.07363708 -0.024167787
000190 bb ec 49 3d ac f9 b9 bd aa 11 cd bc 8d 4e 9a 3c
       0.04929803 -0.09080824 -0.025032837 0.018836284
0001a0 fe e2 2e bd 04 8f a0 bd 65 32 db 3d 13 c1 92 3d
       -0.042696945 -0.07839778 0.10702971 0.07165732
0001b0 12 12 f1 3c 55 a4 14 bd 4b 59 f5 bc 61 d1 b4 3b
       0.029427562 -0.03628953 -0.029949805 0.005518124
0001c0 2d ee 59 bd a3 3f 73 bd 7b c1 2e 3d d1 c1 a4 bd
       -0.053205658 -0.05938686 0.042664986 -0.0804478
0001d0 27 cf 52 bd 0d df 93 bc 63 55 75 3d 1c b5 5b 3d
       -0.051467087 -0.018050695 0.059895884 0.053639516
0001e0 4c cb 69 3c 9f 21 80 3d 74 13 c7 3d 08 32 07 3d
       0.014269661 0.06256413 0.09720507 0.033006698
0001f0 dd 22 58 bd ea 1a 0a bd c4 b3 23 bc c3 9e 79 bd
       -0.052767623 -0.033717074 -0.00999159 -0.060942423
000200 11 79 8b 3d a3 8e 29 3d f6 4b ed bd f0 07 76 bc
       0.06810201 0.041395795 -0.11586754 -0.015016541
000210 bc f8 be bd ec 8e 4c bd e0 c6 7c 3d bb 4e 0a 3d
       -0.09324786 -0.04994099 0.0617131 0.03376649
000220 e6 1c c6 bc a7 4d a2 3c e6 3c af bb e0 87 9e bd
       -0.024183702 0.019812418 -0.005347836 -0.0774076
000230 32 16 a4 bd f6 5e 95 bc 2d 75 b1 3c 4c a2 76 bd
       -0.08012046 -0.018233757 0.02166232 -0.060213372
000240 b8 79 c8 bd 0d 17 8c bd 22 00 19 bd 1e 57 4f bd
       -0.09788841 -0.06840334 -0.037353642 -0.05062019
000250 12 a5 78 3d e7 8b 32 bd f9 0a 04 3e d8 26 1c 3c
       0.0607043 -0.043590453 0.1289481 0.009530745
000260 11 e0 c3 bc 29 de 4c 3d 84 48 66 bd 62 6c 45 bd
       -0.023910554 0.050016556 -0.0562215 -0.048199065
000270 22 5a 51 3d 91 e8 a5 bd 7b ad 23 bc 14 aa d2 bb
       0.051111348 -0.08100999 -0.009990091 -0.0064289663
000280 44 1d 89 3b a6 65 12 bb 7c c2 2a bc 16 4f 59 3c
       0.004184397 -0.002233842 -0.010422345 0.013263484
000290 04 a0 2d bd ff b4 c2 bd a3 19 0d bd 25 1a fa 3c
       -0.04238893 -0.095071785 -0.034448277 0.030530045
0002a0 6a ed 36 3d 67 14 8d bd 4d 1c 93 bd b1 75 1d bd
       0.04466001 -0.06888657 -0.07183132 -0.038442317
0002b0 4d 55 31 3d cc 60 dd 3c a4 71 47 3d da 35 ac 3c
       0.04329424 0.027023695 0.04869236 0.021021772
0002c0 a4 86 66 3d 59 16 42 3c 5a b4 a9 bd e9 c9 0b bd
       0.056280747 0.011846148 -0.082863525 -0.034128103
0002d0 c7 67 a0 bd ed 40 0f be 91 73 b3 ba 86 fd 0d 3c
       -0.07832294 -0.13989611 -0.0013691058 0.008666402
0002e0 9f bf 96 3d 10 cc 80 bd b4 5f 4c 3d a2 5a 4c 3d
       0.073607676 -0.06288922 0.049895957 0.04989112
0002f0 19 f8 ec 3b df 97 54 3c e0 ec b6 b9 6a 29 42 3d
       0.007231724 0.012975662 -0.0003489023 0.047402777
000300 47 eb e9 bc f4 99 02 3d d4 39 6a bd 7f 96 6a bd
       -0.028554572 0.031885102 -0.057184055 -0.05727243
000310 ca 94 75 3d 3f f7 a7 3d 14 1c 83 bd 1d 28 a8 bd
       0.05995635 0.08201455 -0.0640184 -0.08210776
000320 7e e7 32 3c 9d 42 2d 3d 2c 88 a2 3d d3 ab 27 bc
       0.01091945 0.042299856 0.07936129 -0.010233837
000330 40 94 b0 3c 1e 6f 2f bd 20 15 87 3d 0a 67 8f bd
       0.021555066 -0.04283058 0.06595826 -0.07002075
000340 12 be 8b 3d 83 cf ba 3b e2 b8 62 ba 68 84 0a bd
       0.068233624 0.005701007 -0.00086487655 -0.03381768
000350 49 d7 ba 3c 4a c0 d9 3c 88 11 f5 bc 7a fa 33 bd
       0.022807734 0.026580948 -0.029915586 -0.043940045
000360 f0 12 55 bd d0 24 01 bd e5 d5 dd bc a5 72 b1 3d
       -0.052020013 -0.031529248 -0.027079532 0.08664445
000370 36 a0 24 3d 9d 63 2c bc c1 ea a1 bc ee 7f ea ba
       0.04019185 -0.0105217965 -0.01976526 -0.0017890909
000380 cb ae 67 bd 76 81 f2 bc b7 b3 0a bd a4 c6 23 bd
       -0.05656318 -0.029602747 -0.033862796 -0.03998436
000390 e7 1c 13 3c 47 2d 06 3d 9a e8 01 3e 08 e4 98 3d
       0.008979059 0.032758024 0.12686387 0.074653685
0003a0 ef a6 8f bb af 72 3f bc da 9f fc bc 1c 60 90 3d
       -0.0043839137 -0.011685058 -0.030837942 0.070495814
0003b0 4c 05 98 bd 06 e2 40 3d bf c1 69 3d ce b9 83 bd
       -0.07422885 0.047090553 0.057069536 -0.06431924
0003c0 fd 00 bb 3c df 34 35 bd 7d a3 98 bc 1f 37 05 bd
       0.02282762 -0.044239875 -0.018632645 -0.03252327
0003d0 60 dd 8f 3d 7d 6c 50 3d 83 17 0c 3d 66 71 38 bd
       0.07024646 0.050884712 0.03420211 -0.04503002
0003e0 51 b8 b2 3d e8 3c 87 bc 30 37 16 3c f7 c8 35 3c
       0.08726562 -0.016508535 0.009168431 0.011095277
0003f0 33 f8 18 bd 79 a0 a0 bd af e5 10 bd 42 51 a0 bd
       -0.037346076 -0.07843108 -0.035375293 -0.07827999

bias f4 [16]
000000 f5 a2 68 bc cb 31 e8 bc 3b 0d 86 3d 48 ff 08 3e
       -0.014199008 -0.028344056 0.06545492 0.13378632
000010 e3 e9 4c 3d 05 78 1b 3d b8 f8 c9 bb 56 2d 1c 3d
       0.05002774 0.037956256 -0.006163683 0.038129173
000020 70 7d 3f 3d 36 b5 71 3c 31 2d f0 3c 7a f4 a4 bc
       0.046750486 0.014752677 0.029318424 -0.020136107
000030 15 a3 8f 3c 17 8b 5a 3c ca 05 1a bd 40 e8 38 3d
       0.017533818 0.013338826 -0.037603177 0.045143366

weight f4 [16, 16, 3, 3]
000000 79 b4 15 3e d3 ca 25 bc 5b 8d 2e bd f1 51 f5 bd
       0.14619626 -0.010119158 -0.042615276 -0.1197852
000010 58 88 9f 3d bb 62 f2 bb 03 5e 6a 3d 17 99 c1 3a
       0.077896774 -0.0073970235 0.057218563 0.0014770356
000020 f4 dd 60 bd 54 21 1e 3d a2 ed 9b bd aa 30 32 bd
       -0.05489917 0.038606003 -0.07613684 -0.04350344
000030 91 c7 75 bd 4f 1a a2 3d 21 1e aa bd a5 72 db bc
       -0.060004774 0.07915174 -0.08306528 -0.026788065
000040 ab a0 cb bd cf 14 7e bd df b4 e4 bd af 96 54 3c
       -0.09942754 -0.062031563 -0.11167311 0.012975379
000050 76 6c b4 3c ad e1 8f bc ac b6 22 3d d3 00 cd bc
       0.022024374 -0.017563665 0.03972499 -0.025024807
000060 ac 22 17 bd 3f 85 ad bc e7 a3 bd 3d a0 1e 7c 3c
       -0.0368983 -0.0211817 0.092597775 0.015388161
000070 0a 67 d7 bc 9f a8 b9 bc 75 88 f1 3d 79 0a a1 3c
       -0.02629425 -0.022663413 0.11793605 0.019658314
000080 52 73 f8 3c c6 c7 77 3d 09 75 1a 3e 49 e9 e6 bc
       0.030328427 0.060493253 0.15083708 -0.02818741
000090 3f a3 83 bd ac d1 bc 3c 39 b3 49 bd ee d5 22 3c
       -0.06427621 0.023049198 -0.049243186 0.0099387
0000a0 a3 fe fe bc 15 e4 39 3d 39 78 25 3c 5a 64 7c bc
       -0.03112728 0.04538353 0.010099464 -0.015404785
0000b0 1d 69 64 bd 60 a9 52 bc ba c4 a2 bd 37 12 9a bc
       -0.055764306 -0.012857765 -0.07947679 -0.018807514
0000c0 3d 80 da bd da 8b c2 3c 73 b0 76 bd 6f 14 0c bd
       -0.10668991 0.023748327 -0.06022687 -0.034199174
0000d0 33 79 0f bd a4 87 69 bd fe b4 07 bd 2d 64 38 bd
       -0.035027694 -0.057014123 -0.033131592 -0.04501741
0000e0 35 66 c0 bd 39 2d 82 3d ca 56 a0 3d fc 6f 37 3d
       -0.093944944 0.06356282 0.07829054 0.04478453
0000f0 8b 06 bf bb 54 c5 9a 3d 48 52 ed 3b 70 13 72 bd
       -0.0058296374 0.075571686 0.0072424747 -0.05910057
000100 ea a2 01 3d d3 9e ef bc 29 fc 37 3d 70 b9 bb 3c
       0.031649508 -0.029250538 0.044918213 0.022915572
000110 1b 82 b7 3c da 03 9c 3d 39 32 ab bd 25 48 9f 3c
       0.022400906 0.07617922 -0.083591886 0.01944358
000120 08 a9 94 3d f1 c1 a8 3c af 5e 7b bd 2d 0c 0f 3d
       0.07258803 0.020600291 -0.061369594 0.03492372
000130 92 d9 4b 3d 30 57 9a bd 42 f5 95 3c 41 45 6e bd
       0.049768038 -0.07536161 0.018305425 -0.058171514
000140 54 ab 9c bd e7 83 46 bc 3a 17 83 3d 77 f5 22 bd
       -0.07649866 -0.012116409 0.064009145 -0.039784875
000150 4a 0d a5 bd 20 a6 dd bd c6 6e 5f 3d f7 a2 8c bb
       -0.08059175 -0.108227015 0.054549 -0.004291888
000160 a2 f2 03 3d f3 70 cc 3d ab 6f c9 3c 21 8b 3b bd
       0.032213815 0.09982481 0.02458938 -0.04578698
000170 2b df cd 3c b5 f6 7d bd 46 da af bd 82 fa 97 3d
       0.025130829 -0.062002856 -0.08586554 0.074208274
000180 ac d0 52 bd 1c b8 1f 3d ff 23 4d bd fc de 95 3c
       -0.051468536 0.03899394 -0.050083157 0.018294804
000190 b5 85 f8 3c 21 80 9f bc a7 c5 8a 3d 73 3a a9 3d
       0.030337194 -0.019470276 0.067759804 0.082631014
0001a0 45 d0 ab bd 12 a4 94 3d f4 fd 78 bd d3 8c e2 bc
       -0.08389334 0.072578564 -0.060789064 -0.02765504
0001b0 8a b2 32 3a 2d a3 39 3d b1 5f bf bd ae fc ff bc
       0.00068167655 0.045321632 -0.093444236 -0.031248417
0001c0 75 c2 fd bb b3 6f 8c bd 6a 0c 92 bd f5 a0 93 bc
       -0.0077441284 -0.068572424 -0.07131274 -0.018021086
0001d0 15 93 13 bd 06 49 99 bd 40 8d 4a 3d 09 70 8c bc
       -0.03602894 -0.07484631 0.049451113 -0.017143266
0001e0 a0 c7 01 bb a7 52 7c bd 05 88 74 3d 2d 86 00 3d
       -0.0019802824 -0.06160226 0.05970003 0.03137796
0001f0 f6 ec 6d bd f2 a1 a3 3b 5d 53 6e 3c 19 12 f7 3c
       -0.05808731 0.0049936706 0.014546243 0.030159997
000200 b9 23 04 bd d5 7e d4 bc fa 1c 32 bc be 33 23 bc
       -0.03226063 -0.025939384 -0.010871166 -0.009961067
000210 d3 37 2a bd 8f 7c 14 bc 22 38 c5 3c b8 66 2f bd
       -0.041557144 -0.0090629 0.024074618 -0.04282257
000220 1f 44 2f bd 95 7d 2d bd 0a c3 ce 3c 44 7c ab 3d
       -0.042789575 -0.042356092 0.025239486 0.08373311
000230 81 b3 97 bd 62 72 8d 3d 19 ce 6e 3d ca 55 64 bd
       -0.074072845 0.069065824 0.05830202 -0.055745877
000240 2b bc ac 3d 7a ea 81 3d 87 c6 b6 3d be 07 3f bd
       0.08434328 0.06343551 0.08924585 -0.046638243
000250 59 86 54 bd 29 1d 8e bc 76 af 2e 3d 9d 37 62 3d
       -0.051885936 -0.017347889 0.0426478 0.05522882
000260 a7 b1 57 3d 52 57 a1 3c e5 1a 0f bd f7 bd e3 3c
       0.052659657 0.019694958 -0.034937758 0.027800543
000270 78 f7 b6 3d 5d ad d4 bb 8c 66 77 bd 48 4f fc 38
       0.0893392 -0.006490393 -0.06040053 0.00012031064
000280 71 24 6b bd 22 88 9f 3d 53 da 7d 3c 9e 8d f3 bd
       -0.0574078 0.07789637 0.015493947 -0.11892246
000290 ac 4a 7c bb a3 7d 34 3d 2c d0 15 be f2 dd 61 bd
       -0.0038496656 0.04406513 -0.14630193 -0.055143304
0002a0 71 28 8e 3c c4 67 10 be 0d d0 1a 3d 3d 87 d5 bb
       0.017353268 -0.14102083 0.03779607 -0.006516366
0002b0 31 0b 01 be d9 cf 8d bd 8d 0f b3 3c 22 da af bc
       -0.12601925 -0.069244094 0.021858001 -0.021466319
0002c0 ee 2d a6 3d e6 bf a6 bd a2 bd 43 bd bf dc 10 bd
       0.08114229 -0.081420705 -0.04778827 -0.03536677
0002d0 41 5c c2 bc 0f 98 20 3d 8b a3 6b bd 3c cf a6 bd
       -0.02372563 0.039207514 -0.057529014 -0.081449956
0002e0 8d 46 ea 3c 34 1b 0c 3d f6 67 81 bd 46 ae 75 3d
       0.028598094 0.03420563 -0.06318657 0.059980653
0002f0 a3 61 9c 3d 8f 71 1e 3c 88 8e a5 3c 0c 2d 87 3d
       0.0763581 0.009670629 0.020209566 0.06600389
000300 02 82 10 3d 00 e1 b8 bd 72 5d 67 3c 19 99 8b bd
       0.035280235 -0.0902729 0.0141214 -0.068163104
000310 4e a6 82 3c ca 16 54 bd c6 39 ef 3b 0f ae c0 3d
       0.01594844 -0.051779546 0.0073005883 0.09408199
000320 86 a6 9e 3d a4 b2 e6 3c d4 d1 31 3d 3a 69 24 3c
       0.077466056 0.028161354 0.043413 0.010034854
000330 b7 15 29 3c 75 ad 1a bd 10 bb b7 3c f8 01 d0 3d
       0.010320119 -0.037763078 0.022428066 0.101566255
000340 ab ab 8d 3c 03 20 25 3c 96 ae cc 3b 7b 0e 07 3d
       0.017293772 0.010078433 0.006246398 0.032972794
000350 ac 96 26 bd 48 6e 41 3d 87 eb 48 3d 42 0b b6 bc
       -0.040671036 0.047224313 0.04905274 -0.022222165
000360 22 31 00 3d ef 9f 6e bd 2e 71 8e 3d 2d 14 84 3c
       0.031296857 -0.058257993 0.06955181 0.016122902
000370 e4 91 83 3d 36 13 97 3d 83 ad 21 bc fb 41 d3 ba
       0.06424311 0.07376711 -0.009868029 -0.0016117686
000380 4f f6 69 3d e8 48 42 3d 2c 02 6c 3d b9 fd bd 3d
       0.057119664 0.04743281 0.05761926 0.092769094
000390 fd 3f 08 bd 06 89 9c 3b 96 50 12 bd 08 52 84 3b
       -0.03326415 0.0047770767 -0.035721384 0.004038099
0003a0 b0 62 db bc 10 5b eb bb 5d 9f 41 bc 63 32 04 bd
       -0.026780456 -0.0071824864 -0.01181778 -0.032274615
0003b0 d6 6a 80 bd 7e c7 3b 3d f2 c3 8b bd 67 39 ad 3b
       -0.06270377 0.045844547 -0.06824483 0.005286384
0003c0 fb 75 3c bd 1b 56 a7 3b 34 2f 1a 3c ae 9a 97 bd
       -0.046010952 0.0051067 0.009410668 -0.0740255
0003d0 77 23 12 3d d0 c8 4a bd dd 50 b6 ba 44 09 77 3d
       0.035678353 -0.049507916 -0.0013909597 0.06031157
0003e0 bd f7 95 3c f2 fa a7 3d 08 89 8a 3d 06 7f 3a 3d
       0.018306607 0.08202161 0.06764418 0.045531295
0003f0 3a 4f 96 3d 1f 71 a0 bd 9a ce 8a 3d 41 86 95 bd
       0.0733933 -0.07834076 0.06777687 -0.073009975

bias f4 [16]
000000 cc 0f 64 3d 84 6b 52 3d d0 83 d8 3c 47 e2 9a 3d
       0.055679128 0.051372066 0.02643004 0.0756269
000010 d2 c1 b0 bc 70 85 1e bc 54 cf 6e 3c 49 57 bb bd
       -0.021576796 -0.009675369 0.014575798 -0.09147508
000020 00 35 b5 3c b3 e0 85 bd a3 56 c5 3d 54 cb 11 3d
       0.022119999 -0.065369986 0.09635665 0.0355943
000030 e2 d0 e1 3c ab 68 97 3d a6 0d 86 3d 98 da 55 3d
       0.027565423 0.07393011 0.06545572 0.05221042

weight f4 [16, 16, 3, 3]
000000 a2 f5 80 bc a4 52 13 bd 01 06 5d bd 6c d3 bc 3d
       -0.015742127 -0.035967484 -0.053960804 0.09220013
000010 dd e5 31 bd 37 c0 80 bd 8c 1d 8d 3d bd 6d 92 3c
       -0.043432105 -0.06286662 0.06890401 0.017874593
000020 9c 2e 19 bd 1c 53 21 3d 3f fe 42 bd 12 05 54 3c
       -0.037397966 0.0393859 -0.04760575 0.012940662
000030 92 40 8c 3d 11 37 6d 3d 3a 00 05 3d 88 44 a7 bd
       0.06848253 0.057913844 0.03247092 -0.08167368
000040 25 87 92 3b 61 d2 6f 3a 5a 5f 95 3c e2 e1 30 bd
       0.004471677 0.00091484754 0.018233944 -0.04318417
000050 84 17 2f 3d 52 d5 b2 3c c6 f8 88 bc 4c d4 3c bd
       0.042747036 0.021830235 -0.016720187 -0.0461009
000060 44 c9 e1 3a bb 82 0d 3d da 3c 25 bd 80 7e 1a 3d
       0.001722612 0.034548502 -0.040341236 0.037718296
000070 36 99 33 3d 27 e7 18 bd aa 6b c8 3c 98 0c 8e bb
       0.043847285 -0.03732982 0.0244654 -0.0043349974
000080 10 3d 8c 3d bf bd bd bc 08 33 77 3d b5 22 fa 3c
       0.06847584 -0.023161767 0.0603514 0.030534128
000090 e7 c6 0b bc 12 06 96 bd 1d 46 3c b9 ad 95 27 bd
       -0.008531309 -0.073253766 -0.00017955196 -0.040914226
0000a0 a0 b0 a3 bd 52 72 9b bd 08 9b 55 3d 64 93 bb bb
       -0.07992673 -0.07590164 0.052149802 -0.0057243574
0000b0 fc 22 47 bd b7 ca 7c bc 18 71 1b bd d5 1c 22 3d
       -0.048617348 -0.01542919 -0.03794965 0.039578278
0000c0 91 46 28 bd f1 41 26 bc 6d 39 81 bc 11 90 bd bb
       -0.041082922 -0.010147558 -0.015774453 -0.0057849963
0000d0 d0 c4 f1 bb 5d 7b 82 3d 44 8c 29 bd 1d c9 83 3d
       -0.007378198 0.06371186 -0.041393533 0.06434844
0000e0 b1 5d 14 3d 38 f7 b5 3c 8d 1e 2e bd 21 5c 97 3d
       0.036222164 0.02221261 -0.042509604 0.07390619
0000f0 dd 18 56 3d 92 73 2d 3d d3 64 ec bc 9c 53 80 bd
       0.052269805 0.042346545 -0.02885667 -0.06265947
000100 8f d8 26 3d 6a b9 42 bc 97 35 87 3d ac c7 54 3b
       0.04073387 -0.0118850265 0.06602018 0.0032467647
000110 6f 0d 28 bd 6d 27 d2 3c 33 36 87 3d 27 e6 7b bc
       -0.041028436 0.025653565 0.066021346 -0.015374697
000120 89 6c 63 3d 5c ae 88 3d 7e fc 92 3d 14 5a 1b bd
       0.05552343 0.066738814 0.07177065 -0.037927702
000130 5c f7 32 3d 14 65 02 3b b0 c7 eb 3c 18 4c 9a bd
       0.04369293 0.0019896673 0.028781742 -0.07534045
000140 96 7c d3 bc e8 60 95 3d 06 1a c0 3c fc e8 38 3d
       -0.025816243 0.07293874 0.023449909 0.045144066
000150 81 06 94 3c 5a 21 7b bd 86 a7 19 bd d5 12 53 3d
       0.018069508 -0.061311103 -0.03751328 0.05153163
000160 6b f1 60 3d 8b e0 75 bd f1 a4 51 bd 57 bd 6b bc
       0.054917734 -0.060028594 -0.05118269 -0.014388404
000170 c7 be d7 3a 0c 29 79 bc a3 74 9e bd 43 89 8d bd
       0.0016460054 -0.01520754 -0.077370904 -0.06910946
000180 26 1c a3 bd 8a d9 d6 bc 1b fe 95 bd fa 25 02 3d
       -0.07964353 -0.026226778 -0.073238574 0.0317745
000190 3c 09 91 3d 1a ba 2b bd d4 cb 30 3d 6c 19 03 bc
       0.070818394 -0.041925527 0.043163136 -0.0080016665
0001a0 62 00 cb 3c 1e 54 25 3d 42 3e 7e bd b1 a1 3c bd
       0.024780456 0.040363424 -0.062071092 -0.04605264
0001b0 34 da ab 3d 6c 52 8d 3d 41 c9 97 3d 1f 37 89 3d
       0.08391228 0.06900486 0.07411433 0.06699967
0001c0 80 90 8e 3d 6b d9 eb bc 26 ba aa bb 59 6d 23 3d
       0.06961155 -0.028790196 -0.005210179 0.039899204
0001d0 7f d0 6a 3d ab e0 40 3d 8b 6d 77 3d 75 6b 84 3d
       0.057327744 0.04708926 0.060407203 0.06465808
0001e0 c9 d9 86 bd bb ee 06 bd 31 51 8e 3d 5c a1 ab 3c
       -0.06584508 -0.032942515 0.0694908 0.020950966
0001f0 b1 05 08 3d 10 10 9e bd 34 7b 71 3d d2 37 4f 3d
       0.033208553 -0.077179074 0.058955386 0.050590344
000200 de 9b 90 3d 0f dc b2 3c cb 58 1f 3d 87 e9 f4 bc
       0.07060979 0.021833448 0.03890304 -0.02989651
000210 ca 64 a6 bd 3e 39 87 bd 5a 07 d9 ba 86 2e 97 bd
       -0.08124693 -0.06602715 -0.0016557977 -0.073819205
000220 4b 28 63 bc 06 71 38 3d 1c c6 c8 bb c9 6e 81 3d
       -0.013864587 0.045029663 -0.006127132 0.06319959
000230 8b d7 99 bc 84 5c 42 3d df f3 1e bd 7c 5a 0a bd
       -0.018779537 0.04745151 -0.038806792 -0.0337777
000240 75 eb b9 bb 38 0c b9 bc fb c3 3b bc 4f e5 80 bd
       -0.0056738206 -0.022588834 -0.0114603 -0.06293737
000250 05 d5 81 3d d8 70 97 bd c2 72 be bc be 14 57 bd
       0.063394584 -0.0739457 -0.02324808 -0.052510016
000260 03 c1 74 bd b3 fc 22 bd d8 f6 21 3d c2 7c 09 3c
       -0.059754383 -0.039791774 0.03954205 0.008391561
000270 8d e8 97 3d 60 de 52 3b 57 11 3b 3d a2 34 a2 bd
       0.074174024 0.0032176003 0.045670833 -0.07920195
000280 8b d6 63 bd 6c 5a 36 bc d0 0a 7f bc 09 23 5c bd
       -0.055624526 -0.011129957 -0.015566543 -0.05374435
000290 63 e6 fa 3c 1c 42 b0 3c 18 d3 e1 bb 12 28 ca bc
       0.030627435 0.021515898 -0.0068916194 -0.02467731
0002a0 ac 58 e8 3b 9b 30 8c bd a4 5a e2 3c b6 4a 54 bc
       0.0070906486 -0.06845208 0.027631111 -0.012957266
0002b0 c4 23 22 bd ee 1a 73 3d 4a 2d 86 bd 63 00 ab bd
       -0.03958489 0.059351854 -0.06551607 -0.08349683
0002c0 c3 73 df bc 44 49 95 3c af fa 0c bd cd d3 93 3d
       -0.02727688 0.018223412 -0.034418758 0.07218132
0002d0 b9 45 d7 bc 5d 46 56 bc 83 5b a2 bd e4 bb 27 bd
       -0.026278364 -0.013078299 -0.07927611 -0.04095067
0002e0 75 19 11 bd 40 c6 d9 3c c4 a1 38 bd 61 43 c1 3c
       -0.03542467 0.02658379 -0.045076147 0.0235917
0002f0 03 9c 99 3d 37 1e ad bc c2 a7 77 bd 2b 10 02 3d
       0.0750046 -0.021132572 -0.06046272 0.0317537
000300 7f 13 f2 bc c6 97 6f 3d f7 33 0e 3d d5 f3 51 3d
       -0.029550312 0.05849435 0.034717526 0.051257927
000310 fe 20 86 3b 3b b6 5b 3d a0 91 18 bd e6 67 1d bd
       0.0040932884 0.053640585 -0.037248254 -0.038429163
000320 d0 a1 d9 3c 7b 90 1f bd d8 a2 12 3d 06 6d 86 bd
       0.026566416 -0.038956147 0.03579983 -0.06563763
000330 bf 45 e6 b8 16 01 94 bc 57 a9 76 3c de 18 6a 3d
       -0.00010980246 -0.018066924 0.015055022 0.05715262
000340 ad a1 e0 3c bf 6f 67 3d 58 51 c2 3a 7a 82 78 3d
       0.027420843 0.056503054 0.0014825268 0.060671307
000350 c8 21 10 bd 33 bb 10 3c 02 2d c6 3c b8 52 8d bd
       -0.035188466 0.008833694 0.024191383 -0.06900543
000360 6a 45 93 bc b9 bb 88 bc fa 02 96 3c 69 8f 9a bc
       -0.017977435 -0.016691076 0.018311966 -0.018867211
000370 45 72 89 3d 5a e5 3b bd cd 6b 54 3c 84 60 19 3d
       0.06711248 -0.045873024 0.012965155 0.03744556
000380 b8 c2 a5 bd 92 e3 8b bd ed 51 c3 3d ef fa 93 3c
       -0.0809378 -0.06830515 0.095371105 0.01806399
000390 f4 88 86 bd 84 dc 55 bd 7b 9c 88 3d 02 1f 48 3d
       -0.065690905 -0.052212253 0.06670471 0.048857696
0003a0 29 e6 df bb 11 af 22 bd 96 9b 59 3d 19 b0 03 3d
       -0.006832857 -0.039717738 0.053126894 0.03215036
0003b0 5d 0a 9f bd c3 2b 09 bd df a8 68 bc 2d 12 56 bd
       -0.077656485 -0.033489 -0.014200418 -0.052263428
0003c0 c5 b8 a5 bc 25 df c1 bb 78 21 b1 bd 81 d5 e9 bc
       -0.020229707 -0.0059164935 -0.08648962 -0.02854419
0003d0 16 4e 93 3d 5a 31 88 bc ff d9 9e bd f8 a5 21 3d
       0.07192628 -0.016625095 -0.07756423 0.03946492
0003e0 73 f9 5a 3c 0d 29 9f 3d 4b ec 80 3d 5b 4a 85 3b
       0.013365137 0.07771502 0.06295069 0.0040677018
0003f0 d3 ce 9e bd 83 e2 4d bd a2 d9 8d 3d c6 6c 43 bb
       -0.07754292 -0.050264847 0.06926276 -0.0029819473

bias f4 [16]
000000 93 a4 a1 bd e2 2a 8a bd ec a6 e6 bc 64 8c a5 bd
       -0.07892718 -0.067464605 -0.028155766 -0.08083418
000010 4a 25 9c bd 9a 8e 23 3d f9 b4 cf 3b d6 96 0f 3d
       -0.076243 0.039930917 0.0063387123 0.035055958
000020 aa 02 33 3d bd 2c 97 bc e5 a0 19 3d 91 af 8b bc
       0.043703713 -0.01845395 0.037506957 -0.01705149
000030 98 93 9f 3c 54 69 6b 3c db c7 a2 3c 83 b3 76 3d
       0.019479558 0.014368374 0.01987069 0.06022979

weight f4 [16, 16, 3, 3]
000000 cf 4b 6a bd e7 a5 d2 bc 1c 33 69 3c 24 4c b3 3c
       -0.057201203 -0.025713874 0.014233377 0.021886893
000010 ff e4 fa 3c 20 82 85 bd 87 18 a6 bd 54 05 3d 3d
       0.030626772 -0.0651896 -0.08110147 0.04614766
000020 c4 42 2f 3c b0 66 f1 bc 6d 56 c9 3c 16 16 36 bd
       0.0106970705 -0.02946791 0.024577344 -0.044454657
000030 b0 86 16 3d 56 9b e9 3c 49 de 77 bd b9 d4 95 bd
       0.03674954 0.028516453 -0.060514722 -0.07315964
000040 d0 9e ba bb 88 26 04 bd cc 17 66 3d 49 df fd 3b
       -0.0056952015 -0.03226331 0.05617504 0.007747565
000050 1b dc fb bd c1 e3 09 be ac a5 5d 3d b8 bc 45 bd
       -0.12297841 -0.13465787 0.054113075 -0.04827568
000060 58 4c 4d bd e3 b0 28 3a 69 4e cc 3b fb c3 ac 3b
       -0.050121635 0.00064350496 0.006234933 0.005272386
000070 03 bd d6 ba 7d bc d8 39 d4 f9 a7 bd 78 12 97 3b
       -0.0016383234 0.00041339165 -0.08201948 0.004610356
000080 52 52 3c 3d 3a 0f 0d bd 20 c9 f0 bc 8c c1 8e 3d
       0.045976944 -0.03443835 -0.029392779 0.0697051
000090 a8 18 a5 3c 23 93 aa bd e2 52 b4 3c d6 b5 47 3d
       0.020153359 -0.08328845 0.022012178 0.048757397
0000a0 cd 11 13 bd 84 64 35 bd 0b 2e 14 bd ca a9 82 3c
       -0.035905648 -0.044285312 -0.036176722 0.015950102
0000b0 cb 47 af bd 4d 5f f2 bb 85 0f 20 bd 49 f5 4f bc
       -0.08558615 -0.0073966146 -0.0390773 -0.012692758
0000c0 a6 ee 89 bc d2 53 39 3b 64 e0 54 bd 4a 88 1e 3d
       -0.01683743 0.002827872 -0.051971808 0.038704194
0000d0 92 03 83 3d 10 7b 4e bb d7 02 97 3b 43 90 59 3c
       0.06397165 -0.0031506456 0.004608493 0.013279024
0000e0 42 9e 0c bd 45 a9 83 bd 3c d8 a7 bd 73 72 db bd
       -0.034330614 -0.0642877 -0.0819554 -0.10715189
0000f0 77 65 34 3d 8f 84 14 be b1 c7 db bc 70 76 b2 3d
       0.044042077 -0.14503692 -0.026828619 0.087139964
000100 22 ed a2 bd 1a 7e 9a bd 6b b2 05 3d 96 43 c2 bd
       -0.07955386 -0.07543583 0.032640856 -0.09485547
000110 82 c1 5b 3d ae 70 a8 3d 49 41 5d bd 53 80 dd bc
       0.05365134 0.08224617 -0.05401734 -0.027038729
000120 2e 64 22 3e 4a 3a e8 bd 90 6f cf 3d e7 cf 95 bb
       0.15858528 -0.11339243 0.10128701 -0.004571903
000130 a6 e4 1d 3e 69 bf 41 be 02 63 94 3d 7b 44 fa 3c
       0.15419254 -0.18920673 0.07245447 0.030550232
000140 78 1c 92 bc a2 4f d4 bd 4f 48 78 bc 84 ff 25 3d
       -0.01783584 -0.10366751 -0.015153958 0.04052688
000150 04 37 25 3e 45 61 7f bd 6f 4a 7e 3a 4f 72 7f bd
       0.16134268 -0.062348623 0.00097004225 -0.062364873
000160 c5 de 82 bd 6d 06 e2 3d b8 a2 c0 3d 4c 64 82 bd
       -0.06390146 0.11036382 0.09406036 -0.06366786
000170 04 86 d6 bc 9c 5f 98 bd 26 da 40 bd ae 94 72 bd
       -0.02618695 -0.07440111 -0.047083043 -0.059223823
000180 7e 12 13 3c bd 27 c4 bd 29 5e 36 3d 7a 95 3d bd
       0.008976577 -0.09577892 0.044523392 -0.04628513
000190 84 2f 4f bb e6 2d bc 3d 18 35 95 bd b5 50 5c 3d
       -0.0031614015 0.09188442 -0.072855175 0.053787906
0001a0 5a 94 a4 bd 69 7a 07 bd 78 77 b4 bd ab e1 1a bc
       -0.08036108 -0.033075724 -0.08811849 -0.0094532175
0001b0 57 2c ca 3d 2e 03 db bd ab 93 df 3c 35 75 12 3d
       0.098717384 -0.10693966 0.027292093 0.03575631
0001c0 49 93 b1 bd 48 c2 40 bd 5f 5d 5d 3b a5 8f ba 3d
       -0.086706705 -0.04706028 0.0033777577 0.09109429
0001d0 13 c7 00 be 73 ac 46 3d 3f 59 31 3d 84 20 d0 3c
       -0.12575941 0.048504304 0.043298002 0.02540613
0001e0 7b 5c 79 3c b8 bc a3 bd 0e db 83 3b 8e 83 cd bc
       0.015219803 -0.079949796 0.004023916 -0.025087144
0001f0 19 81 fa 3c cc ce ec bc 32 9c 5b 3d 6d 38 58 3d
       0.030579137 -0.028907202 0.053615756 0.052788187
000200 b8 d1 6a bd 70 6a 26 bc 77 34 77 3d 01 bf 98 3c
       -0.05732891 -0.010157213 0.06035277 0.018645765
000210 2d 72 e7 bc f6 16 e4 bc 66 87 db bd df 80 45 3d
       -0.028252685 -0.02784298 -0.107191846 0.048218604
000220 31 a0 a7 bd 67 a6 00 bd ce d8 f9 bb c4 53 5a bd
       -0.08184851 -0.031408694 -0.007624722 -0.05330254
000230 b1 d5 49 bd ca 1c 56 bd 19 c3 3d 3d dd a0 44 bc
       -0.049276058 -0.05227355 0.046328638 -0.012001243
000240 83 99 85 bd af 77 1d 3d f3 2e 83 bc 85 64 26 3c
       -0.06523421 0.038444217 -0.016013598 0.010155802
000250 ab 1b 98 3c 34 63 bb bb 48 06 9a bd 44 ae 88 bc
       0.01856788 -0.005718613 -0.07520729 -0.016684659
000260 6e fa 90 3d a5 dc c7 bc 0c f2 90 3d b8 dc fa 3b
       0.07079016 -0.024397204 0.07077417 0.0076557063
000270 6a bc 8a bc de 3e 69 3b 1f c4 1e bd ee 08 f4 3c
       -0.016935546 0.003559045 -0.038761254 0.029789414
000280 96 a8 3f bd 14 c7 17 bd 91 bd 86 bd 31 9f 15 3d
       -0.046791635 -0.03705509 -0.06579126 0.03652877
000290 3e 49 44 3d ca a5 44 3d 03 c0 0e bd 70 31 d8 bc
       0.04792141 0.04800967 -0.034851085 -0.026390761
0002a0 8c c4 df 3b b2 9a 81 bd 98 c9 b0 3b 2d 0f f1 3c
       0.00682885 -0.06328334 0.0053951256 0.029426182
0002b0 46 25 8d 3d e1 7e 7c bd 26 c0 ab 3c 00 b4 93 3d
       0.06891875 -0.06164444 0.020965647 0.07212067
0002c0 e3 57 a7 3c c0 2a 28 bd f0 ff 31 3d d7 60 51 3d
       0.02042765 -0.041056395 0.04345697 0.051117744
0002d0 39 37 a5 bd a4 ce 97 ba 60 89 7d bd b0 3d 34 bd
       -0.080671735 -0.001158197 -0.06189859 -0.044004142
0002e0 50 fa fb bc d5 8b 7c 3c 73 fd fe 3c 68 37 74 bc
       -0.030759007 0.015414198 0.031126713 -0.014905788
0002f0 d6 11 1a bc 3b 2a ab bb e6 f7 af bd 02 a2 d0 bb
       -0.0094036665 -0.00522354 -0.08592205 -0.006366969
000300 7c 85 65 3b 4e 43 88 3d 53 38 76 bd f8 1e 3e 3d
       0.003502219 0.06653462 -0.06011231 0.046416253
000310 86 29 d6 3c c5 62 3e bd ab 7a 5d bd 59 5b 04 bd
       0.026142847 -0.046480913 -0.054072063 -0.03231368
000320 77 70 bf 3d 49 fe 24 bb d0 88 9e bd 15 66 7c 3d
       0.09347623 -0.002517598 -0.07740939 0.06162079
000330 b8 2a 04 bd 4b a4 9a bd 38 83 c3 3d fc ec 77 bd
       -0.032267302 -0.07550868 0.09546512 -0.06052874
000340 55 3e 84 bd 18 a2 dc 3c 27 4b 99 3d 90 e1 80 bd
       -0.064572014 0.026932761 0.07485037 -0.06293023
000350 c7 08 ac 3d 26 e7 7e 3d d3 3d 6a 3b 35 d3 92 bd
       0.08400112 0.06223216 0.0035742417 -0.07169191
000360 4f 10 83 3d e9 3c bc 3d df 93 59 3d 34 c5 84 bd
       0.06399595 0.09191305 0.053119536 -0.06482926
000370 73 c5 a8 3d fc 16 2b 3d cc df ee 3b 9f b4 29 bd
       0.082407854 0.041769966 0.0072898623 -0.04143202
000380 e4 8d 20 bd 4c e0 a8 3d 86 ac e4 3c 0a 53 aa bb
       -0.039197817 0.08245906 0.027914297 -0.0051978873
000390 74 19 81 bd af 7f f8 bd 28 67 d3 3c b4 75 db bc
       -0.06303683 -0.12133729 0.025806025 -0.026789524
0003a0 31 b2 95 3c 28 46 d9 bc bb a5 84 bd 57 4a 84 3c
       0.018273445 -0.02652271 -0.06476923 0.01614873
0003b0 db 03 0c 3c 5d aa 11 3d a0 41 52 bc 33 2f b5 3a
       0.008545841 0.03556286 -0.012833029 0.001382327
0003c0 09 11 6a bd cc 92 7b bd 45 44 19 3d 96 aa b0 bd
       -0.057145152 -0.061419293 0.037418623 -0.08626287
0003d0 88 2f 8f 3b 6c 78 38 bd 59 f7 39 bd fc 9e cd bd
       0.00436968 -0.04503672 -0.045401905 -0.100400895
0003e0 33 42 e2 3d ea 2d b5 bc 26 ee 0f bd 84 95 b4 3d
       0.11047783 -0.02211662 -0.035139225 0.0881758
0003f0 ba 8a 6b 3d 4d 54 84 bc 92 ce a5 bd 1e a0 69 3d
       0.057505347 -0.016153479 -0.08096041 0.057037465

bias f4 [16]
000000 33 d7 c6 3c 46 50 9c 3d 48 7d 34 bd 30 d3 5a bd
       0.024272537 0.076324984 -0.04406479 -0.05342406
000010 d1 71 55 3c ae 40 d1 3c 8c 78 53 bd 92 05 cb ba
       0.013027624 0.025543537 -0.051628634 -0.0015489331
000020 6e 93 a6 3d 90 38 80 3c 94 5c cf bc 89 9d c9 bd
       0.08133589 0.015651971 -0.0253127 -0.098445006
000030 b9 1c 9c 3d d0 f8 b3 3c 74 90 97 bc c4 7c 37 3c
       0.07622666 0.021969229 -0.018501498 0.01119918

weight f4 [64, 16, 3, 3]
000000 67 5b 9b bd d0 11 98 3d 2b 14 ae 3d 86 3e 2f bd
       -0.07585793 0.074252725 0.084999405 -0.042784236
000010 7e b1 ba bd 07 00 74 bc 22 01 d7 bc 1d 8a c6 bd
       -0.09115885 -0.014892585 -0.026245657 -0.09694312
000020 26 9f a6 3c 91 56 3a bd c7 49 84 bd 5d 78 ef 3c
       0.02033956 -0.045492712 -0.064593844 0.029232198
000030 4d 8f 1f 3b e3 23 0a bd 2b 71 81 bd d1 47 2f bd
       0.0024346889 -0.03372563 -0.06320413 -0.0427931
000040 2a f1 aa 3c bd e9 70 bc cb 5c 6a 3d fb 6a 1a 3c
       0.02086695 -0.014704165 0.0572174 0.00942492
000050 6a ae 31 ba 7e 3b 8e 3d e3 4b 98 3b de 58 dd 3d
       -0.0006778004 0.06944941 0.0046477183 0.10807966
000060 fe 93 8b 3d 5c f4 d8 bd fb 3c 8a bc 64 ee 40 3c
       0.06815337 -0.10593483 -0.01687478 0.011775587
000070 93 16 95 3c 01 f6 45 bd 82 43 97 bc 1d bc 3b 3a
       0.01819924 -0.04833031 -0.018464807 0.0007161515
000080 3c 11 af bc 9e 13 1b 3d 3a 1a 13 bd 34 71 77 bd
       -0.021370523 0.037860505 -0.035913683 -0.060410693
000090 f8 a2 af 3c 72 41 e1 3c 79 cc 8d 3d b5 1b 0b bc
       0.021440014 0.027497027 0.06923766 -0.008490493
0000a0 30 95 92 3c bf 17 2f bd f0 1e 8b bd 95 75 05 3d
       0.017893404 -0.042747255 -0.0679301 0.032582838
0000b0 ae ff 96 bd 0e 72 45 bd 3c 2e 75 3d 92 86 86 bd
       -0.07372986 -0.048204474 0.059858546 -0.06568636
0000c0 b8 c1 1b 3c a2 7e b5 3d f6 89 e5 38 83 43 ce bc
       0.009506635 0.08862044 0.00010945268 -0.025178676
0000d0 3d 28 51 bd f1 e6 97 bc f8 44 39 bd 3c e5 61 bd
       -0.051063765 -0.018542739 -0.04523179 -0.055150256
0000e0 e1 45 32 bb 0d ca aa bd 36 79 90 3d 8a 93 c8 bc
       -0.0027202296 -0.083393194 0.07054369 -0.024484415
0000f0 bf 80 2b bd 46 69 c8 3a a4 60 6f bc 76 88 8a 3d
       -0.04187083 0.0015290163 -0.014610443 0.06764309
000100 69 18 80 3c 20 60 47 bd 8a 92 1a bc 47 16 84 bd
       0.01563664 -0.048675656 -0.009434352 -0.064495616
000110 58 71 6c 3b 44 06 3a 3d 66 e8 1c bd be 1f 1a bd
       0.00360783 0.04541613 -0.03830757 -0.037627928
000120 5e 8c 17 3d 2a 35 68 bd 0e dd 51 bd 89 d0 90 bd
       0.0369991 -0.056691326 -0.051236205 -0.07071025
000130 78 7c 94 bd f0 4c 1c 3c cf 4f cd bd 4b 5a 04 bd
       -0.07250303 0.009539828 -0.10024988 -0.032312673
000140 b5 3f aa bd d4 af 17 bd 63 12 e0 bd de e8 47 3d
       -0.083129324 -0.037032917 -0.10941007 0.048806064
000150 f2 7c 95 3c 79 25 9b bd ba d6 22 bd f5 30 24 39
       0.018248055 -0.07575507 -0.03975556 0.00015658497
000160 f7 97 cb bc c4 8d c7 bc d8 a1 d2 3c 09 22 30 3d
       -0.024852736 -0.024359591 0.025711939 0.04300121
000170 a5 c4 96 bb f1 03 1c bd fc 36 8a bd 4f fb 26 bd
       -0.0046010786 -0.038089696 -0.06748769 -0.04076701
000180 d0 79 ce bc b4 19 96 3d ff 78 40 bd e1 75 56 bb
       -0.02520457 0.07329121 -0.04699039 -0.003272407
000190 ce b2 1c 3c ec af 86 bc 9e 4e b6 bc 18 20 26 3c
       0.009564115 -0.016441308 -0.022254284 0.010139488
0001a0 21 b5 1a 3d d2 5e 84 bd 83 b4 de 3c fc 7b 2c 3d
       0.037770394 -0.06463398 0.027185684 0.04211043
0001b0 a9 69 0d bd 7b 38 bd 3d f1 81 9e bd 6c 16 1d 3c
       -0.034524594 0.092392884 -0.07739628 0.009587865
0001c0 f7 d4 94 bc 45 f7 2b 3d ff 87 a6 bc 85 ad 38 3d
       -0.018167956 0.04198386 -0.02032852 0.045087356
0001d0 52 f0 60 3d 3e c5 f4 3b 5a d9 a5 3d 35 d2 98 bd
       0.054916687 0.007469802 0.08098097 -0.07461969
0001e0 fc bb ab bc d8 a5 99 bc 26 61 3e 3d 7c 77 cd 3c
       -0.020963661 -0.018755838 0.046479367 0.025081389
0001f0 54 33 cc 3c 81 0a e3 3b 00 80 8e 3c 91 dc 78 bd
       0.024926819 0.0069287424 0.01739502 -0.060757224
000200 13 06 55 3d a2 b3 85 3c 66 29 d5 bc bf c1 f5 3c
       0.052007746 0.016321007 -0.026020717 0.029999612
000210 ef 7a fd 3c 2a 2e 33 ba ec 7b ac bd 31 d8 4f bd
       0.030942408 -0.0006835187 -0.08422074 -0.050743286
000220 ab 69 c4 3b a6 e1 90 bd 86 64 93 3d 9a 09 44 bd
       0.005994042 -0.07074289 0.07196908 -0.04786072
000230 b3 04 04 3d 81 a5 ed bc 27 b8 0e 3d d5 4c 9e 3c
       0.032231044 -0.029009582 0.03484359 0.019323746
000240 62 8f 37 bc 5b f2 09 bd 8f f6 0d 3c 79 79 9f bd
       -0.011203619 -0.033678394 0.008664741 -0.07786841
000250 dc e4 d4 bc 62 ee a8 3d 15 07 61 3d ba ce 3b 3c
       -0.025988035 0.08248593 0.054938395 0.011462862
000260 6c 71 b1 bc c2 ee 93 bc bc b3 95 3d 5c d9 7b 3b
       -0.02166053 -0.018058185 0.07309672 0.0038429117
000270 5a a6 b8 3c 43 63 18 bd ec e9 95 bc e6 38 2a 3d
       0.02254026 -0.03720404 -0.01830002 0.04155817
000280 63 96 b3 bd 58 cf 3a 3d a5 65 8e 3d 1c 1a 7e bc
       -0.08768918 0.045607895 0.06952981 -0.015509155
000290 5c e5 a1 bd 59 38 14 bd 2d fb d5 3d 24 b4 b7 3d
       -0.07905075 -0.03618655 0.104482986 0.08969906
0002a0 11 80 11 3c ea 1f 70 3c fe 1b e0 bd f7 1f a5 bd
       0.008880631 0.014656046 -0.10942839 -0.080627374
0002b0 f5 91 24 bd c8 7d f5 3c 7c 86 39 bc d6 52 cf bd
       -0.040178258 0.029967204 -0.0113235675 -0.101232216
0002c0 4f 6f 2c bd 34 79 d1 3d 2c 9d 28 bd bb 39 86 3d
       -0.04209834 0.10228196 -0.041165516 0.0655398
0002d0 8d f0 f1 3b 49 c7 44 3c fc 7a 0d bc 64 29 c8 3d
       0.007383412 0.012010404 -0.008635279 0.0977352
0002e0 89 47 02 be 9a 8c 6c 3c 7a bd a9 bd 34 f8 a4 bc
       -0.12722601 0.014437819 -0.08288093 -0.020137884
0002f0 5f 9d b5 bd 85 7d b3 bd 1f 61 19 3d 72 2c 9c 3b
       -0.08867907 -0.08764175 0.037446138 0.0047660405
000300 0d 5a 72 bd 28 1c 6a 3d 2c 75 91 3c 9c 25 f1 bc
       -0.05916791 0.05715576 0.017756067 -0.029436879
000310 0e 06 f6 3c 52 ef 13 bd 61 07 8d bc db bd 84 bb
       0.030032184 -0.036116906 -0.017215433 -0.004050953
000320 79 50 61 3d e0 11 46 bd 6a 65 db 39 c0 07 ba 3c
       0.055008385 -0.04835689 0.00041846494 0.022708774
000330 5a 39 44 3d fa ae 5a 3c 9f e8 c9 3c 6b bc 0b bd
       0.047906257 0.013347382 0.024647055 -0.034115236
000340 d8 96 bc 3c 6e eb da bc 27 3f 92 bd 1e 38 49 bd
       0.023021147 -0.02672359 -0.071409516 -0.049125783
000350 d8 39 57 3d b3 6f c1 bb 0a 2e 9d bd f8 d3 47 3d
       0.0525454 -0.005903208 -0.07674797 0.048786134
000360 22 1b 5e 3d 5d 0e 68 3d fd 1f aa bd 90 dd 5a 3c
       0.054225095 0.056654323 -0.083068825 0.013358489
000370 03 d9 b3 3c e6 3e 09 bd 8c 19 e0 3b 04 08 e0 bc
       0.021954065 -0.03350725 0.006838983 -0.027347572
000380 95 bf 57 bc 42 3b 81 3d 94 87 d6 3c 8c fb 8b bd
       -0.013168235 0.06310131 0.026187696 -0.06835088
000390 63 30 38 bd 3e 99 84 bc 25 bd 8b bd 8d 18 2d bd
       -0.04496802 -0.016186353 -0.06823186 -0.04225974
0003a0 e4 f6 3d 3c e1 2d 91 bd 07 d0 ac bb 6e 49 a9 3d
       0.011594508 -0.07088829 -0.005273822 0.08265959
0003b0 42 f0 9c bd ea e5 55 3d 1a 8c 27 3c 7e a8 4f 3c
       -0.07663013 0.052221216 0.010226274 0.012674449
0003c0 5f 0c 66 3c 44 02 89 3c c3 12 9e 3c 1b 19 e0 3c
       0.014041035 0.016724713 0.019296056 0.027355721
0003d0 5d 93 83 bb b5 e3 7a bd 03 48 18 bc 70 2d ab 39
       -0.00401537 -0.061252315 -0.009294513 0.00032649515
0003e0 8f ba 6c 3d ae 8d fd 3c 8c 73 f3 3c 20 b0 8d 3d
       0.057795104 0.030951347 0.029718183 0.06918359
0003f0 5c b5 77 3d de 7c ac 3d d5 99 6c 3c 28 3d c2 3b
       0.060475692 0.08422254 0.014440973 0.0059277005

bias f4 [64]
000000 8d 9a 94 3d 75 db 91 bc ac 2f 83 bc e6 63 69 3d
       0.07256041 -0.01780484 -0.016013943 0.056980036
000010 ff b2 48 bc 29 e4 b9 bc fa 3d 7c ba 92 f8 30 3d
       -0.012249707 -0.022691803 -0.00096222723 0.043205805
000020 dd a7 e9 bc 92 16 8e bc fe c5 a0 3d d6 8c 1d bd
       -0.028522426 -0.017344747 0.07850264 -0.03846439
000030 c2 3b 38 3d 7b 92 19 3c dd 02 06 3d 04 a8 69 bd
       0.044978864 0.009373303 0.032717574 -0.057044998
000040 49 ee 35 3d 94 ed 21 3b f7 ac c8 3d fb 36 9a 3c
       0.0444167 0.0024708258 0.097986154 0.018825045
000050 08 95 b2 3c e8 51 48 3a 2c 4b bf bc aa 53 18 3d
       0.02179958 0.00076415995 -0.023351274 0.037189163
000060 ee 9d f9 bc 3e 30 a6 3d 09 44 9c 3b 8c 68 41 bd
       -0.030470815 0.0811467 0.0047688526 -0.047218844
000070 be 8c 54 bd d1 56 93 bd b2 cf 2c bc bb 11 ec 3c
       -0.051892035 -0.07194293 -0.010547565 0.028817048
000080 f7 c8 0b 39 7a ee 09 3d 5f ba 20 3d 8e 02 52 bd
       0.00013330938 0.033674695 0.039240237 -0.051271968
000090 48 c0 7e 3c c5 f6 21 3c d5 4f 1b 3d 11 f9 73 3d
       0.015548773 0.009885495 0.03791793 0.0595637
0000a0 82 3c 63 bc 42 2a b1 3d 6b 4b e2 bc bf 9d ac 3d
       -0.013869407 0.08650638 -0.027623853 0.08428525
0000b0 31 d2 91 bd c3 69 b8 bd 0e f5 b3 bd 0b 9d a1 bc
       -0.07120169 -0.090045474 -0.08786975 -0.019728204
0000c0 e3 df e6 3c 82 fa 8d 3c 56 e3 69 bc 9d c1 31 3d
       0.02818293 0.017331365 -0.0142753925 0.043397535
0000d0 2f ba ba bd 67 7f 8a 3d 96 03 6b bd 0a 59 49 bd
       -0.09117543 0.06762581 -0.057376467 -0.04915718
0000e0 a2 e6 49 bd 27 87 84 bd 9b 0b 0d bd db e6 b2 bd
       -0.049292214 -0.06471091 -0.034434896 -0.087354384
0000f0 30 88 34 3d 75 5d 77 3c 67 41 bb 3c 14 c3 aa bd
       0.04407519 0.0150979655 0.022858335 -0.083379894
